Networks/USDC-EUR/bidSeed3.pt (torch, 33123 bytes, 9 tensors)

rnn.weight_ih_l0 f4 [50, 1]
1.1756957 0.0666847 -0.1077676 0.22634393 -0.49706697 -0.7414155 0.6376011 0.05981976
1.0879335 0.80396867 0.6784516 -0.03578239 0.3825981 -9.468141 0.55083215 -0.14677036
-0.23254593 -0.9954219 0.7150882 -1.3795353 0.57198244 -0.99678093 -0.39826784 1.2436047
1.2383134 0.9972331 -0.9109381 -0.80577135 1.1951394 0.68256783 -1.0837927 0.8626707
0.6982166 1.1055434 -0.2105919 -0.6502733 0.4111879 15.829518 0.9732743 -1.2488114
-0.27196676 -0.4819719 0.7304484 -0.21975736 1.9182004 -0.30951956 1.1974832 -0.7397807
0.85300624 0.40748233
00000000: 327d 963f fd91 883d 42b5 dcbd b4c6 673e
00000010: 907f febe 68cd 3dbf d339 233f 9105 753d
00000020: 6841 8b3f e4d0 4d3f 01af 2d3f 8e90 12bd
00000030: e6e3 c33e 817d 17c1 5603 0d3f f84a 16be
00000040: 8520 6ebe f8d3 7ebf 0510 373f 9d94 b0bf
00000050: 716d 123f 092d 7fbf c3e9 cbbe 702e 9f3f
00000060: 0e81 9e3f ab4a 7f3f 3d33 69bf 0847 4ebf
00000070: 54fa 983f c4bc 2e3f b8b9 8abf fdd7 5c3f
00000080: 53be 323f 7282 8d3f 67a5 57be 5078 26bf
00000090: 3887 d23e b545 7d41 8128 793f 0dd9 9fbf
000000a0: 3a3f 8bbe 05c5 f6be abfe 3a3f 1308 61be
000000b0: 9787 f53f 5979 9ebe 2147 993f 4562 3dbf
000000c0: 9e5e 5a3f 86a1 d03e

rnn.weight_hh_l0 f4 [50, 50]
-0.055324454 -0.29803422 -0.17966221 -0.6235045 -0.36331347 0.43221343 -0.31761175 -0.03262359
0.50699973 -0.19921727 -0.38867983 -0.30076194 0.099918075 -0.7217228 -0.31490195 -0.26682156
0.044174604 -0.1438947 -0.27605647 -0.45286876 -0.44443452 0.4588612 -0.5342192 -0.046327855
-0.07014977 -0.4192498 0.3127276 0.44351763 0.18341136 -0.16101311 0.32835153 0.10410366
0.025739284 -0.37909406 0.38293728 0.3928829 -0.2130549 -0.74364346 -0.15533648 -0.38831845
0.14236167 0.3845883 -0.25324568 0.26181206 -0.04187102 -0.5341674 -0.12035637 -0.21094282
0.050779212 0.23096167 -0.23451473 0.3412555 0.23947932 0.28151026 0.1431284 -0.31492424
0.43287978 -0.0057080234 -0.22181383 0.026603393 0.35977256 0.34868947 -0.020537471 0.09356045
0.4304677 0.38074175 0.039906997 0.022240398 -0.12285469 0.1702478 0.416975 -0.24149744
0.20474337 0.13951164 -0.053829174 0.33367357 -0.16359301 -0.21791226 -0.24890244 -0.046950985
-0.17086487 -0.1390887 0.16574132 0.35066494 -0.27021158 0.1602521 0.18654616 -0.16795859
-0.044507734 0.31168026 -0.16074923 -0.4294217 0.17727493 -0.118703395 0.037322026 0.35611072
-0.22840713 0.04046962 0.091528475 -0.3477577 -0.48339522 0.1934907 0.2133177 0.35632727
-0.06387715 -0.17215286 0.46246576 -0.3153259 -0.3771921 -0.04558812 0.29617 0.43862605
-0.3297115 0.111942306 0.46220002 0.36229515 0.24666534 0.24935196 -0.106870875 0.34962335
0.27452904 -0.17161828 0.22192945 0.040813375 -0.41712353 0.212151 -0.31767443 -0.30719107
-0.44829494 -0.0008612663 -0.0791882 -0.23402338 0.12104304 0.34348938 -0.42092377 0.027262842
0.02710424 -0.030242153 0.07029603 0.16587542 -0.06829554 -0.29419848 0.17618163 0.095904164
-0.24538206 0.42554238 -0.4073291 0.35488105 -0.10147929 -0.15059112 -0.39747214 0.58836037
0.39248767 0.7062075 0.15200663 -0.51426363 0.58596826 -0.4609167 -0.35495067 -0.020823967
0.7235414 0.35409647 -0.30026823 0.17807484 0.42045233 0.53083634 0.23501827 0.3344481
0.16306946 0.1626021 0.3722526 -0.45027554 0.40943545 -0.11987763 -0.41660058 0.5703404
-0.6045574 -0.6241413 -0.41474587 0.15775459 -0.20319878 -0.06048581 -0.011423418 0.68290967
-0.56264704 -0.3422786 0.35575175 -0.26353502 0.051924355 0.30887997 -0.1846473 -0.5200693
0.57228494 -0.27908733 0.056728162 0.5358606 0.1598539 -0.060152482 0.1133101 -0.35639298
-0.26400948 -0.0064833746 -0.09063258 0.09036322 0.49233502 -0.48941243 0.4163361 -0.24847327
-0.34061992 -0.22708888 0.22142789 0.42743656 -0.19365582 -0.07977808 0.25877628 0.29870698
0.23179382 0.1433932 0.3512882 0.16571626 0.22669922 -0.3195704 0.28600594 -0.27706382
-0.33294523 0.34145388 -0.21031038 -0.3343798 -0.39325932 0.5259208 -0.5010968 0.41621596
-0.33370465 0.11892301 -0.36409026 -0.6773091 0.15155661 -0.010151117 0.39758003 0.40453917
-0.47413468 -0.41625863 0.25476006 -0.4913203 0.378238 0.11551554 0.34820592 -0.3252982
0.3674448 -0.15106313 0.34865618 -0.16572581 -0.08173257 -0.2348221 -0.20505288 0.19810234
00000000: e59b 62bd f197 98be 5ff9 37be fe9d 1fbf
00000010: 3904 babe 144b dd3e 029e a2be 50a0 05bd
00000020: bcca 013f 9dff 4bbe 0b01 c7be 78fd 99be
00000030: d9a1 cc3d d3c2 38bf d43a a1be d69c 88be
00000040: 6ef0 343d 2259 13be 4657 8dbe 6ade e7be
00000050: ec8c e3be dbef ea3e 97c2 08bf 47c2 3dbd
00000060: afaa 8fbd e9a7 d6be d51d a03e be14 e33e
00000070: 30d0 3b3e 9fe0 24be b11d a83e 4d34 d53d
00000080: 31db d23c 9e18 c2be 5b10 c43e f327 c93e
00000090: 102b 5abe 6b5f 3ebf 8710 1fbe add1 c6be
000000a0: 42c7 113e c2e8 c43e 6ba9 81be 3b0c 863e
000000b0: f280 2bbd 32bf 08bf 677d f6bd 6501 58be
000000c0: ddfd 4f3d 3781 6c3e a124 70be 0ab9 ae3e
000000d0: 113a 753e 1d22 903e 4090 123e c03d a1be
000000e0: 6ba2 dd3e 5f0a bbbb 2a23 63be 5cef d93c
000000f0: 1c34 b83e 6d87 b23e 333e a8bc 9f9c bf3d
00000100: 4366 dc3e 95f0 c23e 8575 233d 7f31 b63c
00000110: 3d9b fbbd 7055 2e3e bf7d d53e 1b4b 77be
00000120: 3fa8 513e 24dc 0e3e fb7b 5cbd 43d7 aa3e
00000130: ed84 27be 6424 5fbe 48e0 7ebe ad4f 40bd
00000140: 33f7 2ebe 456d 0ebe 18b8 293e 5b8a b33e
00000150: 2c59 8abe 2019 243e f505 3f3e 56fd 2bbe
00000160: be4d 36bd 8e94 9f3e 729b 24be 29dd dbbe
00000170: 8f87 353e c41a f3bd fbde 183d 2554 b63e
00000180: 8fe3 69be 79c3 253d 4873 bb3d 4c0d b2be
00000190: 947f f7be 6d22 463e f56f 5a3e 8770 b63e
000001a0: 06d2 82bd d748 30be 50c8 ec3e 6572 a1be
000001b0: 531f c1be 9cba 3abd 98a3 973e 9893 e03e
000001c0: f2cf a8be 0242 e53d 7ba5 ec3e c07e b93e
000001d0: d795 7c3e 1f56 7f3e 1edf dabd d501 b33e
000001e0: 128f 8c3e b4bc 2fbe 7941 633e ed2b 273d
000001f0: 3791 d5be 1d3e 593e 39a6 a2be 2648 9dbe
00000200: ea86 e5be 9ac6 61ba 6c2d a2bd d3a3 6fbe
00000210: 6ae5 f73d d7dd af3e 5283 d7be 5356 df3c
00000220: b609 de3c 64be f7bc 5df7 8f3d 3fdb 293e
00000230: 88de 8bbd 2fa1 96be f568 343e 6769 c43d
00000240: 6f45 7bbe b1e0 d93e 718d d0be f8b2 b53e
00000250: 60d4 cfbd 8f34 1abe 7881 cbbe c99e 163f
00000260: 25f4 c83e 04ca 343f a0a7 1b3e c8a6 03bf
00000270: 0402 163f 46fd ebbe 18bc b5be 0697 aabc
00000280: 023a 393f 224c b53e c2bc 99be 4059 363e
00000290: 8745 d73e e4e4 073f a1a8 703e c83c ab3e
000002a0: aefb 263e 2a81 263e e597 be3e 848a e6be
000002b0: 86a1 d13e 6782 f5bd ac4c d5be d401 123f
000002c0: 46c4 1abf b9c7 1fbf 9259 d4be 6b8a 213e
000002d0: 5713 50be f8bf 77bd 4a29 3bbc 2bd3 2e3f
000002e0: a309 10bf 243f afbe 1825 b63e 10ee 86be
000002f0: a2ae 543d 8425 9e3e 2f14 3dbe 4323 05bf
00000300: 4481 123f 89e4 8ebe ca5b 683d 292e 093f
00000310: beb0 233e 7362 76bd 200f e83d 2479 b6be
00000320: 402c 87be 7d72 d4bb 939d b9bd 5a10 b93d
00000330: 5613 fc3e 4494 fabe 012a d53e c76f 7ebe
00000340: bc65 aebe fd89 68be febd 623e f7d8 da3e
00000350: b64d 46be b162 a3bd 537e 843e 1ff0 983e
00000360: 5c5b 6d3e abd5 123e 0cdc b33e 86b1 293e
00000370: d723 683e bb9e a3be 5f6f 923e 4fdb 8dbe
00000380: cc77 aabe 0bd3 ae3e 9b5b 57be d433 abbe
00000390: 4959 c9be bfa2 063f e147 00bf 421a d53e
000003a0: 56db aabe e88d f33d 0a6a babe 2164 2dbf
000003b0: a831 1b3e df50 26bc 9c8f cb3e c21f cf3e
000003c0: c8c1 f2be da1f d5be e96f 823e 568e fbbe
000003d0: 69a8 c13e 6993 ec3d 0c48 b23e 7c8d a6be
000003e0: ba21 bc3e 4bb0 1abe 1083 b23e 07b4 29be
000003f0: 6863 a7bd 3475 70be 62f9 51be 57db 4a3e

rnn.bias_ih_l0 f4 [50]
0.27417842 -0.1701248 0.012160831 -0.513532 0.036539577 0.18623841 -0.24187368 0.21744919
0.220039 0.13206796 -0.26698646 -0.33547837 0.31209552 0.013586633 -0.31709772 -0.48872742
-0.1765372 -0.1722968 -0.18701862 0.020155555 -0.14836182 0.2968422 0.09530217 0.04083564
0.035750873 -0.29479048 0.28210092 0.51005465 0.187008 -0.12294003 0.27485284 -0.1442084
-0.063509256 -0.3221745 0.32779863 -0.037077185 -0.20270313 0.10407405 -0.10494914 0.0734189
-0.022207975 0.27868244 -0.08224171 -0.0008213277 -0.2011537 -0.120568395 0.113033 0.3115224
-0.13714606 0.42074704
00000000: 1d61 8c3e 3235 2ebe 393e 473c d576 03bf
00000010: 86aa 153d 48b5 3e3e bcad 77be 00ab 5e3e
00000020: e751 613e d33c 073e 73b2 88be d2c3 abbe
00000030: fcca 9f3e 789a 5e3c a25a a2be 7b3a fabe
00000040: 2bc6 34be 936e 30be cf81 3fbe 431d a53c
00000050: 29ec 17be b3fb 973e c92d c33d 4643 273d
00000060: 826f 123d c7ee 96be 886f 903e f192 023f
00000070: 067f 3f3e fcc7 fbbd 83b9 8c3e 5eab 13be
00000080: 2411 82bd 0ef4 a4be 39d5 a73e 3fde 17bd
00000090: 6991 4fbe c724 d53d 93ef d6bd a65c 963d
000000a0: 80ed b5bc 77af 8e3e 576e a8bd 5e4e 57ba
000000b0: 3cfb 4dbe 90ec f6bd d87d e73d dd7f 9f3e
000000c0: 0470 0cbe 286c d73e

rnn.bias_hh_l0 f4 [50]
0.22649051 -0.32963338 -0.050159853 -0.55730283 -0.07169413 0.36328903 -0.2670089 0.21045269
0.22036779 0.35271308 -0.17916852 -0.239903 0.117301516 -0.07603164 -0.3335133 -0.44268513
-0.08979719 -0.037680022 -0.14908408 -0.066768065 -0.2629103 0.27959177 -0.11001573 0.028388932
0.07926246 -0.37796155 0.20356579 0.29300395 0.17707773 -0.08429134 0.1966232 -0.21868129
-0.04194809 -0.44611868 0.22240198 0.18949175 -0.09780479 0.14150122 -0.018811723 -0.050569408
0.0012275624 0.25674 -0.1578618 -0.113388 -0.2557683 -0.025667273 -0.04427168 0.12512062
-0.2138686 0.3635992
00000000: 21ed 673e b5c5 a8be 6b74 4dbd 66ab 0ebf
00000010: 5fd4 92bd 0501 ba3e 64b5 88be e980 573e
00000020: 18a8 613e cf96 b43e f477 37be 22a9 75be
00000030: c73b f03d 7ab6 9bbd 41c2 aabe a0a7 e2be
00000040: 97e7 b7bd 5e56 1abd 7fa9 18be b2bd 88bd
00000050: 2e9c 86be a726 8f3e ed4f e1bd e88f e83c
00000060: 5b54 a23d 2d84 c1be 8d73 503e 9d04 963e
00000070: dd53 353e f0a0 acbd 9857 493e fded 5fbe
00000080: c3d1 2bbd ab69 e4be 58bd 633e 200a 423e
00000090: e14d c8bd b2e5 103e 0b1b 9abc de21 4fbd
000000a0: 29e6 a03a 6d73 833e 86a6 21be f837 e8bd
000000b0: 10f4 82be 2c44 d2bc 3956 35bd 9f1f 003e
000000c0: 5f00 5bbe ad29 ba3e

rnn.weight_ih_l1 f4 [50, 50]
-0.18821202 -0.1408576 0.04797632 -0.09509154 0.36161715 -0.12541401 -0.027870357 -0.030478928
-0.21728048 0.086143434 0.25526085 0.42557368 -0.16373199 -0.14587817 0.18350662 0.012970904
0.2501239 0.3473546 0.30751926 0.10662654 -0.04322722 -0.07570291 0.37642428 -0.37158138
-0.43924233 0.112804845 -0.1905452 -0.12921573 -0.2200791 0.21897045 -0.37430853 -0.082771055
-0.31398228 0.061776556 -0.13528663 -0.41945493 0.37792453 -0.04209095 0.18957044 0.2840911
-0.41919455 -0.2112293 0.12445411 -0.32248896 -0.06981046 -0.076071866 0.25899276 -0.015974846
0.29506317 0.17753103 -0.25226387 0.056790955 0.14080171 0.030636776 0.5780903 0.07401388
-0.16704912 -0.113576986 -0.3611344 0.084789746 -0.0011198086 0.28494707 -0.45815787 0.09161353
-0.17938712 0.34198222 0.32649583 0.05173661 0.0053273523 0.039141674 0.06216768 0.020870924
0.49274814 -0.35234836 -0.31386554 -0.08296826 -0.11837038 -0.0924943 -0.09807299 0.056469925
-0.22291565 0.25406006 -0.18365355 0.06909517 -0.20416743 -0.11870413 0.19094294 -0.20945068
0.050281283 0.3216721 -0.46222204 -0.15648384 -0.17755026 -0.41807917 0.11841736 0.20004529
0.15254237 -0.016163466 0.007177805 0.17332365 -0.33016628 0.057604924 -0.14698969 -0.3757066
0.3399428 -0.14208628 0.31764436 -0.095943995 -0.214183 -0.0010107754 0.104305446 0.21410736
-0.023515468 -0.09948958 0.1724394 0.12808494 0.29144123 0.24312803 0.09477068 0.4358008
0.2847657 0.1120907 0.28331843 -0.5963423 -0.2620838 -0.03661949 -0.081748776 -0.073965125
-0.23891285 0.47628185 -0.5777273 0.42523566 -0.5994162 0.050265603 -0.3192963 -0.20749006
0.46445915 6.5815206 0.40516415 0.44709602 -0.3019624 -0.27219325 0.3017088 -0.50804687
0.55532396 0.0096862605 0.3406739 -0.2669325 0.22497858 0.22755365 -0.3934472 0.3705584
0.11604117 0.5338234 0.016199453 -0.5198696 0.66945755 0.011275043 -0.36421204 0.09082929
0.3256406 -0.37305 -0.05511046 0.36571363 0.22033285 0.51059496 -0.031672105 0.48071563
0.13041559 0.43172 0.5446719 -0.91178715 0.32520077 0.18623088 -0.20203209 0.729452
-0.2671642 -0.5166797 -0.40047333 -0.0584798 0.12289671 -0.22169642 0.42863354 0.45232654
-0.56344056 0.0018703446 -0.09028322 -0.05677228 -0.018412212 0.19639406 0.2175494 -0.54839694
0.23240438 0.3013067 -0.11823857 -0.041301724 -0.20788799 0.33832172 -0.29499376 -0.29688552
-0.35444114 -0.038872495 0.10615858 -0.08423356 0.4692163 -0.07047292 -0.16894697 -0.4639621
-0.10863849 -0.2628998 -0.18402173 0.34448218 -0.37036967 -0.012102781 0.025212925 0.24579105
0.2943849 0.14119431 -0.17731516 0.33378044 0.16705994 0.06698449 0.16918483 -0.37367943
-0.3889664 0.09552036 -0.19289862 -0.083886415 -0.13033496 0.18263853 -0.38502878 0.24797748
-0.45601943 -0.059092656 -0.0028748782 0.013706436 0.09511615 4.02496 0.12990828 0.18382888
-0.24513057 0.00916409 -0.05135358 -0.36853448 0.43217164 0.36835238 0.19602078 0.14583342
-0.06377732 -0.27719784 -0.30671695 0.109080836 0.0606305 0.39246622 0.25348914 -0.2464479
00000000: a7ba 40be fa3c 10be d182 443d 5abf c2bd
00000010: e225 b93e 886c 00be 6050 e4bc f2ae f9bc
00000020: c67e 5ebe f86b b03d 8db1 823e cbe4 d93e
00000030: 5ca9 27be 1661 15be 29e9 3b3e ea83 543c
00000040: 3d10 803e 76d8 b13e 2a73 9d3e 045f da3d
00000050: 070f 31bd 210a 9bbd afba c03e ea3f bebe
00000060: 5fe4 e0be 3a06 e73d 481e 43be 2151 04be
00000070: 6a5c 61be ca39 603e 5ea5 bfbe df83 a9bd
00000080: 49c2 a0be 6a09 7d3d 9488 0abe ccc2 d6be
00000090: 537f c13e 8f67 2cbd c11e 423e 6374 913e
000000a0: aba0 d6be 7e4c 58be cce1 fe3d 461d a5be
000000b0: c9f8 8ebd 91cb 9bbd b39a 843e aedd 82bc
000000c0: 8512 973e b2ca 353e bb28 81be a29d 683d
000000d0: 532e 103e faf9 fa3c bafd 133f 9794 973d
000000e0: ed0e 2bbe 0d9b e8bd 9ce6 b8be 3fa6 ad3d
000000f0: 8bc6 92ba 95e4 913e ab93 eabe e09f bb3d
00000100: 42b1 37be 4b18 af3e 762a a73e c4e9 533d
00000110: 1291 ae3b 0553 203d 8aa3 7e3d 80f9 aa3c
00000120: 7c49 fc3e 0167 b4be fcb2 a0be 43eb a9bd
00000130: 2b6c f2bd a76d bdbd 7eda c8bd 024d 673d
00000140: 0044 64be 2914 823e ad0f 3cbe c581 8d3d
00000150: 4411 51be 271b f3bd 8c86 433e 3d7a 56be
00000160: bff3 4d3d 35b2 a43e 5ea8 ecbe 4d3d 20be
00000170: bccf 35be 790e d6be cd84 f23d acd8 4c3e
00000180: 1134 1c3e 3f69 84bc cb33 eb3b c17b 313e
00000190: 8e0b a9be 24f3 6b3d 7784 16be 9e5c c0be
000001a0: fc0c ae3e 117f 11be 48a2 a23e 497e c4bd
000001b0: ca52 5bbe ff7b 84ba 189e d53d f63e 5b3e
000001c0: 83a3 c0bc 31c1 cbbd f493 303e b328 033e
000001d0: c937 953e 8ef6 783e 2117 c23d 4821 df3e
000001e0: cfcc 913e cf8f e53d 1d0f 913e e4a9 18bf
000001f0: d92f 86be 51fe 15bd e76b a7bd 077b 97bd
00000200: 92a5 74be 37db f33e f0e5 13bf 7db8 d93e
00000210: 5773 19bf 4ee3 4d3d ce7a a3be 4678 54be
00000220: 97cd ed3e d19b d240 ad71 cf3e c5e9 e43e
00000230: d19a 9abe ea5c 8bbe 9379 9a3e 5c0f 02bf
00000240: b629 0e3f 1fb3 1e3c cf6c ae3e 60ab 88be
00000250: c960 663e d303 693e e971 c9be d5b9 bd3e
00000260: fea6 ed3d a6a8 083f b7b4 843c 2d16 05bf
00000270: 9261 2b3f f5ba 383c 007a babe b504 ba3d
00000280: 5dba a63e 6900 bfbe 81bb 61bd d13e bb3e
00000290: ef9e 613e 5ab6 023f 9cba 01bd 5c20 f63e
000002a0: aa8b 053e 670a dd3e 9e6f 0b3f e26a 69bf
000002b0: b780 a63e 4fb3 3e3e 80e1 4ebe 5ebd 3a3f
000002c0: bfc9 88be 1f45 04bf d70a cdbe 8488 6fbd
000002d0: 45b1 fb3d 6304 63be db75 db3e 5897 e73e
000002e0: a43d 10bf 5a26 f53a 69e6 b8bd 0d8a 68bd
000002f0: 35d5 96bc 861b 493e 45c5 5e3e be63 0cbf
00000300: 6afb 6d3e df44 9a3e 1027 f2bd ff2b 29bd
00000310: 97e0 54be 8138 ad3e 6c09 97be 6101 98be
00000320: 4f79 b5be c438 1fbd ab69 d93d a582 acbd
00000330: 1e3d f03e 1b54 90bd 6f00 2dbe 718c edbe
00000340: db7d debd cd9a 86be 3170 3cbe f85f b03e
00000350: 18a1 bdbe be4a 46bc 568b ce3c a6b0 7b3e
00000360: 9eb9 963e 3e95 103e 1b92 35be 45e5 aa3e
00000370: c311 2b3e 2a2f 893d ca3e 2d3e e952 bfbe
00000380: 9b26 c7be 2ea0 c33d 3787 45be a4cc abbd
00000390: 8776 05be 9805 3b3e 7e22 c5be cfed 7d3e
000003a0: 617b e9be 240b 72bd 7468 3cbb f690 603c
000003b0: 42cc c23d 79cc 8040 ad06 053e a33d 3c3e
000003c0: 8203 7bbe fb24 163c 2258 52bd 8db0 bcbe
000003d0: 9a45 dd3e af98 bc3e acb9 483e 5b55 153e
000003e0: af9d 82bd e0ec 8dbe 010a 9dbe c665 df3d
000003f0: b057 783d 55f1 c83e 54c9 813e d75c 7cbe

rnn.weight_hh_l1 f4 [50, 50]
0.48971003 0.17614487 0.10959966 0.1631753 -0.15934527 0.037357762 0.0295805 0.21618664
-0.14712374 0.041785754 0.080399334 -0.117879435 -0.09526475 0.26462 0.13736345 -0.3487476
0.26339638 -0.046171755 -0.038551837 -0.23172328 0.13384375 -0.14861964 0.14384776 0.5215483
0.1939776 -0.16244501 0.1579367 -0.03649429 -0.29923302 -0.22751135 -0.059968643 0.14987639
0.37892723 0.090472616 -0.04406411 -0.4519444 -0.07394119 0.12037249 -0.053010244 -0.116567284
-0.18294093 0.07100015 -0.004169304 -0.15320529 0.1005274 -0.010816065 0.06261247 0.13358428
0.14826338 -0.027204715 0.17273353 0.32257804 0.55103743 0.11974517 -0.12500805 0.40205672
0.23060732 0.086829185 -0.3192228 -0.22238249 0.11053698 0.031669844 -0.31255886 -0.15199308
0.032796707 -0.33339357 0.3909705 -0.09058801 -0.12908676 -0.46020913 0.2580778 -0.2936699
0.40934458 0.047623795 0.22953676 -0.257766 0.38684297 -0.053203695 -0.33666345 -0.46937102
0.14272894 0.48060405 0.3300538 -0.14904787 -0.042000506 -0.095200494 -0.3829912 0.026618002
-0.23397593 -0.1671593 0.06519466 -0.017281422 0.027863137 -0.19140302 0.02284285 0.17893998
0.012865366 -0.17732792 0.2262075 0.031477157 0.1710814 0.051827684 1.2617958 -0.1774447
0.22107041 0.13814025 -0.039432485 0.18794632 -0.21785116 -0.04141411 0.0070387954 -0.019825144
-0.2376626 -0.28562805 -0.0014979736 -0.13977432 0.12857027 -0.053313866 -0.2060306 0.07747441
0.0068980483 -0.082725674 0.15839824 0.13786672 0.19822882 -0.20426744 0.26289302 -0.1542541
-0.03277579 -0.056953467 0.2735424 0.22046867 0.36735764 -0.64040136 -0.14556319 -0.26124665
-0.27372158 0.084655456 -0.09246968 -0.046184964 0.24501711 0.32095203 -0.061222054 -0.43700978
-0.08414514 0.48168287 0.12887207 -0.03745544 0.18585497 0.03583774 0.14953755 -0.2806336
0.05893898 0.22668083 0.026302537 0.14110026 -0.053521607 -0.08380743 0.05917377 -0.0201961
-0.10284928 -0.05509484 -0.1558737 0.19779277 -0.17521277 0.08208739 0.2064353 0.029108075
-0.07356609 -0.050112672 -0.127114 0.052428544 -0.04150459 0.101201035 -0.07699675 -0.0051300214
0.21900289 -0.20485823 -0.039918642 -0.025559485 -0.16262498 -0.11538854 0.31871417 -0.0076458426
0.41361603 0.07099841 0.3232548 -0.34156877 0.15585594 -0.19598368 0.17776977 0.21254316
0.28766972 0.09748973 0.07621115 0.026934372 0.07876426 -0.17163122 -0.28971553 0.27869856
0.22855958 0.5292649 -0.43709573 0.0313456 1.8915225 0.4005175 0.020055702 0.08573453
-0.27794713 -0.075247385 0.31208456 -0.09589746 0.009368629 -0.21174654 0.065648764 -0.018386407
0.40123764 0.34600258 -0.2484359 -0.37061536 0.12338296 -0.16572702 0.41274112 0.3094153
0.38368618 -0.1532554 0.27317196 -0.30140305 0.030825675 -0.5863003 0.42264825 0.38338172
0.2767213 -0.2741055 0.26371053 -0.4005327 -0.30282164 -0.038981035 -0.115333535 -0.24365702
0.2589951 0.16277175 -0.17518881 -0.07807436 0.0722982 0.39356026 0.45974776 -0.21446025
0.14852355 -0.016663779 0.1494057 0.19324169 0.28906545 -0.043354347 0.19399294 0.1165607
00000000: 46bb fa3e 525f 343e c975 e03d 6d17 273e
00000010: 682b 23be 7404 193d ce52 f23c 0860 5d3e
00000020: 9ba7 16be 8a27 2b3d 68a8 a43d c66a f1bd
00000030: 2a1a c3bd 467c 873e 01a9 0c3e 0c8f b2be
00000040: e4db 863e 981e 3dbd 88e8 1dbd de48 6dbe
00000050: 560e 093e bf2f 18be d44c 133e 3084 053f
00000060: 10a2 463e fc57 26be 29ba 213e 097b 15bd
00000070: 1235 99be bcf8 68be aea1 75bd 3279 193e
00000080: c002 c23e b549 b93d 917c 34bd 4265 e7be
00000090: 7b6e 97bd da85 f63d 4521 59bd d4ba eebd
000000a0: de54 3bbe 8768 913d a89e 88bb d9e1 1cbe
000000b0: 4fe1 cd3d dd35 31bc f73a 803d 51ca 083e
000000c0: 5bd2 173e 6cdc debc 0fe1 303e f328 a53e
000000d0: ca10 0d3f f53c f53d 1c02 00be 61da cd3e
000000e0: 5324 6c3e 80d3 b13d 2c71 a3be 3cb8 63be
000000f0: 3661 e23d 3db8 013d b707 a0be 13a4 1bbe
00000100: d755 063d 90b2 aabe 492d c83e 3586 b9bd
00000110: 522f 04be 88a0 ebbe c622 843e e75b 96be
00000120: 9d95 d13e 2b11 433d af0b 6b3e e8f9 83be
00000130: 4810 c63e 1eec 59bd 275f acbe 6651 f0be
00000140: 8927 123e bc11 f63e d0fc a83e 01a0 18be
00000150: b908 2cbd 7af8 c2bd 6c17 c4be ff0d da3c
00000160: 6397 6fbe cf2b 2bbe c784 853d c591 8dbc
00000170: 3c41 e43c 27ff 43be ee20 bb3c 0b3c 373e
00000180: 42c9 523c 7395 35be f0a2 673e 31ee 003d
00000190: f62f 2f3e 4449 543d 8682 a13f 10b4 35be
000001a0: 4860 623e a374 0d3e f583 21bd 0075 403e
000001b0: 6014 5fbe d8a1 29bd b2a5 e63b 5768 a2bc
000001c0: d35d 73be d73d 92be a757 c4ba 0021 0fbe
000001d0: eda7 033e a45f 5abd b0f9 52be e7aa 9e3d
000001e0: 0609 e23b 146c a9bd 2633 223e ef2c 0d3e
000001f0: 7ffc 4a3e 7c2b 51be ea99 863e c9f4 1dbe
00000200: e83f 06bd 0a48 69bd c00d 8c3e 8ac2 613e
00000210: 4d16 bc3e 58f1 23bf 840e 15be 1fc2 85be
00000220: 3c25 8cbe d75f ad3d be60 bdbd 722c 3dbd
00000230: c4e5 7a3e d353 a43e fac3 7abd bfbf dfbe
00000240: 4a54 acbd 239f f63e 0af7 033e e06a 19bd
00000250: c450 3e3e 98ca 123d 5f20 193e 35af 8fbe
00000260: 006a 713d 051f 683e 6b78 d73c 967c 103e
00000270: 7939 5bbd 3ba3 abbd 3260 723d 4b72 a5bc
00000280: a5a2 d2bd 20ab 61bd 5b9d 1fbe 308a 4a3e
00000290: fa6a 33be 6f1d a83d c663 533e 0f74 ee3c
000002a0: d1a9 96bd f242 4dbd 2c2a 02be 50bf 563d
000002b0: b800 2abd 7d42 cf3d 79b0 9dbd bd19 a8bb
000002c0: 4b42 603e 5bc6 51be bb81 23bd 2062 d1bc
000002d0: 2a87 26be d450 ecbd 812e a33e fa89 fabb
000002e0: 7bc5 d33e 9d67 913d a781 a53e 1ae2 aebe
000002f0: b398 1f3e f2af 48be 4709 363e eaa4 593e
00000300: 7249 933e b2a8 c73d 9714 9c3d 79a5 dc3c
00000310: 284f a13d 18c0 2fbe 9855 94be 94b1 8e3e
00000320: 860b 6a3e e87d 073f 03cb dfbe 3e64 003d
00000330: 691d f23f a110 cd3e db4b a43c 9695 af3d
00000340: 164f 8ebe 4d1b 9abd 8cc9 9f3e e365 c4bd
00000350: e17e 193c 16d4 58be dc72 863d 179f 96bc
00000360: 056f cd3e 4027 b13e fb65 7ebe 4cc1 bdbe
00000370: 35b0 fc3d 58b4 29be ce52 d33e af6b 9e3e
00000380: 8472 c43e fcee 1cbe 32dd 8b3e 8051 9abe
00000390: 2086 fc3c c717 16bf 5a65 d83e 9c4a c43e
000003a0: 6aae 8d3e 8e57 8cbe 1105 873e 9f12 cdbe
000003b0: 700b 9bbe 94aa 1fbd fd33 ecbd 3a81 79be
000003c0: 019b 843e a3ad 263e b264 33be 73e5 9fbd
000003d0: 1411 943d bb80 c93e 0f64 eb3e 789b 5bbe
000003e0: 8f16 183e 7a82 88bc cffd 183e 26e1 453e
000003f0: 6300 943e 5494 31bd 16a6 463e 60b7 ee3d

rnn.bias_ih_l1 f4 [50]
-0.15293236 0.11088747 -0.12334497 -0.1178407 0.23515679 0.10350322 0.1459942 0.18742521
-0.19424173 -0.16167349 0.07983468 -0.0080386195 0.09453576 -0.39863533 0.20441945 0.27360523
0.05531864 0.31923166 -0.16748941 -0.24599555 0.12791796 -0.15111889 -0.06655923 0.028295932
-0.22588575 -0.04869807 0.23255804 -0.14195418 -0.033158723 -0.2932006 0.1004896 0.02632549
0.06615815 0.25337353 -0.13651557 0.048048507 -0.4034524 0.29493114 -0.33666298 0.124606535
-0.10400003 0.06589219 0.35474223 0.23421006 0.09811847 -0.32195896 0.094983295 -0.05881107
0.2917828 -0.4093242
00000000: 4d9a 1cbe f818 e33d 4a9c fcbd 7756 f1bd
00000010: f1cc 703e 7ff9 d33d 817f 153e 65ec 3f3e
00000020: 4ee7 46be bc8d 25be 5d80 a33d 6ab4 03bc
00000030: f79b c13d ee19 ccbe 5553 513e fc15 8c3e
00000040: cc95 623d 5572 a33e 5882 2bbe 42e6 7bbe
00000050: edfc 023e e9be 1abe 3550 88bd dfcc e73c
00000060: 984e 67be a177 47bd b223 6e3e 705c 11be
00000070: 71d1 07bd 641e 96be 7ecd cd3d 8ea8 d73c
00000080: ed7d 873d 2dba 813e bdca 0bbe 83ce 443d
00000090: 5091 cebe 3701 973e 175f acbe b631 ff3d
000000a0: f8fd d4bd 7cf2 863d c6a0 b53e c3d4 6f3e
000000b0: 56f2 c83d ced7 a4be 9a86 c23d e0e3 70bd
000000c0: 8e64 953e f192 d1be

rnn.bias_hh_l1 f4 [50]
-0.017982591 0.16455372 -0.3367952 0.0456405 0.19667867 0.06954862 0.04044641 0.045021426
-0.10218903 0.053684637 -0.07735166 0.0100537455 -0.016346008 -0.44655406 0.21826203 0.20068945
0.2910685 0.28110388 0.03871007 -0.14673324 0.07408883 -0.33703914 -0.078194164 0.09702027
0.0065806448 -0.11095368 0.42625204 -0.049187366 0.033551577 -0.3171728 0.25212395 0.20835783
0.0786873 0.35481808 -0.20169017 0.17979783 -0.37702674 0.20219578 -0.36088583 0.15735613
-0.09342598 0.021654407 0.18541856 0.12828867 0.15473598 -0.065987565 0.11526199 -0.068919845
0.06966053 -0.32017082
00000000: 3a50 93bc c580 283e 6c70 acbe 88f1 3a3d
00000010: 2266 493e 826f 8e3d 23ab 253d 6368 383d
00000020: 7b48 d1bd 6ce4 5b3d 8c6a 9ebd 77b8 243c
00000030: 10e8 85bc bca2 e4be 1580 5f3e 8981 4d3e
00000040: ee06 953e d9ec 8f3e 738e 1e3d 3d41 16be
00000050: e2bb 973d 6590 acbe 4324 a0bd 90b2 c63d
00000060: 73a2 d73b af3b e3bd b53d da3e b178 49bd
00000070: 616d 093d 7964 a2be 6416 813e c15b 553e
00000080: cf26 a13d b7aa b53e de87 4ebe ec1c 383e
00000090: a609 c1be 690c 4f3e 07c6 b8be f721 213e
000000a0: 1f56 bfbd 9564 b13c 5dde 3d3e 1b5e 033e
000000b0: 1c73 1e3e 7d24 87bd 7a0e ec3d d925 8dbd
000000c0: 2eaa 8e3d 6eed a3be

fc.weight f4 [1, 50]
-0.13895191 -0.07439047 0.5707441 0.038495053 0.31148493 -0.08703792 -0.030689219 0.023035206
0.077764444 0.042206984 -0.19514687 -0.054540426 -0.054114293 -0.8409403 -0.08173361 0.13292585
-0.14167497 -0.114918664 -0.05482459 0.07652813 -0.019672366 0.11120332 -0.0034309973 -0.032942444
0.11394155 0.04712476 -0.12438423 -0.19515042 0.03392045 0.08352479 -0.02111455 -0.11036599
-0.104576394 0.0113365585 -0.0028933126 0.08204839 0.06714681 -0.07363181 -0.12530237 0.19233929
-0.19579735 0.046925034 -0.4147812 0.04469192 -0.029125948 -0.18562667 0.086679205 0.09313049
-0.05862527 -0.0119989775
00000000: 6949 0ebe 085a 98bd 491c 123f fdac 1d3d
00000010: f47a 9f3e f040 b2bd f567 fbbc 54b4 bc3c
00000020: f742 9f3d 3be1 2c3d 95d4 47be c865 5fbd
00000030: f3a6 5dbd dd47 57bf f363 a7bd b71d 083e
00000040: 3e13 11be 7a5a ebbd c08f 60bd c8ba 9c3d
00000050: f127 a1bc 91be e33d 95da 60bb a8ee 06bd
00000060: 305a e93d e405 413d 29bd febd 83d5 47be
00000070: 2bf0 0a3d 0c0f ab3d 6cf8 acbc 9007 e2bd
00000080: 262c d6bd f9bc 393c bb9d 3dbb fc08 a83d
00000090: 4484 893d 46cc 96bd 444f 00be 97f4 443e
000000a0: 1a7f 48be 7734 403d 345e d4be e00e 373d
000000b0: 8a99 eebc eb14 3ebe de84 b13d 33bb be3d
000000c0: 0d21 70bd 5c97 44bc
