Networks/DOGE-EUR/bidSeed1.pt (torch, 33123 bytes, 9 tensors)

rnn.weight_ih_l0 f4 [50, 1]
000000 12 cf 5f 40 d3 47 86 3f 1a b4 53 c0 19 87 d1 be
       3.4970136 1.0490669 -3.3078675 -0.40923384
000010 b5 28 1d bf 17 cc 29 bd 7a 8b f2 bd 1b 69 4c 3f
       -0.6139024 -0.0414544 -0.11843009 0.7984788
000020 55 fc 60 3e f2 4a 0a 3e 3e 43 4b be 77 0e ce be
       0.21971257 0.13505152 -0.1984987 -0.4024541
000030 1d da ae be 5e 36 a1 3e c4 01 7b 40 1c 43 91 be
       -0.34150782 0.3148679 3.9219828 -0.28371513
000040 a7 6c 07 bf 45 2d a6 3f 8d ea 38 bf 9c d1 bc 3e
       -0.52900165 1.2982565 -0.72232896 0.3687867
000050 61 67 ed 3e 12 a1 09 be c4 3a be 3f d1 09 52 3f
       0.46367934 -0.1344035 1.4861684 0.8204623
000060 92 ef d9 bf ef 16 49 40 73 43 93 40 21 5b 16 3f
       -1.7026236 3.1420248 4.6019835 0.587328
000070 ed ed 22 3e a1 64 8c bf 6d 5a 29 3c 01 6f ce bf
       0.15911074 -1.096821 0.010336501 -1.6127626
000080 f2 bf 3e 40 c6 b4 2a be e5 46 44 3f ff 1d bd bf
       2.9804654 -0.16670522 0.76670676 -1.4774779
000090 23 a2 1b 3f e2 57 8a bf 4d af 3e c0 fe 16 ca bf
       0.60794276 -1.080807 -2.9794495 -1.5788267
0000a0 5b f6 06 be 88 55 cc be bb eb 7c be e2 cd 05 3e
       -0.13179915 -0.39909005 -0.24699299 0.1306682
0000b0 40 0f bb bf 1f f2 30 3f 17 2d c4 bf 59 21 21 bf
       -1.4614029 0.6911945 -1.532626 -0.6294151
0000c0 04 4e aa bf 24 64 3a bf
       -1.3305058 -0.7280905

rnn.weight_hh_l0 f4 [50, 50]
000000 0a da d1 3e 83 85 dc be 1b b2 d4 be 7d 7d b3 be
       0.40986663 -0.4307061 -0.41542134 -0.35056677
000010 dd 3a 18 bf ef 5c 3c bf b6 b2 a0 be 24 68 04 3f
       -0.5946482 -0.73579305 -0.31386346 0.51721406
000020 58 7d 25 bf a8 73 8f bd af f1 df be 13 68 cf 3e
       -0.64644384 -0.070044816 -0.43739077 0.4050909
000030 00 00 ed be b8 5f 19 bd 7e 22 06 40 0a 9d f2 be
       -0.46289062 -0.0374448 2.0958552 -0.47385436
000040 07 2b 10 bf 82 25 8a be 37 39 32 bf b5 82 92 be
       -0.56315655 -0.2698174 -0.6961855 -0.28615347
000050 94 7f 34 3e 5c c7 39 bf 67 5c 8a 3f 5a 99 0f 3f
       0.17626792 -0.72569823 1.0809449 0.5609337
000060 63 65 02 be d5 c1 9b be 11 68 00 40 59 e8 3e 3e
       -0.12733988 -0.3042132 2.0063517 0.18643321
000070 ca 9f 47 bf b2 d0 a4 be be 07 2e 3f 40 f3 23 3f
       -0.77978194 -0.32190472 0.67980564 0.64043045
000080 bd 9d 48 be 1b 16 ee be 18 10 19 bf 53 82 84 3e
       -0.19591422 -0.4650124 -0.5979018 0.2588068
000090 86 1a 1f 3f c4 3b 2a bf 29 d6 59 bf 68 63 fe be
       0.62149847 -0.66497445 -0.8509241 -0.49685216
0000a0 fb 11 e6 3e a4 96 18 be 8a 81 27 3f b1 e9 d6 be
       0.44935593 -0.14901215 0.65432036 -0.41975167
0000b0 d0 1e 4b bf 56 be ee 3e fa 0c 85 3e 23 6b 02 be
       -0.7934389 0.4662959 0.25986463 -0.12736182
0000c0 b3 9e 1b 3f 51 99 9d 3e df cb 14 be 95 f8 86 be
       0.6078903 0.30781034 -0.14530896 -0.26361528
0000d0 83 52 d4 3d 93 b7 0b bf dc 35 15 bf 46 38 d0 be
       0.103673 -0.5457699 -0.5828531 -0.40667933
0000e0 14 19 08 bf f3 aa e5 3e d8 c5 c8 be d4 6e f6 be
       -0.53163266 0.44856986 -0.39213443 -0.4813143
0000f0 46 f3 be be c1 6a a8 be 22 54 0e bf 44 81 9f 3e
       -0.37294978 -0.32893947 -0.55597126 0.3115331
000100 85 60 8f be 43 32 58 be 24 ae 10 bf e5 37 91 bd
       -0.28003326 -0.21112923 -0.5651572 -0.07090739
000110 3f b9 ca be 0c b8 e7 be 04 ab 98 bd 4c 8a 90 bf
       -0.39594457 -0.45257604 -0.07454494 -1.1292205
000120 18 0d d6 3e 1f c9 cb 3e a9 a3 50 bc e6 d4 5e 3f
       0.41806865 0.3980188 -0.012734332 0.8704361
000130 f1 48 c3 3e f8 d7 e8 3c 25 e6 45 bf 01 29 cf 3d
       0.38141587 0.028423294 -0.773043 0.10115243
000140 6e af fc 3e 01 e5 86 3e 8f b9 9b 3e c3 f6 c6 be
       0.49352592 0.2634659 0.30415007 -0.3886014
000150 5e f4 80 be d1 7a e5 be 86 3b 9b 3e f5 93 82 be
       -0.25186437 -0.44820264 0.3031885 -0.25503507
000160 1d 11 6a be 92 ec ed be c8 51 2a 3e 62 9c bb bd
       -0.2285809 -0.4646955 0.1663276 -0.09160687
000170 3f 9f 10 3f d4 9c 7d 3e 11 66 5a 3e 3a 0f f9 3e
       0.5649299 0.24766856 0.21327998 0.4864443
000180 89 24 3d 3b 6b d8 fd 3b fd 8c 95 3d d8 63 ed be
       0.0028860888 0.0077467463 0.07302282 -0.46365237
000190 af 77 4c bf fb 76 6a 3e f2 e5 c7 3f 9f 1e a0 3e
       -0.7987012 0.2289695 1.5617049 0.31273362
0001a0 08 9f 4a 3e 65 28 89 3d ab 7e 50 3e 9f 32 4e be
       0.19787228 0.06697158 0.2036082 -0.20136498
0001b0 e5 5d 7d 3e a2 03 88 3e f5 18 e5 3e 79 f4 f4 3e
       0.24742849 0.26565272 0.44745603 0.47842768
0001c0 37 12 83 3e bf ff 4f be 21 1b 6b c0 5b e4 9d 3e
       0.25599834 -0.20312403 -3.6735308 0.30838284
0001d0 c1 6f 07 3e a9 43 22 be c6 45 4b 3e 00 e0 b3 3e
       0.13226224 -0.15846123 0.19850835 0.35131836
0001e0 16 48 0e 3f bf 84 d5 bd 49 19 ec bf 80 06 0c be
       0.55578744 -0.1042571 -1.8445216 -0.13674355
0001f0 b5 33 5d bd df 07 43 bf dd 58 42 bf 4e 7a 13 3f
       -0.05400439 -0.76183885 -0.75916845 0.576085
000200 1c d9 82 bd a5 61 89 be 4f ea c0 bc d6 97 5f be
       -0.063890666 -0.2683231 -0.023549227 -0.21835265
000210 e9 8c e0 bb 68 60 8f 3e 2a 7e 02 3e 71 a8 d7 3e
       -0.0068527353 0.2800324 0.1274344 0.42120698
000220 0d d0 45 be bc 65 44 be e4 ed 0c c0 67 96 93 bd
       -0.19317646 -0.19179434 -2.2020197 -0.07206421
000230 54 7e 93 bd 81 3e 57 be 34 d0 8f be 20 4f fb be
       -0.072018296 -0.21019937 -0.28088534 -0.49083805
000240 7a 57 f0 3f 9e 1c ec bd a0 aa 99 bd 04 33 b3 be
       1.8776696 -0.11528896 -0.07503247 -0.3499986
000250 1f 6f 51 bd 4e 1b 2a 3f 4d 4b fd 3e 1a 49 a8 3a
       -0.051131364 0.66447914 0.49471512 0.0012839169
000260 0b 24 bb 3f ac 72 3f 3f 67 71 00 bf fe 83 db be
       1.4620374 0.7478435 -0.5017304 -0.4287414
000270 87 63 11 bf e1 50 06 3f 9e 42 f9 be 4f 68 25 3e
       -0.5679249 0.5246716 -0.48683637 0.16153072
000280 cc f9 1a bf f6 93 9b 3e da ce d0 be 79 a5 5c bd
       -0.6053741 0.30386323 -0.40782815 -0.053868745
000290 f7 6f 23 3d af fd 31 bf 30 bf e6 be 9b 0d ff be
       0.0399017 -0.69527715 -0.4506774 -0.49815068
0002a0 ef 82 29 bf 60 e9 3e bf e8 4c df bd 95 44 ce be
       -0.66215414 -0.7457485 -0.109033406 -0.402867
0002b0 e6 d8 6a 3f e6 63 0a 3f 6c 00 26 bf d6 87 85 3e
       0.9173721 0.5405868 -0.64844394 0.26080197
0002c0 5c e0 f4 be 5e 3b 83 3d 61 91 4a be 5a 1b a0 bd
       -0.47827423 0.06407808 -0.1978202 -0.07817717
0002d0 a1 bc ba 3e f1 5f 18 3f 70 f2 38 bf b7 d9 1e bf
       0.36472037 0.59521395 -0.7224493 -0.62050956
0002e0 e9 f0 90 3e bf 91 90 be 11 b3 0a 3f 78 52 18 bf
       0.283088 -0.28236195 0.54179484 -0.5950084
0002f0 ad e3 71 be 86 4b 0d be 44 af a7 3e 78 35 01 bf
       -0.23622008 -0.13798341 0.32750905 -0.5047221
000300 af 83 c4 3e 4f 8a 1f 3c 7b fb 97 be 6c ca bc 3d
       0.38381717 0.009737565 -0.29684052 0.092182964
000310 2e 81 f2 3e d2 d8 17 3f a8 75 43 3f 2b 30 39 be
       0.4736418 0.59315217 0.76351404 -0.18084781
000320 8b ca 59 3e 9f 2d 4d be 4d e0 10 3c 97 b9 81 be
       0.2126867 -0.20036934 0.00884254 -0.25336906
000330 65 e5 06 bf 44 44 62 be 5f ca 1d bf e4 1b fb 3e
       -0.5269378 -0.22096354 -0.6163692 0.49044716
000340 f6 01 14 bf c6 92 b1 be c6 13 e7 be e7 19 bb bd
       -0.5781549 -0.34682292 -0.45132273 -0.091358
000350 e5 97 8b be 41 49 28 be 23 8e 55 3e 26 5e c5 be
       -0.27264324 -0.16434194 0.20855002 -0.38548392
000360 75 9b 0c bf 43 c8 da bd 56 fa 17 bf 62 05 70 be
       -0.5492471 -0.10682728 -0.5936636 -0.23439553
000370 6c 30 d8 be be e3 ad 3d c8 24 b6 3e d2 fd 10 3f
       -0.42224443 0.08490704 0.35574937 0.566373
000380 45 41 4c be 9a a0 5d 3e 8f 0b 0e 40 c5 89 24 bd
       -0.19946773 0.21643296 2.2194555 -0.04017045
000390 28 71 a5 be e9 a7 ce bd 02 56 1c 3f 4c e8 f2 3d
       -0.32312894 -0.1009062 0.6106874 0.11860713
0003a0 38 ba b1 bd 7b 70 af 3c c2 57 35 bd 0f c2 81 be
       -0.086780965 0.02141594 -0.044273145 -0.25343367
0003b0 59 d4 07 3f 5d 05 c8 bd f8 8e 72 be d0 bf 89 be
       0.5305839 -0.09766648 -0.23687351 -0.26904154
0003c0 10 96 57 bc ba 95 2d 3d 78 d8 38 3f ee 15 a8 3e
       -0.013158336 0.04237912 0.72205305 0.3282923
0003d0 b0 41 6c be d2 ed b1 3e 54 30 d1 3c a5 40 45 3e
       -0.23071933 0.34751755 0.02553574 0.19262941
0003e0 55 70 77 bd 20 3a b1 be 30 2c 11 3d 3c 1b 10 bf
       -0.060409863 -0.34614658 0.03544253 -0.56291556
0003f0 4c 05 4a 3e 94 13 27 be 87 3b 0a bf b8 63 22 bf
       0.19728583 -0.16316062 -0.5399708 -0.6343341

rnn.bias_ih_l0 f4 [50]
000000 34 5f 18 bf fb 80 1d 3d c4 19 1a 3f 86 4a 14 3d
       -0.5952027 0.038453083 0.60195565 0.036203884
000010 9e 5d e2 3e b4 d9 37 bd d8 eb b2 3e 4b a0 98 be
       0.4421205 -0.044885352 0.3494556 -0.29809794
000020 e9 e2 83 bc 9d 11 f9 3e a3 c5 06 3e 47 f5 4a bc
       -0.01609941 0.4864625 0.1316133 -0.01238758
000030 5b 6c d1 3e 9d 0d 4d 3c 8d d8 6c bd 60 56 ac 3e
       0.4090298 0.012515453 -0.057823706 0.3365965
000040 d7 eb c1 3d 79 10 39 3f 50 98 f2 3d 9f 03 50 be
       0.09468811 0.7229076 0.118454576 -0.20313881
000050 38 4d 3e 3f 86 86 83 be 82 48 25 bf 00 e5 e6 be
       0.74336576 -0.2568857 -0.64563763 -0.45096588
000060 75 b6 6c 3e 79 b1 61 bf 64 45 3c 3e 3e 0d 3f 3d
       0.23116477 -0.88161427 0.18385845 0.046643488
000070 28 a5 a3 be 15 fc 1b be 36 ba ab bd d5 2e 1a bc
       -0.31961942 -0.1523288 -0.08385126 -0.00941058
000080 75 91 91 3e de d5 18 3e 04 85 ad bd bd fc 8e 3e
       0.28431287 0.14925334 -0.08472636 0.279272
000090 e8 31 77 be 74 f8 6b bc f2 d1 c5 3e a5 74 2b 3d
       -0.24140131 -0.014402498 0.38636738 0.041859288
0000a0 e0 eb f4 bd 1f 2c aa 3d 28 49 d9 3c 64 2e 90 3d
       -0.11959052 0.08309197 0.026524141 0.07040098
0000b0 b2 d2 9f 3e bc 5c c4 be 8d ee 08 3e 7f b0 87 bf
       0.31215435 -0.38352 0.1337225 -1.0600737
0000c0 7e 5d ad 3e 79 f9 35 be
       0.3386039 -0.17770948

rnn.bias_hh_l0 f4 [50]
000000 9d de 0f bf 62 f6 59 bc b9 19 13 3f 7e d1 a5 3d
       -0.56199056 -0.013303371 0.57461125 0.08096598
000010 d6 62 0f 3f 5a d7 9c 3d a3 0f f7 3e 6d 27 3a be
       0.56010187 0.076582626 0.48254117 -0.18179102
000020 7e 45 a3 bc 2f ab 0a 3f e0 80 1b bd 83 2f 81 be
       -0.019930597 0.54167455 -0.0379647 -0.2523156
000030 b3 94 25 3e 24 26 cd bd a0 66 2f be 8c 12 32 3e
       0.16170006 -0.1001704 -0.17128992 0.17389888
000040 f5 5a 91 3d 70 ef 02 3f 80 55 ce 3d ba 4c 6e be
       0.07097427 0.511466 0.100749016 -0.23271456
000050 4a cc 01 3f 4f eb 89 be 6b 38 20 bf 3f d4 e2 be
       0.50702345 -0.2693734 -0.62586087 -0.44302556
000060 4d a9 51 3e 3c 8c 3c bf cc ac 0d 3e df ea 33 ba
       0.2047474 -0.7365148 0.13835448 -0.00068633066
000070 5b 3c 6b be 4c 82 89 bd d2 09 df bd a7 5a 5b bc
       -0.22972243 -0.06714305 -0.10890545 -0.013388312
000080 be d6 c5 3e 0d 84 7a 3d af 67 ef bd 8b 3b 89 3d
       0.38640398 0.06116109 -0.11689698 0.0670081
000090 35 b5 81 be 86 4a 6f be 96 9b f6 3e 4a c3 37 bd
       -0.25333562 -0.23368272 0.48165578 -0.044863977
0000a0 d5 d0 c8 bd d6 cf a1 ba 21 f5 ea bd 4c de 08 3d
       -0.098054565 -0.0012345265 -0.11472536 0.033415124
0000b0 34 ab bc 3e f5 28 3f be 5f e5 99 3e 69 00 7a bf
       0.36849368 -0.18667968 0.3005781 -0.97656876
0000c0 51 c6 2c 3e 6e 46 9d 3b
       0.16872527 0.0047996556

rnn.weight_ih_l1 f4 [50, 50]
000000 cf da 8b be a0 62 0f 3c 7b a6 27 3d 5d 07 8c be
       -0.27315375 0.008751541 0.040930253 -0.27349368
000010 0f ad c9 be d7 af f0 bd ed bf 81 be 11 e3 8f 3e
       -0.39389846 -0.11752289 -0.2534174 0.28102925
000020 4c 11 c0 bd 31 f5 27 3d 2e a3 d0 be fb 62 8e bd
       -0.09378299 0.041005317 -0.40749496 -0.06952473
000030 04 a7 9e be c6 f0 8b 3d d4 21 f0 bd 2e 89 70 be
       -0.30986798 0.06833033 -0.11725202 -0.2348983
000040 0e 91 a2 be 8d 0b 9a 3d 5d 72 4f be 06 65 1c bf
       -0.31751293 0.075217344 -0.2025847 -0.6109165
000050 4e 9e 96 be e1 df 6a be 73 dd 11 be c8 47 bc 3e
       -0.29417652 -0.22936966 -0.14244632 0.36773515
000060 2a da b0 3c a2 5e b0 bd 11 b6 33 3e 53 f0 59 be
       0.021588404 -0.086118 0.17549922 -0.21283083
000070 14 63 c4 bd 0b f4 24 be a1 a9 2d 3e 8c cb a1 3e
       -0.0958921 -0.1610872 0.1695924 0.31600606
000080 66 95 49 be e7 63 c1 be 92 f8 ba 3d 86 4b a1 3e
       -0.19685897 -0.37771532 0.09129442 0.31502932
000090 de 4e b5 3e 27 e0 fb be dc 64 87 be 3c cc 4e be
       0.35411733 -0.49194452 -0.26444137 -0.20195097
0000a0 be 8b 6c bd 70 72 ba be 52 bc b1 3e f6 a6 93 3e
       -0.057750456 -0.36415434 0.3471399 0.2883832
0000b0 17 1b d2 3d b6 30 4a 3d 1b 80 2e 3e 43 5d 6a 3e
       0.10259073 0.04936286 0.17041056 0.22887139
0000c0 c4 6b 99 3e 89 ee 3a be 13 ce 76 bd 48 bd b0 be
       0.2996503 -0.18255056 -0.06025512 -0.3451941
0000d0 0b 78 8d bd 0c 85 85 be 5a 3b 9f be 37 b3 c2 be
       -0.06907662 -0.2607807 -0.3109997 -0.38027355
0000e0 4f 3a ad be 3c 4e a9 3e b6 d7 0d bf d6 da e6 3e
       -0.33833548 0.330675 -0.55407274 0.45088834
0000f0 96 7f 82 be a9 6b 33 be fb 2e 83 be 29 78 6b be
       -0.25487965 -0.17521538 -0.2562178 -0.22995056
000100 b7 fb da 3f 8d 00 11 be 7c e0 c4 be 98 7c d3 bb
       1.7108067 -0.14160366 -0.38452518 -0.0064540617
000110 8c b4 d2 be 12 fa a6 be ce bf dd bd d5 ad 10 be
       -0.4115337 -0.32612664 -0.108275995 -0.14128812
000120 2a 10 96 be 67 9d 9a 3e d5 d8 d1 bd b0 09 51 3e
       -0.29309207 0.30198213 -0.102464356 0.20413852
000130 e1 5e a6 3e 53 b4 7a 3d 0a af bc 3c 49 33 cd be
       0.32494262 0.061207127 0.023032684 -0.4007819
000140 78 8c af 3e d0 f3 d2 bd 8e ef 8b 3e 7c 9d 4f be
       0.34286857 -0.1030041 0.27331203 -0.2027492
000150 f5 18 83 bd 0c 5d 88 be eb 0a d4 3e fd d0 c3 3e
       -0.064012446 -0.2663349 0.4141458 0.38245383
000160 2b 46 e9 3d 45 a3 9e 3d 0a 6a f2 3e 8a 51 01 be
       0.113903366 0.07745985 0.47346526 -0.12628761
000170 26 4c 4c 3e 53 d2 85 3e bb 91 44 3e 5b 88 eb 3e
       0.19950923 0.26137027 0.19196217 0.46002468
000180 58 f9 8f 3e ae 11 2b be f1 9e 72 bd 51 f5 b1 bd
       0.28119922 -0.16705963 -0.05923361 -0.086893685
000190 0f 4b 10 3e 5f 15 10 3d e3 e0 76 be 27 a8 8b 3e
       0.14091133 0.03517663 -0.24109225 0.27276728
0001a0 55 c6 07 3e 0a a8 38 3e a5 6f 32 3e 0b cd f5 bd
       0.13259251 0.18032852 0.17425402 -0.120019995
0001b0 e4 58 f1 3e b5 90 99 3e d0 3f 80 3e 53 8c 41 3e
       0.4713813 0.29993215 0.25048685 0.18901186
0001c0 68 b5 f5 3d 2f f3 84 bd 68 6d 48 3e 1c 21 1d 3e
       0.11997491 -0.06491696 0.19572985 0.15344661
0001d0 45 2f fd 3c c7 9b 5a 3e d7 a9 5e 3e 76 a1 22 3f
       0.030906329 0.21348487 0.21744476 0.6352762
0001e0 dd 54 21 3f fa 03 84 3e 26 52 a1 be 58 f9 31 bd
       0.63020116 0.25784284 -0.31507987 -0.043450683
0001f0 c3 2d cc 3e 63 27 a4 bd 69 7a 0e 3e 7f 06 42 3e
       0.39878663 -0.08015325 0.13913883 0.1894779
000200 44 2a 2a 3e 1f d2 3f be 46 08 c8 bd 45 d3 5c be
       0.16617686 -0.18732499 -0.09767203 -0.21564968
000210 f5 3c 92 3e ec 8a 9f 3e 8d 86 1d be d1 72 c6 3e
       0.28562132 0.31160676 -0.15383358 0.38759473
000220 3f 5c 3f be e2 bb 51 3e e7 37 04 3e 16 ed 81 bd
       -0.18687533 0.20481828 0.1291195 -0.06344049
000230 23 d3 a5 3c 94 60 4a 3e 00 bc 54 be 50 d2 c2 3d
       0.02024228 0.19763404 -0.20774841 0.0951277
000240 e0 78 47 bd 9d 3d f2 3d 02 ee 22 bf 2e 8f 1f bf
       -0.04869926 0.11828158 -0.6364442 -0.6232785
000250 28 76 04 be 82 84 39 3e 37 6a 0f 39 ed 59 7b be
       -0.12935698 0.18116954 0.00013677111 -0.24546023
000260 8f 44 a9 3d b7 b2 47 be 61 ac a0 be f7 e7 0d be
       0.0826503 -0.19501768 -0.31381515 -0.13858019
000270 a4 d3 5d be 25 01 37 3e bf b8 6b be 43 9a 24 bd
       -0.21662766 0.1787153 -0.23019694 -0.040186178
000280 e5 0d bf be e8 1e 90 bd e9 09 85 be b7 1e 40 be
       -0.37315288 -0.07037145 -0.25984123 -0.18761717
000290 f9 aa e1 3b d5 03 a5 be b7 93 f3 bd ea 53 13 bd
       0.0068868366 -0.32229486 -0.11893409 -0.0359687
0002a0 a0 e1 00 be 9f 1b 47 be 9f af 80 be 6a a9 57 be
       -0.12586069 -0.1944413 -0.25133988 -0.2106072
0002b0 bc c4 ab be 54 98 45 3e 02 e0 23 be 1b 1f 09 be
       -0.33548534 0.1929639 -0.16003421 -0.13390772
0002c0 b9 0f cf bd 68 06 d4 3d cd 5d 6d 3c c9 2a dd 3d
       -0.10110421 0.103527844 0.014487696 0.10799176
0002d0 b4 ce 84 3e f8 f3 ad 3e 95 7a ff be 3d ed 47 be
       0.25938952 0.33975196 -0.4989821 -0.19524093
0002e0 9c a7 9e be 20 43 5a 3d cd 30 29 3e 3d 0d 89 be
       -0.3098725 0.05328667 0.16522522 -0.26767913
0002f0 df 94 01 3e 63 82 19 3e 53 b4 50 bd c0 ea 13 be
       0.12654446 0.14991145 -0.05095322 -0.14445019
000300 7a be 55 3e 9b 4d 7f 3e fb 8f 51 be 37 58 37 3e
       0.20873442 0.24931948 -0.2046508 0.17904745
000310 e9 ca 3c 3e 2b 28 eb ba 4d 28 1a 3f 0f c3 c4 be
       0.18436779 -0.0017941048 0.60217744 -0.38430068
000320 5e a2 15 be df f7 9b be 73 13 9d 3e 60 af b0 be
       -0.1461272 -0.30462548 0.306789 -0.345088
000330 96 7a ae bd 18 a9 92 be ab 3d 5d be ff 9d 61 3e
       -0.08519475 -0.28644633 -0.21605556 0.22032927
000340 87 19 90 be 48 71 13 be 0d 58 8d be 47 c9 1b be
       -0.28144476 -0.14398682 -0.2760624 -0.152135
000350 03 2d 6a be 88 73 d2 bd ab 48 a9 be 6c 73 d1 be
       -0.22868733 -0.10275942 -0.33063254 -0.40908372
000360 60 0c 4c be 6f 83 a7 be 7a 77 34 3a f7 3a 8a be
       -0.19926596 -0.32717463 0.00068842585 -0.26998112
000370 f0 09 99 be 1e 6a 9c bd 37 86 3d 3c 60 a3 68 3e
       -0.29890394 -0.07637428 0.011567644 0.22718573
000380 3e f4 8e 3e 7e ff 42 3e ae bd df 3d 14 5d b0 bd
       0.27920717 0.19042775 0.109248504 -0.08611503
000390 03 8b 51 be fc 81 7a 3e ed eb d9 3d 49 e0 cb 3e
       -0.20463185 0.24463648 0.106407024 0.39819553
0003a0 a5 1d b2 be d2 8e c0 be 96 f0 80 be 49 a8 91 bd
       -0.34788242 -0.37608963 -0.25183553 -0.07112176
0003b0 88 a8 42 3e 54 67 02 bd d6 0c d8 bd 43 30 24 bc
       0.19009602 -0.031836823 -0.10549323 -0.010021272
0003c0 cf 7d 97 3d ba d8 a2 be 88 d9 2d 3e 6e bb bd 3d
       0.07397043 -0.31805974 0.16977513 0.09264265
0003d0 e6 02 be 3e 43 ac 91 3e c8 3f d0 3e fb 9d d2 bc
       0.37111586 0.28451738 0.4067366 -0.025710097
0003e0 1f 49 3f 3e 25 95 07 be dc a2 c7 bd 7a 3c b6 be
       0.18680237 -0.13240488 -0.0974786 -0.35593015
0003f0 4e 36 bc be 61 ed ba 3d 95 71 de be 0a 22 a4 be
       -0.3676018 0.09127308 -0.4344603 -0.3205722

rnn.weight_hh_l1 f4 [50, 50]
000000 93 c6 27 3c 2d 8c ad be 05 7a b1 3c 27 ea 97 be
       0.010240215 -0.33896008 0.021664629 -0.29670832
000010 05 06 16 bd c5 c7 e7 bd d2 1f 82 be 64 a4 7e be
       -0.036626834 -0.113174 -0.25414902 -0.24867398
000020 a9 e6 32 bd 54 ed fb 3d 20 d2 bf be df c1 7b 3e
       -0.043677006 0.12301126 -0.37465 0.24585675
000030 54 31 11 3e 6a ba a0 3e bd 35 89 3e 33 5a ec 3e
       0.14178973 0.31392223 0.26798812 0.46162567
000040 d7 ca 10 3d 3e 48 30 3c 26 6d 19 3e 18 4f f9 3d
       0.035349693 0.010759411 0.14983043 0.12173289
000050 0b 73 d2 be ae 80 39 bc 7d 83 a2 be a5 30 1e be
       -0.41103396 -0.011322184 -0.31740943 -0.15448244
000060 d7 a7 cd 3c 58 d1 90 3d 1b 34 c0 3e 8f 70 7a be
       0.025104446 0.07071179 0.37539753 -0.24457
000070 04 74 16 3e e3 de ec 3d d3 81 11 3e 29 3d f0 bd
       0.14692694 0.1156595 0.1420968 -0.117304154
000080 c2 22 80 3e e2 96 04 3e 45 66 06 bd 03 12 17 3e
       0.25026518 0.12948182 -0.032812376 0.14752965
000090 9d 29 13 3e 55 7e 71 bd af 49 a9 bd 8e a8 3b 3d
       0.14371343 -0.05895837 -0.08266007 0.045815043
0000a0 2e e0 e6 bc 7e 2d d9 bd 20 ac b6 bc 53 fd 15 be
       -0.02818307 -0.1060438 -0.022298872 -0.14647417
0000b0 8d bc 91 be c4 fb 4c 3e f1 06 02 3e 23 2a 18 be
       -0.28464165 0.20017916 0.1269796 -0.14859824
0000c0 7c 96 52 be 4d 86 df 3d 06 92 94 be bb e1 b2 bd
       -0.20565218 0.10914288 -0.29017657 -0.08734461
0000d0 06 75 ef 3e 4a 1f 46 be 27 93 0a bf f9 52 8b be
       0.4676897 -0.19347873 -0.54130787 -0.2721174
0000e0 9c e7 2f 3e 3f be c4 3e c1 17 45 be 97 6a 06 3f
       0.17178196 0.38426396 -0.19247343 0.52506393
0000f0 46 a5 e6 bd 8a 04 61 3b d7 79 43 3d 26 26 d9 3d
       -0.11261992 0.003433498 0.047723617 0.10602979
000100 45 6d 0d bd 93 45 af 3e cc 2e 23 bf b0 99 86 3d
       -0.034528036 0.34232768 -0.6374328 0.06572282
000110 a1 d7 aa be f7 83 7f be e1 e5 0b be 5d e9 db be
       -0.33367637 -0.24952684 -0.1366191 -0.4295148
000120 3a 29 fb bb 47 c2 f7 3d 53 1c 91 bc ca 72 e1 3d
       -0.0076648267 0.12097602 -0.017713701 0.110082224
000130 b6 86 80 be 9b e2 36 be ef 84 0d bf ae 28 9f 3e
       -0.25102776 -0.1785988 -0.55280966 0.31085724
000140 cb cb ce 3d 39 3c 9d 3e 73 ac 47 3e 3a 1e 6a 3f
       0.10097464 0.3071001 0.19499378 0.9145237
000150 a5 e3 ad be 88 8d ee be cd fb bc 3e 2e 44 12 bf
       -0.33962741 -0.46592355 0.3691086 -0.57135284
000160 94 d3 f0 3d aa 22 b2 3a 99 c6 9e 3e 7c a3 9a 3e
       0.11759105 0.0013590653 0.31010893 0.30202854
000170 4b bb 2c 3d c3 0c 7e 3e 36 a5 09 bf 9e e1 6a be
       0.042170804 0.24809556 -0.53767717 -0.22937629
000180 58 ab 54 be dd 23 6c 3e aa 08 c5 3e a5 96 c3 be
       -0.20768487 0.23060556 0.38483173 -0.3820087
000190 8f 9d 19 3d ea 15 6c 3e cb da 27 bd ef f2 c9 3e
       0.037503775 0.23055235 -0.04098014 0.39443156
0001a0 49 17 de 3d b3 13 20 3e a8 f3 6c be 87 3a 63 be
       0.10844285 0.15632515 -0.23139822 -0.22190295
0001b0 c0 5a 47 be ca 61 82 bd 6b e3 12 3f 6d d6 07 bf
       -0.19468212 -0.06366308 0.5737826 -0.5306156
0001c0 d2 59 b6 3b 46 97 ca be f9 e7 26 bd 21 d0 65 3e
       0.0055649066 -0.39568537 -0.04074857 0.22442676
0001d0 74 9a f1 bb c7 1d c8 be 4f a8 c0 be fa 52 96 be
       -0.0073731486 -0.39085218 -0.3762841 -0.2936018
0001e0 75 29 e4 3e ca 60 00 3e 14 e4 98 3e 5d 60 4c 3f
       0.4456288 0.12536922 0.2986151 0.7983454
0001f0 ee eb 31 3e f7 30 0b 3e 35 17 89 be d7 6c c6 3c
       0.17375156 0.13592897 -0.26775518 0.02422182
000200 15 2e ef 3c 9e 67 0b be 3c 53 34 be fd 5d 84 be
       0.029196778 -0.13613746 -0.17609876 -0.25852957
000210 cb 7e 12 be ce e4 de bc 22 d1 92 bd 56 c5 22 bf
       -0.1430618 -0.027208712 -0.07168795 -0.6358236
000220 6b c9 6e be c6 e6 84 bd 6d 80 37 bc 31 6f 6a bc
       -0.23319022 -0.06489329 -0.011200053 -0.014308737
000230 47 5c 05 be 9b f7 33 be f4 75 ec bd 06 59 1e be
       -0.13023482 -0.17574923 -0.11545935 -0.15463647
000240 33 1b b9 3e 45 80 c0 be bd 06 2d bc 4d 77 67 be
       0.36153564 -0.37597862 -0.010560689 -0.22604103
000250 9c eb 34 3f 10 87 24 3e 54 4c 38 be 6d 52 13 3e
       0.7067201 0.16067147 -0.17997867 0.14386912
000260 b3 fe 7b 3e f5 77 3f be 74 e3 ba be b4 26 ef be
       0.24608879 -0.18698104 -0.36501658 -0.46709216
000270 da 5c e9 bd f5 9b 43 3e 91 8f c2 3e 97 d8 08 3f
       -0.11394663 0.19102462 0.38000157 0.5345549
000280 32 f7 97 bd 46 d6 74 bc ab 7f f5 bd 30 dc ac 3e
       -0.07420196 -0.014943665 -0.11987241 0.3376174
000290 e9 0e ec bd ab b1 81 be 49 f5 e0 be 02 5a 9b 3e
       -0.115262814 -0.25330862 -0.43937138 0.30342108
0002a0 19 c4 8d be ac 4c 3b be 33 03 ae 3d 6d 3d 14 bf
       -0.27688673 -0.18290967 0.08496704 -0.5790623
0002b0 58 08 6e bd f5 37 6d 3e f6 f5 a1 3e 8a 53 1b 3e
       -0.058113426 0.23165877 0.31632966 0.15168586
0002c0 69 5c 85 be 4c 34 f7 bd cc 2f e2 be 2c 14 80 3b
       -0.26047066 -0.12070522 -0.4417709 0.0039086547
0002d0 d1 17 1c bb 11 19 0d 3f fb c7 72 3e e2 aa 72 3e
       -0.0023817907 0.55116373 0.23709099 0.23697999
0002e0 87 fa d6 be 01 0b 03 be bb ff 5e 3e 84 b8 c8 be
       -0.41988012 -0.12797166 0.21777241 -0.39203274
0002f0 eb 9c 58 3e 78 7c 5f bd 94 ad 59 3e 62 a7 01 3e
       0.2115361 -0.054562062 0.21257621 0.12661508
000300 32 97 24 be b5 d6 5b be 6b 97 45 be cb eb b6 bd
       -0.16073301 -0.21468623 -0.19296043 -0.08931693
000310 d2 7c 93 3e 8e 8a c7 3e de a9 ba be 6f 91 a9 be
       0.28806168 0.38972896 -0.36457723 -0.3311877
000320 2a 0c 82 bd 01 50 ca be 77 3c ea bc 1e e4 8f be
       -0.06349976 -0.39514163 -0.028593285 -0.28103727
000330 3c ca 6c 3e 2a a9 a5 3d c2 a5 6c 3c fc 9e f3 bc
       0.23124021 0.08088906 0.014443817 -0.029738896
000340 eb 0d 19 3e e8 ed 3f 3e 0b 28 0b 3f 52 14 d2 bd
       0.14946716 0.18743098 0.54357976 -0.10257782
000350 cf 20 3f 3e 54 d1 2b 3e c5 aa 88 3e 6a 6c 23 3e
       0.18664859 0.16779071 0.26692787 0.15959325
000360 b5 a7 88 3e e7 2e 03 3e 8b 84 c7 3e d4 23 a2 be
       0.2669045 0.1281086 0.3896831 -0.3166796
000370 41 bb 1f be 8c fe 92 3d 6f 14 91 be 61 80 3e 3e
       -0.15598775 0.07177457 -0.28335902 0.1860366
000380 d6 db 59 3c f6 ee de be 94 c7 ee 3e b7 1b 38 be
       0.013297042 -0.43541688 0.4663664 -0.17979322
000390 a3 38 dc 3b bb 71 09 3e c9 6e 9f 3e a9 c3 76 be
       0.006720619 0.13422291 0.3113921 -0.24098076
0003a0 55 f0 4f 3e d6 bf 91 be 09 31 2f be f4 a7 78 be
       0.20306523 -0.28466672 -0.17108549 -0.24282819
0003b0 96 76 c8 bb 36 09 3d bc f9 48 94 3d 16 d3 e4 3e
       -0.006117652 -0.011537841 0.07240481 0.44692296
0003c0 42 a5 cf bd a8 cc 8b be 92 16 cf 3e 8d 38 da 3c
       -0.10138942 -0.27304578 0.40446907 0.026638294
0003d0 50 a9 be 3d 7a 18 f0 3e 0c ac 7e be 1f 93 54 3e
       0.093096375 0.46893674 -0.24870318 0.20759247
0003e0 1e c9 90 bd 90 6f 24 bd 85 04 41 be f9 f2 8e be
       -0.0706961 -0.040145457 -0.1884938 -0.27919748
0003f0 93 17 ea 3b 6d 37 04 bf aa a7 9b 3d 67 36 aa be
       0.0071439235 -0.51647073 0.07600339 -0.3324463

rnn.bias_ih_l1 f4 [50]
000000 32 49 2b 3e ed d4 85 3c 97 d0 f8 3c 7b 48 c3 bd
       0.1672714 0.016336882 0.0303729 -0.09535309
000010 a8 ef 8c 3c a0 cc f4 3d ac 8b 2a 3e b3 9d 17 be
       0.01720412 0.119530916 0.16654843 -0.14806251
000020 30 12 16 be af bd e6 3d 4f 16 59 3e 1a c0 96 bd
       -0.14655375 0.11266648 0.21199916 -0.07360859
000030 14 19 05 be 3d ec 95 3d 17 62 3a 3d a3 24 8d bd
       -0.12997848 0.073204495 0.045503702 -0.068917535
000040 9d 92 27 bd e7 02 82 3d 21 ef 42 3d 01 bf 42 be
       -0.040911306 0.0634821 0.047591332 -0.19018175
000050 2e 9a bd 3e 02 65 78 3d 44 28 46 bd 80 ba 12 be
       0.37031692 0.060643204 -0.048378244 -0.14328957
000060 fa db 21 bf 58 0f 3d bc 27 48 76 3d d9 2e 8d 3d
       -0.6322628 -0.011539303 0.060127404 0.06893701
000070 0d 01 99 3e ec 29 30 be 38 80 94 be 88 e6 0b be
       0.29883614 -0.17203492 -0.29004073 -0.1366216
000080 b5 19 14 3d b5 f2 31 3d d8 80 e0 be e1 e7 06 be
       0.03615733 0.043444354 -0.438483 -0.13174392
000090 ff fe e7 3b 4c e0 2e be 46 2a 3b be a0 b4 a2 3d
       0.0070799585 -0.1707775 -0.18277845 0.07944608
0000a0 c9 d1 23 3e 26 db 15 be a9 c7 5e be 37 89 8b be
       0.15997995 -0.1463438 -0.21755852 -0.27253124
0000b0 8f 88 f8 3d aa 54 f6 3b f9 ff 7e 3d 3f fd 7b bd
       0.121354215 0.007517417 0.062255833 -0.06152081
0000c0 d4 b3 6e 3e 7d 66 1f 3e
       0.23310786 0.1556644

rnn.bias_hh_l1 f4 [50]
000000 91 87 48 3e 49 f3 bf 3d 31 43 0e 3d 61 87 44 be
       0.19582964 0.09372575 0.034732047 -0.19192268
000010 4f a4 8d 3d 9e 5e 38 bd 10 b3 28 3e d1 44 ca bd
       0.06916105 -0.04501211 0.16474557 -0.09876407
000020 08 c7 36 be 65 af 9e 3d b8 0f e6 3d d3 72 f3 bd
       -0.17849362 0.077482976 0.11233467 -0.11887135
000030 57 18 6b be 46 15 08 be b4 15 4e 3d e7 f3 b7 3d
       -0.22958504 -0.13289365 0.050313666 0.089820676
000040 bf 81 63 3d a0 2b d8 3d 42 62 71 bd 76 b7 28 be
       0.055543657 0.10555196 -0.058931597 -0.16476235
000050 23 8e ab 3e db 56 00 3e 98 57 75 3d 01 be a1 bd
       0.3350688 0.12533133 0.05989799 -0.078975685
000060 db fc 28 bf 56 76 bb 3d 33 9e 0c 3d 9f 4d 10 be
       -0.66010827 0.0915343 0.034330558 -0.1409211
000070 5e ef 97 3e 44 ac 96 be ca 67 8f be 97 ec 7c be
       0.2967481 -0.29428303 -0.28008872 -0.24699627
000080 8e ef 81 3d 40 6d 92 bc 4d 17 05 bf 90 28 5d be
       0.063445196 -0.01787436 -0.5198868 -0.21597505
000090 1f e4 ce bd 98 fd 2f 3d 79 e1 ba 3a e2 c6 63 3e
       -0.101021044 0.042966455 0.001425787 0.22243837
0000a0 88 33 a0 3e 44 70 bc bc ae 14 3d be 41 37 bc be
       0.31289315 -0.023002751 -0.1846492 -0.36760905
0000b0 46 17 1d 3c 09 f3 f1 3d 1a f4 83 3e 23 1d c0 bd
       0.009588068 0.118139334 0.25772172 -0.093805574
0000c0 24 4d bb 3e b8 67 c0 3d
       0.3658229 0.09394783

fc.weight f4 [1, 50]
000000 48 86 13 3d 3f a9 20 3d 10 80 a9 bb 90 c5 06 bc
       0.036016732 0.039223906 -0.005172737 -0.0082258135
000010 75 ef 81 3c 58 3c e1 3d c2 5a 44 3d c2 61 07 bd
       0.015861252 0.10997838 0.047938116 -0.033052213
000020 e0 f4 18 bd 43 bf 62 bd 3f 84 64 3c c3 32 01 3e
       -0.037342906 -0.055358183 0.013947546 0.1261702
000030 f8 15 cc 3e 95 49 54 bd a1 54 5f bd b1 21 3c 3d
       0.3986051 -0.051827986 -0.054524068 0.045930568
000040 ee 28 14 bb 00 2d 20 bd 7f 7f 1a 3d 56 b2 89 3d
       -0.0022607404 -0.039105415 0.037719246 0.06723468
000050 e4 ee 36 3d 90 df 4a be f3 61 c9 3c 92 2f 19 bc
       0.044661418 -0.19811845 0.024582839 -0.009349721
000060 32 c8 38 be eb 58 d6 bc cd 54 8f 3d 1e a8 71 3b
       -0.18045118 -0.026165446 0.06998596 0.0036873887
000070 b8 a1 71 bd 53 66 be bc 3c 9d 15 3d 2f e5 10 3d
       -0.058992118 -0.023242151 0.036526904 0.035374817
000080 ff cc ab 3d 8b 70 0d 3d dd e5 94 3d 89 aa ce bd
       0.08388709 0.034531157 0.072704054 -0.10091121
000090 e6 87 a7 3b f8 b5 c6 3d f0 c1 b4 bc fa 14 47 3d
       0.005112636 0.097026765 -0.022065133 0.04860399
0000a0 1b 2a 80 bc 7b d2 5e 3d 51 eb 02 bd 5b a9 da 3d
       -0.015645077 0.05439995 -0.031962696 0.10676833
0000b0 ae d7 a0 3d dc 25 19 3d c5 44 fe 3d c6 da 80 bc
       0.07853638 0.03738962 0.124154605 -0.01572932
0000c0 3a 05 43 3d f4 2b e0 bc
       0.047612406 -0.027364708
