Networks/CHZBTC/askSeed2.pt (torch, 33123 bytes, 9 tensors)

rnn.weight_ih_l0 f4 [50, 1]
000000 98 df fe bf 20 55 d7 bf 95 c5 87 3f 15 e1 a6 3e
       -1.9911985 -1.6822853 1.0607172 0.325936
000010 22 d6 cd 3e 0f 2d 73 bf 44 65 ad 3d c2 7e 3d bf
       0.40202433 -0.9499063 0.084665805 -0.7402154
000020 5e e1 6b be 0a 24 13 bf b8 20 cb bd 4e f2 35 c0
       -0.2303519 -0.57476866 -0.0991835 -2.842914
000030 21 4e ef 3d 96 ac 33 3d 8f 74 6a bd 9e b6 44 40
       0.11684824 0.043865763 -0.057240065 3.073646
000040 a2 f6 db 3c 56 98 2c bf fd da 9e be 50 9e 2f 3d
       0.026851002 -0.67419946 -0.3102645 0.042875588
000050 7b 9d 01 3f ba c1 93 3f f3 9c 1c 3f 39 c9 44 3f
       0.5063092 1.1543496 0.61176986 0.7686954
000060 14 74 cb bd 91 79 b8 bf 78 4e 29 40 4c f0 24 3d
       -0.099342495 -1.4412099 2.6454144 0.040268227
000070 42 04 6d 3f d0 57 0c 3f 35 17 42 bf 1c b8 5b be
       0.9258462 0.5482149 -0.7581666 -0.21456951
000080 d0 d2 b7 be 94 ba fb 3f bb 45 ac 3e c5 5b ca bf
       -0.35903025 1.9666314 0.3364695 -1.5809256
000090 e5 10 08 3d 67 06 46 be 14 4b e4 3d 4c ad a6 3e
       0.033219237 -0.1933838 0.111471325 0.3255409
0000a0 77 11 39 be a8 82 2a bf df af 8f bf 59 c8 80 3f
       -0.18073069 -0.66605616 -1.1225547 1.0061141
0000b0 30 d8 89 bc 2f e5 18 3e 6a 2e d6 be 91 0f c1 be
       -0.016826719 0.14931177 -0.41832286 -0.3770719
0000c0 b9 53 4d bf 1d ef a2 3f
       -0.80205876 1.2729222

rnn.weight_hh_l0 f4 [50, 50]
000000 29 65 ca 3e dd 8c 3a 3e 43 63 68 be 1b 0e 68 bc
       0.39530304 0.18217798 -0.22694115 -0.014163519
000010 09 3d 89 bd 48 99 10 3f 9d 14 af bd f3 51 4d be
       -0.06701095 0.5648389 -0.085488535 -0.20050792
000020 09 85 2e 3e 18 34 a0 be aa 2a 83 be d0 0c 17 3f
       0.17042936 -0.31289744 -0.25618488 0.59003925
000030 74 e6 9e bd 23 25 52 be ed 02 d4 be 46 b4 82 be
       -0.07758799 -0.20521979 -0.41408482 -0.25528163
000040 72 a2 dd 3e f7 07 91 be 3d 8d 1a bf 9d d3 c3 be
       0.43287998 -0.2832639 -0.6037176 -0.38247386
000050 ec 0f 0c 3f ce 1e 41 3f 51 c1 0e bf e3 9b 18 3f
       0.54711795 0.7543763 -0.5576373 0.59612864
000060 2e 13 66 3e 49 5c 41 bf 4a 6a d1 3d cf 69 37 be
       0.22468254 -0.7553144 0.10225351 -0.17911457
000070 40 23 4b be b9 76 90 3c ff 4f d9 be 32 30 27 bf
       -0.19837666 0.017634736 -0.42443845 -0.65307915
000080 24 2b fc be 18 53 52 bc 36 84 0d bf 2c 56 8a 3e
       -0.49251664 -0.012837194 -0.5527986 0.2701887
000090 ce e3 92 be 13 c1 e2 3e 62 91 58 3d 8c 15 0f 3f
       -0.28689426 0.4428793 0.052873023 0.5589225
0000a0 16 e1 bb bd 3b af 8a 3d ca 9a 00 bf c3 f6 cb 3c
       -0.09173791 0.06771704 -0.5023619 0.024897939
0000b0 20 32 71 be 84 0b c4 3e 3f a7 25 3f 56 4f d0 3e
       -0.23554277 0.38290036 0.6470832 0.4068553
0000c0 1c d5 2c 3f 90 2d 39 3e f8 41 89 3e 19 ef 38 3f
       0.6751268 0.18083787 0.26808143 0.72239834
0000d0 fd 5f 8c be ec e7 36 bd 23 0a 33 bd 0f 13 35 3e
       -0.27416983 -0.04465477 -0.04371084 0.17683052
0000e0 ac 56 c3 3d d7 e5 d5 3c 79 f7 48 be 56 e0 8a 3d
       0.09538016 0.026110573 -0.19625653 0.0678107
0000f0 8d b0 bf bd e9 97 c5 3e db 2b 97 bd 1a 03 43 3e
       -0.09359846 0.3859246 -0.07381412 0.19044152
000100 c2 5e 3e 3e 09 f8 82 bd fc 15 03 be 05 1f 01 bd
       0.18590835 -0.06394965 -0.12801355 -0.031523723
000110 1d ea c5 be 70 66 c3 3d 79 84 61 3e d7 ac da 3d
       -0.38655177 0.09541023 0.2202319 0.10677498
000120 24 b4 ac bd 08 e8 07 3e 14 d2 b6 3d 24 32 81 be
       -0.084327966 0.13272107 0.08926788 -0.25233567
000130 27 2a ca bd 01 09 db bd 4e 70 44 be eb 4e e8 bd
       -0.09871321 -0.10695077 -0.19183466 -0.113431774
000140 47 49 a9 3d ba 89 19 bd b1 ec 86 3e 01 b9 5f be
       0.0826593 -0.037484862 0.26352456 -0.21847917
000150 8d e2 ae be 2f 26 5f 3e cb f0 6b 3e 34 c5 12 3f
       -0.3415722 0.2179191 0.23041074 0.5733216
000160 8b 6c 91 be 6f 73 5f 3e 4d 31 db 3d fc a9 42 bd
       -0.28403124 0.21821378 0.10702763 -0.04752539
000170 12 2b 2b 3e 22 cd 9e bd 43 b7 b0 3d 6d 4a 84 bd
       0.16715649 -0.0775397 0.086287044 -0.06459508
000180 5f 9a 3d 3e 81 41 63 bd c0 31 8c 3e 78 6e 0c bf
       0.18515919 -0.05548239 0.27381706 -0.5485606
000190 22 fa 57 bf 1e 62 e8 3c 72 33 07 3f b6 53 8e bd
       -0.8436605 0.028367098 0.52812874 -0.0694956
0001a0 a1 c7 18 3e b0 b3 6d bf 57 a7 82 3e e8 57 da 3c
       0.14919902 -0.92852306 0.25518295 0.026653245
0001b0 e4 57 83 be 03 b1 49 3d b3 e1 8c 3e b8 8a 32 bf
       -0.25652993 0.049241077 0.27515945 -0.6974292
0001c0 1b 09 66 be d1 1b 91 3e 84 55 8e 3e c1 ea 88 bc
       -0.22464411 0.28341535 0.27799618 -0.016713502
0001d0 04 b8 4a be 3d b6 32 3f 85 5d 86 3e c3 48 e0 3d
       -0.19796759 0.69809324 0.26243225 0.10951378
0001e0 7c 56 e7 be 5d bd 5f bf 0d 9f ed 3e ea c6 0c bd
       -0.4518317 -0.8739832 0.4641041 -0.034369387
0001f0 2a e6 9c 3d 6b 40 5a 3f 56 32 e0 3d 1c 4b 05 3e
       0.07661088 0.85254544 0.10947101 0.13016933
000200 f7 18 46 bd 29 5e 18 be ec 0d ec 3e b1 49 0c 3f
       -0.048363652 -0.14879669 0.46104372 0.54799944
000210 23 0e 42 3c e6 39 1e be 31 1e 2b 3f 75 e8 c8 3c
       0.011844191 -0.15451774 0.66842943 0.024524907
000220 9a 66 86 3e 5e d2 c4 be d8 6b 47 be a0 41 60 be
       0.26250154 -0.38441747 -0.19474733 -0.21900034
000230 b6 c2 c7 3e 60 c4 7b 3e da 46 f9 3e 83 df 27 3f
       0.3901574 0.2458663 0.48686868 0.65575427
000240 0d 88 be 3d 78 68 d5 bd b6 b9 de be 09 2e d9 be
       0.093032934 -0.104203165 -0.4350106 -0.42417935
000250 bf a2 15 bf f5 4b d9 3f 1d d7 1c be c7 3b 19 bd
       -0.58451456 1.6976305 -0.15316434 -0.037410524
000260 fc 8f 75 bd 91 82 26 3e b4 1f 8f 3e fe 60 27 bc
       -0.059951767 0.16260745 0.27953875 -0.010215996
000270 22 da e1 3e a1 49 7b 3e af 11 da be 6c 11 86 3e
       0.44111735 0.24539806 -0.42591617 0.26185167
000280 a6 20 ce 3e d5 b4 6f bd 50 f2 fa 3d e7 e3 98 3e
       0.40259284 -0.058522064 0.12253249 0.29861376
000290 06 75 0f 3e d3 c9 a8 be a0 ec 5d be 4e a1 36 3e
       0.14009485 -0.3296648 -0.21672297 0.1783497
0002a0 b3 92 b1 bd 54 2c 94 3e 90 55 aa 3b de fc ee bd
       -0.08670559 0.2894007 0.005198188 -0.11669324
0002b0 bf 0c 0d be 54 46 40 bd 94 90 9f 3e b9 71 90 bc
       -0.13774393 -0.04694207 0.31164992 -0.017632352
0002c0 9c a6 b6 be bd 42 d0 3e f2 af 49 3e cf ba 95 3e
       -0.35673988 0.40675917 0.19696024 0.29244086
0002d0 a0 83 a2 39 72 9b 4c bd a3 e8 c6 3e e2 30 05 bd
       0.00030997116 -0.04995293 0.38849363 -0.03251732
0002e0 53 f7 1a 3e e8 de 1b be e8 44 bc 3e 82 20 03 3e
       0.15133409 -0.1522175 0.3677132 0.1280537
0002f0 c0 97 04 bf 19 cc b0 3b c2 8d 90 3e cd 55 21 be
       -0.5179405 0.005395424 0.28233153 -0.15755387
000300 3d 45 a3 3d b2 10 44 3e 35 70 00 3f 4d 0e 22 be
       0.079721905 0.19146994 0.50171214 -0.15825768
000310 18 c6 55 be 88 48 2d be 6e 67 5a be f9 2a 6f be
       -0.20876348 -0.169222 -0.21328518 -0.23356237
000320 aa 3d 2b 3e 13 76 11 3d 05 c9 75 be ed 9a 95 3e
       0.16722742 0.035512995 -0.24002464 0.29219761
000330 7a 39 02 3f b7 9d bd bd 5d ed f3 3e 04 98 f9 3e
       0.5086895 -0.09258597 0.4764203 0.4874879
000340 5e f6 e3 be ef 10 e8 3e 2c 6a b2 3e 65 a8 ed 3c
       -0.445239 0.4532542 0.34846628 0.02901096
000350 1f e9 fe 3d 07 64 9d 3e ce 54 93 3e 88 ff 9f be
       0.12446808 0.30740377 0.28775638 -0.31249642
000360 41 23 c0 be fa ee 00 3e 5b 60 fe 3a ce c7 c2 3e
       -0.37526897 0.12591162 0.0019407378 0.38043064
000370 0b db 6d 3d 61 64 b9 3e 3b 46 64 3e a2 85 48 be
       0.058070224 0.36209396 0.22292416 -0.19582227
000380 e5 d6 02 3f dd bc 54 3d df 3e 92 be 38 0b ca 3e
       0.51109153 0.051937927 -0.28563592 0.39461684
000390 c8 ba a2 bd 79 98 6f 3e 51 0f 48 be 04 eb 90 bd
       -0.07945782 0.23398007 -0.19537093 -0.07076076
0003a0 af 79 9e 3e ec 8c 31 be 1a 36 28 3e f2 82 5c 3d
       0.30952212 -0.17338914 0.16426888 0.053835817
0003b0 40 56 00 3f 2e 27 c5 3d 99 5a f7 be 05 18 de bd
       0.5013161 0.096266136 -0.48311308 -0.10844425
0003c0 54 ff 8c 3e 0a a4 21 be b3 ca 76 bd 94 85 23 3d
       0.2753855 -0.15785232 -0.060251903 0.039922312
0003d0 20 bb 0d 3f f1 01 bb be db 0c 3c be 94 34 8b be
       0.55363655 -0.3652492 -0.18364279 -0.2718855
0003e0 45 5c 03 be 87 01 c8 bd 3f da e9 3e 33 bf f9 be
       -0.12828167 -0.09765916 0.4567432 -0.48778686
0003f0 59 b6 42 3e a4 64 14 3e 3f 2f 40 3d ca e9 f1 3e
       0.19014873 0.14491516 0.046920057 0.4724868

rnn.bias_ih_l0 f4 [50]
000000 ab 84 95 3c 91 fc 95 be 02 d0 64 3e 1e c4 f9 3e
       0.018251738 -0.29294255 0.22344974 0.48782438
000010 60 ad 7d 3e 5a 11 bb 3e d3 37 8d 3e 5d ee 32 3f
       0.24773169 0.36536676 0.27581653 0.69894964
000020 74 8d 8b be 99 d5 f0 3e 9f 38 83 3e 8f d7 e0 3d
       -0.27256358 0.47037962 0.25629136 0.109786145
000030 d4 ed 01 3f aa 44 19 3b bf f6 ad 3d aa 0f 71 3e
       0.5075352 0.0023386874 0.08494329 0.23541132
000040 c9 68 18 bd 39 81 e3 3c f1 34 df bd 9f fb 20 3f
       -0.037209306 0.02777158 -0.1089877 0.62883943
000050 ed d7 41 3e 53 fb 40 3e 63 ad 18 be ca 36 75 be
       0.18930025 0.18845873 -0.14909892 -0.23946682
000060 7f 8d 2b be c7 bd bd be cc ac 24 bf 82 70 cc 3e
       -0.16753195 -0.3705885 -0.6432617 0.39929587
000070 52 d5 ab 3e d3 f4 18 3f 83 d8 90 bd c6 52 81 be
       0.33561188 0.5974857 -0.07072546 -0.25258464
000080 f8 7d b8 3e ca d5 bf 3e 6f c0 dc bd e1 74 f0 be
       0.36033607 0.37467796 -0.10778891 -0.46964172
000090 51 b1 71 3e 40 ce da 3e 3c dd a1 be 15 37 b9 3d
       0.23602797 0.4273548 -0.316141 0.09043709
0000a0 ac 55 01 3e 18 cd 30 bf 80 2a 21 be b0 2b a2 3b
       0.12630337 -0.6906295 -0.15738869 0.0049490556
0000b0 a3 bd f7 3e d5 6b 83 be ca d9 b7 3d f1 b4 aa bd
       0.4838687 -0.25668207 0.08977087 -0.08335293
0000c0 9a d8 09 3d e2 f3 b8 bd
       0.033653833 -0.09030892

rnn.bias_hh_l0 f4 [50]
000000 88 84 65 3e 25 1a 0a bf 30 c3 88 3e 4f 3a 42 3f
       0.22413838 -0.53946143 0.26711416 0.7587022
000010 00 65 99 3e cf e0 13 3e 92 b8 9b 3e bc 25 6b 3f
       0.2995987 0.14441226 0.30414253 0.91854453
000020 0b 50 7e be 02 5d a7 3e f8 af 7d 3e 38 f9 0d 3e
       -0.24835221 0.32688147 0.24774158 0.138646
000030 c6 21 dd 3e 6f a9 87 3c 57 87 63 3e 6b 94 94 3e
       0.4318983 0.016560284 0.22219597 0.29019484
000040 61 da 79 be b7 c8 0c bc d6 ca e4 3c 1f ed 15 3f
       -0.24399711 -0.008592776 0.027928751 0.58564943
000050 fc 56 4e 3e 17 04 15 bd a0 d8 26 be 2a 97 5c be
       0.2015037 -0.036380854 -0.16293573 -0.2154204
000060 cb 1c 54 be 16 6e 9c be c2 05 47 bf 8a 32 77 3e
       -0.20714109 -0.3055274 -0.7774316 0.24140373
000070 c0 bd c2 3e 25 7f 1a 3f 18 57 f8 bc 2f b7 59 be
       0.38035393 0.6035026 -0.030314967 -0.21261285
000080 c1 c0 fe 3e 7e 52 4a 3e 9f 5b c7 bc 6b 63 07 bf
       0.49756435 0.19758031 -0.02433568 -0.52886075
000090 0c d5 87 3e e6 91 a9 3e 83 d3 57 be 8b ef 02 3e
       0.2652973 0.33119124 -0.21076779 0.12786691
0000a0 44 01 12 3e 5d 0a fa be e4 ce 50 be 00 1c 77 bd
       0.14258295 -0.48836032 -0.20391423 -0.060329437
0000b0 49 fb e2 3e 0a d3 14 bd 81 02 e0 3c c7 fe 80 bc
       0.4433234 -0.036334075 0.027344944 -0.015746487
0000c0 ca 29 27 3d 79 e2 91 3d
       0.040811338 0.07123274

rnn.weight_ih_l1 f4 [50, 50]
000000 89 99 25 be 9b a0 18 3c e2 46 b0 3e d8 f8 a9 bd
       -0.1617185 0.009315635 0.3442908 -0.08299416
000010 31 97 aa 3a 3d 0f e9 bc f3 7a be bd f1 02 5c 3c
       0.0013015029 -0.028449649 -0.093007945 0.013428436
000020 97 e6 9f 3d 89 5b 6a be 6e b6 09 be 43 87 da bd
       0.078076534 -0.2288648 -0.13448498 -0.106703304
000030 d1 9b 86 be 8d 47 68 3d bb f2 54 be da cf 40 3e
       -0.26290753 0.05670886 -0.2079572 0.18829289
000040 ad 41 41 3a 16 b0 57 3e 39 8e 06 3d 7c 06 8f be
       0.0007372152 0.21063265 0.032850478 -0.27934635
000050 10 64 10 be c3 5e 47 bf f9 9d 10 bd 7d 71 57 bd
       -0.14100671 -0.7787897 -0.035306904 -0.052598465
000060 f9 fe 3f be fa f6 a9 3e fc 3c 89 3e 18 ec 19 bd
       -0.18749608 0.3319624 0.2680434 -0.037578672
000070 d3 50 2a 3d 38 2d 2d be 87 ce 95 3e 3b 3f b0 3e
       0.041580986 -0.16911781 0.2925913 0.3442324
000080 47 7f 76 be c5 6e 68 be 3e 76 4d 3c 35 66 33 bd
       -0.2407199 -0.22698505 0.012540398 -0.043798644
000090 dd 94 a6 bd 7d 53 7e be d4 c0 99 3e 28 b3 a9 bc
       -0.08133862 -0.24836536 0.3002993 -0.020715311
0000a0 fe ea 00 3e ea 1d 2d 3e 6b 99 0a 3f ce 5b 8a 3e
       0.12589642 0.16905943 0.5414035 0.27023166
0000b0 47 e7 3a 3d 5f 5b e0 3d de 1f 76 bd 7e 1c 38 3e
       0.04563072 0.10954928 -0.060088985 0.17979619
0000c0 9a 73 46 be bf f7 56 3e 72 88 10 bc 07 f9 cc 3c
       -0.19380036 0.20992945 -0.008821594 0.02502109
0000d0 21 df e9 be 5a 82 bd 3c dc 9c 9d bd 6a 3b de 3e
       -0.45678046 0.023133446 -0.07695934 0.43404704
0000e0 5b c1 82 3d 6c ad 3f 3e 7f 70 5a 3e ce 0a 1a 3e
       0.06384536 0.18718499 0.21331976 0.15043184
0000f0 e9 be 80 bd 60 e6 db 3d 9b 30 6f 3c 00 9f 8f be
       -0.06286413 0.107373 0.014598991 -0.28050995
000100 52 e4 36 be 5a 52 76 3e ee 8a 3a 3c 75 fd fb bd
       -0.17860535 0.24054852 0.0113856625 -0.123042025
000110 b8 20 61 bd a7 bb 26 3d 81 fd 78 be 9e 07 e7 3b
       -0.054962844 0.040706303 -0.24315454 0.0070504686
000120 68 78 a8 be 3f f7 9d be 40 98 9f bd 51 0e 40 be
       -0.32904363 -0.30852696 -0.07792711 -0.18755461
000130 67 87 a5 bd 8e f8 12 be f8 3e d2 bd b2 61 54 bc
       -0.080824666 -0.14352629 -0.102659166 -0.0129627455
000140 71 3b 7e 3c 61 51 ba bc e1 8c 18 3e b9 b3 38 be
       0.015517102 -0.022743883 0.14897491 -0.18037309
000150 8f 52 9b be f2 91 35 3e 85 6a 55 be e5 ec db 3e
       -0.30336425 0.17731455 -0.20841415 0.42954174
000160 90 57 4e bd f1 1e ef 3d 63 a7 3c bd fe 9c 2e bd
       -0.050376475 0.116758235 -0.04605807 -0.04263019
000170 09 f8 0a 3d 3b 8f 65 be c5 40 f2 3d bb 66 ef 3c
       0.03392795 -0.2241792 0.1182876 0.02922379
000180 c2 22 4b 3e 83 da 52 3e ba 04 be 3e 52 c2 ec be
       0.19837478 0.20591168 0.3711298 -0.46242005
000190 76 81 a0 3d 45 fb ad 3e 2b ab a6 3d d8 20 d4 3d
       0.07837193 0.33980766 0.081381164 0.10357827
0001a0 58 ac 35 3e e0 8a 4a 3c fd 01 cf 3e 8f 22 fc 3d
       0.17741525 0.012362212 0.40431204 0.12311279
0001b0 4c d8 31 be 7b 84 cc 3e c6 9d 63 3e 56 aa 17 3d
       -0.17367667 0.39944825 0.22228155 0.03702768
0001c0 60 7c ff 3b 66 fa 24 3e af b9 93 3e da 66 6d be
       0.007796809 0.16111144 0.28852603 -0.23183766
0001d0 0d 46 92 be 2d ae 10 3e 14 3d a2 be 8f 61 e5 3e
       -0.2856907 0.14128943 -0.31687224 0.44800994
0001e0 b2 e8 2a 3e 32 10 e2 3d 21 7e 9b 3e 8b b7 32 3e
       0.16690329 0.11038245 0.30369666 0.17452829
0001f0 7e f6 7b 3e f1 24 88 3d 09 84 40 be 20 ee 47 3e
       0.24605748 0.06647671 -0.18800367 0.19524431
000200 4d 06 0a 3e 13 a7 17 3e 23 f7 e6 3d f8 43 ba bd
       0.13478966 0.14809828 0.11277606 -0.09094995
000210 b6 45 8b 3e 41 db 90 bd d3 15 9b 3d ef 63 16 be
       0.27201623 -0.07073069 0.07572522 -0.14686559
000220 48 c0 16 3e ca 31 d4 bd 5f be b9 be 0f aa 03 be
       0.14721787 -0.10361059 -0.36278054 -0.12857841
000230 25 c1 a2 3e a7 01 81 3d d0 eb 0c be db f8 18 3d
       0.31787983 0.06299143 -0.1376183 0.037346702
000240 2c 0f 2f 3e 37 53 ca be 79 e3 b9 bd 64 61 91 be
       0.17095631 -0.39516613 -0.0907659 -0.28394616
000250 69 98 35 be 48 b5 6d 3e 94 2a e5 bd a8 70 02 3e
       -0.17733921 0.23213685 -0.11189762 0.12738287
000260 09 6d eb 3d eb 8c 0c 3e 7a 8b 6b be fc ef a6 be
       0.11495406 0.13725631 -0.23002425 -0.3260497
000270 74 02 be bd e4 43 90 bd 5d 9c 34 be ad 9f 15 3c
       -0.09277812 -0.07044199 -0.17637773 0.009132308
000280 cb a1 60 3e 69 8d 4b bd 45 6c e2 bd 09 ba 1e 3e
       0.21936719 -0.049695406 -0.11055807 0.15500654
000290 92 72 95 3c 04 b7 59 bd 6a a3 48 be 48 72 ce 3d
       0.018243108 -0.053153053 -0.19593588 0.10080391
0002a0 c4 9f 15 be 88 c9 0e be 44 6a ed bd a0 05 59 be
       -0.14611727 -0.13944066 -0.11592534 -0.21193552
0002b0 18 a0 01 3f 9e 60 33 3d 24 ce 19 3d 1e c0 b4 3d
       0.5063491 0.043793313 0.037550107 0.08825706
0002c0 08 c9 78 3e eb 54 a2 3c f6 a5 17 3e a0 a2 1a be
       0.24295437 0.019815883 0.14809403 -0.15101099
0002d0 ba 0e 99 3e 7e 10 c6 3b 3d 3c 43 be f5 58 1b 3e
       0.29894048 0.0060444465 -0.19065948 0.15170653
0002e0 cc 6c 72 3e 33 cb 62 3e 49 a8 07 3c 93 05 a9 be
       0.23674315 0.22147827 0.008279868 -0.33012065
0002f0 c9 51 2c 3d 21 91 64 be ec c1 95 3e 54 99 a0 3e
       0.042070184 -0.22320987 0.29249513 0.3136698
000300 cd 76 04 3e 73 ac 09 3d 97 fd f4 bd 6a 8c 6a bd
       0.12935944 0.033611726 -0.11962431 -0.057262816
000310 77 32 25 b9 d0 bf 84 be d0 8f 64 be 0b d6 1e 3e
       -0.00015754426 -0.2592759 -0.22320485 0.15511338
000320 de 21 b8 3d 14 a2 2a 3d 14 c0 f7 bd 35 07 b5 be
       0.08990835 0.041658476 -0.12097183 -0.3535706
000330 8e 2f b1 be 4a 9f 09 3e 44 b5 91 be 91 1e 51 be
       -0.34606594 0.1343967 -0.28458607 -0.20421816
000340 be cc e3 3c 49 ed 71 bd 4b 11 11 be 93 e9 93 bc
       0.02780759 -0.059064183 -0.14166753 -0.018055713
000350 ec a7 9a 3d b1 73 76 bd 0e c0 d3 bd ae 80 7e 3d
       0.0755156 -0.060168926 -0.10339366 0.062134437
000360 69 d2 12 3e ec 53 eb bd bf e2 28 be 26 4b 93 bd
       0.14338078 -0.11490616 -0.16492747 -0.07192068
000370 ef 2b 79 3d 12 e7 10 3e 29 96 80 be 88 f5 8e 3e
       0.060832914 0.14150646 -0.25114563 0.279217
000380 5e b6 4c be 1e 35 97 bd e2 af f0 3e 02 21 b4 bd
       -0.19991443 -0.07383178 0.47009188 -0.08795358
000390 79 f2 b2 be d4 39 2c be da 3a d9 bd 56 fe 4e 3d
       -0.34950617 -0.16818935 -0.10606928 0.050535522
0003a0 4d bb e1 bd 11 71 88 3e 58 09 66 3d 97 27 1c 3e
       -0.11022053 0.26648763 0.056161255 0.15249477
0003b0 f5 02 95 be 37 54 67 bd 2c 1e 54 3e 4d 4b 58 be
       -0.2910382 -0.056476798 0.20714635 -0.21122475
0003c0 66 d7 7b 3d 1f 54 e9 bd 3e b8 94 bc 5b 87 3c 3d
       0.061484717 -0.11392998 -0.01815426 0.046027523
0003d0 f5 f1 3a be 4a ad df 3c 45 f2 d5 bd ce 0f 91 3d
       -0.18256362 0.02730431 -0.104466 0.07083093
0003e0 93 49 5e 3e 3a f4 65 bc 31 62 80 3e dd 45 0d 3f
       0.21707754 -0.014035279 0.25074914 0.5518473
0003f0 1c 83 b7 be 47 a4 84 bd cf b3 83 be 88 76 9e 3e
       -0.35842216 -0.06476646 -0.2572312 0.30949807

rnn.weight_hh_l1 f4 [50, 50]
000000 cc c7 3b be d5 f3 48 be 3e a3 a3 3d 16 0b d9 3e
       -0.18337935 -0.19624265 0.0799012 0.4239127
000010 75 f8 d2 3e 15 70 a7 be 57 35 ab 3e e1 01 30 be
       0.41205183 -0.327027 0.33439133 -0.17188217
000020 19 24 a1 be e0 66 88 be fc 6c a8 be a8 0a 6a 3e
       -0.31472853 -0.26640987 -0.32895648 0.22855628
000030 04 42 22 be d3 7b 8f be 0d 74 81 be 21 01 45 be
       -0.15845495 -0.28024158 -0.25283852 -0.19238712
000040 ca d0 a7 be 9b 49 93 be 8f ee a0 bd 87 cb 59 be
       -0.3277648 -0.28767094 -0.078580014 -0.21269046
000050 1f cd ba be 96 18 60 bd cc bf 3f 3d 37 77 98 3e
       -0.3648462 -0.054710947 0.04681377 0.29778454
000060 d7 9f 49 3e 49 93 74 3e 7a 89 7e 3e cc 5a b0 be
       0.1968988 0.2388431 0.2485713 -0.34444273
000070 9c 67 bf bd 4a ca ca 3e cc 78 b6 3c b3 04 5e be
       -0.09345934 0.3960746 0.022274397 -0.2168148
000080 63 cb 6b 3e f8 a7 fc 3d 73 d9 ba 3e 1f 9e 9d be
       0.23026805 0.12336725 0.36494026 -0.307847
000090 76 b1 3a 3e 41 c1 a5 3e 36 f3 93 3e 3f 24 b0 be
       0.18231758 0.32374004 0.28896493 -0.34402654
0000a0 6b ce 51 3e a7 9f be bc f5 da 44 bd fb 0e ad 3e
       0.20488898 -0.023269488 -0.048060376 0.33800492
0000b0 6b 27 cd bc 86 de ee bd 50 f3 92 3e 9e cf 11 3e
       -0.02504321 -0.11663537 0.28701258 0.14239356
0000c0 4f 39 49 3e 0c 38 d4 bc df 97 0a bc f1 7f 27 3e
       0.19650768 -0.025905631 -0.00845906 0.163574
0000d0 9b 85 c3 bd 21 42 e7 be e6 76 bd bd 28 ce 85 3e
       -0.095469676 -0.4516764 -0.09251194 0.26133847
0000e0 6d 9e 95 be 5f d2 8f 3b f1 df ea 3c 98 b5 62 3e
       -0.29222432 0.004389092 0.028671237 0.22139585
0000f0 17 0d 93 3e 7c 9e af be 83 81 92 bd 5a 74 9e 3e
       0.28720924 -0.343006 -0.07153609 0.30948144
000100 44 63 81 3e 43 74 5f 3e 0b 4f be 3e 87 db 2c 3e
       0.25271046 0.21821694 0.3716968 0.16880618
000110 c5 e0 1e 3e c6 12 95 3d 6f 65 eb 3e e8 f9 04 bc
       0.1551543 0.072789714 0.45975825 -0.008116223
000120 3a 83 1a 3e 97 48 47 bd d1 fa 99 be 79 f8 23 be
       0.15089121 -0.04865321 -0.3007417 -0.16012754
000130 53 93 ab be f1 ec 0a 3e fd d7 6d 3e 53 50 58 be
       -0.33510837 0.13566948 0.23226924 -0.21124391
000140 ff 48 2d be f2 25 c7 3d 93 a0 b1 be c4 49 f2 3c
       -0.16922377 0.09724034 -0.3469282 0.02957619
000150 83 2e 02 be b5 7a a1 3d 39 34 21 be 73 5d 6e be
       -0.12713055 0.07884733 -0.15742578 -0.23277836
000160 52 37 58 be 7a a5 bd bd be c2 42 3c 17 54 49 3b
       -0.21114853 -0.09260078 0.0118872505 0.0030720287
000170 c6 69 f1 bd 29 62 1b be 2d 7a 89 3d 70 c1 01 bd
       -0.11787753 -0.15174164 0.06712756 -0.031678617
000180 dc 20 03 be 1d 1b d4 3c 85 4a d2 3b 41 6d ef 3d
       -0.12805504 0.025891835 0.006417575 0.116907604
000190 e8 82 cd 3d 9f fb 4d bd bf 53 1a 3e 77 2d cf 3d
       0.10034734 -0.050288793 0.15071009 0.101160936
0001a0 e4 de 9d 3d ca e6 bc bd 57 d1 43 3d df f9 9d 3d
       0.07708529 -0.09223707 0.047807064 0.07713675
0001b0 2b 6f 80 3e 2b f8 e9 bd d7 00 92 bd 63 a7 15 3e
       0.25084814 -0.114242874 -0.071290664 0.14614634
0001c0 a2 fb 95 3d 12 ef 20 bd f5 ac 3b 3d 7c 2f 6f bb
       0.07323386 -0.039290495 0.04581924 -0.0036496809
0001d0 7d 61 bd 3c 9c 8e 68 bd 71 10 f9 bd 2f cb 63 bc
       0.023117775 -0.056776628 -0.12161339 -0.013903423
0001e0 2d eb 57 bd cb cd 12 3e 93 4e 94 bd f6 0c 99 bb
       -0.052714515 0.14336316 -0.07241549 -0.0046707345
0001f0 bc 55 26 3e 40 cb 3c 3e 45 aa 1f 3e 68 d6 83 bd
       0.16243643 0.18436909 0.15592296 -0.06437379
000200 a9 f7 95 bd 31 66 f8 3d 28 db 9b 3e 50 dd a1 bd
       -0.07322628 0.121288665 0.3044064 -0.0790354
000210 2d 8a 53 3d e5 83 a0 be 86 3d 83 bb c7 80 97 bd
       0.051645447 -0.31350628 -0.004005137 -0.07397609
000220 cc ee ea 3c b2 24 cb 3d 02 16 35 3e cc 70 43 3e
       0.02867832 0.099191085 0.17684177 0.19085997
000230 22 f9 33 3d ca 70 0f 3e 01 61 74 3e 15 4a 17 3e
       0.043938763 0.1400787 0.23865129 0.14774354
000240 6c b8 04 be e0 45 99 bd f3 65 d4 bd 66 df 04 3e
       -0.12960976 -0.07484031 -0.10371008 0.12975845
000250 46 17 0a bd c4 fd 4a be ed ee a1 3d 0d cb 25 be
       -0.0337136 -0.19823366 0.079068996 -0.16190739
000260 d7 35 e8 bc 90 b9 c1 3e f2 50 3e 3e 5c 8b ac be
       -0.028345985 0.37836885 0.18585566 -0.33700073
000270 96 cd ed 3e b8 d3 d8 bb fa d3 de 3b 51 6b bb be
       0.46445912 -0.0066170357 0.006800172 -0.36605313
000280 3f b9 84 be 46 06 a2 3e 7e 13 8c 3e 59 27 12 be
       -0.25922582 0.3164541 0.2735862 -0.14272822
000290 e8 b7 56 be fc 18 7c be b7 dc e6 be 3a 0f c7 be
       -0.20968592 -0.24618906 -0.45090267 -0.38878804
0002a0 35 75 4f bd ed 1f 77 be 44 c1 31 bf d2 47 c2 3e
       -0.050648887 -0.24133272 -0.69435525 0.3794542
0002b0 20 e0 44 be e2 28 45 bc 3f c9 c7 3e ee 00 ac 3e
       -0.19226122 -0.012033673 0.39020726 0.3359446
0002c0 1f 5b 08 3f ea 7c 6e bd ab 62 19 be 14 46 48 3e
       0.5326404 -0.058224596 -0.14979045 0.19557983
0002d0 dc 10 25 3e 06 a1 5b be 96 e1 28 3e e6 06 33 bd
       0.16119713 -0.21448144 0.16492304 -0.04370775
0002e0 9f bb 31 be ad ef 36 3e f7 cd 79 3e a7 63 6a 3e
       -0.17356728 0.17864867 0.24394976 0.22889577
0002f0 b6 27 76 bc e0 fa a8 be 38 95 d6 3e 4b 21 eb bd
       -0.015024116 -0.33003902 0.4191072 -0.114809595
000300 8b a8 de 3d 13 1b 04 be bc c1 c6 be be 8f a3 bc
       0.10871991 -0.12900953 -0.38819683 -0.019966003
000310 79 34 08 3f 98 a8 9f 3d 1c df fc bc b5 81 d2 be
       0.53205067 0.077958286 -0.030868106 -0.41114584
000320 37 b6 83 be e3 f0 e5 bc f4 28 25 bc a2 19 db 3d
       -0.25724956 -0.028068965 -0.010080565 0.106982484
000330 3c d1 5e be 97 87 d3 bd 48 0b 10 3e 3b 45 c3 bd
       -0.21759504 -0.10328596 0.14066803 -0.09534689
000340 ba bb b9 be f0 54 6a be 9b 71 72 3d 73 5a 5d 3d
       -0.36276037 -0.22883964 0.059190374 0.054041337
000350 bc 0a 98 bc 17 b7 84 3d 22 fb 5b be ca 5a a0 bd
       -0.018559806 0.06480234 -0.21482518 -0.07829817
000360 4d e7 70 3d e5 5b 08 bd b8 a8 34 3e 60 8d 09 be
       0.058814336 -0.033290762 0.17642486 -0.13432837
000370 6d 87 c6 be cf 0d ac 3d 82 36 19 3e 52 b8 db 3e
       -0.38775197 0.08401071 0.149622 0.42914063
000380 00 cc 96 3d 7a ee c4 bb 20 32 e8 3d a6 b6 5a be
       0.07363129 -0.006009874 0.113376856 -0.21358737
000390 f7 79 ff bd fd 73 9d bd fe 8a 5d be 83 76 96 bd
       -0.12474435 -0.07688139 -0.21635053 -0.07346823
0003a0 a1 34 60 3d 9a d5 9c 3e 4f cf 80 3e 55 0e fe 3d
       0.05473769 0.30631715 0.25158164 0.12405077
0003b0 b5 3c fd 3d 54 49 d2 3c b6 f4 a4 be 32 a2 dc bd
       0.123650946 0.025669731 -0.3221795 -0.10773124
0003c0 9b 99 2c bc 4c b7 6e be df db 03 3d 67 dd 72 be
       -0.010534669 -0.2331211 0.032192107 -0.23717271
0003d0 4c 77 6c bd dd b0 87 3d 03 cc 78 3d 85 a2 95 be
       -0.057730958 0.06625531 0.060741436 -0.29225555
0003e0 8b 90 1b 3d cc 2f 4c 3b bf bc 58 bd 0f 86 2d 3e
       0.037979644 0.003115642 -0.052914377 0.1694567
0003f0 01 b8 d3 be b4 a6 7e be b9 b8 0b 3e b6 8e 8e 3e
       -0.4135132 -0.2486828 0.13644685 0.27843255

rnn.bias_ih_l1 f4 [50]
000000 a6 74 83 3d 7b f6 62 be 42 0d 58 bd 68 31 8a be
       0.06418733 -0.22164337 -0.05274702 -0.2699082
000010 c5 54 c3 be 0c e5 96 be 9f 6e 1c be 63 d2 e1 3c
       -0.38150612 -0.29471624 -0.15276574 0.02756614
000020 8e c5 c0 3e f9 28 c5 3d bb e5 29 3d 87 50 9d 3d
       0.37650722 0.096269555 0.041478854 0.07681375
000030 3a d4 7d 3e eb 02 07 3b 39 c0 8b 3e e7 62 06 be
       0.2478799 0.0020601104 0.27295092 -0.13123666
000040 8e 4a 8c be d1 d8 31 be b1 f9 17 be 7c 9f 6f 3e
       -0.2740063 -0.17367865 -0.14841343 0.23400682
000050 f6 2c b1 3d a5 12 b9 3d 27 99 bb bc c8 f8 d8 be
       0.08651154 0.09036759 -0.022900177 -0.42377305
000060 69 ba 68 bd a9 de 1c bd 7f 59 fd bd 23 58 ae 3e
       -0.0568184 -0.038298283 -0.12370586 0.34051618
000070 d1 bc 60 bd 3a d9 2b bc 12 b6 a0 3e da 82 71 be
       -0.05486757 -0.010488803 0.3138891 -0.23585072
000080 21 e2 45 3e dd 9b 6b be e9 d8 bc be db b9 bc bd
       0.19324543 -0.23008676 -0.3688424 -0.092151366
000090 aa 76 ab be e4 27 71 be 42 4c 07 3e 38 11 1c bc
       -0.3348897 -0.23550373 0.13212684 -0.00952559
0000a0 1d b6 84 3e 7d a8 35 bd 9c da a8 3d 7c 90 9a 3e
       0.2592019 -0.044350136 0.082448214 0.30188358
0000b0 f8 13 8d be 44 02 5e 3e a4 d4 f1 be d0 d3 af bd
       -0.27554297 0.21680552 -0.47232544 -0.08585322
0000c0 f6 90 f0 3d 4a 3f 47 bd
       0.11746399 -0.04864434

rnn.bias_hh_l1 f4 [50]
000000 63 49 de bd d4 42 e1 bd 7b 72 fd bd 4c f5 ad be
       -0.10853841 -0.109990746 -0.12375351 -0.3397621
000010 f7 71 66 be 47 05 8f be b8 79 98 bd ad d7 85 3e
       -0.22504412 -0.27933714 -0.07445091 0.2614111
000020 ad 92 30 3e 9a b1 0e be 8f c5 37 3e 8f 9f 1b 3e
       0.17243452 -0.13934937 0.17946456 0.15197586
000030 74 d9 59 3e aa 13 93 bd 1c 70 63 3e 27 ed 29 be
       0.21274358 -0.07181485 0.22210735 -0.16594373
000040 c1 8e 35 be 1b 27 9a bd 1a c4 13 be 57 15 cb 3d
       -0.17730238 -0.0752699 -0.14430276 0.099161796
000050 a1 ee c3 3d 20 b4 dc 3c a2 cd 72 3d d6 5b 4e be
       0.09566999 0.026941359 0.059278138 -0.2015222
000060 a4 7f 10 bd 71 29 87 3d 66 46 ca bd cf 8d 39 3e
       -0.035277978 0.06599701 -0.09876709 0.18120502
000070 0a 23 33 bd d5 4b d8 bd e5 13 85 3e 03 03 78 be
       -0.043734588 -0.10561339 0.2599174 -0.24219899
000080 33 98 81 3e 0b 18 8f be 2e 31 b7 be f8 24 3a bd
       0.2531143 -0.2794803 -0.3577971 -0.045445412
000090 9c ad 55 be 61 17 48 be 2e 39 10 3e f7 9f 14 3e
       -0.20867008 -0.19540168 0.14084312 0.14514147
0000a0 0e 0e 8d 3e 47 b4 26 be 11 69 c3 bc 44 ed 56 3e
       0.27549785 -0.16279708 -0.02385381 0.20988947
0000b0 cd 2c ef bd 80 24 7f 3e b4 87 a5 be 1e 09 9f bd
       -0.11678467 0.24916267 -0.32330096 -0.07765411
0000c0 d7 4e cb 3d 44 0f 0e be
       0.09927147 -0.13873011

fc.weight f4 [1, 50]
000000 eb 1d 40 bd 7d 2a 4d 3d 16 0f 33 bc 12 10 3a 3c
       -0.046903532 0.050089348 -0.01092889 0.0113563705
000010 b6 96 0e 3c 46 78 38 3d 4d 53 28 3d 63 1f 5e 3e
       0.0087029245 0.045036577 0.041095067 0.2169166
000020 50 c3 60 3d 81 e2 eb bd 89 f7 0b 3d 3d be 90 3d
       0.054873765 -0.115178116 0.034171615 0.07067535
000030 6f e8 48 bc 7e c7 1b bd 60 4a 94 bc e3 72 ec bc
       -0.012262448 -0.038032047 -0.018101871 -0.028863376
000040 6b 7b 88 bb 50 4f c0 bd dd 71 f8 bd 66 58 18 bd
       -0.004165103 -0.09390128 -0.12131093 -0.03719368
000050 68 67 17 be 52 e5 50 3d d4 6f fb bc 24 81 47 3e
       -0.1478554 0.050999947 -0.030692972 0.19482857
000060 52 27 0d 3b 20 23 0f 3d 05 bd 14 bd 45 91 33 3d
       0.002153833 0.034945607 -0.036313076 0.04383971
000070 d1 bb 28 3c b0 05 a1 3b 68 cd 1f 3c c0 23 0e 3d
       0.010298685 0.004914008 0.0097535625 0.034702063
000080 84 ac 1c be ea 36 05 be 08 83 ae 3d e7 d1 1f 3d
       -0.15300184 -0.1300923 0.08521086 0.039018538
000090 b9 16 2c bc 06 b9 68 bd f0 dc 9b bd 4b fa d8 bc
       -0.010503464 -0.056817077 -0.076105 -0.026486536
0000a0 4f 6c 5d 3d 2e 5c 0f bd 08 e5 54 3f 39 5d c1 bc
       0.05405837 -0.03500002 0.83161974 -0.023604022
0000b0 9f 6b 43 bd 5a 04 60 bd 9b 4f b1 bc fc 0b bd bd
       -0.047710057 -0.05469165 -0.021644404 -0.092308015
0000c0 43 ad cd bd 9f ed 1c be
       -0.10042813 -0.1532502
