Networks/PERP-EUR/Seed1.pt (torch, 24291 bytes, 14 tensors)

rnn.weight_ih_l0 f4 [32, 5]
1.7822075 1.8140459 2.0068734 -0.24913378 -0.030186102 -0.7071546 -0.6719605 -0.7117227
-0.028497051 0.074723914 0.22719094 0.107210815 -0.029175697 -0.3023203 0.046502143 0.7900823
1.037894 1.0650557 -0.06523479 -0.20495583 0.33773708 0.4041655 0.22126998 0.12563854
-0.15624036 -2.1317248 -1.9423529 -2.2119455 0.22660093 -0.43830985 -0.05326639 -0.30604774
-0.09454764 0.98260677 0.09924526 -0.75413 -0.80749786 -1.0604479 0.29681268 0.5073968
0.16282687 0.38120013 0.27447554 -0.8436097 -0.23393133 1.2640091 0.88237417 1.041621
-0.08835837 0.4225887 -0.58179355 -0.48310754 -0.31359553 0.7898023 -0.049078915 1.1688719
1.1945455 1.2205894 0.4335413 0.11791749 -0.8194221 -0.7290394 -0.98627603 1.1267992
0.012339345 -1.9697069 -2.0593898 -2.0173888 0.563765 0.01232085 1.8261724 2.1926627
2.3961983 0.22521998 0.036696333 1.9705193 1.8922747 1.8033146 -0.42916128 -0.023078755
1.359275 1.7358494 1.7117025 0.037036657 -0.27464378 0.1715251 0.2382377 0.3079929
-0.38777387 -0.5658337 0.5499506 0.58437896 0.5117449 -0.2718352 0.019226655 1.8676193
1.9577698 2.1788757 0.4614557 -0.29693425 0.8577983 0.95232123 0.95118785 0.8013174
-0.61865515 -1.3105744 -1.43855 -1.5918019 0.222809 0.18606362 0.96462137 0.8348821
0.82062095 0.055932414 -0.14984174 -0.5115041 -0.6551054 -0.7107979 0.10703845 -0.08600832
-0.24463597 -0.26309085 -0.34075058 -0.1393183 -0.3482876 1.6149576 1.4194431 1.5417179
0.47843692 0.21043079 -2.001361 -2.0173967 -2.1893387 0.46332145 -0.2827098 0.111978225
-0.054054018 -0.4139737 -0.20935114 0.107842736 -0.92747015 -0.9690991 -0.78898776 1.4136822
0.51240695 -2.2424052 -2.4825573 -2.6867127 0.41920272 -0.040129445 1.8576725 2.007821
2.327341 -0.062897734 -0.23144619 0.8725795 0.7033137 0.8432472 0.707327 0.08134792
00000000: 601f e43f a832 e83f 9d70 0040 ed1c 7fbe
00000010: d848 f7bc 1508 35bf 9a05 2cbf 7533 36bf
00000020: a672 e9bc da08 993d bea4 683e 5891 db3d
00000030: df01 efbc bac9 9abe 0879 3e3d d542 4a3f
00000040: b6d9 843f bf53 883f d199 85bd f1df 51be
00000050: e0eb ac3e c8ee ce3e 9994 623e 64a7 003e
00000060: 79fd 1fbe 2e6e 08c0 059f f8bf 8490 0dc0
00000070: 130a 683e 266a e0be dc2d 5abd 4ab2 9cbe
00000080: 31a2 c1bd 1e8c 7b3f 1941 cb3d aa0e 41bf
00000090: 2eb8 4ebf c2bc 87bf d5f7 973e c2e4 013f
000000a0: 16bc 263e aa2c c33e 0f88 8c3e cef6 57bf
000000b0: b28b 6fbe 0dcb a13f 46e3 613f d653 853f
000000c0: 3cf5 b4bd 8c5d d83e 6cf0 14bf df59 f7be
000000d0: 988f a0be 7c30 4a3f f906 49bd 989d 953f
000000e0: dee6 983f 463c 9c3f 20f9 dd3e ba7e f13d
000000f0: a6c5 51bf 53a2 3abf 967c 7cbf f53a 903f
00000100: f72a 4a3c 5b1f fcbf 0bcd 03c0 e61c 01c0
00000110: e752 103f 64dd 493c 04c0 e93f 9654 0c40
00000120: 505b 1940 11a0 663e e54e 163d fa39 fc3f
00000130: 0f36 f23f 03d3 e63f 07bb dbbe a80f bdbc
00000140: b9fc ad3f 5030 de3f 1119 db3f c0b3 173d
00000150: 1c9e 8cbe 47a4 2f3e 95f4 733e 3fb1 9d3e
00000160: 4c8a c6be 7ada 10bf 90c9 0c3f dc99 153f
00000170: b701 033f fc2d 8bbe 3881 9d3c 260e ef3f
00000180: 3398 fa3f b372 0b40 ec43 ec3e c407 98be
00000190: ab98 5b3f 53cb 733f 0c81 733f 2323 4d3f
000001a0: 2f60 1ebf e7c0 a7bf 6822 b8bf 2ac0 cbbf
000001b0: 0b28 643e 7687 3e3e 6df1 763f d5ba 553f
000001c0: 3714 523f 6319 653d 1d70 19be eff1 02bf
000001d0: fdb4 27bf daf6 35bf fa36 db3d 2125 b0bd
000001e0: da81 7abe d8b3 86be dc76 aebe 75a9 0ebe
000001f0: c152 b2be eeb6 ce3f 50b0 b53f 0357 c53f
00000200: aff5 f43e 2b7b 573e 4c16 00c0 071d 01c0
00000210: 201e 0cc0 7838 ed3e 57bf 90be d754 e53d
00000220: bf67 5dbd 5cf4 d3be 2560 56be a7dc dc3d
00000230: af6e 6dbf e116 78bf 1afb 49bf 8af3 b43f
00000240: 1a2d 033f 9183 0fc0 38e2 1ec0 1af3 2bc0
00000250: bda1 d63e c65e 24bd 36c8 ed3f 2480 0040
00000260: 28f3 1440 87d0 80bd 3b00 6dbe 5f61 5f3f
00000270: 5e0c 343f 0cdf 573f 6213 353f bd99 a63d

rnn.weight_hh_l0 f4 [32, 32]
-0.49583077 0.13239633 0.16895583 0.0017123207 0.15559588 0.19445546 0.057432834 0.197864
-0.023514122 0.3012158 -0.3349988 -0.40129623 0.10727612 -0.075273626 -0.106110066 0.043835107
0.3454182 -0.10954373 0.12507996 -0.34584552 -0.20130494 0.051124126 -0.11888733 -0.17906523
-0.088709 -0.24813949 0.3275252 -0.35572138 0.05331307 0.036019184 0.15462886 0.12839715
0.08974084 -0.3232123 0.60737574 -0.30964836 -0.27412632 -0.124122754 0.4035485 0.11130217
-0.12546568 -0.12678243 0.012217779 -0.8417963 0.11834582 0.14710161 0.086716816 -0.5081926
-0.8478965 -0.16866003 -0.35686672 0.4684384 -0.15125558 -0.6248306 -0.59868467 0.3895047
-0.5848673 -0.51208293 -0.0017626904 -0.26608458 -0.74608225 0.67679757 -0.44589657 0.16052915
-0.33713305 0.5653713 0.26696816 -0.2003151 -0.2918213 0.54661596 0.6900619 0.35444254
-0.089244545 -0.4522292 0.2898766 -0.6776695 0.5394105 0.2211535 -0.45384476 -0.36344707
-0.90931046 -0.89659804 -0.5731717 -0.56552356 -0.23664518 0.5193377 -0.6307567 0.27672318
-0.83230364 -0.4058308 0.32252076 -0.19896825 -0.02509155 0.83604157 -0.11328728 0.46540225
0.1280479 -0.1085769 0.27896804 0.12527339 -0.09092426 -0.5579767 -0.8185273 0.1802931
0.18273035 0.20349416 -0.1926259 0.37982064 0.064794235 -0.15708758 -0.37807423 0.56010824
0.82606673 -0.15672131 0.57678384 -0.18588884 -0.05532468 -0.68635666 0.120485015 -0.44257805
-0.050613873 0.54690987 -0.46552923 0.1205081 -0.09418036 -0.5885272 0.6145284 0.16407816
0.28147525 -0.5217404 -0.119630665 0.26562136 0.28737402 0.16377278 -0.6670631 -0.01181576
-0.277567 -0.21761578 -0.20665997 0.7352466 -0.008238438 0.40497875 0.042735834 0.3617854
0.46914142 -0.024530768 0.7596742 0.061296444 0.41825143 0.007383989 0.58821625 -0.4636042
0.3639458 0.71232545 -0.057843328 0.30025312 0.49424663 -0.20517853 0.4098185 -0.32403958
0.013220673 0.006741921 -0.273975 -0.11949375 -0.027993862 -0.25516403 0.07488012 0.08099939
-0.06420741 -0.18828659 -0.27418813 0.037763406 0.46815377 0.33038378 -0.15772563 -0.00468896
0.030789329 -0.002247088 -0.004089125 -0.017225165 -0.09099069 0.02453211 0.15228085 0.061264664
-0.16500752 0.013562127 0.002955734 0.20926964 0.032605074 0.1358296 -0.19282167 -0.0774051
-0.63100624 -0.49779555 0.14082032 -0.6266405 -0.6331203 0.46803704 0.014163958 0.3507443
-0.43094033 -0.22342224 0.49861267 -0.04773152 0.40448666 0.39286378 -0.31868598 -0.51824576
-0.7288499 0.4039554 -0.84570956 -0.11816455 -0.13092679 -0.02780984 -0.39042807 0.60258085
0.44871306 -0.47039196 0.21510619 -0.17790423 0.037256915 0.50964236 -0.3789781 0.028981116
-0.3958368 -0.15013473 -0.64480036 -0.12427328 -0.12892978 0.44847298 0.3309136 0.08841362
-0.6713036 -0.19276892 0.09386051 0.556162 0.5542 0.7306452 -0.32869455 -0.49296188
-0.025851877 -0.16852595 -0.31159154 -0.45420235 0.3378695 0.8054429 -0.17198783 0.12993842
0.1286155 0.070297524 0.56514937 0.16273706 0.664626 0.19229603 -0.23968355 0.075629145
00000000: 88dd fdbe e792 073e c202 2d3e f36f e03a
00000010: 8754 1f3e 551f 473e b13e 6b3d dc9c 4a3e
00000020: b0a0 c0bc f538 9a3e f684 abbe b376 cdbe
00000030: 95b3 db3d 0f29 9abd 3c50 d9bd 718c 333d
00000040: a8da b03e 7758 e0bd f614 003e aa12 b1be
00000050: e222 4ebe 8867 513d 337b f3bd e05c 37be
00000060: 10ad b5bd 4718 7ebe 62b1 a73e 1d21 b6be
00000070: ce5e 5a3d da88 133d 0757 1e3e 8b7a 033e
00000080: 0cca b73d 157c a5be fa7c 1b3f 3b8a 9ebe
00000090: 495a 8cbe 1234 febd e99d ce3e 64f2 e33d
000000a0: 137a 00be 41d3 01be 142d 483c f67f 57bf
000000b0: 4b5f f23d cea1 163e 9698 b13d e918 02bf
000000c0: bf0f 59bf 37b5 2cbe 3cb7 b6be 28d7 ef3e
000000d0: bee2 1abe e6f4 1fbf 6643 19bf 296d c73e
000000e0: ddb9 15bf de17 03bf 130a e7ba 3d3c 88be
000000f0: 3fff 3ebf 9b42 2d3f 8e4c e4be c161 243e
00000100: b49c acbe 2cbc 103f 0db0 883e 671f 4dbe
00000110: 9a69 95be 06ef 0b3f e6a7 303f 7e79 b53e
00000120: d8c5 b6bd 968a e7be b56a 943e c07b 2dbf
00000130: ce16 0a3f 1076 623e 575e e8be bc15 babe
00000140: 92c8 68bf 7387 65bf 61bb 12bf 27c6 10bf
00000150: 1d53 72be 51f3 043f 4579 21bf a9ae 8d3e
00000160: da11 55bf 0ec9 cfbe 7121 a53e 55be 4bbe
00000170: cb8c cdbc d206 563f 2903 e8bd 3449 ee3e
00000180: fd1e 033e 915d debd e6d4 8e3e ab47 003e
00000190: 8036 babd 90d7 0ebf 018b 51bf c19e 383e
000001a0: aa1d 3b3e c660 503e b93f 45be da77 c23e
000001b0: d7b2 843d 91db 20be f292 c1be 4163 0f3f
000001c0: 1c79 533f 8d7b 20be 1ba8 133f a559 3ebe
000001d0: 229c 62bd 12b5 2fbf d9c0 f63d 9799 e2be
000001e0: 7e50 4fbd 4902 0c3f d959 eebe f3cc f63d
000001f0: a2e1 c0bd b8a9 16bf bc51 1d3f 1b04 283e
00000200: 861d 903e c790 05bf ec00 f5bd 86ff 873e
00000210: b022 933e 0db4 273e a6c4 2abf e496 41bc
00000220: 431d 8ebe acd6 5ebe ac9e 53be 1f39 3c3f
00000230: 83fa 06bc 6059 cf3e c50b 2f3d f03b b93e
00000240: 4e33 f03e c0f4 c8bc 027a 423f fb11 7b3d
00000250: 0d25 d63e 64f5 f13b 5795 163f 885d edbe
00000260: 1b57 ba3e f65a 363f 20ed 6cbd c7ba 993e
00000270: e50d fd3e 521a 52be bbd3 d13e 84e8 a5be
00000280: 869b 583c 55eb dc3b 7446 8cbe 24b9 f4bd
00000290: 6253 e5bc dca4 82be c05a 993d 02e3 a53d
000002a0: 2d7f 83bd 33ce 40be 6362 8cbe cdad 1a3d
000002b0: dab1 ef3e 1028 a93e d482 21be d9a5 99bb
000002c0: e739 fc3c e143 13bb 11fe 85bb ca1b 8dbc
000002d0: 5459 babd 90f7 c83c 83ef 1b3e a8f0 7a3d
000002e0: bbf7 28be af33 5e3c fdb4 413b c84a 563e
000002f0: e68c 053d ea16 0b3e 0b73 45be 9186 9ebd
00000300: a089 21bf 0fdf febe 3433 103e 836b 20bf
00000310: 2c14 22bf 8da2 ef3e f20f 683c c294 b33e
00000320: 36a4 dcbe cdc8 64be 294a ff3e 2082 43bd
00000330: e018 cf3e 7125 c93e cf2a a3be c1ab 04bf
00000340: e895 3abf 3ed3 ce3e 6c80 58bf 4100 f2bd
00000350: ac11 06be 76d1 e3bc 30e6 c7be bd42 1a3f
00000360: b8bd e53e 37d7 f0be cc44 5c3e 872c 36be
00000370: b59a 183d ec77 023f 6b09 c2be ce69 ed3c
00000380: 1fab cabe ebbc 19be a311 25bf fd82 febd
00000390: 2b06 04be 409e e53e 826d a93e 3312 b53d
000003a0: 8dda 2bbf 3765 45be f039 c03d a260 0e3f
000003b0: 0de0 0d3f 900b 3b3f a74a a8be 8065 fcbe
000003c0: 51c7 d3bc 1192 2cbe ed88 9fbe 368d e8be
000003d0: 3bfd ac3e 8231 4e3f 941d 30be 940e 053e
000003e0: c8b3 033e 26f8 8f3d a1ad 103f 8ba4 263e
000003f0: ee24 2a3f 40e9 443e 9b6f 75be 74e3 9a3d

rnn.bias_ih_l0 f4 [32]
-0.14716429 0.08529588 0.23431273 0.14583309 0.223231 0.18283874 -0.36074394 -0.097299516
0.15669581 -0.1767251 -0.60305434 -0.4162034 0.28729314 0.06680237 0.06411373 0.072431564
0.10573085 0.1576412 0.12243892 -0.13718015 -0.4113475 0.081283726 0.087540045 -0.40749028
0.2916268 -0.3433421 0.030944707 -0.19472052 -0.034201887 0.11022067 0.12539706 0.059467364
00000000: 3cb2 16be 9baf ae3d adef 6f3e 4555 153e
00000010: ab96 643e 143a 3b3e 6eb3 b8be f844 c7bd
00000020: de74 203e 6df7 34be c561 1abf 9d18 d5be
00000030: 1618 933e aecf 883d 0f4e 833d 0057 943d
00000040: 6a89 d83d b26c 213e 42c1 fa3d f478 0cbe
00000050: 249c d2be 1578 a63d 3248 b33d 91a2 d0be
00000060: 1c50 953e 89ca afbe c17f fd3c d164 47be
00000070: 4717 0cbd 60bb e13d 1668 003e 0d94 733d

rnn.bias_hh_l0 f4 [32]
-0.04783264 0.033467826 0.32523957 0.34858176 0.08977377 0.14200129 -0.5451842 -0.11749868
0.21507804 -0.23478761 -0.49002573 -0.3653697 0.2206152 0.04321462 -0.026854597 -0.12079458
0.31924045 0.31527323 0.107965365 -0.06559373 -0.19532284 -0.17692874 0.1119071 -0.4216255
0.19189173 -0.3667198 0.17902215 -0.18726622 -0.018096106 0.2511665 0.14259358 0.1406365
00000000: 29ec 43bd 8f15 093d cd85 a63e 4f79 b23e
00000010: 4fdb b73d c968 113e 3191 0bbf 26a3 f0bd
00000020: 6b3d 5c3e 2a6c 70be a7e4 fabe bd11 bbbe
00000030: f3e8 613e d001 313d 2cfe dbbc 2663 f7bd
00000040: 7c73 a33e 7e6b a13e f21c dd3d 0156 86bd
00000050: b602 48be cf2c 35be 8d2f e53d 4cdf d7be
00000060: 447f 443e b3c2 bbbe 9551 373e b7c2 3fbe
00000070: 493e 94bc e598 803e 0d04 123e 0403 103e

rnn.weight_ih_l1 f4 [32, 32]
-0.046547987 -0.04332925 0.36464638 0.22117129 0.15043056 -0.010568394 -0.15147619 -0.456497
0.15383703 0.26468125 -0.40899286 -0.17751525 -0.27941597 -0.63604116 0.32186106 0.106036425
0.10176751 0.3359661 0.2735127 0.19788152 -0.12232791 -0.40813488 0.75735337 -0.35202283
0.12701838 -0.7524999 0.052043535 0.3554608 -0.13189854 -0.39682218 0.25923428 -0.26787996
0.37132838 -0.3846723 0.17491354 0.3165118 0.4357306 -0.18734394 -0.2999568 -0.5511442
0.38036755 0.004516713 -0.5058287 0.6522275 -0.47032186 0.05349992 0.5244017 0.3683488
0.5014601 0.43690455 0.2639242 0.5560239 0.033832006 -0.23298076 -0.34524748 -0.40776634
-0.23821522 0.54511034 0.052590005 0.33299336 -0.46384025 -0.254579 0.48613992 -0.23772737
-0.08622916 0.3873685 0.24789369 -0.4146831 -0.62844676 0.15115334 0.9556845 0.115497895
0.21848118 -0.62223494 0.08844315 -0.46211022 -0.010557198 -0.24306746 -0.01757497 -0.04794274
-1.197718 -0.27372006 -0.3760566 0.12030611 0.24769951 -0.061817452 -0.11617626 0.30731088
0.16510572 -0.18891875 0.003439275 -0.07865657 -0.0599261 0.512814 -0.24108453 -0.15003732
0.55143344 -0.2937566 -0.3407248 0.4752089 0.03984083 -0.3508323 -0.40544534 -0.65191156
0.4393387 0.68600655 -0.34405684 0.68538606 -0.5534472 -0.3885153 0.32518873 0.63058555
0.83023316 0.40688393 0.4617627 0.038510267 0.55748814 -0.20336767 0.26252794 -0.3441981
-0.108006775 0.42614418 -0.35485312 -0.07985512 -0.21246819 -1.0050726 0.78536683 0.29663578
0.6157642 -0.27841848 -0.20877042 0.32601288 0.38897607 -0.43495387 -0.23267345 -0.4157476
-0.411271 0.43635547 -0.08996763 0.5190848 -0.016336916 -0.44146976 0.082711875 0.45219854
0.71267986 0.35891113 0.22197647 -0.038689986 0.34202695 -0.15273939 0.49475557 0.022559822
-0.12613563 0.7262381 -0.52402556 0.09884223 -0.17604683 -0.3679452 0.43905103 0.09331832
-0.68874955 0.31350756 -0.01781178 -0.40943974 -0.07553952 0.44257566 -0.10847667 0.7323462
-0.5776041 -0.31782722 0.4424613 -0.55205464 0.74997485 0.88431597 -1.4605873 -0.5896481
-0.5483082 -0.48208562 -0.33782274 -1.1294299 -0.2916947 0.4738348 -0.06439879 0.07932782
-0.053365078 -0.42916623 0.8940191 0.13025428 0.5361771 0.9816273 -0.56384325 -0.5687539
0.4571285 -0.30127546 -0.6835432 0.47318465 0.39162853 0.25408602 -0.13785419 -0.60213816
0.065728135 0.40992618 -0.21777222 0.33985102 -0.54569864 -0.21083601 1.078028 0.11832663
0.6452176 0.41009066 0.21147026 0.33374637 0.7731078 0.11614801 0.2752989 -0.28922078
0.12622702 0.29873946 -0.07437225 -0.11104501 0.16052563 -0.80770457 0.4026852 0.045446213
-0.887467 0.1148226 -0.10686201 -0.33410442 -0.25141147 0.4523219 0.056817304 0.51247096
0.17746831 -0.78993905 0.20641524 -0.7935682 0.33416247 0.73310757 -0.46560863 -0.6824841
-0.6744765 -0.3993078 -0.14249153 -0.3282488 -0.32737565 0.5381991 -0.34110263 0.45716378
0.0078156 -0.8949192 0.72555697 -0.559448 0.68071705 0.6763748 -0.35142916 0.056242954
00000000: 1aa9 3ebd 037a 31bd eeb2 ba3e ba7a 623e
00000010: 780a 1a3e 0f27 2dbc 931c 1bbe fab9 e9be
00000020: 7487 1d3e 4d84 873e 8367 d1be 8fc6 35be
00000030: 9c0f 8fbe 98d3 22bf f9ca a43e a029 d93d
00000040: 7c6b d03d c003 ac3e db09 8c3e 74a1 4a3e
00000050: 0e87 fabd 0ef7 d0be e9e1 413f 563c b4be
00000060: 1b11 023e d5a3 40bf 9a2b 553d f5fe b53e
00000070: 6910 07be 472c cbbe 5bba 843e 9027 89be
00000080: c11e be3e c5f3 c4be 891c 333e d60d a23e
00000090: 1518 df3e 17d7 3fbe f093 99be c917 0dbf
000000a0: 89bf c23e ef00 943b fd7d 01bf 62f8 263f
000000b0: 07ce f0be bb22 5b3d 313f 063f 3798 bc3e
000000c0: b05f 003f f4b1 df3e 1321 873e 9557 0e3f
000000d0: 6e93 0a3d 8292 6ebe 47c4 b0be c0c6 d0be
000000e0: b1ee 73be 5a8c 0b3f 9e68 573d 1b7e aa3e
000000f0: 787c edbe 2e58 82be 55e7 f83e ce6e 73be
00000100: ea98 b0bd 2a55 c63e d8d7 7d3e 5851 d4be
00000110: e3e1 20bf f1c7 1a3e bda7 743f 298a ec3d
00000120: 88b9 5f3e ca4a 1fbf af21 b53d b699 ecbe
00000130: 19f8 2cbc ade6 78be 62f9 8fbc 9b5f 44bd
00000140: d34e 99bf 0925 8cbe 7e8a c0be 0d63 f63d
00000150: f1a4 7d3e 4c34 7dbd d2ed edbd da57 9d3e
00000160: 7911 293e eb73 41be 7665 613b b216 a1bd
00000170: 1275 75bd c747 033f ddde 76be 62a3 19be
00000180: be2a 0d3f 4467 96be 7b73 aebe 954e f33e
00000190: 2330 233d 4ba0 b3be 8896 cfbe ade3 26bf
000001a0: 01f1 e03e 209e 2f3f 3828 b0be 7675 2f3f
000001b0: b7ae 0dbf 7aeb c6be 237f a63e 0e6e 213f
000001c0: 298a 543f 1753 d03e 296c ec3e f1bc 1d3d
000001d0: 8bb7 0e3f 9d3f 50be 106a 863e bc3a b0be
000001e0: a832 ddbd 922f da3e 4faf b5be 158b a3bd
000001f0: 4391 59be 38a6 80bf cd0d 493f a5e0 973e
00000200: b9a2 1d3f de8c 8ebe eac7 55be 29eb a63e
00000210: df27 c73e 46b2 debe f341 6ebe dfdc d4be
00000220: 1d92 d2be fc69 df3e f340 b8bd bee2 043f
00000230: ffd4 85bc 5308 e2be d864 a93d 9186 e73e
00000240: 3072 363f 33c3 b73e cd4d 633e 6479 1ebd
00000250: 281e af3e b767 1cbe 9a50 fd3e 60cf b83c
00000260: b329 01be bdea 393f 8a26 06bf cc6d ca3d
00000270: 9f45 34be 5063 bcbe 4ccb e03e ad1d bf3d
00000280: e451 30bf 1084 a03e 03ea 91bc 16a2 d1be
00000290: 77b4 9abd 4799 e23e 0429 debd 0a7b 3b3f
000002a0: dddd 13bf 40ba a2be 4a8a e23e 7453 0dbf
000002b0: 5afe 3f3f 8862 623f 86f4 babf 2ef3 16bf
000002c0: ed5d 0cbf edd3 f6be 1af7 acbe 2991 90bf
000002d0: 0259 95be 7a9a f23e 83e3 83bd a076 a23d
000002e0: 5795 5abd adbb dbbe 70de 643f 6161 053e
000002f0: e742 093f ed4b 7b3f 0858 10bf db99 11bf
00000300: bf0c ea3e c740 9abe b0fc 2ebf 4245 f23e
00000310: 8983 c83e 9017 823e a629 0dbe ba25 1abf
00000320: 799c 863d d8e1 d13e aeff 5ebe f400 ae3e
00000330: e8b2 0bbf 65e5 57be d2fc 893f 3b55 f23d
00000340: fb2c 253f 67f7 d13e a98b 583e cee0 aa3e
00000350: 65ea 453f 02df ed3d faf3 8c3e bf14 94be
00000360: a841 013e 61f4 983e 7a50 98bd 916b e3bd
00000370: d560 243e bac5 4ebf c12c ce3e cf25 3a3d
00000380: 0a31 63bf 1c28 eb3d 78da dabd bc0f abbe
00000390: 01b9 80be bc96 e73e 43b9 683d 4c31 033f
000003a0: 41ba 353e 7239 4abf 845e 533e 4927 4bbf
000003b0: 5817 ab3e f0ac 3b3f 4164 eebe 47b7 2ebf
000003c0: 7eaa 2cbf 1272 ccbe 4de9 11be 3a10 a8be
000003d0: c89d a7be 6bc7 093f 01a5 aebe 5f11 ea3e
000003e0: 010d 003c 6d19 65bf 1abe 393f fc37 0fbf
000003f0: 7943 2e3f e626 2d3f 86ee b3be 035f 663d

rnn.weight_hh_l1 f4 [32, 32]
-0.3488971 0.40361187 -0.33143124 0.20943214 -0.5419307 -0.44600043 0.39502802 0.21680109
0.74690634 -0.3208984 0.27358887 -0.5049778 0.36744073 0.41773814 -0.59324217 -0.20427135
0.7397418 0.38086239 -0.47606525 0.030251134 -0.15224412 0.6963455 -0.7664293 -0.1530888
-0.0643655 -0.062676676 0.9568865 0.28697273 0.19356698 0.7686021 -0.32230198 -0.07994551
-0.27708152 -0.4809219 -0.1353955 0.4127028 0.22323166 0.42897442 0.02633542 -0.37992212
-0.10714289 -0.093026824 0.6248316 -0.64068234 0.25111836 0.19998898 0.3841481 -0.69419914
0.02415414 0.36065745 0.45816198 -0.28035748 -0.23827259 -0.19355603 0.14291006 -0.32377663
-0.19155842 -0.27541327 -0.29064068 0.30823502 0.21160302 -0.4108385 -0.8865617 -0.42096567
-0.123933405 -0.03325338 0.80805117 -0.2748018 -0.26586533 -0.11163098 0.23715812 0.5235631
0.3248369 -0.2744301 -0.40120494 0.64548135 -0.5511303 0.00029399505 0.21203539 -0.09510351
0.12917884 0.04453137 0.24639365 0.699201 0.4235837 0.15305257 -0.17800139 0.1332868
0.25392792 0.24940243 0.57750785 -0.033223387 -0.49350807 0.04487486 -0.045550887 -0.14661333
0.10279054 0.10107859 -0.5820982 0.085044876 0.2048331 0.103723645 0.13058957 -0.06543359
0.28384286 -0.01598328 0.26044965 -0.32554558 -0.04236397 0.18820211 -0.18794763 -0.35658804
0.17092738 0.20763789 -0.15397754 -0.452506 -0.29114977 0.39891002 -0.22890066 -0.01566775
-0.33918747 -0.626852 0.20369758 0.22544055 0.20274444 0.07643097 -0.29292834 -0.30361524
-0.12733312 0.32304528 -0.25401884 0.2764826 -0.3167298 -0.0695816 0.17200454 0.37707335
0.15941808 -0.08169158 0.30948249 -0.06587001 0.33940282 0.23789395 -0.27097487 -0.18797983
0.3760058 0.034032222 -0.33792177 -0.4937685 -0.41348168 0.24919094 -0.24863195 0.017581657
-0.5898191 -0.12309452 -0.022354955 0.2956057 0.064924285 0.14045821 -0.28677034 -0.12434111
0.10682699 0.21397954 0.076772325 -0.23712587 -0.08040593 -0.10601922 -0.19068845 -0.120635726
-0.046269838 0.13538669 -0.3788266 0.7910681 0.28741464 -0.100603364 -0.5278573 0.92997223
-0.041123156 -0.037151366 -0.69571394 0.10042893 0.099834904 0.27593026 -0.23925868 0.26579216
0.083288096 0.059489228 -0.39472967 -0.17302994 -0.403558 -0.03667743 0.3120874 0.35569003
0.39108822 0.51722294 -0.2733588 -0.019510606 0.1338969 -0.5476603 0.30994216 0.11113671
0.300181 0.32858193 0.3565282 -0.20655037 0.23530331 -0.6616671 -0.025978874 -0.41153246
0.6645163 -0.13101895 0.17210104 -0.07106385 -0.32381642 0.30477324 -0.18122461 -0.22136138
-0.39027107 -0.22814971 0.7482135 0.42314777 0.42504478 -0.060614645 0.18678732 0.118449055
0.34346133 -0.17851056 0.46653756 -0.2528081 0.2746231 0.3824187 -0.35719126 -0.52139276
0.108074 0.37957987 -0.32765982 -0.11132587 -0.30845413 -0.26334938 0.17701334 0.25376824
-0.08360544 -0.2959571 0.20066994 0.44680506 0.4162189 -0.45289606 0.020468159 0.18484819
0.45869297 0.045319017 0.034733433 -0.15148768 -0.6313448 0.11130064 0.33605433 0.42905736
00000000: a4a2 b2be 37a6 ce3e 5bb1 a9be 6175 563e
00000010: f8bb 0abf 2b5a e4be 1d41 ca3e 1b01 5e3e
00000020: 4135 3f3f cc4c a4be d713 8c3e 3a46 01bf
00000030: 3121 bc3e c6e1 d53e b8de 17bf 822c 51be
00000040: b85f 3d3f 6500 c33e d3be f3be 3ad1 f73c
00000050: e2e5 1bbe b343 323f b634 44bf 4fc3 1cbe
00000060: 0fd2 83bd a15c 80bd 83f6 743f 17ee 923e
00000070: 6c36 463e 1bc3 443f c404 a5be 79ba a3bd
00000080: a1dd 8dbe 653b f6be 1ea5 0abe c84d d33e
00000090: d796 643e 89a2 db3e 61bd d73c 2785 c2be
000000a0: bb6d dbbd d984 bebd f7f4 1f3f c203 24bf
000000b0: 9692 803e e9c9 4c3e 0faf c43e 09b7 31bf
000000c0: e7de c53c 18a8 b83e 3594 ea3e 048b 8fbe
000000d0: bbfd 73be 8d33 46be 0457 123e 0dc6 a5be
000000e0: e427 44be f802 8dbe dbce 94be fbd0 9d3e
000000f0: 76ae 583e 6d59 d2be b5f5 62bf d088 d7be
00000100: ccd0 fdbd b234 08bd 71dc 4e3f d2b2 8cbe
00000110: 801f 88be c99e e4bd 94d9 723e 3b08 063f
00000120: 0651 a63e 1a82 8cbe bc6a cdbe 443e 253f
00000130: e016 0dbf 5923 9a39 ce1f 593e a1c5 c2bd
00000140: 7547 043e 8766 363d 9e4e 7c3e d6fe 323f
00000150: f6df d83e d0b9 1c3e ff45 36be 567c 083e
00000160: d702 823e 5a63 7f3e 8ed7 133f 3f15 08bd
00000170: 17ad fcbe b4ce 373d 9193 3abd ce21 16be
00000180: d983 d23d 4b02 cf3d 6304 15bf 022c ae3d
00000190: c5bf 513e 106d d43d 46b9 053e 0c02 86bd
000001a0: da53 913e 5eef 82bc a859 853e e9ad a6be
000001b0: d885 2dbd 0eb8 403e 5875 40be b592 b6be
000001c0: 9607 2f3e 079f 543e 4aac 1dbe deae e7be
000001d0: 9511 95be ef3d cc3e ef64 6abe a759 80bc
000001e0: fba9 adbe 5f79 20bf 1996 503e e3d9 663e
000001f0: 3d9c 4f3e d787 9c3d b4fa 95be 7573 9bbe
00000200: 9d63 02be 3166 a53e c20e 82be 218f 8d3e
00000210: 692a a2be cc80 8ebd f521 303e c20f c13e
00000220: 7e3e 233e ea4d a7bd 7d74 9e3e dbe6 86bd
00000230: 35c6 ad3e 799a 733e 38bd 8abe c97d 40be
00000240: d583 c03e 5f65 0b3d 1504 adbe 3acf fcbe
00000250: dfb3 d3be e92b 7f3e 6099 7ebe 6807 903c
00000260: 62fe 16bf fb18 fcbd bd21 b7bc a159 973e
00000270: 06f7 843d 47d4 0f3e 90d3 92be 8da6 febd
00000280: 1cc8 da3d 741d 5b3e cf3a 9d3d 20d1 72be
00000290: ddab a4bd 9b20 d9bd d543 43be dd0f f7bd
000002a0: 7185 3dbd cfa2 0a3e 8ff5 c1be 7083 4a3f
000002b0: 0328 933e 2309 cebd a821 07bf a912 6e3f
000002c0: c170 28bd 082c 18bd 4f1a 32bf afad cd3d
000002d0: 3e76 cc3d bb46 8d3e 3a00 75be e915 883e
000002e0: f392 aa3d faaa 733d 021a cabe c32e 31be
000002f0: 279f cebe 133b 16bd ebc9 9f3e 011d b63e
00000300: b73c c83e b968 043f aff5 8bbe b5d4 9fbc
00000310: 451c 093e 7733 0cbf bdb0 9e3e a59b e33d
00000320: 53b1 993e e43b a83e dd8a b63e f181 53be
00000330: 5af3 703e 0463 29bf a6d1 d4bc 62b4 d2be
00000340: be1d 2a3f d529 06be 413b 303e ec89 91bd
00000350: 44cb a5be 3d0b 9c3e f292 39be 8fac 62be
00000360: 9cd1 c7be 14a0 69be ec8a 3f3f d3a6 d83e
00000370: 789f d93e 1047 78bd 2d45 3f3e 6b95 f23d
00000380: 2ada af3e 79cb 36be 03de ee3e 1070 81be
00000390: 669b 8c3e 62cc c33e c6e1 b6be ff79 05bf
000003a0: e755 dd3d 4b58 c23e 07c3 a7be d1fe e3bd
000003b0: b3ed 9dbe bbd5 86be fc42 353e e9ed 813e
000003c0: 5439 abbd b087 97be 6c7c 4d3e a2c3 e43e
000003d0: a51a d53e fee1 e7be d7ac a73c d848 3d3e
000003e0: ced9 ea3e 6fa0 393d a544 0e3d 961f 1bbe
000003f0: d09f 21bf 97f1 e33d 500f ac3e 68ad db3e

rnn.bias_ih_l1 f4 [32]
0.28976843 0.29568925 -0.2468514 -0.3750257 -0.46104988 0.07400819 -0.1372726 0.23130296
0.052056618 -0.3066746 -0.2443387 -0.43417352 -0.3062237 -0.022784518 0.9547564 0.18091588
-0.15372716 -0.01716432 0.58790606 0.33310628 -0.3282685 0.3130023 0.1062952 -0.15890768
-0.18133263 0.2826223 0.09694699 0.2563286 -0.017436203 0.037723314 0.47123957 0.12624434
00000000: 875c 943e 9564 973e 9dc6 7cbe 5e03 c0be
00000010: bb0e ecbe 9b91 973d 3091 0cbe afda 6c3e
00000020: 5239 553d 7404 9dbe ed33 7abe fe4b debe
00000030: 5ac9 9cbe 99a6 babc ea6a 743f 0342 393e
00000040: a76a 1dbe 309c 8cbc 0381 163f e88c aa3e
00000050: cf12 a8be d641 a03e 4cb1 d93d b2b8 22be
00000060: 43af 39be dfb3 903e 258c c63d 813d 833e
00000070: 5ed6 8ebc c383 1a3d 5046 f13e 3246 013e

rnn.bias_hh_l1 f4 [32]
0.053125057 0.24640019 -0.018694304 -0.1631137 -0.51007646 0.09845675 0.03746866 0.32853192
-0.011191508 -0.49464992 -0.1059026 -0.5859769 -0.34240267 -0.30046102 0.9181195 0.2315885
0.062024906 -0.16039032 0.7425961 0.26733395 -0.23554675 0.41220376 0.09372208 0.0725902
0.035895072 0.260238 -0.07414737 0.276459 -0.17214708 -0.045862388 0.41277778 -0.10842437
00000000: a999 593d 5550 7c3e cc24 99bc 4707 27be
00000010: 5f94 02bf b1a3 c93d bd78 193d 5635 a83e
00000020: 965c 37bc c142 fdbe 76e3 d8bd 9502 16bf
00000030: 674f afbe 07d6 99be e109 6b3f 8925 6d3e
00000040: d40d 7e3d 5c3d 24be c71a 3e3f ffdf 883e
00000050: 2b33 71be 5f0c d33e 5df1 bf3d 2caa 943d
00000060: b606 133d ea3d 853e 94da 97bd 098c 8d3e
00000070: 5347 30be 33da 3bbd 9c57 d33e 990d debd

rnn.weight_ih_l2 f4 [32, 32]
0.28510442 0.1813568 -0.16199264 0.21203835 0.3497369 -0.34331277 0.015691215 -0.08535125
0.46795717 0.42168036 0.14142904 0.29727167 0.4714439 0.04640485 -0.99304736 -0.056423265
0.36394605 0.68701357 -0.80536807 -0.41684332 -0.14168362 0.40250337 -0.440194 -0.23767212
-0.07343689 -0.43818417 0.09993554 0.20249373 0.016529255 0.3610451 -0.21329354 0.23016194
0.3959206 0.0878775 0.17597368 -0.2733 -0.035123028 0.107869506 -0.15719119 -0.11225832
-0.17661794 0.23646751 -0.28891605 0.30167803 0.07639272 -0.51571125 -0.45294833 0.19889884
-0.15832596 -0.1848163 -0.3323047 0.30140817 -0.088901915 -0.06376553 0.04943751 0.3211974
0.07830009 0.49985793 -0.11679019 -0.17381345 -0.031893544 0.010277711 0.16168433 0.4616487
-0.13163516 0.31653413 -0.29367477 0.419111 0.10280268 -0.45976076 0.24108216 0.014142688
0.032676473 0.02175503 0.5337763 -0.27483648 0.319243 0.4014533 -0.26549548 -0.3615316
0.14376995 0.6960955 -0.40955982 -0.5855949 -0.1574644 -0.0901474 -0.16619503 -0.36950862
-0.43745348 -0.50254494 0.18650745 0.35141367 0.29101408 0.26212397 -0.42443198 -0.37952802
-0.16703965 -0.44722 0.03256945 -0.4324981 -0.22426987 0.6032386 -0.061353326 0.1713803
-0.09114085 0.2616462 -0.17967014 0.6809849 0.27536258 -0.19485424 0.015085356 3.5700276
-0.24880841 0.07020429 -0.10623656 0.35955194 -0.24889877 -0.08746312 0.31684464 -0.053664844
-0.12137991 0.4452863 -0.40000337 -0.022331057 -0.90045005 -0.19892852 1.1258961 0.43837833
-0.20313253 0.39227104 -0.08958576 0.4718055 0.1492807 -1.3535109 0.70975286 0.15655982
0.028967198 -0.46822423 0.4741233 -0.561917 -0.2831289 0.4892203 0.023515144 -1.307111
1.0668243 0.15903181 0.06738932 -0.20855111 0.31735906 0.010629583 -0.10649837 -0.2889065
-0.032528706 -0.86516243 0.8433558 0.17122754 0.75244045 0.5595301 -0.61285704 -0.7160953
-0.31829214 0.17516193 -0.30244085 0.7291853 0.5280104 -0.12786588 0.10073669 -0.6611298
-0.0730792 -0.42969579 0.28156283 -0.32622278 0.19510487 0.651935 0.36490342 -0.4254749
-0.06312181 0.5706839 0.089822836 -0.40106884 -0.08446959 -0.66918635 -0.049976435 -0.6506345
-0.111638635 -0.41091654 0.17103639 0.24836296 0.10014216 0.19717717 -0.6005291 -0.56380635
0.06291036 -0.31738073 0.6466094 -0.6164597 -0.4748775 0.10461988 -0.33090892 0.45343316
-0.06546962 0.03100747 -0.89526665 0.5808296 -0.15715736 -0.31201494 0.04391078 0.54094756
-0.28205737 -0.29235035 -0.3359789 0.43085933 0.5567995 0.22756104 0.14851888 0.38172224
0.40984464 0.59833175 -0.17345884 -0.24926007 -0.5403012 -0.12470178 0.34510946 0.33996975
0.002981187 -0.31455743 0.23458423 -0.08641284 0.30825514 0.43130428 -0.5509275 -0.67541915
-0.22424026 -0.033187095 -0.03876057 -0.036885954 -0.041734204 -0.19074742 0.50837374 0.11613301
-0.34812036 -0.15248257 0.5706909 -0.05093516 0.17708854 -0.35013032 0.31840605 -0.058159914
0.27619293 0.20462973 -0.24557894 -0.15929185 0.18179058 -0.11543464 0.31322473 0.089808986
00000000: 35f9 913e 99b5 393e 66e1 25be 9520 593e
00000010: b710 b33e b1c6 afbe dd8a 803c a3cc aebd
00000020: 1598 ef3e 7de6 d73e c6d2 103e fe33 983e
00000030: 1861 f13e 0313 3e3d 5a38 7ebf 151c 67bd
00000040: 2357 ba3e 1fe0 2f3f 9a2c 4ebf 7d6c d5be
00000050: 8315 11be ec14 ce3e 1c61 e1be 5260 73be
00000060: 1566 96bd ad59 e0be 01ab cc3d 845a 4f3e
00000070: 5c68 873c e7da b83e 9f69 5abe 92af 6b3e
00000080: 1bb6 ca3e 1ef9 b33d 7232 343e faed 8bbe
00000090: 2add 0fbd b0ea dc3d baf6 20be b1e7 e5bd
000000a0: 55db 34be 8a24 723e ceec 93be 8b75 9a3e
000000b0: c973 9c3d a705 04bf d8e8 e7be 23ac 4b3e
000000c0: 3320 22be 7c40 3dbe d723 aabe 2c52 9a3e
000000d0: 3512 b6bd 8197 82bd fd7e 4a3d fc73 a43e
000000e0: cc5b a03d 61ed ff3e b22f efbd 27fc 31be
000000f0: cea2 02bd d863 283c 9490 253e 385d ec3e
00000100: 5ecb 06be c310 a23e 8a5c 96be b895 d63e
00000110: 368a d23d c365 ebbe 3ede 763e bcb6 673c
00000120: c4d7 053d 9b37 b23c 90a5 083f 5eb7 8cbe
00000130: d273 a33e 498b cd3e 06ef 87be ab1a b9be
00000140: 6e38 133e 5133 323f d3b1 d1be 8ce9 15bf
00000150: 593e 21be 339f b8bd 082f 2abe 3c30 bdbe
00000160: e7f9 dfbe c9a6 00bf cffb 3e3e 7eec b33e
00000170: ccff 943e 1d35 863e 264f d9be 7f51 c2be
00000180: 710c 2bbe 05fa e4be 8b67 053d 6470 ddbe
00000190: 00a7 65be d86d 1a3f a04d 7bbd 517e 2f3e
000001a0: 0ea8 babd 7ef6 853e 73fb 37be 0755 2e3f
000001b0: 53fc 8c3e df87 47be 9228 773c 557b 6440
000001c0: a2c7 7ebe 44c7 8f3d 8e92 d9bd 3117 b83e
000001d0: 52df 7ebe dd1f b3bd 7639 a23e abcf 5bbd
000001e0: 0896 f8bd 91fc e33e 3ecd ccbe 9fef b6bc
000001f0: e583 66bf ebb3 4bbe 5d1d 903f 2073 e03e
00000200: f901 50be c0d7 c83e bd78 b7bd 7e90 f13e
00000210: 0add 183e d83f adbf 5db2 353f 3851 203e
00000220: 9e4c ed3c 16bb efbe 4ac0 f23e cbd9 0fbf
00000230: 45f6 90be 157b fa3e d5a2 c03c 6a4f a7bf
00000240: b38d 883f 3cd9 223e 6903 8a3d 6c8e 55be
00000250: e37c a23e b427 2e3c d11b dabd 8eeb 93be
00000260: d23c 05bd 497b 5dbf 2ae6 573f 4656 2f3e
00000270: f09f 403f 5d3d 0f3f 33e4 1cbf 0652 37bf
00000280: 30f7 a2be a65d 333e 87d9 9abe e3ab 3a3f
00000290: b12b 073f 46ef 02be 0a4f ce3d cd3f 29bf
000002a0: 8caa 95bd 1601 dcbe 0129 903e ac06 a7be
000002b0: 92c9 473e 36e5 263f 9fd4 ba3e d9d7 d9be
000002c0: 0246 81bd 5718 123f 09f5 b73d e558 cdbe
000002d0: 64fe acbd cc4f 2bbf 17b4 4cbd fc8f 26bf
000002e0: cca2 e4bd a763 d2be 2a24 2f3e dc52 7e3e
000002f0: 5517 cd3d d0e8 493e 46bc 19bf 9d55 10bf
00000300: 26d7 803d ba7f a2be 3288 253f 4ed0 1dbf
00000310: 2523 f3be f342 d63d e56c a9be 6428 e83e
00000320: f014 86bd 6103 fe3c 3230 65bf 40b1 143f
00000330: dced 20be 6cc0 9fbe cadb 333d 8a7b 0a3f
00000340: d369 90be f2ae 95be 6d05 acbe 9899 dc3e
00000350: 698a 0e3f c305 693e 5515 183e 1971 c33e
00000360: 28d7 d13e 452c 193f 329f 31be 083e 7fbe
00000370: 2e51 0abf a663 ffbd 30b2 b03e 8410 ae3e
00000380: 0560 433b ac0d a1be d936 703e 37f9 b0bd
00000390: 9ed3 9d3e ead3 dc3e 9609 0dbf 45e8 2cbf
000003a0: 3d9f 65be 31ef 07bd 67c3 1ebd ba15 17bd
000003b0: 7cf1 2abd 4b53 43be c824 023f 25d7 ed3d
000003c0: d53c b2be 6424 1cbe cc18 123f 63a1 50bd
000003d0: b356 353e 4844 b3be 1e06 a33e 1739 6ebd
000003e0: 2969 8d3e 758a 513e 0c79 7bbe 671d 23be
000003f0: 4f27 3a3e ff68 ecbd fe5e a03e c6ed b73d

rnn.weight_hh_l2 f4 [32, 32]
-0.8107882 0.017803498 -0.16773783 -0.11878903 0.18081987 0.20196053 0.0038637184 -0.2658978
0.5294249 0.35604122 0.09847427 -0.045924857 0.10653424 0.05378699 -0.26341102 0.56849295
-0.19679543 -0.22978091 0.3571144 -0.56606007 -0.09700445 -0.35040984 -0.48945838 0.16776083
0.14772333 -0.09481765 0.020423481 -0.20066835 0.23119095 -0.11580205 -0.0843829 0.26056838
0.02025001 -0.5887055 0.40035617 0.11553342 -0.12459822 -0.03726914 0.22158983 -0.39010957
-0.67436415 -0.16258575 -0.44790465 0.4108929 -0.3390693 0.28690383 -0.08307016 -0.42537326
-0.3057565 -0.15527278 0.0060936967 -0.19957496 -0.04060517 0.28099546 -0.10640319 0.059454765
-0.45160356 -0.10360336 0.17577448 0.17125693 -0.3551767 -0.18001345 -0.20488997 -0.6006192
-0.5681263 -0.2200983 -0.23460466 -0.3465031 0.112433426 0.15628596 -0.5357293 -0.39444748
0.28731045 0.18717033 0.3440007 -0.31650925 0.18809679 -0.2782253 -0.15807274 0.2895878
0.19486247 0.21629944 0.022211995 0.14838396 -0.26561567 -0.4217943 0.02196351 0.34508884
0.18413025 -0.16596293 -0.1722661 -0.27474594 0.3414158 0.23505874 0.06720379 0.4043821
0.064302035 -0.23419327 0.07737676 0.4311496 -0.41386637 -0.24973296 -0.043098934 -0.055716168
0.12898661 0.18136604 0.007043775 -0.16781147 0.42109475 -0.008543739 -0.044100385 -0.009197716
0.9908412 -0.15003447 -0.025773447 -0.015773913 -0.049052298 0.16740283 -0.276587 0.057479054
0.16538337 0.06019324 0.0039036095 -0.15019076 0.1406 0.034013018 0.10860298 -0.015340487
-0.060153786 0.19309442 -0.32377425 -0.66395086 0.9154444 0.055427168 0.03244272 0.003699053
-0.13996819 -0.0453 0.026863001 -0.035461362 -0.48964843 0.08840131 -0.21854642 0.25969505
-0.032961655 0.0088589685 -0.19713317 -0.12580334 0.11217905 0.23614906 0.043092404 -0.24506553
0.067464806 0.022233035 -0.0072834934 0.093983464 0.084486514 0.18741718 -0.20814766 -0.107553735
0.37079352 -0.05075919 0.4068813 -0.33929738 0.24837984 -0.35440773 -0.28033537 -0.33500388
0.033992007 0.021956835 0.12931351 -0.018002314 0.22935309 -0.2720346 0.077546954 0.035255857
0.27447286 -0.031489424 -0.03824985 0.113667175 0.10541467 -0.10284912 0.22102253 -0.10711778
0.19875842 0.08271775 0.051218648 -0.09793781 0.17126907 0.21668325 0.32132578 0.4357286
-0.18954138 0.21634014 -0.490467 0.52458435 -0.43735707 0.24484678 -0.46725678 0.19635764
-0.44920936 -0.44831547 -0.33547556 0.43599835 -0.06493411 0.2766758 -0.18030974 -0.28128517
-0.48600954 0.1771974 0.38671556 -0.24950907 0.2047509 0.6254264 -0.5735351 -0.25609896
-0.40114462 -0.36301628 0.36009818 0.17091948 -0.2726461 -0.372651 -0.37264624 -0.1981752
0.17542273 0.35519454 0.5711366 0.24008156 -0.11885906 -0.26164952 0.2814972 -0.18507184
-0.30799273 -0.13014087 -0.15788522 0.52287567 -0.49373406 0.27886772 0.21406588 -0.54726976
-0.14600122 -0.1148493 0.5144799 -0.046070255 0.13011934 0.0023310413 -0.13436058 -0.27985725
-0.19051822 -0.0056775394 0.0003193367 0.26349643 -0.17309673 -0.13260302 -0.13647303 -0.21732505
00000000: d18f 4fbf a4d8 913c 77c3 2bbe aa47 f3bd
00000010: d828 393e bece 4e3e 7036 7d3b c223 88be
00000020: 6488 073f 094b b63e e1ac c93d b41b 3cbd
00000030: a02e da3d bf4f 5c3d cfdd 86be c188 113f
00000040: be84 49be b04b 6bbe b3d7 b63e 50e9 10bf
00000050: 45aa c6bd eb68 b3be 4a9a fabe 7fc9 2b3e
00000060: c944 173e c22f c2bd 254f a73c 017c 4dbe
00000070: 52bd 6c3e a029 edbd f1d0 acbd 3869 853e
00000080: 59e3 a53c 67b5 16bf 7cfb cc3e c99c ec3d
00000090: 5a2d ffbd 87a7 18bd 72e8 623e 71bc c7be
000000a0: 21a3 2cbf e17c 26be c253 e5be 8e60 d23e
000000b0: 7e9a adbe 0fe5 923e b020 aabd 86ca d9be
000000c0: 1e8c 9cbe d4ff 1ebe a2ad c73b 615d 4cbe
000000d0: 9b51 26bd a3de 8f3e eae9 d9bd d786 733d
000000e0: 9538 e7be 002e d4bd 3afe 333e fa5d 2f3e
000000f0: b8d9 b5be 7255 38be adce 51be 2ec2 19bf
00000100: ba70 11bf 7361 61be 343c 70be db68 b1be
00000110: 7f43 e63d 6d09 203e 8e25 09bf 05f5 c9be
00000120: 5b1a 933e 94a9 3f3e dc20 b03e 800d a2be
00000130: 729c 403e 8c73 8ebe d2dd 21be da44 943e
00000140: 078a 473e 9a7d 5d3e eef5 b53c f7f1 173e
00000150: c7fe 87be 6cf5 d7be d2ec b33c 7caf b03e
00000160: a48c 3c3e 30f2 29be 8666 30be 80ab 8cbe
00000170: 0dce ae3e 3db3 703e 24a2 893d 2c0b cf3e
00000180: c9b0 833d 5cd0 6fbe b577 9e3d a4bf dc3e
00000190: 4be6 d3be ffb9 7fbe 8288 30bd a336 64bd
000001a0: 1115 043e 05b8 393e 78cf e63b c5d6 2bbe
000001b0: bb99 d73e 0afb 0bbc 9ba2 34bd 04b2 16bc
000001c0: c5a7 7d3f a3a2 19be d622 d3bc 4b38 81bc
000001d0: 10eb 48bd a66b 2b3e d09c 8dbe 286f 6b3d
000001e0: 425a 293e 308d 763d b3d3 7f3b 9bcb 19be
000001f0: 72f9 0f3e 3c51 0b3d 3d6b de3d aa56 7bbc
00000200: d163 76bd 8bba 453e bdc5 a5be aff8 29bf
00000210: 905a 6a3f 9907 633d a8e2 043d d06b 723b
00000220: d253 0fbe 7e8c 39bd cc0f dc3c ef3f 11bd
00000230: 33b3 fabe bf0b b53d a2ca 5fbe c0f6 843e
00000240: cd02 07bd 3525 113c 47dd 49be 97d2 00be
00000250: 21be e53d 0fd1 713e a981 303d 75f2 7abe
00000260: fd2a 8a3d 0e22 b63c 5faa eebb 677a c03d
00000270: 4407 ad3d 4aea 3f3e a924 55be 2245 dcbd
00000280: a6d8 bd3e dee8 4fbd bf52 d03e 63b8 adbe
00000290: 4957 7e3e ee74 b5be 1e88 8fbe a185 abbe
000002a0: 343b 0b3d d2de b33c c36a 043e 9779 93bc
000002b0: 89db 6a3e 1e48 8bbe f0d0 9e3d 7268 103d
000002c0: b587 8c3e 0efb 00bd e0ab 1cbd 56ca e83d
000002d0: a6e3 d73d 8fa2 d2bd bb53 623e 9160 dbbd
000002e0: 5487 4b3e ec67 a93d a5ca 513d 9e93 c8bd
000002f0: 2961 2f3e 37e2 5d3e d084 a43e d217 df3e
00000300: 2317 42be 4588 5d3e 7e1e fbbe 294b 063f
00000310: 44ed dfbe 1db9 7a3e 483c efbe fa11 493e
00000320: c5fe e5be 9b89 e5be 74c3 abbe 2d3b df3e
00000330: 2dfc 84bd 73a8 8d3e 1ea3 38be 9c04 90be
00000340: 3ed6 f8be 3c73 353e 95ff c53e 4e7f 7fbe
00000350: 38aa 513e f21b 203f 32d3 12bf 671f 83be
00000360: d462 cdbe 45dd b9be ca5e b83e 8405 2f3e
00000370: 4598 8bbe 1dcc bebe 7dcb bebe 71ee 4abe
00000380: 04a2 333e 0fdc b53e 0236 123f f1d7 753e
00000390: 616c f3bd edf6 85be 6720 903e 7983 3dbe
000003a0: 39b1 9dbe a643 05be aaac 21be 2edb 053f
000003b0: b6ca fcbe c0c7 8e3e 1634 5b3e df19 0cbf
000003c0: 5881 15be 1c36 ebbd f4b4 033f 2ab4 3cbd
000003d0: 013e 053e 62c4 183b d295 09be 7349 8fbe
000003e0: 3517 43be a70a babb a56c a739 01e9 863e
000003f0: 4540 31be 16c9 07be 96bf 0bbe 758a 5ebe

rnn.bias_ih_l2 f4 [32]
-1.0290974 0.21957 -0.5570305 0.14551938 -0.22398905 0.5532236 0.16095226 0.6603749
-0.59183943 0.26248768 -0.06016577 -0.008872 0.2064107 -0.16606407 0.25652584 -0.0030123992
0.008720015 0.5188667 -0.25350893 0.09706871 0.07728944 -0.07608845 -0.011568684 0.30455002
0.2109288 0.13119422 -0.3538992 -0.24585982 -0.19791941 0.13275638 0.28372785 -0.29466006
00000000: 77b9 83bf f5d6 603e 8d99 0ebf 0803 153e
00000010: 635d 65be 10a0 0d3f abd0 243e 540e 293f
00000020: ca82 17bf c964 863e 6270 76bd dd5b 11bc
00000030: 545d 533e b30c 2abe 5b57 833e ac6b 45bb
00000040: 65de 0e3c 73d4 043f eccb 81be f6cb c63d
00000050: ed49 9e3d 43d4 9bbd 948a 3dbc fbed 9b3e
00000060: b8fd 573e c757 063e 4732 b5be adc2 7bbe
00000070: 63ab 4abe 4af1 073e c744 913e afdd 96be

rnn.bias_hh_l2 f4 [32]
-0.70923173 0.06473717 -0.43727452 0.16444832 -0.20895462 0.4018509 0.087165765 0.5501865
-0.55614966 0.2262749 0.20638567 -0.3092791 0.24952173 0.07143304 0.42184055 -0.12825994
-0.11716202 0.6599952 -0.0637548 -0.14228536 0.045218945 0.028409282 0.11857301 0.41101968
0.20877892 0.122986026 -0.37662995 -0.19090135 -0.13317662 0.03783027 0.094826564 -0.20558916
00000000: 3690 35bf ec94 843d 72e2 dfbe 2465 283e
00000010: 33f8 55be 67bf cd3e f783 b23d 06d9 0c3f
00000020: d35f 0ebf 9bb4 673e c456 533e d559 9ebe
00000030: a082 7f3e 7c4b 923d 7cfb d73e 9356 03be
00000040: a4f2 efbd 72f5 283f e091 82bd 41b3 11be
00000050: 8037 393d 95ba e83c 68d6 f23d 2c71 d23e
00000060: 24ca 553e 19e0 fb3d a4d5 c0be a57b 43be
00000070: 745f 08be eaf3 1a3d 6e34 c23d f785 52be

fc.weight f4 [2, 32]
-0.1802069 -0.0083972365 -0.097483955 -0.306966 0.2915204 0.0653915 0.038456216 0.068527736
0.12696856 -0.019122671 -0.03785436 -0.058009952 0.18222265 -0.1655195 0.012842541 0.049499895
-0.15503088 -0.04616542 0.033330493 0.09118173 -0.047895424 -0.18574044 0.19937062 0.050911427
-0.014390568 0.030772518 0.038947884 0.083134 0.081630625 -0.03624147 0.009301611 0.105874754
-0.11381684 -0.0266458 -0.077091575 -0.3067349 0.29381728 8.351759e-05 0.105741225 -0.013651262
0.13025664 -0.010850386 0.020563366 -0.0799466 0.14160977 -0.05139037 0.016272567 0.024996977
-0.16155174 -0.050468806 0.05550256 0.091102816 -0.0155407665 -0.11606314 0.14986797 -0.009658377
-0.008435696 0.12739082 0.06815074 0.028040303 0.028395724 0.14839438 0.060772743 0.11549071
00000000: 2888 38be 9094 09bc aba5 c7bd a62a 9dbe
00000010: 2942 953e fbeb 853d 4484 1d3d 4558 8c3d
00000020: 0c04 023e 26a7 9cbc 2c0d 1bbd d89b 6dbd
00000030: 9398 3a3e f27d 29be 8569 523c 67c0 4a3d
00000040: 6ac0 1ebe f417 3dbd 8e85 083d 7dbd ba3d
00000050: fe2d 44bd be32 3ebe d027 4c3e 8088 503d
00000060: 6bc6 6bbc a616 fc3c d187 1f3d 2942 aa3d
00000070: f52d a73d f071 14bd c965 183c ddd4 d83d
00000080: ce18 e9bd 4b48 dabc 30e2 9dbd 5b0c 9dbe
00000090: 386f 963e 2a26 af38 db8e d83d 8ba9 5fbc
000000a0: ff61 053e d1c5 31bc 8174 a83c 0bbb a3bd
000000b0: 2702 113e b57e 52bd 0c4e 853c 76c6 cc3c
000000c0: d26d 25be 61b8 4ebd a756 633d 1d94 ba3d
000000d0: b39e 7ebc 83b2 edbd fd76 193e 2b3e 1ebc
000000e0: e035 0abc bd72 023e 9d92 8b3d c7b4 e53c
000000f0: 269e e83c b2f4 173e d7ec 783d 6586 ec3d

fc.bias f4 [2]
-0.09080067 -0.14188622
00000000: b4f5 b9bd 9f4a 11be
