Networks/PERP-EUR/Seed2.pt (torch, 24291 bytes, 14 tensors)

rnn.weight_ih_l0 f4 [32, 5]
000000 2f 91 aa 3f 93 6b 44 3f 7d dd 90 3f 61 2f 12 3e
       1.3325557 0.76726645 1.1317593 0.14275886
000010 2b 74 a5 3f d8 9c 8b be 96 4a 91 be 8b 91 80 be
       1.2926077 -0.272681 -0.28377217 -0.2511104
000020 94 9e 00 bf 4c da d0 be a7 0f 92 3e 2a 88 bd 3e
       -0.5024197 -0.40791547 0.28527567 0.37017947
000030 44 16 19 3f dd 8e 57 bf 62 f5 52 be b7 76 e6 3e
       0.597996 -0.8420237 -0.20601419 0.45012447
000040 44 2e 0f 3f bb 92 32 3f 83 c5 9e 3d 8e 19 31 3f
       0.5592997 0.6975514 0.07752516 0.6917962
000050 77 e5 02 3e cd b5 b7 3e 98 5e b7 3e 46 7f c8 3e
       0.12782846 0.3588089 0.35814357 0.39159602
000060 13 da 3e be 2c dc 66 3f ee 28 17 3f c0 6d 8a 3f
       -0.18637876 0.90179706 0.5904683 1.0814743
000070 8c 70 1a 3f 1f 68 72 be 5f 2f 62 bf 0d 98 2c bf
       0.6032798 -0.23672532 -0.8835353 -0.6741951
000080 a2 88 73 bf b1 77 03 be f2 f9 06 bf f2 4b b5 3e
       -0.9513036 -0.12838627 -0.52725136 0.35409504
000090 2d c0 ef 3e 41 1e ee 3e db 7a bd be 36 90 22 3f
       0.46826306 0.46507457 -0.37007794 0.635013
0000a0 38 70 18 bf e9 53 2d bf 4b b0 07 bf c1 77 e4 bd
       -0.5954623 -0.6770616 -0.53003377 -0.11155654
0000b0 97 3e 02 3f ec b0 09 bf f9 91 7a be ae 2f 32 bf
       0.50876755 -0.53785586 -0.24469747 -0.69604003
0000c0 85 0d 11 bf e4 3b 0d bf 1c 36 b5 bf bd 57 a8 bf
       -0.56661254 -0.5516951 -1.4157138 -1.3151776
0000d0 4f b4 9f bf ca 32 9a 3e fe dc 82 bf 74 3a e9 3f
       -1.2476901 0.30116874 -1.0223691 1.8220963
0000e0 cd 15 d4 3f 2c ba e4 3f 57 0b 63 bf cc aa 57 3f
       1.6569153 1.7869315 -0.8868918 0.8424499
0000f0 dc 17 29 be 69 a6 2a be 59 3b 6b be a1 d6 ab 3e
       -0.16513008 -0.16665043 -0.22971858 0.33562186
000100 56 8a 75 bf 6f cc c6 3e 65 62 4c 3e 95 5b 8b 3e
       -0.9591421 0.38827845 0.1995941 0.2721831
000110 3f 5a e7 bd f5 67 d4 bc f0 bd cc 3e 60 fc a9 3e
       -0.1129651 -0.025928477 0.3998866 0.3320036
000120 f5 ee cc 3e 53 d5 81 3e 1d 51 68 3e 6a 2c fd 3c
       0.4002606 0.25358066 0.22687192 0.030904967
000130 86 c1 ac bd 13 f4 03 3e d7 86 cd be a8 94 b3 bc
       -0.08435349 0.12886076 -0.40141937 -0.02192147
000140 3f 5a 1a bf c5 39 8e be 53 61 ee be 1b 6e 70 be
       -0.60293955 -0.2777845 -0.46558627 -0.23479502
000150 08 da af 3d b9 01 9b bf cd 02 84 bf 77 fe 78 bf
       0.08586508 -1.2109901 -1.0313355 -0.9726328
000160 20 1b e9 be 92 8f ae bd 3a c1 51 3c 14 7a b3 3d
       -0.45528507 -0.085234776 0.012802416 0.08763519
000170 ac d8 34 3e 73 b0 03 3e dd 9d 3a be b6 18 24 bc
       0.17660779 0.12860279 -0.18224283 -0.010015657
000180 17 bf 24 3e 93 1a 71 bd 04 1f 70 be 3b bc 71 bf
       0.1608852 -0.058863234 -0.23449332 -0.9442784
000190 09 f6 4d bd c6 c2 85 be 6a 97 e1 3c 85 f6 09 3f
       -0.050283466 -0.26125163 0.02753802 0.53891784
0001a0 12 ea 0d bf 06 50 81 bd 69 6a 9b bd 20 65 6b 3c
       -0.5543529 -0.063140914 -0.075886555 0.014367372
0001b0 8f 4a 95 be d3 33 a7 3e fb 98 97 3e b8 bd d7 3b
       -0.29158446 0.32656726 0.29608902 0.0065838955
0001c0 57 c5 ce 3e 97 fa 8d 3e 4e f5 35 3f 3a 81 49 be
       0.40384933 0.27730247 0.7107743 -0.19678202
0001d0 b8 17 61 be c3 48 7d be d6 11 4a bf ee 66 0f bf
       -0.21981704 -0.24734788 -0.78933465 -0.56016433
0001e0 db ae 84 3e 4c 86 bc 3e ce 4e 9c 3e 5d d7 bf 3d
       0.25914654 0.3682121 0.30528873 0.09367249
0001f0 09 e4 23 bf 95 79 81 bf 6c d5 3e bf 70 4a 79 bf
       -0.6401983 -1.0115229 -0.74544406 -0.9737921
000200 9a 7d 23 bf c1 49 ad be 4f 19 b2 3e d7 24 a6 3e
       -0.6386353 -0.33845332 0.34784934 0.32449982
000210 8c 0a 23 3e 6a 5d fc 3e a7 a5 da 3d 09 37 34 be
       0.15921992 0.4929002 0.10676127 -0.17599119
000220 79 e1 bb bd 6a d4 3f be aa 7a 9a be e2 14 21 bf
       -0.09173865 -0.18733373 -0.3017171 -0.6292249
000230 2c be cd 3f 39 fb ca 3f eb fd d5 3f 99 ab d4 be
       1.6073661 1.5857917 1.6718115 -0.4153717
000240 47 f1 f0 3d 63 74 2c bf 52 d9 53 bf 9e 20 6f bf
       0.1176477 -0.6736509 -0.8275348 -0.93409145
000250 e6 92 3a bf 35 6b 59 3e 29 a1 71 bf 5b 08 8f bf
       -0.728804 0.21232302 -0.94386536 -1.1174425
000260 a6 95 a6 bf 9f 79 98 bf b7 f9 15 be 23 a7 7a 3f
       -1.3014419 -1.1912116 -0.1464604 0.9791128
000270 3a 3d 50 3f 62 c8 61 3f c5 44 1f 3f de 5e 42 3f
       0.81343424 0.88196385 0.6221431 0.75926006

rnn.weight_hh_l0 f4 [32, 32]
000000 ed a4 9b be 05 e8 77 3e 15 45 db 3e 8f 2d 50 3e
       -0.30399266 0.24209602 0.42826143 0.20329879
000010 4d d2 96 bd f7 77 84 3f 49 4b 3b 3d 99 b6 b4 3c
       -0.073643304 1.034911 0.045726094 0.022059726
000020 1d b9 35 3e 39 5e d1 3e 04 6e ca be 75 86 00 be
       0.17746396 0.408922 -0.3953706 -0.12551291
000030 bc 0b cf 3e 97 10 0b bf 18 9a 66 be 74 3f 5b bf
       0.4043864 -0.5432219 -0.2251972 -0.85643697
000040 5b e6 47 be b9 33 ba 3e 36 c9 d5 3d 8a 80 c0 3d
       -0.19521467 0.36367586 0.104387686 0.09399517
000050 54 c9 a7 be 38 68 10 3f 77 cf 02 3e f8 4a 84 3d
       -0.3277079 0.56409025 0.12774454 0.06459612
000060 4a 28 97 be f0 7a ed be 3e b1 88 be ce 9e 14 bf
       -0.29522926 -0.46382856 -0.26697725 -0.58054817
000070 6f 49 2d 3f ba be 99 bf 37 f3 79 3d 08 4d 93 3e
       0.67690176 -1.201133 0.061022963 0.28769708
000080 3f 50 90 be 50 d2 13 3e aa 44 6a bd ca 33 85 3f
       -0.28186223 0.14435697 -0.05719439 1.040643
000090 d9 94 b3 bd e8 3b a5 3e 32 e0 62 bf 9a d6 74 3e
       -0.08768625 0.32272267 -0.88623345 0.23909989
0000a0 69 12 f1 bc 8b e6 0e 3e 32 13 e6 3e cc f0 85 3e
       -0.029427724 0.13955133 0.4493652 0.26160276
0000b0 e6 1b ca 3e d3 81 ad bd 83 01 24 3f 68 81 a1 be
       0.3947441 -0.08472028 0.64064807 -0.31544042
0000c0 d4 3f b0 be 17 da 70 bf 26 52 05 3f 8b 6b b5 3e
       -0.34423697 -0.9408278 0.52078474 0.3543361
0000d0 ef 40 4b 3e 00 5b f6 bc 47 62 5c 3e 9f 43 1a be
       0.19848989 -0.030072689 0.21521865 -0.15064858
0000e0 62 84 5d 3f fe fc 7f bf 6b da 63 3f ec bb b1 be
       0.86530125 -0.9999541 0.89005154 -0.34713686
0000f0 03 72 eb 3e 75 10 fb be 0d ce aa bd 4a 1b a9 3e
       0.45985422 -0.49035993 -0.08340082 0.33028632
000100 06 56 bd 3b 33 b9 73 3e 32 89 6e bd a9 3b 46 bd
       0.005778077 0.23801117 -0.05823631 -0.04839674
000110 6c 0b 2d be 45 34 5c 3f a3 cd 1e 3e 99 f3 18 3d
       -0.16898888 0.86017257 0.15508132 0.037341688
000120 4c 56 31 3d d9 33 0f 3f 9e ad ca be 6e e1 ab 3e
       0.04329519 0.5593849 -0.39585584 0.33570427
000130 b8 32 65 3f 63 33 11 bf 70 cb 17 bd 4a 20 f5 be
       0.89530516 -0.56719035 -0.037059247 -0.47876197
000140 53 b7 ec be 3b 4c ee bd c0 61 4b 3e cf c1 4b 3f
       -0.46233615 -0.116356336 0.19861507 0.79592603
000150 20 c1 3a 3e af a4 87 be 2f cd a3 3e 8c d9 59 3e
       0.18237734 -0.2649283 0.3199248 0.21274394
000160 cb 5b 05 3e 82 3a 28 3e 62 9f 59 3f 33 3d 04 bd
       0.13023297 0.16428569 0.85008824 -0.032284927
000170 93 ba b9 3e 41 83 21 bf fc 26 06 3f c7 78 62 3f
       0.36275157 -0.630909 0.52403235 0.8846554
000180 d2 3c 99 3c b1 e6 9b be 8c eb f8 bd 56 fe db 3d
       0.01870576 -0.3044944 -0.12154302 0.1074187
000190 f3 7a d6 3e 78 3e 54 bf b0 c1 a0 be 2d 07 87 be
       0.41890678 -0.8290782 -0.31397772 -0.26372662
0001a0 ee b8 9c 3e 0c 58 69 bf 29 88 79 3c 3b e8 87 be
       0.3060984 -0.91149974 0.015230217 -0.26544365
0001b0 6e 8a 02 bd 29 c2 4a 3f 3e 4a 8b 3d 0a 16 19 3f
       -0.031870298 0.79202515 0.0680127 0.59799254
0001c0 35 9a 53 3f b5 33 a1 3e 37 56 83 bf cc 1b 2b bc
       0.82657176 0.31484762 -1.0260686 -0.010443639
0001d0 af 84 28 be 37 1c 8a 3f f7 56 e4 be cc 1f 68 bc
       -0.16456865 1.078986 -0.445976 -0.014167737
0001e0 90 c8 82 3e 86 95 9b be 4e 57 e0 bd 03 7f 2b be
       0.25543642 -0.30387515 -0.10954152 -0.1674767
0001f0 7e 0b 40 be 8a dd 31 3f 69 68 f9 be e1 49 c6 3e
       -0.18754384 0.69478667 -0.4871247 0.3872824
000200 c4 f1 57 3e 0d 0f d6 3d 48 0d 98 be 6e 29 d6 be
       0.2108832 0.104520895 -0.29697633 -0.41828483
000210 b0 60 be be 7d 6d ee be 06 cb 0f 3f e8 c1 60 3e
       -0.37183142 -0.46567908 0.56169164 0.2194897
000220 dc 32 8d be d8 37 a3 be ea 8c 9c bf bb d7 45 3d
       -0.27577865 -0.31878543 -1.2230504 0.04830144
000230 e5 7f 10 bf 78 a2 8a 3e 89 fb 92 bd 09 a4 88 3e
       -0.5644515 0.2707708 -0.07176883 0.2668765
000240 eb 6f 01 3e 25 7b 1a 3f 41 79 0d bf 3f 75 1d bf
       0.1264035 0.60344154 -0.55263144 -0.6150703
000250 95 36 29 bf 74 4f 4f 3e 07 18 0d bf dd bc 2e 3e
       -0.6609891 0.20245153 -0.5511479 0.17064233
000260 cf 0b 1c bf 3d ee 7b 3e 1c d9 40 bf ae 9e fc 3d
       -0.6095552 0.246026 -0.7533128 0.12334953
000270 77 2e 9c bd 61 60 f5 3e 06 be 9e be 71 11 ae bd
       -0.0762605 0.47925094 -0.3100435 -0.084994204
000280 d7 ce c4 be e6 8a af 3e 3e 11 df bd 03 08 46 3f
       -0.38439056 0.3428566 -0.108919606 0.77355975
000290 f9 3c 8a 3c 41 31 b2 3e ed b9 91 bf 5d 6d c1 3e
       0.016874777 0.34803203 -1.1384865 0.3777875
0002a0 83 52 8e 3e ef 50 ab bc f9 59 db bb 9a 85 f2 3d
       0.27797326 -0.020912616 -0.006694075 0.11841889
0002b0 84 89 a3 3e 89 4a 5b bd 07 66 82 3f 13 ff 1f be
       0.31940854 -0.05353788 1.0187386 -0.15624647
0002c0 c5 ca 62 3e c8 ce e7 be 0e 8c 8b 3e 6e f2 75 3e
       0.22147663 -0.4527495 0.2725529 0.24018261
0002d0 4f 84 44 3e 41 51 ae bd 80 67 35 3d b1 b0 7b bf
       0.19191097 -0.08511592 0.04428816 -0.98316485
0002e0 a5 38 22 3f 31 e4 41 bf 21 49 83 3e ae 36 04 bf
       0.6336768 -0.7573882 0.2564173 -0.51645935
0002f0 c2 fb a3 3d e3 1e bc be b8 a0 b4 bc 39 15 7c 3f
       0.08007003 -0.36742315 -0.022049293 0.98469883
000300 23 42 39 bd 35 ee 07 3f 1a ea f5 3d 1b 20 67 be
       -0.04522909 0.5309785 0.12007542 -0.22570841
000310 d9 30 bd be 7c 83 79 3f 58 25 78 3e 0b e4 68 3e
       -0.3695133 0.97466254 0.24232996 0.22743241
000320 08 0d 58 be 4f b2 5c 3f af 56 b0 3c 47 3d 83 3e
       -0.21098721 0.8620958 0.021525709 0.25632688
000330 31 30 ca 3c 84 88 48 bf fe c5 4d be 43 42 1a bf
       0.024681183 -0.78333306 -0.2009506 -0.6025736
000340 69 2f 09 bf e8 24 ac 3c cb 44 3e 3f 61 29 6e bd
       -0.5358797 0.021013692 0.7432372 -0.05814493
000350 1f 7d 92 3e 38 9e 47 bf aa 2d 31 3f ca 4d 70 3d
       0.28611085 -0.779758 0.692103 0.058667935
000360 67 8d b5 bd 3b 6b b4 3e 0b 8e 4e 3d 9f 71 9b 3e
       -0.08864861 0.3523806 0.05042843 0.30360124
000370 bb 9e a4 bd ac d0 8d bf 83 e5 11 3f 65 c6 ff bd
       -0.08038088 -1.1079307 0.5699083 -0.12489013
000380 e4 6d bb bf 82 16 05 3e 03 e6 f8 bd f1 87 03 be
       -1.4642911 0.12996867 -0.12153246 -0.12844826
000390 6d 5d 44 3c 06 a8 9f 3e 42 d5 0c be fd 3b a5 bd
       0.011985165 0.3118288 -0.13753226 -0.080680825
0003a0 6a 54 05 3f 81 de 11 3f b1 9a e6 3d 82 9b 7b bd
       0.5208193 0.5698014 0.11259974 -0.0614276
0003b0 3e 16 86 3f 97 f4 0c bf 96 b5 c4 3e a8 75 29 bd
       1.0475538 -0.55060714 0.3841979 -0.04137197
0003c0 d8 83 06 3e b5 92 61 bf 22 f0 b2 3c 6a fe 16 3f
       0.13136232 -0.8811448 0.02184302 0.58981955
0003d0 59 a6 b8 3e fd 0f c0 be d9 96 cf 3d 13 77 fa be
       0.36064413 -0.37512198 0.10136194 -0.4891897
0003e0 ec 00 a7 3f 26 e4 44 bf 6a 40 ac 3e 66 f2 e3 be
       1.3047156 -0.76910627 0.33642894 -0.44520873
0003f0 69 ae 75 3c 4e 61 16 3c 48 24 fa 3e 0c 2e 15 3f
       0.014995196 0.009178473 0.48855805 0.58273387

rnn.bias_ih_l0 f4 [32]
000000 f0 ed b0 bd 7c 6b d0 3e 51 8e 48 3f 3d 61 c0 be
       -0.08639133 0.40707004 0.7834216 -0.37574187
000010 46 60 02 bf 20 f5 04 bf 82 d1 e6 3e 2e 3d 49 be
       -0.5092815 -0.5193653 0.45081717 -0.19652244
000020 f7 6c 65 bf 02 30 83 3e 47 aa 29 be 49 81 36 3e
       -0.8961939 0.25622565 -0.16568862 0.17822756
000030 8a 4c aa 3d 1a d2 ad bd a8 d7 0c bf b4 9a d3 3d
       0.0831538 -0.08487339 -0.55016565 0.10332242
000040 cf 3c 80 be 28 60 57 bd 43 d5 ae be e4 a0 f7 3e
       -0.25046393 -0.052581936 -0.3414708 0.48364937
000050 2c 5f fc be cb b0 c8 3d b3 3f 9d be f8 47 67 3f
       -0.4929136 0.097993456 -0.3071266 0.9034419
000060 ff 8a 0d 3d 43 29 4d 3e 91 db c5 be c2 a2 96 3e
       0.034556385 0.20035271 -0.38644078 0.2942105
000070 f7 47 b0 bd e2 15 b3 3e 7b ca d3 3e 25 94 22 bf
       -0.08607476 0.34977633 0.41365418 -0.635073

rnn.bias_hh_l0 f4 [32]
000000 b6 1a 89 be 1f 3b 6f 3e 3d 4b 39 3f f7 b9 9d be
       -0.2677819 0.23362397 0.7238043 -0.30805942
000010 0b 91 ec be c5 3a 07 bf 56 89 9f 3e c9 74 0b 3d
       -0.4620441 -0.5282405 0.31159467 0.034046922
000020 41 96 64 bf c1 21 a3 3e dd b6 08 be 9b c3 f1 3d
       -0.8929177 0.3186169 -0.13351007 0.11804887
000030 54 74 00 3e db 6d 3e be da b8 58 bf 70 19 dc 3d
       0.12544376 -0.18596594 -0.8465706 0.10747039
000040 74 f4 0d be 7d dc 6c be 13 35 a3 be ed 12 c4 3e
       -0.13862783 -0.23130985 -0.3187643 0.3829569
000050 c8 74 7e be 05 d1 c0 3e 62 22 94 be 28 51 28 3f
       -0.24849236 0.3765947 -0.28932482 0.65748835
000060 85 09 14 3d 8a 4d da 3e 34 8c 81 be 42 12 ce 3e
       0.03614189 0.42637283 -0.2530228 0.40248305
000070 04 52 c0 b9 e9 65 fc 3e 1c 8b b4 3e d1 f9 0b bf
       -0.000366822 0.492965 0.35262382 -0.54678065

rnn.weight_ih_l1 f4 [32, 32]
000000 22 12 d0 3e bc 74 e3 3d 2f 12 34 be de b8 b2 be
       0.40638834 0.1110625 -0.17585061 -0.34906667
000010 ef 75 e2 be 02 35 00 be df cc e1 3e 04 77 53 3f
       -0.442306 -0.12520221 0.44101617 0.8260348
000020 b7 73 e9 be 58 bd 80 3d a5 db 25 3f da e4 22 be
       -0.45596096 0.062861145 0.64788276 -0.15907612
000030 a7 0a 66 be 99 47 ca be 6e 2d ca be 63 dd 55 3e
       -0.22465001 -0.3950775 -0.39487785 0.20885234
000040 ca e4 81 bc 64 d7 4e 3e e4 84 0a 3d 91 89 db 3c
       -0.015856165 0.20199353 0.03381814 0.026798995
000050 38 ee 38 bd 86 12 cc be 30 65 b4 3d 17 a3 86 bd
       -0.045149058 -0.39857882 0.088083625 -0.06574076
000060 b8 ea d0 3d a7 28 2d 3f f4 31 04 3f fc 4e 17 3f
       0.10201019 0.67640156 0.5163872 0.59104896
000070 11 09 a6 be 7e bb 80 3d 6d c6 00 3f 8d 67 85 bf
       -0.32428792 0.06285761 0.50302774 -1.0422226
000080 08 6c a3 3e 42 9a 10 bf e2 7c 0a bf 7c 2a f6 3d
       0.3191836 -0.5648538 -0.54096806 0.12019822
000090 c6 a9 0e 3f ee e6 39 bf 67 42 ab be 4b 87 d6 be
       0.55727804 -0.72617996 -0.33449098 -0.41900095
0000a0 c6 6c 2f 3f 23 d5 f9 be a1 cb 36 be c9 e1 44 3c
       0.6852535 -0.48795423 -0.17851116 0.012016722
0000b0 a9 5f 3a be 79 22 6d 3f 90 99 10 3f c4 04 ca 3e
       -0.18200554 0.92630726 0.5648432 0.3945676
0000c0 4e f5 75 3f 6e d0 12 3c d1 16 ee be 94 23 77 be
       0.9607743 0.008960826 -0.46501783 -0.24134666
0000d0 d7 c1 5f bf d6 d7 5a 3e 60 64 ef be ca 99 80 be
       -0.8740515 0.21371397 -0.46756268 -0.25117332
0000e0 34 49 85 3d b8 23 f8 bd 41 d0 6f be f2 0f 04 3e
       0.06508103 -0.12116188 -0.23419286 0.12896708
0000f0 95 6f a1 3e 9e 7d 39 3f e2 d1 bf be e4 eb 02 bd
       0.31530443 0.724573 -0.37464815 -0.031963244
000100 3c 1c 8c 3f 27 ab 28 bf b8 9a 74 3d bc d4 10 3f
       1.0946116 -0.6588616 0.059717864 0.56574607
000110 66 9c 02 3f 3c 2e 77 be 6a 74 56 bf 80 80 05 bf
       0.51019895 -0.24138731 -0.83771384 -0.521492
000120 ed 37 81 3d 99 f5 98 bf e9 b4 3d bf 6b 03 50 3f
       0.06309495 -1.194995 -0.7410417 0.81255215
000130 16 eb ef be a4 2d 3b 3f 3e fb 56 3f f6 2d 9f be
       -0.46859044 0.7311652 0.83977115 -0.31089753
000140 c7 34 fb bd 51 a2 82 be f6 f0 79 3e 4d a0 6a bf
       -0.12265926 -0.25514463 0.24408326 -0.9165085
000150 66 ba 9d be 09 72 a2 3e 67 30 c9 be 93 65 e6 bd
       -0.30806273 0.31727627 -0.3929474 -0.112498425
000160 94 65 2e bd 55 52 72 be 1f a8 a3 3d 8e f8 ae bd
       -0.04257734 -0.2366422 0.07991051 -0.08543502
000170 50 ff a5 3f 9f 9f 5e 3e 80 3c 08 c0 7d 74 2c 3e
       1.296854 0.21740578 -2.1286926 0.16841312
000180 f5 5d 03 3f b8 22 1c bf d7 2d bb be c3 af d6 3e
       0.5131524 -0.60990477 -0.3655841 0.4193097
000190 1d c8 10 3f 3f fa 86 3e 62 56 fa be e1 a8 76 3e
       0.5655535 0.26362798 -0.4889403 0.2408786
0001a0 44 f7 cc bd 10 cc d8 be 56 86 6a 3e 86 e0 90 3f
       -0.100081 -0.42343187 0.22902808 1.1318519
0001b0 e4 c7 8a be e4 00 eb 3e 28 f5 cb 3e 6d c4 c1 be
       -0.2710563 0.45899117 0.39835477 -0.37845173
0001c0 17 b9 67 be 51 08 d2 be 5d 3f 2a 3f 40 2b 1a bf
       -0.226292 -0.4102197 0.66502935 -0.60222244
0001d0 1e 28 d6 3e 77 88 51 be c9 12 43 3f 5d 66 18 bf
       0.41827482 -0.20462213 0.7620054 -0.59531194
0001e0 ea 93 1f 3d 08 a1 90 bd ef c8 c9 3e b8 05 1a 3e
       0.03895942 -0.07061964 0.39411113 0.15041244
0001f0 51 c7 51 3f 45 45 8e be 3d d8 a8 bf fc 27 0e 3f
       0.8194476 -0.27787223 -1.3190991 0.5552976
000200 5a 27 fa 3e 99 c3 95 be d8 2f 6b 3e b2 6d d4 3e
       0.48858148 -0.29250792 0.2296747 0.4148994
000210 ad ff 21 3f 45 97 13 3f 94 1d c1 be f5 e8 12 3f
       0.63280755 0.57652694 -0.3771788 0.57386714
000220 79 91 fc 3e 50 eb 14 bf 14 b8 9d be 2e b0 f7 3e
       0.49329737 -0.5817156 -0.30804503 0.48376602
000230 07 68 ed bd db ad 1c 3e d1 a0 8c 3e 5a 02 f1 bd
       -0.11592107 0.15300696 0.27466443 -0.11768027
000240 60 bf 12 be ef ac b2 be 97 a1 0c 3f 39 61 46 be
       -0.14330816 -0.34897563 0.54934067 -0.19373025
000250 fb ee 40 be b5 26 5c 3c 32 a1 03 3f 09 c6 ef 3c
       -0.18841164 0.013436963 0.5141784 0.029269235
000260 50 b9 53 3e d2 31 a5 be f3 d3 75 3d c1 28 eb be
       0.2067616 -0.32264572 0.060016584 -0.4592953
000270 31 f0 0a 3f 0e 4e 97 be dc 19 12 bf b4 9c 53 3f
       0.54272753 -0.29551739 -0.5707071 0.82660985
000280 f8 05 b8 be 50 78 15 3f 88 19 b0 3e 8b 53 a7 be
       -0.35942054 0.5838671 0.3439448 -0.32680926
000290 2c 39 c3 be 1a 42 28 3e ef c8 17 3f 81 30 27 3f
       -0.38129556 0.16431466 0.59290975 0.65308386
0002a0 a9 44 d3 3c f5 7f 86 3f d3 2d 34 be cf de c8 be
       0.025789576 1.0507799 -0.17595606 -0.3923249
0002b0 51 38 be 3d 9b a3 34 bf 0e 15 e1 be e6 9a 5d be
       0.09288085 -0.7056214 -0.43961376 -0.2164112
0002c0 05 68 24 3e 23 c6 8d 3d 04 d4 5b 3e f9 b6 c8 3d
       0.16055305 0.06922557 0.21467596 0.09800524
0002d0 19 d7 86 be f9 72 cf bb 80 19 9b bd f9 ea 03 3e
       -0.2633598 -0.0063308445 -0.07573223 0.12882604
0002e0 69 b2 83 be 89 fa fc 3e 2c b8 1f bd 22 c3 de 3d
       -0.25722054 0.49409893 -0.038994 0.108770624
0002f0 2d a9 64 bf 7c e6 8a be 6c 47 ce 3f 44 a4 1d bf
       -0.8932064 -0.2712897 1.6115546 -0.61578774
000300 13 53 1a bf 03 8b 13 3f 6c 90 9c 3f 51 76 8c be
       -0.6028301 0.5763399 1.2231574 -0.27434018
000310 ef 15 2f bf 67 8c 8f 3e 0e c1 97 3e 39 a9 20 3f
       -0.68392843 0.28036806 0.29639477 0.62758213
000320 33 58 00 bf ed cb 20 3f c4 30 12 3f dd 14 82 bf
       -0.5013458 0.62811166 0.5710566 -1.0162617
000330 e8 e8 9d 3e c6 d8 4d bf bf f5 1c bf 3c ba 36 be
       0.30841756 -0.80408895 -0.6131248 -0.1784448
000340 f6 aa c0 be 38 fd 0f be eb 4d 16 3f a4 74 a6 3d
       -0.37630433 -0.14061439 0.58712643 0.08127716
000350 7a 2a 8a 3e 9b 39 ec bd ef 2b 20 3e 6e f0 9c 3f
       0.26985532 -0.11534425 0.1564176 1.2260873
000360 f3 98 38 3c 46 31 da bb 49 7a ae 3e ea 8d b8 3e
       0.011266935 -0.006658706 0.3407767 0.36045772
000370 ad b9 9a bf b5 ab 28 be eb 52 80 3f ef b3 de be
       -1.2087914 -0.16471751 1.0025305 -0.43496653
000380 92 80 54 be ba 24 b2 3d a8 6f 52 3f af 85 60 bf
       -0.2075217 0.08698411 0.82201624 -0.87703985
000390 48 be c7 be d1 2e 2d 3d 88 7e 75 3f 5b 5a 1f 3f
       -0.3901236 0.042280976 0.95896196 0.62247247
0003a0 b2 70 72 bf a9 f1 89 be 0e 03 9f 3b 11 e6 bc bd
       -0.9470321 -0.26942185 0.004852659 -0.09223569
0003b0 94 fe 1f 3e 89 b3 05 be 06 97 9b bf 60 32 21 3f
       0.15624458 -0.13056768 -1.2155464 0.6296749
0003c0 a8 af 06 3e ca f0 01 3f a3 62 e3 be 98 71 30 3e
       0.13152945 0.5075804 -0.4441119 0.17230833
0003d0 64 9f 32 be b8 9c 7c 3e 1a d9 38 bd 60 f7 df 3e
       -0.17443615 0.24669158 -0.04512892 0.4374342
0003e0 9a 8b 9d be cb 10 0c 3f f2 af 82 be 08 34 ee 3e
       -0.3077057 0.54713124 -0.2552486 0.46524072
0003f0 b2 fe 16 3e 8a de b9 bd 91 0d a4 3d 3d d5 df be
       0.14745596 -0.09075649 0.080104 -0.43717375

rnn.weight_hh_l1 f4 [32, 32]
000000 03 9d 6e 3f 53 e3 ce 3e 39 92 22 bf ef 2a 5a be
       0.9320833 0.4040781 -0.6350437 -0.2130544
000010 42 5d 7b 3e 65 13 4d 3f 30 73 93 3e e4 04 af 3d
       0.24547294 0.8010772 0.2879882 0.08545855
000020 bd 43 6d 3e 3e 02 bc 3d d2 31 4b 3d 00 3b 4e bf
       0.23170371 0.09180115 0.04960806 -0.80558777
000030 26 b5 00 3f 90 87 4c 3f 93 da 24 3e de bc 0c 3f
       0.5027641 0.7989435 0.16099004 0.5497569
000040 d2 df 51 3e a9 ff b6 be 4a b5 85 3d 87 95 af 3e
       0.20495537 -0.35741928 0.06528719 0.34293768
000050 68 62 50 bf 86 be 37 bc 70 fc 60 bf 35 db 7b be
       -0.81400156 -0.011214858 -0.8788519 -0.2459534
000060 a0 8f 43 be 8e 1c 1c be 06 90 92 be 15 32 1d 3e
       -0.19097757 -0.15245268 -0.28625506 0.15351136
000070 81 63 bd be 84 0e c8 3e b6 d1 3d bf 30 3f 85 be
       -0.36989978 0.39073575 -0.7414812 -0.2602477
000080 9e db 4d bf 0c 05 10 bf 12 42 a4 3e 96 bd 7c 3e
       -0.80413234 -0.562577 0.32081658 0.24681696
000090 ab ce 0c be 6a 52 a0 3e a9 19 3f 3e 99 18 89 be
       -0.13750713 0.31312877 0.18662132 -0.2677658
0000a0 69 66 26 bf 4c 46 41 be a8 02 73 be fa db d2 3e
       -0.65000015 -0.18874472 -0.23731482 0.41183454
0000b0 ae 9e a9 be bd 35 81 be df bd fb 3d 8d 84 f0 3e
       -0.33128875 -0.25236312 0.122920744 0.46976128
0000c0 08 bb 71 be 81 20 3d bd 49 40 94 be 26 e2 12 be
       -0.23606503 -0.046173576 -0.28955296 -0.14344081
0000d0 b9 93 a3 3e 50 a3 66 bf 63 82 bc 3d ea 9a 90 3d
       0.3194864 -0.90092945 0.09204557 0.070607975
0000e0 a5 01 98 3e 85 54 46 bc fc 62 9e 3d e9 65 7e 3e
       0.29688755 -0.012105112 0.077337235 0.24843563
0000f0 db ed 34 3e 6a dc 24 bf 7a 86 27 be 26 39 f6 3e
       0.1766886 -0.64398825 -0.16359892 0.48090476
000100 7c 55 f7 be 66 20 32 3e 7b 16 6f be 77 3c a9 3e
       -0.48307407 0.17395172 -0.2334842 0.33053944
000110 1c a3 9c be 28 9c c8 3e ca 6b a6 3e 01 ed 94 3e
       -0.30593193 0.39181638 0.32504112 0.2908707
000120 68 82 06 bf 2c 4f 06 bf f5 30 1c 3d c9 1f 52 bd
       -0.52542734 -0.52464557 0.038132627 -0.051299844
000130 f7 d9 3f bf 30 ce 30 be e7 08 f4 bd 96 e8 d6 be
       -0.7494196 -0.17266154 -0.119157605 -0.41974324
000140 66 87 df 3d 5a 55 66 bc 41 ca 8e be 71 f5 54 3e
       0.10914497 -0.014058435 -0.27888682 0.20796753
000150 be 6a 93 be ea ff 74 bf 60 e8 b7 bd 18 0e 92 bb
       -0.28792375 -0.95702994 -0.08979869 -0.0044572465
000160 d0 f2 6f bc 33 09 32 be 68 01 d9 3e 4a 9d bf be
       -0.014645293 -0.17386322 0.42383885 -0.3742469
000170 6b 7d 6e 3e 8e 86 00 3e d9 47 53 be 7b 56 c8 3e
       0.2329003 0.12551329 -0.20632876 0.3912848
000180 b5 75 f4 be 43 5d af 3e 98 a2 34 3f 79 e3 c3 3e
       -0.47746053 0.3425084 0.705606 0.38259485
000190 6f db 46 bd 41 44 af be 5e 70 b5 be 5b 68 20 bd
       -0.048549112 -0.3423176 -0.35437292 -0.03916202
0001a0 8d b5 d9 bd e9 ae 61 3e b0 5b 1f 3f 76 c8 0e 3f
       -0.10630331 0.22039379 0.6224928 0.5577463
0001b0 8f 28 1a bf bc ac 21 bf d5 f4 a7 3e 35 2a 3d be
       -0.6021814 -0.63154197 0.3280398 -0.18473132
0001c0 9a 5d 88 be 5f 76 b5 be f7 59 e2 be 7d ee 9d 3e
       -0.26633912 -0.35441872 -0.44209263 0.30846015
0001d0 ed 0c d8 3e 4c d4 c4 be b7 b7 4e 3d 60 d6 cb 3e
       0.42197362 -0.3844322 0.050468173 0.39811993
0001e0 34 ba 94 3e af e3 df 3e 5f 8f 8f be d3 e0 de be
       0.29048312 0.43728396 -0.2803907 -0.43530902
0001f0 b3 27 91 3f 0a a4 29 3e ee 39 bb 3e c9 ee 05 3f
       1.134024 0.16566482 0.36567634 0.5231748
000200 47 87 84 bf d1 63 f9 3e 07 df 40 3f e9 b8 60 3f
       -1.0353783 0.48708966 0.7534031 0.8778215
000210 a1 f4 b8 3e 1d 2e ca be d2 43 0a bf ea 2c 35 bf
       0.36124137 -0.39488307 -0.54009736 -0.7077166
000220 e0 5a 3f be 5b f8 2b 3f af 97 a4 3e 33 bf 19 be
       -0.1868701 0.67175835 0.32146975 -0.15014343
000230 12 c9 62 be ec 99 9f 3e b3 46 2f bf 6c e8 9d be
       -0.22147015 0.3117212 -0.68467253 -0.30841386
000240 49 bd 46 be b7 71 25 bf 57 09 bb be 86 7b 30 3f
       -0.19408144 -0.6462664 -0.36530563 0.6893848
000250 e7 d0 24 3f fe 6d e6 3c 08 39 b2 3d b5 bd a5 3e
       0.6438126 0.02812862 0.08702284 0.32371297
000260 38 90 3e 3d 21 d4 a2 be 87 c1 b2 be 23 f8 a1 be
       0.046524256 -0.31802467 -0.34913275 -0.31634626
000270 01 82 a4 bd c0 78 20 be 82 6a 04 3f 13 b0 47 3f
       -0.08032609 -0.15671062 0.5172502 0.7800304
000280 81 89 33 3f ab 49 ad 3d eb bc d2 be 95 4c bd bd
       0.7013169 0.08461317 -0.41159758 -0.092431225
000290 a2 26 f5 3e 95 39 27 3d 47 50 97 be c7 c0 e0 bd
       0.47881037 0.0408264 -0.29553434 -0.10974269
0002a0 33 57 3d 3f 1b 62 a7 3e 69 d6 a5 3e 8e 7f 09 bf
       0.7396118 0.32692036 0.32390144 -0.5371026
0002b0 0b 61 2f 3f 42 e8 41 3f 8e 0e 08 3c 89 5e de 3e
       0.6850745 0.7574502 0.008304251 0.434315
0002c0 7c ba ba 3e 7a ed 19 bf 6c ad 49 3e eb b9 17 3f
       0.364704 -0.60127985 0.19695061 0.59268063
0002d0 04 09 1d bf 9c ab 48 3f e1 01 99 bf 87 38 45 bf
       -0.6134188 0.78386855 -1.1953698 -0.7703938
0002e0 45 aa 02 bf 69 87 09 be 16 4b a0 be 2b 5f 8c 3e
       -0.5104106 -0.13430561 -0.31307286 0.27416357
0002f0 0c 18 a4 be c9 33 a8 3d b1 18 fd be d5 4c 03 bf
       -0.32049596 0.08213002 -0.494329 -0.5128911
000300 5d 3b da 3e 8c ec 1f 3d 2c be b1 3d 21 3f 1a bd
       0.42623416 0.039043948 0.086788505 -0.03765786
000310 f3 91 d0 3e 49 be 66 3d 77 ce 0a bf cf af af 3d
       0.4073635 0.056333814 -0.5422129 0.08578455
000320 75 91 e5 3e 9e db 9c 3e 63 c5 62 3e d7 97 eb 3d
       0.44837537 0.30636305 0.2214561 0.115035705
000330 66 94 e7 3e 0f c3 9e 3e 4c 44 7c be 98 48 4f 3e
       0.45230407 0.31008193 -0.24635428 0.20242536
000340 77 a0 9a 3c 33 c7 b2 3a 38 0a 88 3c c2 47 ea 3e
       0.018875344 0.0013639688 0.016606435 0.45757872
000350 2a 74 53 bd 7b 3f 34 3f 7e 7c 03 bf 57 9a 96 bd
       -0.051624455 0.70409364 -0.51361835 -0.07353657
000360 59 14 bf 3d f9 b6 9b 3d 87 26 c4 3d 83 45 7c 3e
       0.09330053 0.07603259 0.09577661 0.24635892
000370 f0 32 33 be 75 66 32 bf ee e0 88 bd 86 7d c0 be
       -0.174999 -0.6968759 -0.06683527 -0.37595767
000380 16 cc bb 3e 66 62 0f bf ed dd 2f be 1c ee 0e be
       0.36679143 -0.5600952 -0.17174502 -0.13958019
000390 fb 59 f7 3e 37 d4 86 3e 17 fa ff 3d ba 58 7d be
       0.48310837 0.26333782 0.12498873 -0.24740878
0003a0 ec 0e 29 3f d3 27 d0 3e f5 02 3d be 52 5b dd 3e
       0.66038394 0.40655383 -0.1845816 0.43233734
0003b0 7d e0 a9 3f 98 00 07 3f 57 aa 91 bd 88 8d a7 bd
       1.3271633 0.5273528 -0.07112568 -0.08181292
0003c0 a4 cb cb be 20 6a f9 be 94 a1 2e 3e 11 ba 6b 3e
       -0.39803803 -0.4871378 0.17053825 0.23020197
0003d0 bb 37 11 3f 23 4a 85 3f f0 1e cb 3e bf 95 af 3e
       0.5672566 1.041325 0.3967204 0.34293935
0003e0 84 19 5c bf 1e 32 16 be bd 39 11 bf a3 d9 89 3e
       -0.85976434 -0.14667556 -0.56728727 0.26923856
0003f0 94 8a a3 3e c4 ca 78 3e 3d 63 11 be 80 3f 05 bf
       0.31941664 0.24296099 -0.14198013 -0.5205002

rnn.bias_ih_l1 f4 [32]
000000 15 57 0d bf 50 4e af 3d b1 42 5a bf 0d c9 f9 be
       -0.55211 0.08559859 -0.85258013 -0.48786202
000010 57 15 0d 3f 0c fd 5f 3e 55 a1 63 3e 9f c3 12 3f
       0.55110687 0.21873873 0.22229512 0.57329744
000020 7d 47 a0 3e 0a 1c 3f 3d 38 70 dc 3d 96 c4 9c be
       0.3130454 0.0466576 0.107635915 -0.30618733
000030 43 8c 11 be dc a5 1b 3e e7 ff 23 bf c8 37 34 bc
       -0.14213662 0.15199989 -0.6406235 -0.010999627
000040 f8 30 35 bc 51 45 bd 3e 8d 86 85 3e b1 76 3c be
       -0.011059038 0.36966947 0.26079217 -0.18404652
000050 8a ae 7a 3e b8 9a 1c 3f 82 c6 fd be 6f a7 5e bf
       0.24480644 0.6117358 -0.49565512 -0.86974233
000060 de 11 93 3d 92 80 c0 3e e4 ed e6 3e d4 01 41 be
       0.07181142 0.3759809 0.4510337 -0.18848354
000070 27 a4 87 3e f8 7d 29 bf 3f 04 45 3e e2 03 16 3f
       0.26492426 -0.6620784 0.19239901 0.58599675

rnn.bias_hh_l1 f4 [32]
000000 da 34 a4 be 02 a8 19 3e 37 8e 1c bf 5a 98 d7 be
       -0.32071573 0.15005496 -0.611545 -0.42108423
000010 22 a0 09 3f 03 c6 83 3d aa 2d db 3e e6 f3 25 3f
       0.5375997 0.06434252 0.42808276 0.64825284
000020 9f ba 40 3e 92 e9 ad bd ce 97 29 3e b2 03 83 bd
       0.1882119 -0.084918156 0.16561815 -0.06397189
000030 06 4c c4 be 12 6e 33 3e 1a 8f 24 bf 7a ce a9 3d
       -0.3833925 0.17522457 -0.64280856 0.082913354
000040 78 8a 04 be ed a2 aa 3e e8 85 c5 3e 31 16 8a be
       -0.12943447 0.33327428 0.38578725 -0.26970056
000050 7c a2 f2 3d 8b 5b 15 3f 4c 5b 00 bf 80 1b 6f bf
       0.11847398 0.5834281 -0.5013931 -0.93401337
000060 f2 0e 9d 3d 56 81 d6 3e fd 67 86 3e 5b c9 28 3d
       0.07668866 0.4189555 0.26251212 0.041207653
000070 e3 cb 0c bd c4 6d 0e bf 9e 26 b2 3e 88 34 1c 3f
       -0.03437413 -0.5563624 0.34795088 0.61017656

rnn.weight_ih_l2 f4 [32, 32]
000000 47 f1 8b bd e4 ad 02 3e 8a cd e6 3e 54 88 1a 3f
       -0.068331294 0.12761647 0.4507869 0.6036427
000010 59 7b ce bc 1a 46 22 bf 2c f7 42 bf 3e b1 42 bf
       -0.025205301 -0.63388216 -0.76158404 -0.760517
000020 2d b6 ea bd ce 6f 02 3e c0 f7 f5 3e cb 70 8a bc
       -0.114605285 0.12737963 0.4804058 -0.016899487
000030 5e 8a 9e 3d 00 70 6b 3e b0 75 58 3c 6b 0a a8 bf
       0.07741235 0.22991943 0.013211653 -1.3128179
000040 25 f5 4f 3b 6e 71 47 be e4 b1 a5 3e e8 e8 0c 3e
       0.003173181 -0.19476864 0.32362282 0.13760722
000050 b9 38 8f 3e 73 f0 fd 3c e6 26 ff 3e cf 2c b9 3e
       0.27972963 0.030998444 0.49834365 0.36167
000060 6f 15 88 3d cb bd 99 be 76 b9 eb 3d 14 f1 80 bf
       0.06644713 -0.30027613 0.11509983 -1.0073571
000070 04 f0 32 3f d8 07 ab bd 07 21 93 3e ca 0e 0d 40
       0.69897485 -0.083511055 0.28736135 2.2040277
000080 84 9b a8 be c8 04 64 be c1 e2 86 ba 35 2c 3a 3d
       -0.3293115 -0.22267449 -0.0010290967 0.045452315
000090 8c 31 1e bf e0 0f 06 bf 3a e5 72 bf 8e 80 8b be
       -0.6179435 -0.52367973 -0.9488102 -0.27246517
0000a0 cf 63 8a be 5e e3 02 3f 4b 0a 00 be 13 32 f4 3e
       -0.27029273 0.51128185 -0.12503926 0.47694454
0000b0 84 31 fe be 0e fd 25 3d da cc e4 be bb 9e 5b bf
       -0.49647152 0.040524535 -0.4468754 -0.8578908
0000c0 8c 57 7d be b1 5e 5a 3f ee 2a ab be 00 cb 06 bf
       -0.24740428 0.8530074 -0.3343119 -0.52653503
0000d0 54 92 07 3e bd ef 1d be 1d 6b 02 3f 27 cd 2c 3e
       0.13239413 -0.15423484 0.5094469 0.16875134
0000e0 71 cf 31 3f 24 2b 08 bf 6c 0e a6 bd c1 83 c3 3e
       0.69457155 -0.5319083 -0.081082195 0.38186458
0000f0 26 85 95 bd 75 1e a3 bf d3 27 0d 3e e3 4d 0e 3f
       -0.07300787 -1.274367 0.13784723 0.55587596
000100 f0 18 d7 3e 8d 98 33 3e b5 2d 5b be db 34 a6 be
       0.42011213 0.17538662 -0.21404155 -0.324622
000110 ba 2a 96 bd 86 eb 92 3e 5d 29 db 3e b0 7d 97 bd
       -0.07332368 0.28695315 0.42804995 -0.0739702
000120 9a 3c 5f be ff 6d 84 be c7 8e cb be e5 5a ec be
       -0.21800461 -0.2586517 -0.39757368 -0.46163097
000130 f0 00 a4 3b a5 f5 ab be fd 6b 17 bf 9e 1a 0a 3f
       0.0050049946 -0.3358585 -0.5914915 0.53946865
000140 08 03 47 3e 0c ea 0c 3f 85 16 05 bf d9 e3 36 bf
       0.1943475 0.5504463 -0.5198749 -0.7144142
000150 6b 46 d7 be 5b d3 eb be a6 87 d7 be 45 54 63 bd
       -0.42045912 -0.4605969 -0.4209568 -0.055500288
000160 7a 2b 06 3f 88 40 05 3f 3f 6e b8 3e 60 3d d9 3e
       0.5241009 0.5205159 0.3602161 0.42429638
000170 3a f8 d1 be b8 32 2b be 35 01 b1 be a8 e5 b1 be
       -0.41009694 -0.16718566 -0.34571233 -0.34745526
000180 61 c3 b7 be 5d da 97 be 05 8d 70 3e b4 4b 9d be
       -0.3589125 -0.29658785 0.23491295 -0.3072182
000190 69 ce 74 3e e4 13 20 be e8 ba 1e 3e cb 30 1e 3f
       0.23906864 -0.15632588 0.15500987 0.617932
0001a0 8e 57 e3 3d 87 6e 0b be c0 2e f0 bd 6d 08 d0 3e
       0.11100684 -0.13616382 -0.11727667 0.40631428
0001b0 5b b5 13 bf a3 d9 a4 be 56 9c aa be c9 d6 ea be
       -0.576986 -0.32197294 -0.333224 -0.45866993
0001c0 a7 62 29 3d 23 99 ab 3e d3 26 d8 be 4d 66 b6 be
       0.041353848 0.33515272 -0.4221712 -0.35624924
0001d0 c1 93 1d 3f de af ad bd 8a 26 37 3f fe b3 fe bd
       0.6155358 -0.0848081 0.7154318 -0.124366745
0001e0 fc f5 51 3e b0 04 21 3e 5a c8 98 3e 5f 38 e6 be
       0.20503992 0.15724444 0.29840356 -0.44964883
0001f0 ee 3e 3a 3e 10 fb 50 bf 7d df 4e 3f fb 5b 0d 3f
       0.18188068 -0.8163309 0.80809766 0.55218476
000200 4c 0c 7c be 09 47 ec 3e ad e1 d5 3e b6 c9 1b 3e
       -0.24614066 0.46147946 0.4177374 0.15213665
000210 f8 d0 1d 3e 1d 3a e2 bd 85 68 b8 be 15 82 15 bf
       0.15411747 -0.110462405 -0.36017242 -0.58401614
000220 3e c7 a8 3e 61 ee 4b 3b 52 83 f5 bd 0f 71 3b 3e
       0.3296451 0.0031117427 -0.11987938 0.18304847
000230 23 0e 78 bd 64 ee d3 3e 4f 3a bd bd 90 c2 ef bd
       -0.060560357 0.41392815 -0.09239637 -0.11707032
000240 83 41 3c be 4a 91 99 be 3b ef 32 3e 61 35 54 be
       -0.18384366 -0.2999366 0.17474072 -0.20723487
000250 bc e4 36 3e 25 8e b2 3d 9e 62 cf 3e 22 04 e1 3e
       0.17860693 0.08718518 0.40504926 0.43948466
000260 5a 52 d4 bd 03 49 d6 be 9f 04 06 bf f1 69 57 be
       -0.1036727 -0.4185258 -0.523508 -0.21036507
000270 3b 05 58 bd 7f c9 45 be 4f b9 72 3e ea 5a 14 3f
       -0.052739363 -0.19315146 0.23703502 0.57951224
000280 b2 e8 4c 3e 94 61 1e 3e 6d f4 e5 be 1b 04 c2 3d
       0.20010641 0.1546691 -0.44913045 0.09473439
000290 e8 6c 8f 3e a5 d0 57 3e 73 df 6a 3f 10 dd ce 3e
       0.28012776 0.21075685 0.91747206 0.40403032
0002a0 46 3f 58 3e 86 3b 15 3f d3 bf 89 be 93 2c 75 bf
       0.21117887 0.5829395 -0.26904163 -0.9577114
0002b0 cd de a6 bd d5 59 05 3f 97 9b c1 be 31 69 68 3f
       -0.081479646 0.520902 -0.37814018 0.9078551
0002c0 f4 83 31 3e e6 06 f2 be f8 1d db 3d 40 d8 b0 3e
       0.17335492 -0.47270888 0.106990755 0.34539986
0002d0 60 bd de be b6 bc b4 3d 5b 51 87 bf 62 fc 1a bf
       -0.43503857 0.08825056 -1.0571703 -0.60541356
0002e0 91 7e b7 3e 5a c4 c8 3e e9 15 bd be c0 bc 9e 3f
       0.3583875 0.39212304 -0.3693078 1.2401352
0002f0 1f 26 04 bf 1f 36 02 3f 5c 50 98 be 16 32 68 bf
       -0.5162067 0.5086383 -0.2974881 -0.90701425
000300 8d 8c a9 3d a5 8c a0 3e 9e b0 d0 bc 05 20 2d 3e
       0.08278761 0.31357303 -0.025474843 0.16906746
000310 5c 1c 16 be 3c 4e 67 bd 49 f1 09 be 99 a3 5a bc
       -0.14659256 -0.056471094 -0.13470949 -0.013344669
000320 0e 0a 32 be a8 5a 0e 3f 93 ae 2f be e5 fe dc be
       -0.17386648 0.5560708 -0.17156439 -0.4316322
000330 b5 ec 26 be d7 27 0b 3e ad 16 23 be b5 92 c3 3e
       -0.16301234 0.13589416 -0.15926619 0.38197866
000340 2f dd 3e be b3 2c 39 3e 12 13 36 3e b2 c5 1d bf
       -0.18639062 0.18083458 0.17780712 -0.61629784
000350 46 db ad be d3 02 40 be 47 8d e5 be c5 ae 08 3f
       -0.33956355 -0.18751077 -0.4483435 0.5339168
000360 49 37 f4 3e bd 02 77 bd 5b 8a 97 3e 98 2d 51 3f
       0.4769843 -0.060305346 0.29597744 0.81710196
000370 67 cb b2 be 14 e0 ae 3e 4e c3 85 bd 63 d6 dc be
       -0.3492081 0.34155333 -0.06531392 -0.43132314
000380 6d 8e 8c be 79 a2 1f 3f 5d a2 24 3f cb a3 59 3f
       -0.27452412 0.6235729 0.64310247 0.85015553
000390 11 4f a8 be 98 96 5c bf 88 c9 a2 be 2a e4 81 3e
       -0.32872823 -0.8616729 -0.3179438 0.25369388
0003a0 87 ab 52 3e 72 d9 b7 3d e1 aa b0 3e 89 f7 82 3d
       0.20573245 0.08977021 0.3450537 0.0639487
0003b0 63 8b d2 be d9 bb 51 be ea 69 c7 be 61 27 5c be
       -0.4112197 -0.20481814 -0.38947994 -0.21499397
0003c0 74 f2 33 bf f5 ba b8 be 07 3b bd 3e 37 d3 82 3e
       -0.7029183 -0.36080137 0.36959097 0.2555177
0003d0 ee cc 3f 3e 33 14 c2 bd 2c e1 09 be ee fe 9d 3e
       0.18730518 -0.09476509 -0.13464803 0.30858558
0003e0 67 1e 9e 3e 8c 3a 95 3d c9 11 bf bd d3 89 3e bf
       0.3088257 0.072865576 -0.09329564 -0.74429053
0003f0 b4 8e 85 3e 0f d2 ed bd 34 f3 09 3f f5 00 55 3f
       0.26085436 -0.11612331 0.53886724 0.83204585

rnn.weight_hh_l2 f4 [32, 32]
000000 80 95 86 3e 4d 5d 96 bf b9 aa 22 3f ae 04 47 3f
       0.26285934 -1.1747223 0.6354175 0.77741516
000010 2f 13 15 be 12 9a 02 bf 1d 68 68 3e b9 5e f1 bd
       -0.14558099 -0.5101634 0.22695966 -0.11785645
000020 ef 8c a4 3d 12 7b 19 3f 3f be 53 3d e0 7e da be
       0.080346934 0.59953415 0.051695105 -0.42674923
000030 e0 9f 36 bf 74 59 58 3e 2b f9 4d be 93 ea 17 3f
       -0.713377 0.21127874 -0.20114581 0.59342307
000040 91 06 17 3f b7 81 7b 3f 52 9a 05 bf 40 d6 62 3d
       0.58994395 0.98244804 -0.521886 0.055380106
000050 7a 08 04 bf c3 b8 fa be 7a b0 c3 3d a7 ed 96 be
       -0.51575434 -0.48969087 0.095551446 -0.2947819
000060 0c 4f b2 be 0b 6f 45 3d c6 e1 56 be 08 90 25 3f
       -0.34825933 0.048201602 -0.20984563 0.646729
000070 42 0f b1 3e 66 fa 4d 3d d9 4f 7a be 95 5d 90 3e
       0.34581953 0.050287627 -0.24444522 0.28196397
000080 84 61 f4 be ee 87 b1 bf 89 23 89 bc 8c b5 1d 3f
       -0.4773065 -1.3869607 -0.016740577 0.61605144
000090 9e 74 37 bf 71 35 b7 bd 7e 22 81 3e 34 97 8f 3e
       -0.7166232 -0.0894574 0.25221628 0.28045046
0000a0 74 73 e3 3e 63 2b 09 be 7f da 11 bf 98 c2 c7 3e
       0.4442402 -0.13395457 -0.56974024 0.3901565
0000b0 83 1c 2c bf fe ca fd 3e 72 b9 d8 3e dc 12 6f 3f
       -0.67231005 0.49568933 0.42328984 0.9338815
0000c0 0d 77 36 3e 0a 6a 8b 3b b9 ea f9 bd 22 e6 9f 3e
       0.17818852 0.004254584 -0.12202973 0.31230265
0000d0 5c 7b 28 bf 18 06 19 3d a7 83 a6 3e 0c 35 18 be
       -0.6581323 0.037359327 0.32522318 -0.14863986
0000e0 88 52 00 3f 93 46 11 bf 29 22 54 bd 43 c3 e8 3e
       0.5012593 -0.5674831 -0.05179039 0.45461473
0000f0 de 29 5c 3e 9c 10 50 3c 64 3f c5 bc ab bb 3b 3e
       0.21500346 0.0126992725 -0.024078079 0.18333308
000100 ab 25 f9 3d b6 93 b8 3e fa d4 09 bf 35 c0 99 be
       0.12165388 0.36050195 -0.538406 -0.30029455
000110 43 57 ce bc ae 38 a2 ba d3 02 ec 3a 1a 0a 2f bf
       -0.025188094 -0.0012376511 0.0018006213 -0.6837479
000120 24 f9 8e 3e 35 ba 3b 3e 82 46 d0 bc af fe 48 3f
       0.27924454 0.18332751 -0.025424246 0.78513616
000130 1a 16 3a 3d b3 d3 58 3f d0 91 a4 3e a0 ae ed 3e
       0.045431234 0.8469803 0.32142496 0.4642229
000140 d3 60 85 bd ed 6c b4 3e 8e 96 5f 3e 8f 7f f2 3d
       -0.065126084 0.35239354 0.21834776 0.11840736
000150 02 9a be bd 68 1c 2a bf 13 4c 0b bf ba dd bb be
       -0.093067184 -0.66449594 -0.54412955 -0.366926
000160 76 3e 60 bf e5 55 16 3f e2 b2 b8 3b b8 d3 0f 3a
       -0.8759531 0.58724815 0.005636559 0.00054865656
000170 fc cb ab be e0 5d ac 3e 02 82 5f 3e a2 e4 a3 bc
       -0.33554065 0.3366537 0.21826938 -0.020006482
000180 87 f5 e8 3c 70 08 06 bd 39 5f be be d8 93 3a be
       0.028437389 -0.03272289 -0.37182024 -0.1822046
000190 e3 5f e0 bd 65 61 80 3d 97 da cd 3d 61 eb ba 3e
       -0.10955789 0.062685765 0.10051458 0.36507705
0001a0 c3 3b de 3e 69 09 de 3e 26 12 73 bf 80 c2 03 3f
       0.4340497 0.43366554 -0.9494957 0.5146866
0001b0 0a 6c 0f 3f c3 a7 07 3d e0 23 ec bd 02 69 43 bd
       0.5602423 0.033118974 -0.1153028 -0.047707565
0001c0 7a cf e0 bd 1d 0b d6 bd 9c 9e 83 bf cd 65 09 bf
       -0.10977073 -0.104513384 -1.0282779 -0.5367096
0001d0 9e f6 dc 3e ff f5 3a 3b 9a d9 c0 be 21 5c 71 be
       0.43156904 0.0028527973 -0.37666017 -0.235703
0001e0 39 10 92 be 7e 95 b9 be 28 2a d1 3d 85 f3 5b 3e
       -0.28528002 -0.36246866 0.10213119 0.21479614
0001f0 2a 33 0a bf c3 80 30 bf de 25 e3 3e 16 10 53 be
       -0.5398432 -0.68946475 0.44364828 -0.20611605
000200 1a ea 12 3e f6 da 50 3e 82 03 80 be 70 32 86 bd
       0.14347115 0.20396027 -0.25002676 -0.06552589
000210 74 32 3b bf 7e 99 09 3e 4a 96 0b 3e 24 12 55 be
       -0.7312386 0.13437459 0.1363155 -0.20807701
000220 3f c4 1d 3d 53 18 e0 3e da 70 a0 3a e3 b4 59 bf
       0.038517233 0.43768558 0.0012240664 -0.85041636
000230 c8 61 ab bd 04 3f 8b 3c d8 75 b9 be 65 87 6c be
       -0.0836826 0.016997822 -0.3622272 -0.23098524
000240 e0 58 ae 3e 15 f7 cd 3e 73 57 19 3d 95 2b 3a bd
       0.3405218 0.4022757 0.037436914 -0.04545172
000250 8c ed 3a 3e 8c 69 5c be a5 e8 81 bd 59 67 6a 3f
       0.1825468 -0.21524638 -0.063432015 0.91563946
000260 14 ae 0f 3e 56 a7 29 3e 92 c6 b0 be fb 68 4b be
       0.1403125 0.1656774 -0.34526497 -0.19864266
000270 20 2b db 3e b8 19 13 be e7 25 9c be 58 96 4e bd
       0.4280634 -0.1436528 -0.30497667 -0.050436348
000280 d7 79 0c bf 74 58 14 3f a1 2b 55 be f9 6b 19 bf
       -0.5487341 0.5794747 -0.20817424 -0.5993038
000290 74 2d 30 bd d0 61 4f 3e ef 41 be 3d 2c fb 50 bd
       -0.043012097 0.20252156 0.092899196 -0.051020786
0002a0 62 ce 44 bf 9a cc 9a 3e 54 a1 f2 bd aa ec 7f be
       -0.76877415 0.30234224 -0.11847177 -0.24992624
0002b0 c8 2d ec bd d5 62 13 bf b2 c3 40 be f3 56 c5 be
       -0.115321696 -0.5757268 -0.18824652 -0.385429
0002c0 46 40 3c bf 88 48 a1 be 0e 79 5f 3f 2e 25 86 bc
       -0.73535573 -0.3150065 0.8729409 -0.01637515
0002d0 b9 01 53 3f d7 a8 2d 3d 1a 6a 36 3e e9 f9 f7 3d
       0.82424504 0.042397346 0.17813912 0.121082135
0002e0 3f 3e 8b be 79 ff de 3e 4f 74 d2 be d2 8c ee be
       -0.27195928 0.43554285 -0.4110436 -0.46591812
0002f0 80 aa df bd 13 21 2b 3f 76 f7 7e 3e 85 fe 11 bf
       -0.10921192 0.6684734 0.24899086 -0.5702899
000300 f8 0d a1 be 73 fb 08 bf 12 41 c3 bc 92 4c 22 bf
       -0.3145597 -0.5350868 -0.023834739 -0.6339809
000310 a2 77 3e bd c9 9f 91 bc 77 4b 4c 3f 0a 60 6b bf
       -0.04650081 -0.017776387 0.7980265 -0.9194342
000320 d1 54 97 be 3a 77 0f 3f eb 88 9c be 14 b0 2f 3e
       -0.29556897 0.560413 -0.3057321 0.17157012
000330 79 22 27 be be 6c 4f 3e 6a 08 91 3e d9 0e 65 3d
       -0.16321744 0.20256326 0.28326732 0.055922363
000340 35 06 bc bd d6 64 dc be 25 56 96 3e b2 3b 13 be
       -0.091808714 -0.43045682 0.29362598 -0.1437824
000350 c5 d1 36 3d a5 cd 8d be 95 64 a7 be 46 ef 04 3f
       0.044633646 -0.27695957 -0.32693925 0.519276
000360 c6 ab 2a be fe d4 db 3e e5 3a 99 3e bc 53 4c bd
       -0.16667089 0.42935938 0.29927745 -0.049884543
000370 c1 4b e5 3b 6e 4b 1d bd 1b e0 ae bd 85 f5 9d 3e
       0.006997556 -0.038402013 -0.085388385 0.3085138
000380 bc 86 6d 3e 90 84 5d be e6 e6 ef 3d 2d 88 17 3f
       0.23195928 -0.216326 0.11713962 0.5919216
000390 b9 c0 8c be 19 15 0b bf 1c ae 4c bf 19 45 0b be
       -0.27490786 -0.5432907 -0.7995317 -0.13600577
0003a0 db 8e 2a be a9 e5 60 be 30 da 04 bf 11 02 6c bf
       -0.16656058 -0.21962608 -0.5189543 -0.92190653
0003b0 d8 62 24 3e 5a 0a 5f be d9 44 d8 be 38 6b 0e bf
       0.16053331 -0.21781293 -0.42240027 -0.5563235
0003c0 97 67 5b 3e fc b9 05 3f 28 7a 32 be 78 61 c8 be
       0.21426235 0.52236915 -0.17429411 -0.39136863
0003d0 88 81 a0 bd ef ec 1d be 9b fd 9e bc 0f 8a fc be
       -0.07837206 -0.15422414 -0.019408038 -0.4932408
0003e0 c0 31 1e 3f 0c c8 74 be 8e 52 dc be 20 5a 24 3e
       0.6179466 -0.23904437 -0.43031734 0.16050005
0003f0 4c d0 9b be 48 81 97 3d 2c aa e4 bc d8 46 17 bf
       -0.30432355 0.07397705 -0.027913176 -0.59092474

rnn.bias_ih_l2 f4 [32]
000000 2f 95 a6 3e a0 0f b8 bc fd e5 88 3d 8b 26 86 3e
       0.32535693 -0.022468388 0.06684492 0.2620128
000010 4e 6d 93 be af e9 95 3e 67 cf fe bd 85 52 19 3f
       -0.2879433 0.2927985 -0.124419026 0.5989154
000020 9b 6f e7 3c 60 c1 b1 be 04 c3 95 be 7f 81 16 bf
       0.02825146 -0.34717846 -0.29250348 -0.58791345
000030 fb 79 9e be 3e 2e 85 3e 15 6b 61 be 9a 7a 2b 3e
       -0.3095244 0.26011842 -0.22013505 0.16745988
000040 21 90 07 3f e6 a7 d9 3c da d3 f3 be c3 04 a9 3e
       0.529543 0.026569318 -0.47622567 0.33011445
000050 e9 d1 4b 3e d7 b6 a1 bd 95 cc a0 3e 06 70 6c bf
       0.19904293 -0.07896202 0.31406084 -0.92358434
000060 05 69 89 be a5 7f 0f be 2f 8e e0 3d b3 fd ea 3e
       -0.26837936 -0.14013536 0.10964619 0.45896682
000070 ed b8 2b 3e b7 e3 e5 be 2d c5 0b 3d 15 b7 c3 bd
       0.16769762 -0.44900295 0.03412359 -0.095564045

rnn.bias_hh_l2 f4 [32]
000000 9e e6 70 3e 26 c4 b0 bc 75 70 c9 3e aa c7 9c 3e
       0.23525473 -0.021577906 0.3934361 0.30621082
000010 82 31 cf be 23 2f bc 3e fc d2 f5 bd 55 62 35 3f
       -0.4046746 0.36754712 -0.12003133 0.7085317
000020 2b b8 71 bc fc 24 94 be 80 f2 ab bd 80 85 ae be
       -0.014753382 -0.28934467 -0.083958626 -0.34086227
000030 9b 0d 60 be 8d 89 e0 3e 7a 3c 6a be 5f 7b 1d 3e
       -0.2188019 0.43854943 -0.22874632 0.15379094
000040 0f 69 c0 3e 76 64 3b 3e 3a 40 d9 be 02 c6 7e 3e
       0.37580153 0.18300042 -0.42431813 0.24880221
000050 b6 4c 9a 3e 44 b7 12 be 41 69 25 3e 5d 10 1e bf
       0.3013665 -0.14327723 0.16153432 -0.6174372
000060 7b d1 b7 be 92 65 e9 be 45 4d 06 3e 5e b6 b8 3e
       -0.35902008 -0.45585304 0.13115413 0.36076635
000070 0e 2b ad 3e 50 f3 3d be b4 2f 53 3e 76 b9 4e be
       0.3382191 -0.18549848 0.20623666 -0.20187935

fc.weight f4 [2, 32]
000000 72 a5 9c 3e 59 f3 a8 bc 54 b0 d1 bb 7e 78 ec 3c
       0.30594975 -0.02062385 -0.006399194 0.028866049
000010 86 21 03 3c d2 cf b5 bd 2d 99 94 bd c2 fc e8 3d
       0.008003598 -0.08877529 -0.072557785 0.11376335
000020 7a 81 90 3d 0d 66 cb bd 0e 2c e9 bd 02 e1 4e bd
       0.07055946 -0.09931574 -0.11385356 -0.050507553
000030 e2 e5 8e 3d f4 5b 41 bd 6b 18 34 ba 24 13 ea 3d
       0.069774404 -0.047206834 -0.00068700936 0.11429432
000040 4b a7 1c bd 3c d2 06 3e f8 fa 63 bd 3a e3 af 3b
       -0.03824548 0.13166136 -0.055659264 0.0053676637
000050 bd 80 e5 bd 60 c2 8e bd 2a 8e 55 bd e7 3b 5f 3d
       -0.112061955 -0.06970668 -0.05213753 0.054500487
000060 6f d5 5b 3e a2 33 c7 bd c2 43 e6 3d 84 3c a0 3c
       0.21468137 -0.09726645 0.112433925 0.019560106
000070 aa 1b 94 bd 6f b8 5b 3a 2c 7c ee 3d 33 ba ee 3d
       -0.07231839 0.000838167 0.11644778 0.116566084
000080 be cf 83 3e ea c3 61 bd 30 c0 f7 bc f7 78 05 3d
       0.25744432 -0.05511848 -0.03024301 0.032586064
000090 fa d2 1b 3d 4f f7 dd bd b9 8e 92 bd 2f d6 e9 3d
       0.038043 -0.10838186 -0.071561284 0.114178054
0000a0 09 79 65 3d 79 24 7e bd 95 d0 fe bd 9f ec 18 bd
       0.05602363 -0.0620465 -0.124421276 -0.037335034
0000b0 f9 d0 96 3d 94 0a aa bc 9a b1 89 3c 64 8f 02 3e
       0.07364077 -0.020756997 0.01680832 0.12750012
0000c0 4b 71 bc bd 0e dc b7 3d d2 e8 eb bc ee 8c b5 bc
       -0.092012964 0.08977519 -0.02879754 -0.022161927
0000d0 94 08 ca bd 96 52 30 be d7 30 46 bd de 24 a2 3d
       -0.098649174 -0.17219004 -0.04838642 0.07917188
0000e0 51 a4 53 3e f0 7e a5 bd 31 46 15 3e ab 56 ba bc
       0.2066815 -0.08080852 0.14577557 -0.022746405
0000f0 15 fa 9c 3c 36 06 03 bd 00 2d b9 3d b0 2d da 3d
       0.019162217 -0.031988345 0.09041786 0.106532454

fc.bias f4 [2]
000000 8c be 2a be 99 86 5a be
       -0.1667425 -0.21340407
