Networks/ICP-EUR/askSeed2.pt (torch, 33123 bytes, 9 tensors)

rnn.weight_ih_l0 f4 [50, 1]
00000000: da49 dcbf 87f6 08c0 8f7e d53f acf7 1b3f
00000010: 5dbe 7fbf fb8f 753f 6c8e d4be d612 c33d
00000020: 4c93 57be 5abf 993f ed4c 8c3f 313d 243f
00000030: 05c9 a440 9f78 703f 6d34 893f 6111 ea3f
00000040: b402 7cbf bdf4 a03f ce41 95c0 9547 ccbe
00000050: 3ac2 163f 7400 99bf 3570 67be 8f3c 6a3f
00000060: ea45 db3e 6c8a 20bf 02cd 1ebf 0acd 6cbf
00000070: 55f4 18bf 1170 93bf 6181 27bf dca9 4e3f
00000080: acd6 fc3f ae37 093f e654 4cc0 c3ff e63e
00000090: f838 adbf 5b3c 00c0 f84b 1ebf 3d4d f23d
000000a0: 37d4 4f40 c895 12bf 3068 67bf 2580 763f
000000b0: 8130 1f3f 8dff 59bf 48a9 0f3f 247a b2be
000000c0: 6ae7 e23f 215d a0bf
-1.7210038 -2.1400468 1.6679248 0.6092479 -0.99899846 0.9592282 -0.4151491 0.09525077
-0.21052283 1.2011521 1.0960976 0.6415587 5.1495385 0.93934053 1.0719124 1.8286554
-0.98441625 1.2574688 -4.664283 -0.39898363 0.58890116 -1.1953263 -0.22601397 0.91498655
0.42826778 -0.62711215 -0.6203157 -0.92500365 -0.5974782 -1.1518575 -0.6543179 0.80727935
1.9753013 0.53600585 -3.1926818 0.45117006 -1.353301 -2.0036838 -0.6183467 0.11831138
3.2473276 -0.572598 -0.9039335 0.96289283 0.62183386 -0.85155565 0.5611768 -0.3485881
1.7726872 -1.2528421

rnn.weight_hh_l0 f4 [50, 50]
00000000: 6800 00bf 64a1 2f3f 5462 60be 5e3c 02be
00000010: 4343 1fbe 32d0 ebbe feb2 1fbf aa79 3e3f
00000020: 81aa 7e3f abc8 9abf db0d 44bd 6bb3 323f
00000030: 9db7 82bf 8803 9a3d 31d9 083f 1705 febe
00000040: 46c2 913c 0984 22bf def6 313e d202 31bf
00000050: b77d 56bf 9b78 dfbd c667 3140 eb62 be3e
00000060: 3e1e e7be 2a81 f53c 8208 bdbe 3121 fabe
00000070: 8c79 b73e b839 2dbf 4ebb 37bf 485b 503f
00000080: 3dd0 983e 99f3 003e bece 8e3d 712c 8dbf
00000090: 961f 67be c382 263f afc2 7c3f e773 123f
000000a0: 0a73 3b3f b663 7dbf 2a42 0dbf 2f2f abbf
000000b0: 2876 a03e b08d 343e e95a f83e 3ba9 8bbf
000000c0: 4c33 f23e 9dd2 19be 6a46 673e 17bb 2240
000000d0: 5336 5f3f eae3 46be fa00 bd3e 2722 303f
000000e0: d128 d03f 8ad3 4e3e 94f5 9abe 228a 2f3f
000000f0: 1da0 973e 227c 433e e7ca 01bf 0841 8fbe
00000100: 80f8 8abf 7bd6 803f cf41 493e 274a a9be
00000110: 4d36 1ebf 13a8 0abe a745 5c3f cab9 14be
00000120: 0185 a13e b0d5 be3c b4b3 0ebf 6a05 adbd
00000130: 7e35 54be 8a3a b53f b390 8abe a5f4 d43e
00000140: 4d7f cfbe 6ec5 a63e f20a a9be 4c5d 04bf
00000150: 1887 29bf a9c0 bbbe 0fd5 693f 3832 e5be
00000160: 898f cebf 00db 6abe 4cfc 1cc0 6d71 613f
00000170: a4ce 6e3f 6862 073f eaad eebe 1f3a 0d3f
00000180: 3cbf a6bf 8621 133f 8679 1a3f 8798 7f3d
00000190: c5bb 8a3e 5a75 813e 01f0 163f acae fd3f
000001a0: 29b7 67bf fdb9 ba3f 4d78 323f 9431 0d3f
000001b0: 2856 8cbe 67ae a5be cbfc 0940 ddc3 403f
000001c0: 4fac 873f 8887 e7bd e4cb 5ebf ede5 8c3f
000001d0: 829a 3dbf 2bc5 87bd 8e4b 023f f9b4 1bbf
000001e0: 12f2 debd afba a8be 206a 67be 66ca c9bc
000001f0: 3f52 9a3e efd0 cb3d 034a 69bf 6034 2a3f
00000200: 5206 76bf d238 313f 9f56 9dbe f8b8 a23e
00000210: 77e6 5e3f 30d7 2abf 7477 f3be af83 81be
00000220: bb8e 8e3e 7ba8 8ebf 5786 8abf 93ce 523f
00000230: 99f0 ee3e f042 64bf 0174 febe 8b52 1bbf
00000240: 847d debd 5fee 9d3e 6598 a8bf 85ae 8dbe
00000250: c281 fcbb 04f9 a8bf 2d0f bebe 677d 5b3f
00000260: 86b9 fd3e 9cff bfbe 0ca7 5f3f 5045 3c3c
00000270: d4f5 38bf d2f7 9a3f d64c 9b3e c2f7 2bbf
00000280: 40ad 6abe 0593 873f e95c 69be e6f9 85bf
00000290: 83ff e83d dcca 9abf 2ceb 013f e5c0 f73b
000002a0: b923 d43e db55 72bf 34e8 1fbf 120b 84bf
000002b0: eb1d 743f c4e9 eb3e fedc a1bf 183f 923b
000002c0: 76ab 9bbf 5394 0fbf dd83 91be ddfc 04bf
000002d0: 87fe 50bf d2e6 aa3f 5abc 1a3f eaea 84be
000002e0: ba45 92be f8dd 21bf 42ce 1cbf 1c11 363f
000002f0: c69b 393f 5f8f 38bf 19dc aa3e 5474 f13e
00000300: 04d0 85bd 6d60 f8be 82f1 8bbf e9c8 9fbe
00000310: d3d8 7f3f c49f e23e cdc6 8fbe bd22 543f
00000320: addb 3a3f 42aa 18bf 3d2b 2dbf 4c6a 8c3f
00000330: 39a0 a7bf 7b93 debc 6283 513e 0279 c7be
00000340: fd08 2d3f 3adf 053f c549 343f 6a70 74bf
00000350: e9f3 403f e2e8 573f a219 a5bb 41e1 003f
00000360: 447c 26bf cbbe 453e 3d87 8f3e 7576 1d3f
00000370: 4e96 39be 30d4 f23e 87a8 1ebf 90b2 1bbf
00000380: ebda 623e d1ed f0be 459b 3f3f 0ef7 8cbc
00000390: 5f05 78be 4098 2f3f 8b55 db3e 88df 58bf
000003a0: f5b3 1ebf 0799 c33e 3729 d4be 1fc5 253f
000003b0: 2608 223f 20ff 8abf e3b5 c43d 275a 883f
000003c0: 9d4c 013f 3fd6 4dbf 667c 1cbe 0b2f 783e
000003d0: dcee c13f 1a90 993e 5bd1 efbe 07f0 15bf
000003e0: 1733 6a3d 8a57 60bf 9f9c 94bc 939d 313f
000003f0: 3b8e fcbe a242 41be c6a6 4e3f df40 e63e
-0.5000062 0.6860564 -0.21912509 -0.12718341 -0.15553002 -0.46057278 -0.62382495 0.74404395
0.9947892 -1.2092489 -0.047864776 0.6980502 -1.0212284 0.07520205 0.5345641 -0.49613258
0.017792832 -0.6348272 0.17379329 -0.6914493 -0.83785576 -0.109116755 2.7719588 0.37184843
-0.4514026 0.029968817 -0.36920553 -0.48853448 0.3583492 -0.67666197 -0.7177018 0.81389284
0.29846373 0.12592925 0.06973027 -1.1029187 -0.22570643 0.65043277 0.98734564 0.572081
0.7322241 -0.9898027 -0.55179083 -1.3373774 0.31340146 0.17632174 0.4850686 -1.091102
0.4730476 -0.15021749 0.22585455 2.542669 0.8719227 -0.1942288 0.36914808 0.6880211
1.6262456 0.20197883 -0.30265486 0.6857015 0.29614344 0.19090322 -0.5070023 -0.27979302
-1.0857086 1.0065454 0.1965401 -0.33064386 -0.61801606 -0.13540678 0.8604378 -0.14523998
0.31546786 0.023295254 -0.55742955 -0.08448298 -0.2072353 1.415849 -0.27063522 0.415929
-0.4052681 0.32572502 -0.33016163 -0.5170486 -0.6622176 -0.36670426 0.91340727 -0.44764876
-1.6137553 -0.22935104 -2.452899 0.880637 0.9328406 0.5288453 -0.4661706 0.5516681
-1.302711 0.5747303 0.6034168 0.06240132 0.27096382 0.25284845 0.58959967 1.9818931
-0.90513855 1.4588009 0.69714814 0.55153775 -0.27409482 -0.3235962 2.1560543 0.75298864
1.059946 -0.113051474 -0.8702986 1.1007668 -0.74063885 -0.06629404 0.5089654 -0.6082302
-0.10886015 -0.32954928 -0.22599077 -0.024632644 0.30140874 0.0995196 -0.9112856 0.6648617
-0.96103394 0.69227326 -0.3073015 0.31781745 0.8707041 -0.667346 -0.47552073 -0.2529578
0.2784327 -1.1145166 -1.0822247 0.8234646 0.46667936 -0.8916464 -0.4969788 -0.60672826
-0.10863784 0.30845925 -1.3171507 -0.2767221 -0.007705898 -1.3200994 -0.37120953 0.85738224
0.49555606 -0.37499702 0.8736427 0.011491135 -0.72250104 1.2106879 0.3033206 -0.67174923
-0.22917652 1.0591742 -0.22789349 -1.0466888 0.1137686 -1.2093158 0.5074947 0.0075608366
0.41433504 -0.94662255 -0.6246369 -1.0315878 0.9535815 0.46076787 -1.2645566 0.004463088
-1.2161701 -0.560857 -0.28420916 -0.5194834 -0.8163838 1.3351691 0.6044365 -0.25960475
-0.28568822 -0.6322932 -0.61252224 0.71119857 0.72503316 -0.72093767 0.33371046 0.47159064
-0.065338165 -0.48511067 -1.0933077 -0.3120797 0.9994022 0.44262516 -0.2808136 0.82865506
0.7299145 -0.5963479 -0.676441 1.0969939 -1.3095771 -0.027169934 0.20460275 -0.3895951
0.6759184 0.5229374 0.70425063 -0.9548403 0.7537218 0.84339726 -0.005038456 0.5034371
-0.65033364 0.19311063 0.28032866 0.61508876 -0.18123743 0.4742751 -0.619759 -0.6081934
0.22153823 -0.4705644 0.748463 -0.017207649 -0.24220799 0.6859169 0.42838702 -0.8471608
-0.6199334 0.38202688 -0.41437694 0.6475391 0.63293684 -1.0859108 0.09605005 1.0652512
0.5050753 -0.8040504 -0.15281829 0.24236695 1.5151019 0.29992753 -0.46839413 -0.5856938
0.05717763 -0.87633574 -0.018141089 0.69381064 -0.49327263 -0.18873075 0.80723226 0.44971368

rnn.bias_ih_l0 f4 [50]
00000000: 4455 7b3d 2da9 24bf 185c d6bd 195d 613f
00000010: cd6f 56bf cac5 043f 9dd6 81bf c32e 41bf
00000020: 5e08 fa3e c693 883e cd70 4c3f 8db5 0cbf
00000030: f6fc 033f ee62 063f ce06 0d3f 9fd0 28bf
00000040: 997e 2ebf 0fd6 1a3f d484 323d af42 c53f
00000050: 23bc 1c3d 4271 923e ff88 cabf 6b69 70be
00000060: f8a5 a03d 670c efbe ab79 c63f 2a2b 51bf
00000070: d6b9 c23f 8f02 4a3e 5c95 d63f 5707 debf
00000080: 2e04 673f f7b5 063f 2847 20bf b1ff 5c3e
00000090: d7ca edbe 213e 1e3f bd3b 5d3f 00c7 6f3f
000000a0: 1ca7 39bd e6c6 8dbf c421 4dbf db93 423f
000000b0: eed8 a73f 0bc5 05bf 976f 633f 855e 5dbf
000000c0: 53d1 32be 7bbc 45bf
0.061360613 -0.6432064 -0.10466784 0.8803268 -0.83764344 0.518643 -1.014362 -0.7546198
0.4883451 0.26675242 0.7985962 -0.54964525 0.5155786 0.52494705 0.5508851 -0.6594333
-0.6816192 0.6048288 0.043583706 1.5410975 0.03826536 0.28602034 -1.5823058 -0.23477714
0.07844156 -0.4668915 1.550588 -0.8170649 1.5212963 0.19727539 1.6764331 -1.734599
0.9024075 0.52621406 -0.62608576 0.21581914 -0.46443817 0.6181355 0.8641928 0.93663025
-0.045325384 -1.1076324 -0.8012965 0.7600686 1.3113077 -0.5225379 0.8884215 -0.8647235
-0.17462663 -0.77240723

rnn.bias_hh_l0 f4 [50]
00000000: 6dda 7e3e 08bc 07bf ddaa 0abe fd91 2f3f
00000010: ebbe 65bf bbbc 393f 69a2 80bf 0f0a 35bf
00000020: 924b 123f b145 273e fc8e 303f 4483 0fbf
00000030: 7437 a73e f6eb fb3e ad12 db3e a66b 05bf
00000040: 3e48 12bf 5aa4 f23e f7ad 4b3e 5451 cc3f
00000050: c793 3b3d a023 7e3e 35fe bebf f633 64be
00000060: c5d1 6f3e 9705 e0be 3567 c43f ec83 3bbf
00000070: 6179 a83f 973e 563d 4822 e43f e1f8 e4bf
00000080: 2e9b 893f aa0f 1e3f 8725 3bbf 4a0e 863e
00000090: 606a 8abe 0169 3c3f 388d 423f ded6 943f
000000a0: b767 6abd b380 77bf dc1c 5cbf a449 3e3f
000000b0: 3583 bd3f 6cdf 1abf fdab 743f f6b9 60bf
000000c0: 713f bdbd 59b0 23bf
0.2488801 -0.5302129 -0.13541742 0.68582135 -0.8974444 0.72553605 -1.0049564 -0.70718473
0.5714656 0.16335179 0.68968177 -0.5605967 0.32659495 0.4920346 0.42787686 -0.52117383
-0.5714148 0.47391015 0.19890581 1.5962319 0.04579523 0.24818277 -1.4921328 -0.22285447
0.23419864 -0.43754265 1.5343996 -0.7324817 1.3162042 0.052305784 1.7822962 -1.7888452
1.0750482 0.6174265 -0.7310414 0.26182777 -0.27034283 0.73597723 0.7599673 1.1628072
-0.057227816 -0.96680754 -0.85981536 0.74331117 1.4805666 -0.60497165 0.95574933 -0.87783754
-0.09240616 -0.6394096

rnn.weight_ih_l1 f4 [50, 50]
00000000: c1a8 25bf 110f 6abf 120f 933f d09c 09bd
00000010: 7bb5 b2be 1783 8bbe b9d7 093f ad45 12be
00000020: 838e 4fbf 582a bcbe 3ca5 ff3d 0184 a9bb
00000030: 4020 413d 0443 d73e 8728 e53d a214 b53e
00000040: 1eae 8bbe 3714 42bf 044a 98bf 876b b9be
00000050: cd81 903f d993 c9be 4eb9 cb3e d0bd 073f
00000060: b445 a2be 9833 803e ecd8 ad3e 3805 4e3e
00000070: e902 873e 9e19 84be f962 b83e 8ab7 1d3f
00000080: e4f1 4d3d bca6 ccbe e74d 6abc 07c6 1f3f
00000090: 3df2 8fbe c8a9 f9bb 12ca bcbe 5c2b 503d
000000a0: 8b2e 333d ceec f63d 25d0 9cbd ddb7 0c3f
000000b0: 140e 19be e40c e43e 5454 683f 5d2f d6bc
000000c0: a7fc 353f 2320 84be b1b8 1e3f e641 a43d
000000d0: 791f 27be 5e5e e13e 2aa2 13be 9818 563f
000000e0: 3bbc f63e 6a89 43bf 89a1 fcbd a9a2 003f
000000f0: 5f30 923e f2f2 97bf b21d 7b3f b87e ad3f
00000100: 4c5e 2ebe 8cd7 66be 6425 55be 87db 403f
00000110: 96cf 183e 8d72 293f a627 20be 2eaf 7d3f
00000120: 49f7 943d 71cd 483e 0963 403e d459 163f
00000130: a977 3d3f 61cd d4bb 91ae 51bf b7b0 273e
00000140: 2dc2 bc3f 38ef 06bf 6853 c33e c373 b23d
00000150: 778a debe 6c49 643f 51ac a13e 384b 8abf
00000160: d7e8 2bbe c6b0 823b a593 b03d 7592 29bf
00000170: 49cb 5cbe e729 3f3f 96fa 12be 1f60 943f
00000180: 73eb ab3e 0dcf 0e3e 14e4 2abd b567 6abf
00000190: 9669 94be 1005 6940 fe0f 453e 7252 eabe
000001a0: c1f3 d83f 11b7 65bf 9313 da3d 7c3a 4d3e
000001b0: 984d d0bd dc56 0cbe 28c2 08bf 6699 b73e
000001c0: c112 23c0 16cf afbe b271 053f 90d5 9dbe
000001d0: da6e 193f f27a d8be ca79 473e 0d68 fbbe
000001e0: 61db 4dbe 64de 7fbe 5f86 66bc 1bf0 0a3e
000001f0: b38e 85be beee 903e a35b e6bd 06cb 883e
00000200: cf81 7d3e 7dca 54bf 8df0 debd 4de6 f2bd
00000210: 24b7 7ebe ef94 f8bd 0927 933f 3a60 b9be
00000220: 7aa5 b0be c936 bc3f dd02 853e 1edb 76bc
00000230: 4b7e 203f 8e38 323f 8b1c d93e 3fa9 d6be
00000240: 40df 9bbe 407c a5bd e04e 443e e780 d73d
00000250: 2685 713e a3f2 d13f 12e5 50be 4bb7 33bf
00000260: 4066 37bf 5ea0 c03e 3271 86bf d2d0 c33e
00000270: cc6e 3cbe 9c06 8f3e 4e7c 373f 7766 ffbe
00000280: c87d 053f f6ba f93d 9416 533f 8f09 e0bd
00000290: 1c24 95bb 3da0 df3e ed49 49bf 8beb 0ebf
000002a0: c9de 3e40 a19b 03be 672c 5cbf 1679 50bd
000002b0: dcf5 3d3e 1194 85bf 9ef6 8ebd b9a3 98be
000002c0: 2ed9 b2be 1fff bcbe 513f 073f 972c 9e3d
000002d0: d941 96be 9c54 a63d 5a37 bd3e ec0e c53e
000002e0: 54c2 863f 1a2a 46be c37c 89bc 02ef 04bf
000002f0: 8297 153e 4a35 2f3f 47e7 c7bd 5e50 adbe
00000300: ccd6 8bbf b1a7 03bf 47f3 e23e 4dd2 dabe
00000310: c81c 99bd d15c a8bf 372b 353c d574 2bbf
00000320: 641b 48be 1e8a 5fbf 333a c1be 7ce2 653e
00000330: 5dba 23bf edf9 e23d a178 833c a8cf b1bf
00000340: ef2a d83e 2221 943e 4e76 803d 4793 e9bf
00000350: e887 2f3f 86fe 8e3f 8ca2 a53e 5fba d53d
00000360: 5110 85be 0a5d b63f 75cb e73f c150 8b3f
00000370: 11ed c5bd 66f6 ae3d 0189 7e3d 893e 21bf
00000380: 289b 473f 1ff3 b8be 6930 593f 8f6a e83e
00000390: 2f21 8bbf 46fb 413e 6eed 2f3f 7ee5 98be
000003a0: 9285 923f edb3 063e 7fff d53e e9a1 8d3f
000003b0: 5799 e9be 1fd7 dcbf aa0b 2cbe c05a 893e
000003c0: d051 2740 adf2 08bf 7a18 10bd 49b6 c83e
000003d0: a8f0 103f 8e78 893f 1fcd 363e de8f 41be
000003e0: 8091 12bf 128f 3ebf 3527 fc3e 6112 38c0
000003f0: 701d 8fbe 1eb8 83be 1bda e03e 3b0c 3cbd
-0.64710623 -0.9142924 1.1488974 -0.033596814 -0.34904084 -0.2724845 0.5384479 -0.14284392
-0.8107683 -0.36751056 0.12482688 -0.005173207 0.047149897 0.42043316 0.111893706 0.35367304
-0.27281278 -0.75812095 -1.1897588 -0.3621485 1.1289612 -0.3937061 0.39789814 0.53024006
-0.31693804 0.25039363 0.3395456 0.20119178 0.26369408 -0.25800794 0.3601301 0.61608183
0.050279513 -0.39970958 -0.0143008 0.6241154 -0.281145 -0.0076191165 -0.36872917 0.0508226
0.04374556 0.12056886 -0.07656888 0.54968053 -0.14946777 0.44541085 0.90753675 -0.026145631
0.7108864 -0.25805768 0.62000567 0.08020382 -0.163206 0.4401731 -0.1441733 0.8363128
0.48190483 -0.7638155 -0.12335498 0.502482 0.2855253 -1.1871016 0.98092186 1.3554296
-0.17028159 -0.22543162 -0.20815045 0.7533497 0.14922938 0.66190416 -0.15640125 0.9909543
0.072737284 0.1960962 0.18787779 0.58730817 0.7401071 -0.0064942096 -0.8190699 0.16376005
1.4746758 -0.5270877 0.3814957 0.08713486 -0.43465015 0.8917453 0.3157678 -1.0804205
-0.1678804 0.003988358 0.08621911 -0.662391 -0.21561922 0.7467331 -0.14353403 1.1591834
0.3357807 0.13946171 -0.04172142 -0.91564494 -0.28986806 3.640934 0.19244382 -0.45766026
1.6949388 -0.8973246 0.10648265 0.20041841 -0.1017105 -0.13705009 -0.5342126 0.3585922
-2.5480196 -0.34337682 0.5212661 -0.30826998 0.5993477 -0.422813 0.19480053 -0.49102822
-0.20103218 -0.24987179 -0.0140701225 0.13568155 -0.26085433 0.28307146 -0.11247947 0.26717395
0.2475655 -0.8312147 -0.10885725 -0.11860333 -0.2487455 -0.12137782 1.1496288 -0.36206228
-0.3450125 1.4704219 0.25978747 -0.01506689 0.6269271 0.69617546 0.4240459 -0.41926
-0.30443764 -0.080803394 0.19170713 0.10522633 0.23585948 1.6402172 -0.20399883 -0.7020156
-0.71640396 0.3762235 -1.0503294 0.38245255 -0.1840164 0.2793473 0.7167405 -0.49882862
0.5214505 0.12193863 0.82456326 -0.10939323 -0.0045514237 0.4367694 -0.78628427 -0.5582816
2.9823477 -0.12852336 -0.8600525 -0.050896727 0.18550819 -1.0435811 -0.06980632 -0.2981241
-0.3493132 -0.36913392 0.5283099 0.077233486 -0.29347113 0.08121607 0.36956292 0.38487947
1.0528054 -0.19351998 -0.016783124 -0.51927197 0.14608577 0.6844069 -0.097609095 -0.33850378
-1.0924926 -0.5142775 0.4432623 -0.42738572 -0.07476193 -1.3153325 0.0110576665 -0.66975147
-0.19541699 -0.87320125 -0.37739715 0.22449678 -0.6395624 0.11082826 0.016048731 -1.3891497
0.42220256 0.28931528 0.06272565 -1.824807 0.6856675 1.1171424 0.32350576 0.10435938
-0.2598901 1.4247143 1.8108965 1.0884019 -0.096643575 0.085430905 0.062142376 -0.62986046
0.77971125 -0.36122987 0.84839493 0.45393798 -1.0869502 0.1894351 0.68721664 -0.2986259
1.1447012 0.13154574 0.4179649 1.1065036 -0.45624802 -1.725315 -0.16801324 0.2682705
2.6143684 -0.53495294 -0.035179593 0.39201573 0.5661721 1.0739915 0.17851685 -0.18902537
-0.57253265 -0.7443706 0.49248663 -2.8761218 -0.27952147 -0.25726408 0.439164 -0.0459101

rnn.weight_hh_l1 f4 [50, 50]
00000000: 003f 07bf 2cfe 9a3d 9ba8 82be fece 9b3f
00000010: da21 b4be 51c0 69be 3ffc 3d3f dec2 74bf
00000020: 7c32 06bf 3ab2 84bd 555b 8f3e 9ce7 bdbf
00000030: 468b 373d 25c9 753f 0a56 3bbe 39bb 8f3e
00000040: 3f3e f23e 4fdc 2d3e 9a72 853f fae0 d23f
00000050: 8002 dfbc 6dff 4e3f 905d 273f 7d54 04be
00000060: 0ee7 643f 55e7 59be 3851 23be d22c c23f
00000070: 1202 e5be 84fa a83e 5f06 c13e c25b 953e
00000080: b16e 90bf 03d1 963e 7d1e 91bd e84d 473f
00000090: 4466 a73f 2593 d8bd 2bcd 723e 32e3 8b3f
000000a0: c768 50bf ce35 bcbe 0eaf 91bf dc9a 603f
000000b0: afe9 0b3f 7284 a23f 19d5 aabd 6c51 823e
000000c0: 9a73 793d 60ca 29bf 6604 883f 9c7a 91be
000000d0: a5f1 c13e ace7 a83d 06d8 0abf aece f1bf
000000e0: bfdf 38be 02f6 053e 775f 8e3d 74b8 6cbf
000000f0: 0674 e2be 5c4d 183f 8c58 ac3f b2b9 e2be
00000100: 0b49 653f 73e4 03bf 95ef a13f 6e91 e0be
00000110: 1e44 6bbe 66fd bbbe eb4a f0bd 0913 f8bd
00000120: c923 b0bd 3a02 36bf e06b debd b66e a2bf
00000130: 236b ccb9 b17a 1cbe b6ae 75bf 5d92 7ebd
00000140: b992 91be 9b7c 5abe 8100 00bf 611c e63b
00000150: ab2b 44bf 82f6 a03e 3866 f63e 6606 8fbe
00000160: c931 273e 9925 ecbe 5ddf 723e d073 cdbe
00000170: 83b4 683f 3dd1 27bc 4e84 903d 2c66 56be
00000180: e565 0ac0 53cf 603f b57d 26be 61d7 ec3d
00000190: cf46 eebd e9c4 84be bc0c 103f 89c2 f5be
000001a0: f2ab d53d a8c2 293f 5619 ce3e 1f81 ff3d
000001b0: cb24 bcbe 505b 0b3e 2946 58be 0292 46bf
000001c0: 6737 6fbf b18c 9b3e 6770 fdbb 0a4f 133e
000001d0: f05e 6fbe 222f 343f 1196 973e 0891 413f
000001e0: 7419 36be 374a db3c 43cf 823e 1380 c0be
000001f0: 843a 4cbd 8659 85be f9f3 35be 610c 7a3e
00000200: 02eb e53e 54ed 2a3e 26bf fb3e e710 c73e
00000210: 5823 19bc 321e 733e 42b3 9b3e b5cd ea3e
00000220: 2926 8dbe 4c67 9e3e 5f58 8cbe d345 13be
00000230: 21e3 13bf 5919 2b3e 14f9 47be e0fe 893d
00000240: ae1b b83e 03d6 ee3e 0839 56be 7c9c 82be
00000250: f44b 0c3e 0ab2 793e 9da6 a83e d241 863d
00000260: e9c7 983f d9c4 b6be efbc c73e 9a4a 9d3d
00000270: 877b ecbf ff66 303e aace 903f c8ee be3e
00000280: f324 273e 9c61 8d3f fcf8 903e 2fff 76bf
00000290: 3e21 ef3e 136e f1bd 0a71 24be a036 a5bf
000002a0: ebd2 83bf 0995 81be 183d a9bf 0d03 d6bc
000002b0: ffa0 05bf 4a21 fe3f 3f30 e3bd 6ab7 9a3e
000002c0: df3c 813f 4797 b5be f268 50be 4ebf 2abe
000002d0: c459 1e3f 17de dbbe 5f12 413e 79ba 0840
000002e0: bb27 48bf b212 5abf 5581 f0bd cf68 debe
000002f0: 33f8 f2be c063 e3bd 4538 7c3e fa3c 4abe
00000300: 7be8 a93d 262d 8ebe 3d7f 66bf b238 2ebf
00000310: 292d d4be ffe9 bcbe 0e32 9bbe 55af 083f
00000320: cad5 803f f50e aabf 2d2b 073f af59 4ebe
00000330: 159a a53e df93 20bf 0d39 18be f9b5 cd3e
00000340: 15f7 6c3e 15cd aebf c434 16bf a75e 0a3f
00000350: 6bc1 9e3f 88cc 31ba bfe3 1c40 62db 1f3f
00000360: a044 35bd 5504 3cbe 1196 07be 7721 d8be
00000370: ee5a b2be 0420 90be 663d 7bbf 3f85 66be
00000380: 1390 413e 5947 83bf da7d 963e b08e a9bb
00000390: d7e9 a3be 52d7 4ebf 6508 bb3e 4bb2 9d3f
000003a0: 0d65 dabb e93f 033e 94c2 80bf 002c 9e3c
000003b0: e5b4 773f b4f0 bf3e 86a6 903d 2a28 3abf
000003c0: 2cc5 ae3e fa58 5fbf a237 fa3f a00d 31bc
000003d0: 999a 2bbf 37c3 03bf d1cf 4ebf 3bd9 233e
000003e0: 1208 c1bc 00dc 1e3d 9a63 cd3d 3069 03bf
000003f0: 8b87 0abf 8b11 2b3e 9444 dfbd 3fab 2bbe
-0.52830505 0.07568011 -0.2551926 1.2172544 -0.35182077 -0.22827269 0.7421302 -0.95609844
-0.52420783 -0.064793065 0.27999368 -1.4836307 0.044810556 0.9601005 -0.1829454 0.28072527
0.47313115 0.16978572 1.0425599 1.6474907 -0.027222872 0.808585 0.6537714 -0.12922855
0.8941506 -0.21279652 -0.15948951 1.5169928 -0.44728142 0.33003628 0.37700173 0.29171568
-1.128378 0.29456338 -0.07085893 0.7785325 1.3078084 -0.105749406 0.23711078 1.092871
-0.8140988 -0.367598 -1.1381547 0.87736297 0.5465345 1.2696669 -0.083414264 0.25452745
0.060901262 -0.66324425 1.0626342 -0.28413856 0.37879673 0.08247313 -0.54235876 -1.8891199
-0.18054102 0.13082126 0.06951802 -0.92468953 -0.44229144 0.5949304 1.3464522 -0.442823
0.8956458 -0.5152046 1.265124 -0.43860954 -0.22975203 -0.36716765 -0.117330395 -0.12113006
-0.086005755 -0.7109715 -0.10860419 -1.2690036 -0.00038989735 -0.15281178 -0.9596971 -0.0621513
-0.28432253 -0.21336596 -0.5000077 0.007022426 -0.7662913 0.3143807 0.48124862 -0.2793457
0.16327585 -0.46122435 0.23718019 -0.4012742 0.9090044 -0.010242757 0.07056485 -0.20937413
-2.1624691 0.8781635 -0.16258891 0.11564518 -0.116345994 -0.2593148 0.5626943 -0.4799998
0.104331866 0.66312647 0.40253705 0.124758 -0.3674682 0.13609052 -0.21120514 -0.7756654
-0.9344391 0.30380777 -0.0077343467 0.1438562 -0.2337606 0.7038442 0.2960668 0.75611925
-0.17783147 0.026768787 0.25548753 -0.37597713 -0.049860492 -0.26044863 -0.1776885 0.24418785
0.4490586 0.16692096 0.49169272 0.38880083 -0.0093468055 0.23741987 0.304102 0.45860067
-0.27568176 0.30938184 -0.27411172 -0.14382105 -0.57768446 0.16708888 -0.1952861 0.06738067
0.35958618 0.46647653 -0.20920193 -0.25510013 0.13700849 0.24384323 0.32939616 0.06555523
1.1936008 -0.35697058 0.39011332 0.07680245 -1.8475198 0.1722679 1.1313069 0.3729155
0.16322689 1.1045413 0.2831496 -0.9648313 0.4670505 -0.11788573 -0.16058746 -1.2907295
-1.0298742 -0.25309017 -1.3221769 -0.026124502 -0.52198786 1.9853909 -0.110931866 0.3021806
1.0096701 -0.35466978 -0.20352533 -0.1667454 0.6185572 -0.4294288 0.18854664 2.1363814
-0.78185624 -0.85184777 -0.11743418 -0.43439338 -0.47454986 -0.1110301 0.2463084 -0.19749823
0.08296295 -0.2776882 -0.900379 -0.6805526 -0.41440704 -0.36897275 -0.30311626 0.53392535
1.0065243 -1.3285815 0.52800256 -0.20151399 0.32344118 -0.62725633 -0.14865513 0.40177897
0.2314113 -1.3656336 -0.58674264 0.5405068 1.2402776 -0.00067824917 2.4514005 0.62444127
-0.0442549 -0.18361028 -0.1324084 -0.42213032 -0.34835 -0.28149426 -0.9814056 -0.22511767
0.18902616 -1.0256149 0.29392892 -0.0051744804 -0.32014343 -0.807973 0.36529842 1.2320036
-0.006664878 0.12817349 -1.005938 0.01930809 0.967604 0.3748833 0.07063012 -0.72717535
0.34134805 -0.8724514 1.9548228 -0.010806471 -0.6703277 -0.5146975 -0.8078585 0.16000836
-0.023563419 0.038784027 0.10028763 -0.5133238 -0.5411307 0.16705911 -0.10901752 -0.16764544

rnn.bias_ih_l1 f4 [50]
00000000: 27ba 86be 55fd 16bf eecd 66bd b520 633f
00000010: 387c 65be 6f2f 3c3f d8e2 ff3d a7d5 2bbf
00000020: 9a15 953f 5297 01bf 5981 28bf f6ae 8c3e
00000030: 965e 3ebf c58e 5dbf 33b4 cf3e 14c8 e7be
00000040: 6c18 dd3c 7b7f 323d 2cb4 a83e 37de 1f3e
00000050: 8836 e4be f71c 1c3e 742f 29bf 673f 4ebf
00000060: f244 cf3e 5395 ca3d 203f 9d3f 029b e53e
00000070: e357 77bf e6cc ac3d deae aa3f b63c 60be
00000080: e5d0 8d3f d24f a43f 7913 093d 1970 42bd
00000090: 9683 2bbe 0f0e 1b3f c91d 89be c66f d0be
000000a0: 5faa cebe 6ee2 5d3f 16bb 73be b703 93be
000000b0: 7226 5bbf ee12 fa3e 05c9 8cbe 66d0 973d
000000c0: 568f 7c3f b341 b03e
-0.26313898 -0.58980304 -0.056348734 0.8872178 -0.22410667 0.7350988 0.12494439 -0.6712288
1.1647217 -0.5062152 -0.6582237 0.27477235 -0.74363077 -0.86545974 0.4056717 -0.45269835
0.026989184 0.043578606 0.3294996 0.15612112 -0.44572854 0.15245424 -0.6608803 -0.80565494
0.4048229 0.098917626 1.2284889 0.44844824 -0.9661848 0.08437519 1.3334615 -0.2189816
1.1079375 1.2836859 0.033465836 -0.047470186 -0.16749415 0.60568327 -0.26780537 -0.40710276
-0.40364358 0.8667363 -0.23801836 -0.28713772 -0.8560554 0.48842567 -0.27497116 0.07412796
0.98656213 0.34425125

rnn.bias_hh_l1 f4 [50]
00000000: 3c0d ddbe 622d c1be 8fb4 ac3d a825 403f
00000010: ccc0 3dbd b744 523f 7879 a1bd 6b8b 25bf
00000020: 011a a13f dc7d ddbe 62d4 36bf 67aa 113e
00000030: 13d2 80bf 2729 7dbf 3260 7f3e 017b d3be
00000040: 40f2 ac3d c6df fabc edb9 8b3e e9c8 c33e
00000050: c672 f3be bbf9 203e a9a9 ebbe 4086 39bf
00000060: 1c17 ae3e 1555 a63e cfba 993f 4190 153f
00000070: d882 65bf e109 883d d00d b63f b4c7 1abe
00000080: 38df 853f 2681 a93f 8fa9 433d 1415 09bc
00000090: e9f1 48be 9eb6 bf3e aa62 fcbe f0d7 37be
000000a0: 295a 06bf 6d3e 803f 5615 b53c ae1b f3be
000000b0: 14ee 4dbf d2ae 2f3f 9f61 3cbe 37e6 ddbb
000000c0: 2541 863f 6062 ac3e
-0.4317416 -0.37729937 0.08432876 0.7505746 -0.046326444 0.821361 -0.078844965 -0.6466586
1.2586061 -0.43260086 -0.7141782 0.1422516 -1.006411 -0.9889092 0.2493904 -0.41304782
0.08444643 -0.030624282 0.27290288 0.3823922 -0.47548503 0.15720265 -0.46027878 -0.72470474
0.34002006 0.32486787 1.2010134 0.5842324 -0.89652777 0.06642509 1.4222965 -0.15115243
1.0458746 1.3242538 0.047769126 -0.008366842 -0.19623531 0.37444013 -0.49294025 -0.17953467
-0.52481323 1.0019051 0.0221049 -0.47482055 -0.80441403 0.6862613 -0.18396614 -0.0067718285
1.048863 0.33668804

fc.weight f4 [1, 50]
00000000: a1b2 eabd 9128 40be d922 b7bd 2ff1 70be
00000010: 1d98 fa3d 2cc3 06be 9d26 69bc 8963 1d3d
00000020: e549 29bd 6f93 d23c 7870 103e f4a4 c5bc
00000030: ba34 833d d573 d43d 3a7d 03be 8009 4b3d
00000040: ba5c 813d f52c 9abd b2f7 49bc 3fca 193e
00000050: 624b c93d 4d57 7dbe 3270 fc3d afb9 12be
00000060: a4f3 b33d 963b d73d 1d16 0a3e 5395 b1be
00000070: 49f8 483c 48ca 02bc b7ad 023e a9d0 683e
00000080: 014e 9f3e 0cb4 b0bc 43a5 04be 8d10 2a3e
00000090: 1b0e 03bc 1342 f73c ba87 8bbb 6d0b 02be
000000a0: e468 52bc 7a11 903b 6dd9 30bc 5739 463e
000000b0: 1802 8f3c 2d82 09bd 3cbb 443e baa1 b23c
000000c0: 17d8 08be d5a0 35be
-0.11459852 -0.18765475 -0.089421935 -0.23529504 0.122360446 -0.1316039 -0.0142303975 0.038425002
-0.041330237 0.025705067 0.14105403 -0.024126507 0.06406541 0.10373656 -0.12840739 0.049569607
0.06316514 -0.07528106 -0.012327122 0.15018557 0.09828831 -0.24740334 0.12326087 -0.14328645
0.08786705 0.10509412 0.13484998 -0.34684238 0.012266227 -0.007982798 0.1276158 0.22735848
0.311142 -0.021570228 -0.12953667 0.16607876 -0.0079989685 0.030182874 -0.004258123 -0.12699671
-0.012842391 0.0043966146 -0.010794026 0.19357811 0.017457053 -0.03357141 0.19212049 0.021805633
-0.13363682 -0.17737134
