Networks/SXPBTC/bidSeed1.pt (torch, 33123 bytes, 9 tensors)

rnn.weight_ih_l0 f4 [50, 1]
00000000: 964d 96be e80c 973e d4e0 0fc0 2741 09bf
00000010: 45a8 1fbf fc0b 8d40 d3f5 d43d 3777 23c0
00000020: 21c6 f3bf 596a 093e 4734 86bf afab 4cbf
00000030: 1d27 91bf 8091 03bf 3c01 4840 0e50 9640
00000040: d170 c93e 61cc 193e 9f9e e43e fccd 42bf
00000050: a240 e1be 8ea7 953f 1dd8 a43f 8588 9c3f
00000060: 5be8 253f f71d e640 7491 433e 4aa6 123f
00000070: 8439 d33e 9e2d f5bd ae6d 6a3d 3515 09bf
00000080: 1a7d 9640 34bf 353e c8a9 c2be bb50 5e3e
00000090: 7467 81bf 8f15 1dc0 7728 eabe 2744 003f
000000a0: bf55 87bf b93e 993d 0ef5 2b3e 5e4d 21bf
000000b0: a3c3 fcbf 753c 7940 3d4e 19c0 364e c73e
000000c0: 5f49 453d e978 983f
-0.29356068 0.29502034 -2.2480974 -0.5361504 -0.62366134 4.407713 0.1039845 -2.5541513
-1.9044839 0.13419475 -1.0484704 -0.7994947 -1.1340061 -0.5139389 3.1250753 4.6972723
0.39343885 0.1501937 0.44652268 -0.7609556 -0.43994623 1.1691759 1.2878453 1.2229162
0.6480767 7.191158 0.19098455 0.57284987 0.41254818 -0.119715914 0.057233505 -0.53547984
4.702771 0.1774872 -0.38020158 0.21710484 -1.0109696 -2.4544408 -0.45733997 0.5010399
-1.0573043 0.074826665 0.167927 -0.6300868 -1.9747204 3.894315 -2.3954003 0.38926858
0.048165675 1.1911899

rnn.weight_hh_l0 f4 [50, 50]
00000000: 466f ffbe e466 933e cb9f 893d 03fb 183f
00000010: c71a f53e cc3f 963d d98d 6bbf f8a9 a83e
00000020: 1e5c 6f3e d789 8d3e d9f1 6f3e f7c8 a13e
00000030: 7d7c 4a3e 3016 283f 88e1 a3bf ab18 85bf
00000040: b168 0c3f 811b 6dbf a650 b33e 84b4 8c3f
00000050: 8e6c a73e a074 98be 331b 633f c778 0ebf
00000060: 8202 11bd 0a35 d53e c874 043f 2d42 02bf
00000070: 8b46 00bf f1f9 2a3e 3fa5 c4be a6d5 073e
00000080: a737 10c0 524a fe3e 7f90 48bd 9883 593e
00000090: eafd 123e b3d7 9f3f 0181 f6be ec45 34be
000000a0: 269c 883f f935 c8be d9df 033e 109b 8b3d
000000b0: 76ac 35be 3b7a a93e 15a1 1e3e 9c5f 80be
000000c0: 7a8a 52bf aa1a 4abf c76e 833d c4c8 61be
000000d0: a838 c83c c254 ee3e c5a2 13bf c594 1f3f
000000e0: 2a7c b43a 9d49 2f3f 01f1 43bf 3022 f4bc
000000f0: 1f20 0ebe 8918 65bf 0993 67bd eb84 16be
00000100: 3880 43be 10ab 413e 0c53 c3bf 27f4 973e
00000110: 1337 453f 00ee 803e 5bfd cd3e 0f35 ac3d
00000120: 2ffa 46be 0d35 433f 2706 da3d eed1 803e
00000130: e106 d23e e143 523e b73c ad3f 3a19 2abf
00000140: d258 f5be f8a6 3cbe a81d 76be c017 ed3e
00000150: e998 bcbf f0f0 e53d 76a1 9ebf 5e0b 18bf
00000160: 693a 22bd e38e 5bbe 47b6 39bf 8ec1 6abe
00000170: 4d25 45be 7f02 973d af69 10bf 68c4 6dbe
00000180: 7a93 acbf ba8b 3f3f a388 2fbe c88d 5ebe
00000190: 6585 953d cef1 7abe 7e57 873d 231d 583f
000001a0: 39d0 d63e 83d6 c73e 0aa2 8ebe 15fe f93d
000001b0: 3028 c43c b0cb c33d d4b0 683d 6675 ef3e
000001c0: 46a7 3fbe 301e 803f c053 b9bf bb44 67bf
000001d0: 79f6 a53e df75 82be 2c78 043e 4791 913f
000001e0: 6db0 063f e5e8 cc3d 2c14 393f 128e 7dbe
000001f0: 750f 2d3e 332a ae3e eda8 393f 39a0 493e
00000200: b339 1ebe 85d0 21bd 7210 2ebf 1cd2 9e3e
00000210: 462b 04c0 2d4d 4f3f 20fc a23e 6dfb 9e3f
00000220: 92b4 573e 9e3f 73be 2316 dabe 7b43 0fbf
00000230: 8d61 3c3f 85a9 0ebf ce82 ba3e 15aa 243e
00000240: d4c3 193d ebc7 923e 871e 5e3f eb6a 58be
00000250: 0410 77bf be1f 58bf 184a b2be 54a5 d43f
00000260: 94c2 71be 3532 3aba 97c5 0c3e 562b 22be
00000270: a569 773f 1d29 843e 8e8d f73e c1d5 bb3f
00000280: 84d3 923f 15d9 963e 5964 13bf f79b 39bf
00000290: 27ec dc3d ce54 ac3e 4b00 36be edba 603f
000002a0: 5662 96bd 59e5 57be 0925 6bbe 896a 7abf
000002b0: b080 03bf f020 79be f359 b6bf 1059 e6be
000002c0: 6d79 063e 04fc 95bd 1327 833e efab 74be
000002d0: 6f77 983e 985c 4ebf 53d6 dd3e d8fb 50bd
000002e0: 1a3c e03e 1e81 8dbe 9947 7b3e 1846 a9be
000002f0: fcef 833e d97f e03e f9ed eabe 557c 4a3f
00000300: 8d62 da3e 4fe0 b1bf 5920 a6bd 162c f83c
00000310: f263 293e 3c9f 85bd a727 52bd 4740 883d
00000320: 9c87 183f 3eae f5be 53df 813e f2fa 74bf
00000330: 2cd6 0bbf eb38 efbe 6ba7 ad3e c9b5 7a3f
00000340: a7de abbe 61ff efbe e62c ffbe 670e 19be
00000350: 003c 1a3f 2084 20bf 050f 88be d333 b53e
00000360: ff54 e2bd 48c5 8c3e 5adc 39bf f096 aabf
00000370: c192 83bf 0aae 163f 8df5 c8bf f96b af3e
00000380: 0f49 e83e acd7 3fbf 1175 c1bf 4e2d 29be
00000390: 6b9c 01bf 9c37 bd3e 955a 8c3f 9bfe b73e
000003a0: f3dc 4c3f 09da 65bf 5bbd b33d 3513 273f
000003b0: f3fa 343e c498 54bf b320 413f 887b 313f
000003c0: 1376 f9bd b19f a33e 33e7 283e 6835 e73e
000003d0: 8da8 b23e 9378 82bd 34ee 223e 514e 5abe
000003e0: 5236 a33f 170c 893f dca3 0c3c 48d8 c43e
000003f0: 9eea 8ebf 0b79 f03d 9d87 5cbe 4a43 463e
-0.49889582 0.28789437 0.06719931 0.59758013 0.47871992 0.07336387 -0.9201332 0.32942176
0.23374984 0.27644226 0.23432101 0.31598637 0.19774051 0.65658855 -1.2803202 -1.0398153
0.54847246 -0.9262009 0.35022467 1.0992589 0.32700008 -0.29776478 0.8871338 -0.5565304
-0.035402782 0.41642028 0.51740694 -0.50882226 -0.5010764 0.16696908 -0.38407323 0.13265094
-2.2533967 0.49666077 -0.048965927 0.21241605 0.14354673 1.2487701 -0.48145297 -0.17604798
1.0672653 -0.39103678 0.1287836 0.06816685 -0.1774157 0.33101067 0.15491135 -0.25072944
-0.8224255 -0.78946936 0.064176135 -0.22049242 0.024441078 0.4654904 -0.5767024 0.6233638
0.0013769914 0.684717 -0.7653962 -0.029801458 -0.1387944 -0.8949056 -0.056536708 -0.14699142
-0.1909188 0.18912911 -1.5259719 0.2967846 0.7703716 0.2518158 0.40232357 0.084085576
-0.19431375 0.76252824 0.10645705 0.25160164 0.41020873 0.20533706 1.3534154 -0.6644474
-0.47919327 -0.18423069 -0.2403475 0.46307182 -1.4734164 0.11227596 -1.2393024 -0.59392345
-0.039606486 -0.21441226 -0.7254376 -0.22925398 -0.1925251 0.07373523 -0.5641126 -0.23219454
-1.3482506 0.7482258 -0.17141967 -0.21733773 0.073008336 -0.24506304 0.06608485 0.8441946
0.41955736 0.39030847 -0.27858 0.122066654 0.023944944 0.09560335 0.05680926 0.46769255
-0.18716154 1.0009212 -1.4478683 -0.9033925 0.32414606 -0.25480554 0.12936467 1.137246
0.52612954 0.100053586 0.72296405 -0.24761227 0.16900428 0.3401657 0.72523385 0.19690026
-0.15451698 -0.0395055 -0.67993844 0.31019676 -2.0651412 0.80977136 0.3183298 1.2420479
0.21064976 -0.23754737 -0.42595014 -0.5596234 0.7358635 -0.55727416 0.3642792 0.16080506
0.037540272 0.2866815 0.8676533 -0.21134536 -0.9650881 -0.84423435 -0.34822154 1.6612954
-0.23609382 -0.00071028183 0.1374725 -0.15836844 0.96645576 0.25812617 0.48350185 1.4674608
1.14708 0.29462495 -0.57574993 -0.7250361 0.1078723 0.3365845 -0.1777355 0.87785226
-0.07342975 -0.21083583 -0.22963347 -0.9781881 -0.51368237 -0.24328971 -1.42462 -0.44989824
0.13132258 -0.07323459 0.2561575 -0.23893712 0.2977862 -0.80610037 0.4332758 -0.051021427
0.43795854 -0.2763757 0.24539031 -0.3306129 0.2576903 0.4384754 -0.45884684 0.79095966
0.42653313 -1.3896579 -0.081116386 0.03029446 0.16542032 -0.06524512 -0.051307347 0.06652885
0.59581923 -0.479845 0.25365695 -0.9569541 -0.54623675 -0.46723112 0.33916792 0.9793363
-0.33568308 -0.46874526 -0.49838942 -0.149469 0.602478 -0.62701607 -0.2657396 0.353911
-0.11051368 0.27494264 -0.72601855 -1.3327312 -1.0279161 0.5885931 -1.5699936 0.34262064
0.4536824 -0.74938464 -1.5113851 -0.16521189 -0.506293 0.3695649 1.0965143 0.35936436
0.8002464 -0.8978582 0.08776351 0.6526368 0.17673855 -0.830456 0.7544052 0.6932912
-0.12180724 0.31957772 0.16494446 0.45157933 0.3489422 -0.06370654 0.1591118 -0.21318938
1.2750952 1.0706815 0.008583989 0.3844626 -1.116535 0.11741837 -0.21536107 0.19361606

rnn.bias_ih_l0 f4 [50]
00000000: a853 02be d287 ae3f 0ef5 14bf b925 e53e
00000010: f48e 0bbf 59ad f53e a5fd 1e3f 3f18 8abe
00000020: cda8 143e 87d5 783f a3f1 633f 900d 3bbf
00000030: ee16 e7be fe16 9dbe 820e 0c3f 7b43 14bf
00000040: 3018 5fbf 88fc 143e 47fd 833f 6f50 223f
00000050: 7865 893f 6a6c 65bf de7e 523e daab 0f3f
00000060: 1e35 e4be d3eb 993e a3eb a13f 707c 953e
00000070: 81e9 903f 9fdd 87bf 36c4 bcbe 32f2 77bf
00000080: cd29 0f3f fa63 9c3f f9d2 00bf 0bed dc3e
00000090: 5311 0abe 0ff5 7a3e 558d 31be 7808 29be
000000a0: 1c45 fcbc 52ed aabe 4513 07bf 89b3 a0bf
000000b0: e2c3 5cbf 4e1c 49bd 2e29 773e 8a01 083d
000000c0: 46e3 b3be 7daa ffbe
-0.12727225 1.3635199 -0.58186424 0.44755343 -0.54515004 0.47983816 0.6210578 -0.26971623
0.14517517 0.97200817 0.89040583 -0.7306757 -0.4513468 -0.30681604 0.5470964 -0.5791547
-0.8714628 0.14549458 1.0311669 0.6340398 1.0734091 -0.8961855 0.20556208 0.561216
-0.44571775 0.30062732 1.2650036 0.291965 1.132126 -1.0614508 -0.36868447 -0.96853936
0.5592316 1.221801 -0.5032192 0.431496 -0.13483171 0.24507545 -0.1733907 -0.16507137
-0.030794673 -0.33384186 -0.5276378 -1.255479 -0.86236393 -0.04909926 0.24136803 0.033204593
-0.35134333 -0.4993476

rnn.bias_hh_l0 f4 [50]
00000000: 1161 493d 9172 b33f d261 16bf 1010 0a3f
00000010: 3a96 a7be 34dd dd3e 3e39 da3e 6a19 a3be
00000020: cc81 7f3e 57c2 823f eaf4 553f 3c88 37bf
00000030: 9ef3 e8be ba0d c9be e581 d73e f960 d9be
00000040: ca16 62bf 97ea 423e 1d0a 853f 4131 ef3e
00000050: 0caf 843f 0ce3 5fbf 88cf 103e 5567 bf3e
00000060: a32c 11bf 8296 d73e 3f67 923f e38d 3f3e
00000070: 8a1f 9d3f b025 86bf 6f8b 08bf bbad 66bf
00000080: 6bf4 1c3f 5c1c 8d3f de86 b9be 12bf 943e
00000090: 2066 5d3c ba8e 9d3d ee69 44be e87b 12be
000000a0: 48e6 273d d3ac 9abe 22c0 9ebe 591b b6bf
000000b0: 3708 62bf 0f97 5abd fafd 5a3e e1da 2c3e
000000c0: 7187 70be 0609 27bf
0.049164835 1.4019338 -0.5874301 0.5393076 -0.327318 0.43332827 0.42621797 -0.31855327
0.24951857 1.0215558 0.83576834 -0.7169225 -0.45498365 -0.39268285 0.4209129 -0.42456797
-0.88316023 0.19034801 1.0393711 0.46717265 1.036592 -0.8745582 0.14141667 0.37383524
-0.56708735 0.42107016 1.1437758 0.18706469 1.227525 -1.0480251 -0.5333776 -0.9010884
0.6131045 1.102428 -0.36235708 0.29052025 0.013513118 0.076932386 -0.19181034 -0.14305079
0.040991098 -0.3020998 -0.3100596 -1.4227096 -0.88293785 -0.053366717 0.21385947 0.1688037
-0.23489167 -0.65248144

rnn.weight_ih_l1 f4 [50, 50]
00000000: e154 8d3e 633d 5abf 667c 193f ec01 afbd
00000010: a49e a1bd 9609 653d fe11 21bf 7046 bebe
00000020: 586d 52bf be19 a2bf 2732 c4be 7211 7abd
00000030: 5945 06bd 5e57 083f 4825 643e f51b e8be
00000040: 5b8a f6bd 94e2 76bf 1f0b 483e fceb 3bbe
00000050: e81e 003d 7dde d13e 0cac 32be b3cf 743d
00000060: a014 653f f4dc 723f 58e8 3abe 05a6 f13e
00000070: 2bff b03e 41e2 c8bd 8ba2 bc3c 52d8 873f
00000080: 399c 37be 7561 a0be cf4a 50bf a201 2bbe
00000090: 3bd9 e7be 4c14 883d 363c 26bf 81b0 1bbf
000000a0: 63d6 34be 8b65 1abf 4df0 59bf cfd4 763f
000000b0: 985b 65bf cda7 63bd d7cd 73be 1ed6 9b3e
000000c0: edc2 e53d f61c 103d 6cb8 2e3f 3be8 f9be
000000d0: 79fe 8d3f 4733 c1be 6c97 18bf 948e 34bf
000000e0: 179d e43e f904 4e3e fc03 a6be 3ece f3be
000000f0: d2ea eebe 0256 3fbe 473e 953d 26c8 b03c
00000100: 3078 d9bd 494a b3be 5f36 c4be fdf6 9cbe
00000110: 993c 133e b291 a1bd 47f5 3ebe f1ff df3e
00000120: d5ff d3be 4e4e 353e 1ac8 513f 586d 9dbe
00000130: b14d 0abf 0c86 023f 998e 6c3e adc6 f5be
00000140: bf87 7b3d 66c2 463f 2f7b 8bbf 720e f9be
00000150: e47d 07bf 422b 02be d368 44bf c2f0 8abe
00000160: e976 533e d72d 5e3e 59b0 14bf 73f6 8dbe
00000170: a04f dbbe ebf2 e73e ce11 ff3d 8b71 68bf
00000180: 49d6 17bf c8df 293e 9026 323f d53a 9b3d
00000190: d3b5 7c3e 99c6 39be 72df 313f fee6 febe
000001a0: 6fef f4be 3899 9bbe 31f5 02bf fb2b 753e
000001b0: 2a6e f6be 0ffc eb3d 39f8 8abe 352e f4be
000001c0: b65e 71bf 0e7a e33d 819b 953c f1af 753f
000001d0: b892 0ebf 6103 0abf 7854 8c3f 6455 54be
000001e0: 72b2 babe b22e c23e c365 cd3e 40da e63e
000001f0: c953 6d3e c4de 063f beb8 38be a7c2 043f
00000200: efcd 873f 6212 a8bf 72b8 c93e ea14 033f
00000210: 959d bc3e 9d16 c1be 367a 66bf 2fb3 aa3e
00000220: e802 21bf c2d3 36bf 6abf 89bf 566a eb3d
00000230: 4c68 cdbe b661 13bf 236a 55bf b1f1 f43e
00000240: cdeb 99be c73e 32bf f154 0fbf 365f b03e
00000250: c1af 8e3e 9df2 a33d 4610 54be 184e c9be
00000260: 01d4 863e 470d 8abe fe73 1abe 5051 73bf
00000270: befa bebe c01e ed3e 0655 0b3e 9d37 fabe
00000280: 8a2a e5be 192e fd3e 4cd3 4f3f 4c8c 87bb
00000290: 2840 fcbe 74e0 18bf 461e 053f 03f4 08bf
000002a0: a9bb a0bf 942f f8be ac36 6fbd 6e5f 6d3e
000002b0: ae97 f83d 72dd bfbe 1302 553e eb64 f7be
000002c0: f0a7 a9be 99df 4fbe 05c5 8cbf 1431 6c3f
000002d0: 1ca7 f93d 318b 943e 88b0 943e d3f3 8bbe
000002e0: c3d4 0d3f 39e8 b23f 36f2 a33f f914 6d3f
000002f0: 020a b13e d12f 7e3e 2d67 1a3e dc98 913e
00000300: f680 e73e 3a93 c63e 858f a83f 24aa d9be
00000310: ea77 5f3e c395 c0be 7d82 af3e 36a0 0e3f
00000320: fc0d dcbd 0c2a 603b dbee b33e 2ddc 973e
00000330: c6d7 d0be 2422 ff3d cce9 293f c86c 5bbf
00000340: de69 5dbd 68fc 9cbe 60ce 3cbd 8c4a a3be
00000350: 450e 683e 7731 fbbe 5eda 533f 0d6f 06bf
00000360: b186 b8be 182c 52be e3d0 f43e cc37 0b3d
00000370: 00d7 c43e 4055 923e e3d2 debe 4c04 8e3e
00000380: 88fd 123e 6757 6fbd ce69 ef3e cb6b 65be
00000390: f5c6 113f b5ac b5be 5689 55be 07cb a33d
000003a0: c29b ef3e f8ad ad3e e256 4fbe 532c 98be
000003b0: f9b4 95be e445 8fbe 891e 443e 6b6d bf3e
000003c0: 94f8 6ebe 15f8 8dbe 78e6 98be 32d1 2c3e
000003d0: 9eef 4dbe c911 a7be 7b3d be3c a8eb 06be
000003e0: de22 a0be d4fd 6dbe 54b8 603f cfa2 81bf
000003f0: 3f7c 373d dcd8 62bd 0c5c 9cbf 946a f43d
0.2760382 -0.8524992 0.5995544 -0.085452884 -0.078915864 0.055917345 -0.6291808 -0.37163115
-0.82198095 -1.2664106 -0.38319513 -0.061051793 -0.03278098 0.5325831 0.22279847 -0.4533383
-0.12038108 -0.9643948 0.19535492 -0.1835174 0.031279474 0.40990058 -0.17448443 0.05976839
0.89484596 0.948684 -0.18252695 0.47196975 0.34569678 -0.098087795 0.023026725 1.0612891
-0.17930688 -0.31324354 -0.8136415 -0.16699842 -0.4528292 0.06644496 -0.64935625 -0.608162
-0.17659907 -0.6031119 -0.85132295 0.9641847 -0.89592886 -0.05557995 -0.2380899 0.30436796
0.1121882 0.03518387 0.68250155 -0.4880999 1.1093284 -0.37734434 -0.5960605 -0.70530057
0.446511 0.20119084 -0.32424915 -0.47618288 -0.4666353 -0.18685153 0.07287269 0.021579813
-0.10618627 -0.35017613 -0.38322732 -0.30657187 0.14378585 -0.07889117 -0.18648253 0.43749955
-0.41406122 0.17705652 0.81945956 -0.30747485 -0.540248 0.5098579 0.23101272 -0.4800314
0.061408754 0.7764038 -1.0896968 -0.48643833 -0.5292647 -0.12711814 -0.7672245 -0.2713681
0.2065083 0.21697174 -0.58081585 -0.27727088 -0.42834187 0.4530252 0.12454568 -0.9079825
-0.5931135 0.16589272 0.6959009 0.07579581 0.24678735 -0.18142165 0.69481575 -0.49785608
-0.47838923 -0.30390334 -0.5115538 0.23942558 -0.48130924 0.11522686 -0.27142504 -0.47691503
-0.9428514 0.111072645 0.018262627 0.9597159 -0.55692625 -0.53911406 1.0963278 -0.20735699
-0.36464268 0.3792625 0.401167 0.45088387 0.23176493 0.52683663 -0.18039224 0.51859516
1.0609721 -1.313061 0.39398533 0.5120379 0.36838976 -0.37712565 -0.9003023 0.3333983
-0.6289506 -0.71416867 -1.076154 0.11494891 -0.40118635 -0.5757097 -0.83365077 0.47840646
-0.30062714 -0.6962704 -0.55988985 0.3444764 0.27868465 0.08005259 -0.20709333 -0.39317393
0.2633362 -0.26963255 -0.1508331 -0.9504595 -0.37300676 0.46312523 0.13606653 -0.48870555
-0.44759017 0.49449232 0.8118179 -0.0041365977 -0.49267697 -0.5971749 0.5199932 -0.5349733
-1.2557269 -0.484738 -0.05840175 0.23180935 0.121383056 -0.37473637 0.20801573 -0.48319182
-0.3313594 -0.2030014 -1.0997626 0.9226239 0.12190077 0.29012445 0.29040933 -0.2733446
0.55402774 1.3977119 1.2808292 0.92610127 0.34577948 0.24822928 0.15078421 0.28436935
0.45215577 0.387842 1.3168799 -0.4251262 0.21823087 -0.3761426 0.34279242 0.5571321
-0.10744855 0.003420475 0.3514317 0.29660168 -0.40789622 0.12457684 0.6637237 -0.8571286
-0.05405604 -0.3066132 -0.046095252 -0.31892812 0.22661693 -0.49061176 0.82755077 -0.525132
-0.3604026 -0.20524633 0.47815618 0.03398876 0.38445282 0.28580666 -0.4352027 0.27737653
0.14354527 -0.058432963 0.4676041 -0.22404401 0.5694421 -0.35483328 -0.20853171 0.07997709
0.4679852 0.3392179 -0.20247987 -0.29721317 -0.29239634 -0.2798301 0.19152273 0.37388167
-0.23337013 -0.27728334 -0.29863334 0.16876677 -0.20110938 -0.32630756 0.023222676 -0.13175833
-0.31276602 -0.23241359 0.8778126 -1.012781 0.044796225 -0.055382594 -1.221559 0.11934391

rnn.weight_hh_l1 f4 [50, 50]
00000000: 5bd8 86be 2bea 8ebc b470 1ebe 2fea ed3d
00000010: 19a4 0abf 7c16 7ebf de8c 70bf 7851 afbe
00000020: 0bdd a2bd e1a4 9e3e c8b9 113e 50c0 1e3f
00000030: 4680 513f 910f 803e 2479 02be 385a c6bc
00000040: 72f3 88bf be56 1c40 e93b 933d 4c31 4b3e
00000050: c8a4 ba3e bf9c 15bd ee9c a7be 12d4 87be
00000060: 4f98 06be 2ba3 afbe a38e 56be 92ba 46bf
00000070: c4e3 cc3e 6954 583e 144f 613e dfb8 a83e
00000080: bd71 003d fd34 293e 05d0 0e3e 2fad fa3d
00000090: 511a 023f 3d61 87bd 2e51 52be 6c7a 223f
000000a0: 5838 42bf ad72 25bf b552 53ba 7da3 b7bb
000000b0: c073 5a3d 870c aebe 90ef b33b a469 d8be
000000c0: 905b 24be 15c7 82be 7a27 063e d129 2f3f
000000d0: 8b67 dcbd b4e1 483f af38 bf3e e3af 20bf
000000e0: f3a2 77bf dca3 2c3e fcaf ae3d d006 b13e
000000f0: d232 fe3e 1b60 fabe 2b21 833f be38 2fbf
00000100: 19fa 0bbc 46de 463f ffd1 51bf 60af e33e
00000110: 4df6 e03e df87 90bd d4fb 1ebf 55f3 cabe
00000120: 762a 41bf 65f8 7c3e 922e 13bf cddd 73be
00000130: 68fe 01bf dbc9 f6be d947 4a3f d2ce a53f
00000140: d86e 493f a347 963e 6b08 c83e fdd1 bdbd
00000150: e104 fdbe 8d03 343f 3e89 6c3f 2f5d db3e
00000160: fecf b93e 5763 c03e f5bf 5f3e 9f7b 18bf
00000170: c0af b6be f5e7 18bf b2d6 55bd b0a2 06bf
00000180: 296d 053f e80b 00bf 9f2e 42bf ee6d 3abe
00000190: 2636 6abe 1b52 81be 05ea 2d3c d4bd 20be
000001a0: a4f8 0dbf 8af0 d3bd 6f66 9b3f a01e 24bd
000001b0: 3bdf d23d 203e 853f 87ef f93d cef7 b23d
000001c0: 5bf7 c63e 3dcf 233e cdcf f8bc d931 65bd
000001d0: 1d43 00bf 20c3 c63e e9f5 45bf 2555 38bf
000001e0: 9eef 023f d495 4ebe 54d9 893d 9377 34bd
000001f0: f56f 683e 513f d9bd 67bb 66be 44ca 42bd
00000200: eb2c 9abf 58ea a83e 6ca3 8cbe cd60 c53e
00000210: 901a 2abf 74e0 33be e534 1a3f 2d8b efbe
00000220: 7c9b 223d 3562 69bf 2857 7a3e 6acc b43e
00000230: 2102 28bf 3141 cebd 5044 4abd 58e4 99be
00000240: 68b4 e2be 8e76 a93d 4a45 c7be a6bd 3abf
00000250: 9b2d 8d3d 9a5f 06bf be6e d03e d77a 45bd
00000260: 7199 a7bf 5280 b73f e2df 173f 6afd f0be
00000270: 0322 30bf bc7b 93be 9f1c cc3e 0243 bb3e
00000280: 53a1 8f3f 5c5f 81be 2358 653f 2843 88bf
00000290: 9eed e23e a623 b03f c2fe 7f3e 6761 403f
000002a0: cd6f b53f c06b 32bf e22b d1be 4053 39bf
000002b0: 7869 2dbf 7df1 c43f d1ea bfbf 2e4d 50bc
000002c0: 64dc 2cbf 0630 01bf a725 b13f fbeb 8b3f
000002d0: 7b4b 9d3f b9be 1c3d a31d 893f 3ccc 853d
000002e0: 73dc 10bf b45b 363f 848c 803d 4455 8a3c
000002f0: 932e c0be 5c22 ce3d 388e a93e 74f0 063d
00000300: 3252 93bf 0481 a6be 29a5 f73e dc91 92bf
00000310: 672a 953f b4e5 b1bd 141c a2be c0b6 26be
00000320: 791e fa3e d924 903e 0365 71bf 5eb2 563f
00000330: 84aa 3e3f 3b36 403d f887 b6be 7b8a 6abc
00000340: c1cc c13e 57c5 d7be 6660 0b3f cf65 10be
00000350: ca5b 773e 9757 28bf 911f 053f cc17 843f
00000360: 727a 813e 8386 95be 60a2 613f 3f67 b93e
00000370: e721 283e f0b1 54bf 5dd5 2cbf 410b 6d3f
00000380: 1fd0 05bf 9256 e3bc cfd0 4ebf 6a5b d5be
00000390: c943 483f 1e7c 7f3e 3b6b 983e 44ad 433f
000003a0: 05ac 773f ff25 bcbe 3b16 1cbf 797e 4e3f
000003b0: 0368 1ebe f7de a53e 7423 d03e f149 f83e
000003c0: 04db 453f 59b6 3cbd 8bed 70bf 3a40 97be
000003d0: ab14 823e 435f 3bbf 2ed6 943f b110 c4bd
000003e0: 3b0e bcbe acb5 02be 9fa6 1cbc 8dd7 e63d
000003f0: 550c e3be a89b 2bbe bf27 1a3f 994d 6bbf
-0.2633694 -0.017445644 -0.1547268 0.116169326 -0.54156643 -0.9925306 -0.93964946 -0.34241843
-0.07952317 0.30985168 0.14231026 0.62012196 0.81836355 0.25011876 -0.12741524 -0.024212942
-1.0699294 2.4427943 0.07189161 0.19843024 0.36453843 -0.036526438 -0.32736915 -0.26528984
-0.13144039 -0.34304175 -0.20952849 -0.77628434 0.4001752 0.2112595 0.22002822 0.32953545
0.03135847 0.1652412 0.1394654 0.122400634 0.50821406 -0.066103436 -0.2053878 0.6346805
-0.75867224 -0.64628106 -0.00080613355 -0.005604206 0.053333044 -0.33993933 0.0054912046 -0.42268097
-0.16050553 -0.25542513 0.13100997 0.6842318 -0.10761937 0.78469396 0.37347934 -0.6276838
-0.96733016 0.16859382 0.0852966 0.3457551 0.49648148 -0.48901448 1.0244497 -0.68445957
-0.008543515 0.7768291 -0.81961054 0.44469738 0.43937913 -0.07057165 -0.6210301 -0.39638773
-0.75455415 0.2470413 -0.57492936 -0.23815079 -0.5077882 -0.48200879 0.7901588 1.2953742
0.7868476 0.2935153 0.39068922 -0.09268568 -0.49417785 0.7031792 0.92396915 0.4284453
0.36291498 0.3757579 0.2185057 -0.5956363 -0.35680962 -0.5972894 -0.052206703 -0.5259199
0.5211969 -0.5001817 -0.7585239 -0.18205997 -0.22872218 -0.25257954 0.010614877 -0.15697414
-0.5545752 -0.103486136 1.2140635 -0.04006827 0.10296484 1.0409584 0.12203889 0.08738671
0.38860592 0.15997024 -0.030372525 -0.05595574 -0.50102407 0.38820744 -0.77328354 -0.7200492
0.51146877 -0.20174342 0.06730905 -0.044059347 0.22698958 -0.1060778 -0.22532426 -0.047556177
-1.2044958 0.3299129 -0.2746843 0.38550416 -0.6644678 -0.17566091 0.6023696 -0.4678587
0.039699063 -0.9116548 0.2444731 0.35312206 -0.6562825 -0.10071028 -0.049381554 -0.30057025
-0.44278264 0.08274566 -0.3892005 -0.7294563 0.06893464 -0.52489626 0.4070949 -0.048212852
-1.3093702 1.4336035 0.59325993 -0.4706834 -0.688019 -0.2880534 0.39865586 0.3657456
1.1221107 -0.25268066 0.8958761 -1.0645494 0.44321913 1.3760879 0.24999526 0.75148624
1.4174744 -0.69695663 -0.40853792 -0.72392654 -0.6773906 1.5386196 -1.4993535 -0.012713714
-0.6752379 -0.504639 1.3839616 1.093139 1.228866 0.038267825 1.071217 0.06533095
-0.5658638 0.7123368 0.06276801 0.016886361 -0.37535533 0.10065147 0.33116317 0.032944158
-1.1509459 -0.32520306 0.48368195 -1.1450763 1.1653565 -0.086863905 -0.31662047 -0.16280651
0.48851374 0.28153113 -0.94294757 0.83865917 0.74478936 0.04692672 -0.3565061 -0.014315243
0.37851527 -0.42142746 0.5444397 -0.14101337 0.24156108 -0.6575865 0.5200129 1.0319762
0.2528873 -0.29204187 0.8813839 0.36211583 0.16419183 -0.8308401 -0.67513067 0.925953
-0.5227069 -0.02775124 -0.80787367 -0.41671306 0.7822843 0.2494969 0.2976931 0.7643626
0.96746856 -0.3674774 -0.6097142 0.8066173 -0.15469365 0.3239667 0.4065205 0.48493913
0.77287316 -0.046072338 -0.9411246 -0.29541188 0.25406393 -0.7319223 1.1627862 -0.09573496
-0.36729607 -0.12764615 -0.00956121 0.11271582 -0.44345346 -0.16758597 0.602169 -0.9191528

rnn.bias_ih_l1 f4 [50]
00000000: 1791 3cbf 5cda 73bd d1b3 0abf 8bb3 d7bd
00000010: 0841 9d3e 9487 bf3e ca97 bb3e 12e0 8ebd
00000020: b569 87bd 84de 633f dc70 e3bd 83f2 123f
00000030: 577d ab3d 4eda 0d3f db4b 523e 7e24 b7be
00000040: 7883 0dbe 5114 133d 9283 3ebd c423 29bf
00000050: 850a d63e d79f 193e 5a0c 043f e231 b5be
00000060: 7888 443d 94ed 1abf 881d 4f3e 9279 e33e
00000070: ce2f 7dbf f5b5 1cbf 1056 de3d 36b3 133c
00000080: d0b5 a73e f6cc 78be c21e 4cbd c295 9abf
00000090: 4565 f03d a1f0 23bc cb1e 833d 00db 5b3f
000000a0: 75b3 b2bd a18c 0d3f bdbd 16be 96a0 833d
000000b0: 1ba8 c0be a872 d8be e956 8ebe dcfe 833c
000000c0: a54f a43e 77d0 ab3e
-0.7365889 -0.059534416 -0.5418063 -0.10532292 0.30713677 0.37408125 0.36639243 -0.06976332
-0.06611959 0.89011407 -0.111055106 0.57401294 0.08373516 0.5541123 0.20536749 -0.3577003
-0.13819683 0.035908047 -0.046512194 -0.660702 0.418049 0.1500238 0.51581347 -0.3538962
0.04798171 -0.60518765 0.20226109 0.44428688 -0.9890107 -0.61215144 0.10856259 0.009014895
0.327559 -0.24296936 -0.04983402 -1.2076952 0.11738066 -0.010006101 0.06402358 0.8588104
-0.08725635 0.5529271 -0.14720817 0.06427114 -0.37628254 -0.42274976 -0.27800682 0.016112737
0.32092014 0.33557484

rnn.bias_hh_l1 f4 [50]
00000000: de25 11bf ba05 6abd 0409 d8be 5870 75be
00000010: 1542 7c3e 1260 cc3e de37 f43e 125e 8cbd
00000020: 85ed 5ebd b21d 8b3f 7a8b 1ebe 1e25 ec3e
00000030: 3031 01bc 0287 103f e10a 643e 8a51 8fbe
00000040: 61e2 7e3d db11 bebd 8616 58be 5fb3 47bf
00000050: 6321 fe3e c417 c03e e05b e83e 21a1 8bbe
00000060: c035 173e d10f 3abf 162b 1f3e 7ae8 853e
00000070: 9bfd 5cbf d1d1 2ebf 3e05 143e c45a 813d
00000080: 66c5 f03e db9a 4abe 5bc8 e0bd de37 a4bf
00000090: 48aa 303e 8078 e43d 41e3 103d 5bdd 773f
000000a0: 6fbc 63bd 8225 2a3f e1bd d53b a37a f63b
000000b0: 7264 87be 4cee 0ebf 2ea1 84be 531b 723d
000000c0: 0e60 a83e 7769 773e
-0.56698406 -0.057134368 -0.42194378 -0.23968637 0.24634583 0.39917046 0.47698873 -0.0685388
-0.054425735 1.0868437 -0.15482894 0.46122068 -0.007885262 0.56456006 0.22269775 -0.27991897
0.06222761 -0.092807494 -0.21102342 -0.78008074 0.49634847 0.37518132 0.45382595 -0.2727137
0.14766598 -0.72680384 0.1554378 0.26153928 -0.8632447 -0.68288904 0.14455125 0.0631614
0.47025603 -0.19785635 -0.10975715 -1.2829549 0.17252457 0.11155796 0.035372976 0.96822137
-0.055599626 0.6646348 0.0065228795 0.0075219437 -0.2644382 -0.5583236 -0.2590422 0.05910809
0.32885784 0.24161325

fc.weight f4 [1, 50]
00000000: fa48 6f3b c458 7239 a7fe d5bd 9d2c 783d
00000010: b7b6 f33d a719 4ebc 4c43 aa3d aa99 1c3e
00000020: 41fe 6e3b 5899 61bd cb11 a4bd 4550 ac3b
00000030: f213 10bf 9026 073d f693 09bd 45bd 583e
00000040: db7c b4bc 3bd4 103d 4496 b53d 3c5f 30be
00000050: 3377 53be 6f9f 04bd 2fa9 ecba 55ae abbd
00000060: fe46 9cbd ca05 323e 2b72 9cbd 40aa 4abe
00000070: 8d21 9e3d 2f1c aabd f36b 2bbe 58e7 cf3d
00000080: 5d8d 8a3e d04c 14bd 309b 96bc a6c9 a2bd
00000090: 7362 03bd e573 1cbe cadf 6e3d 918f d33d
000000a0: 9f7f ff3d ee1e cfbc b5e3 d9bb bafa 1c3e
000000b0: 70ce 68bd 4315 3e3d 2dd0 a33d ed19 113d
000000c0: 108e 343e cd9b 4f3e
0.0036512003 0.00023111986 -0.10448962 0.06058942 0.119000845 -0.012579358 0.08313617 0.15292993
0.0036467465 -0.05507788 -0.08011206 0.0052585923 -0.56280434 0.03299576 -0.033588372 0.2116595
-0.022032192 0.03535865 0.088665515 -0.17223829 -0.2065094 -0.03237861 -0.0018055792 -0.083828606
-0.07630728 0.17385021 -0.07638963 -0.19791508 0.07721243 -0.08306157 -0.16740398 0.10151547
0.27060977 -0.036206067 -0.018384546 -0.07948618 -0.03207631 -0.15278585 0.05831889 0.103301175
0.12475514 -0.025283303 -0.0066494592 0.1533002 -0.0568375 0.046406996 0.07998691 0.035425115
0.17632318 0.20274277
