Networks/WCFG-EUR/askSeed1.pt (torch, 33123 bytes, 9 tensors)

rnn.weight_ih_l0 f4 [50, 1]
0	0xbe9570ae	-0.2918753
1	0xbf0b7e38	-0.5448947
2	0x3f9846a8	1.1896563
3	0xbf5378f8	-0.8260646
4	0x3eb714bd	0.3575801
5	0xbf039e35	-0.5141328
6	0x3e11a0dd	0.1422152
7	0xbc10e734	-0.008844186
8	0xbe3c8744	-0.18410975
9	0x3dfb311e	0.12265228
10	0xbf648ff1	-0.8928214
11	0xbe91250e	-0.28348583
12	0x3c67f8c7	0.014158434
13	0xc024c56f	-2.5745504
14	0x3e21fa32	0.15818098
15	0x40a747f4	5.2275333
16	0x409c8b49	4.8920026
17	0xbe3fe3f6	-0.18739304
18	0x3e27cc50	0.16386533
19	0xbb8fc6da	-0.0043877186
20	0x4038c4bb	2.8870075
21	0x3ead6d7c	0.33872592
22	0xc0572260	-3.361473
23	0x3dfb5e82	0.12273885
24	0x4027cce3	2.6218803
25	0xbe969af0	-0.29415083
26	0x40596599	3.396826
27	0x3f151b43	0.58244723
28	0xbf50638a	-0.81401885
29	0x3ed96add	0.42464343
30	0xbf982064	-1.1884885
31	0x3d1abd5c	0.037778243
32	0xc078ba48	-3.8863697
33	0x3ffedef3	1.9911789
34	0x3e83a53d	0.25712004
35	0x3d758da8	0.059949547
36	0xc01bbc38	-2.433363
37	0xbfb37361	-1.4019586
38	0xc02e209c	-2.7207403
39	0x403bf41b	2.936774
40	0xbf27977c	-0.6546552
41	0x3eef81a3	0.46778592
42	0x3e8125ba	0.25224096
43	0x3e1a85cc	0.15090102
44	0x3e97094e	0.29499286
45	0x3d871a46	0.06596808
46	0xbc568456	-0.013093075
47	0x401ae199	2.4200194
48	0xbe0b8e0e	-0.13628408
49	0xbe6010e1	-0.21881439

rnn.weight_hh_l0 f4 [50, 50]
0	0x3dca18cd	0.098680116
1	0x3f1467aa	0.5797068
2	0xbe6ad14d	-0.22931404
3	0xbf501d40	-0.8129463
4	0xbf49ed1d	-0.7887743
5	0x3d375222	0.044756062
6	0xbf3e1a73	-0.7425911
7	0x3e290728	0.16506636
8	0x3d803add	0.06261227
9	0xbc5af717	-0.013364575
10	0x3f3c112f	0.7346372
11	0x3e43e47b	0.19130127
12	0xbca219ac	-0.019787632
13	0x3ec04bfd	0.37557974
14	0x3f0e6280	0.5561905
15	0x3e100f27	0.1406828
16	0xbefd8a46	-0.49519557
17	0xbf141e09	-0.5785833
18	0x3e5e1f27	0.21691571
19	0x3f624e5c	0.88400817
20	0x3cbbf892	0.022945676
21	0xbea632a2	-0.32460505
22	0x3e6df64c	0.23238486
23	0x3dfeeb80	0.12447262
24	0xbcff348d	-0.031152988
25	0xbd317f09	-0.04333404
26	0xbd68195e	-0.056664817
27	0x3eac9370	0.33706236
28	0x3ff70dfd	1.9301144
29	0xbe171251	-0.14753081
30	0xbe92e5ce	-0.28690952
31	0x3d4c4c12	0.049877234
32	0xbe779fdc	-0.24182075
33	0x3d1be193	0.03805692
34	0xbd59f3be	-0.053210966
35	0xbf6a45cc	-0.9151275
36	0xbe833b95	-0.25631395
37	0x3e2652ae	0.16242477
38	0x3eba159c	0.36344612
39	0x3d13d9dd	0.036096442
40	0xbf1bb270	-0.6081915
41	0x3f038102	0.51368725
42	0x3f46a43a	0.7759434
43	0xbdef1a31	-0.116749175
44	0x3f3a1346	0.7268566
45	0x3db92fb8	0.09042305
46	0x3f1b6f8d	0.6071709
47	0xbe0f71e0	-0.14008284
48	0x3da9a47f	0.08283328
49	0xbf171409	-0.59014946
50	0xbe1fc139	-0.15601052
51	0x3d7b88fc	0.061409935
52	0xbea08ec4	-0.31358922
53	0xbcc376c9	-0.023860352
54	0xbe88c818	-0.2671516
55	0xbf14bba5	-0.5809882
56	0xbe37c7ec	-0.17947358
57	0x3f0f7033	0.5603058
58	0x3f4796d2	0.7796451
59	0x3ec75c84	0.3893777
60	0x3e4bd582	0.19905666
61	0xbe435424	-0.19075066
62	0x3ee0c135	0.43897405
63	0xbea857fb	-0.32879624
64	0x3e00d455	0.12580998
65	0xbe0788a0	-0.13235712
66	0xbe855dd4	-0.26048148
67	0xbbb9a889	-0.005665843
68	0xbea6e126	-0.3259365
69	0x3e19cb18	0.1501888
70	0x3d5be679	0.053686593
71	0x3ead5686	0.33855075
72	0x3e44e271	0.19227006
73	0x3efb16cb	0.49040827
74	0xbdf88fa2	-0.12136771
75	0x3f2e2ca4	0.68036866
76	0xbe1bd804	-0.15219122
77	0x3f4982d5	0.7871526
78	0x3d621a26	0.05520072
79	0xbf2c9ea3	-0.6742956
80	0xbdfeca21	-0.12440897
81	0x3ea94d57	0.33066818
82	0x3e4d4300	0.2004509
83	0xbec21ad9	-0.37911108
84	0xbf1279b8	-0.5721698
85	0xbce18133	-0.027527427
86	0x3db06460	0.08612895
87	0x3dd32f87	0.103117995
88	0xbdeb4119	-0.11487026
89	0xbed85ae2	-0.42256838
90	0x3b8f5db6	0.004375185
91	0xbc9e0510	-0.019289523
92	0x3e1e37c1	0.15450956
93	0xbf390560	-0.72273827
94	0x3e517930	0.20456386
95	0x3ee4783f	0.4462299
96	0x3eca4f61	0.39513686
97	0xbc4eedea	-0.012629965
98	0x3ee73740	0.4515934
99	0xbe56f09e	-0.20990226
100	0x3e31e5bb	0.17372791
101	0x3e17a51e	0.14809081
102	0xbe67ad17	-0.22624622
103	0xbee96ba2	-0.4558993
104	0xbe35ef14	-0.17766982
105	0x3a1915ee	0.00058397546
106	0xbee684d6	-0.4502322
107	0xbc6f631f	-0.014611035
108	0xbd4d928c	-0.050188586
109	0xbd4d9aa1	-0.050196294
110	0x3d1274a2	0.03575576
111	0x3dbd8e6a	0.09255679
112	0xbd9f323a	-0.07773252
113	0x3e50e619	0.20400275
114	0x3ed72490	0.42020082
115	0x3eccec59	0.4002407
116	0x3c582462	0.013192268
117	0xbe8c2d1e	-0.27378172
118	0x3eec3388	0.46133065
119	0x3f0482e0	0.517622
120	0xbf87caff	-1.0608824
121	0x3d78f74f	0.060782727
122	0x3dff9d5b	0.12481185
123	0x3d9855d6	0.07438247
124	0xbd460b87	-0.048350837
125	0xbd610d2b	-0.0549442
126	0xbeb2b1d1	-0.34901288
127	0xbd7332c9	-0.059374604
128	0xbea4993b	-0.32148156
129	0x3e1a9004	0.15094
130	0xbea08360	-0.3135023
131	0xbe274b34	-0.16337281
132	0xbf650709	-0.8946386
133	0xbe8ea94a	-0.27863532
134	0x3e07e605	0.13271339
135	0xbe8b551c	-0.2721337
136	0xbedf6a83	-0.4363595
137	0xbfcbb5de	-1.5914876
138	0xbeeb946c	-0.46011674
139	0x3ed68f14	0.41906035
140	0xbe9d2e99	-0.30699614
141	0x3eeb4139	0.45948198
142	0x3eac451a	0.3364647
143	0xbd33b58f	-0.04387432
144	0x3ebd902f	0.37024066
145	0xbca87481	-0.020563366
146	0x3f1b6376	0.6069864
147	0x3e778794	0.24172813
148	0xbde6bb4a	-0.11266191
149	0xbe540e65	-0.20708616
150	0x3b726d21	0.0036991315
151	0x3df8cf8b	0.12148961
152	0xbd8d8fac	-0.06912169
153	0xbee7fa9f	-0.45308396
154	0xbebec8b4	-0.372625
155	0x3e456ceb	0.1927983
156	0xbda1c7a4	-0.078994066
157	0xbea889ae	-0.3291754
158	0xbe64254c	-0.22279853
159	0xbe3e8a41	-0.18607427
160	0x3ea679c8	0.32514787
161	0x3dd203d9	0.1025464
162	0xbeaf6271	-0.34254792
163	0x3f832d61	1.0248224
164	0x3ee62320	0.44948673
165	0xbd9a0464	-0.07520369
166	0xbe8b5251	-0.2721124
167	0xbe8e3b99	-0.27779844
168	0x3e513f4c	0.20434302
169	0x3ea52eaf	0.3226218
170	0x3d90f767	0.07078438
171	0xbe062cfa	-0.13103095
172	0xbf65e18a	-0.8979727
173	0xbe90b5cb	-0.28263697
174	0x3f3614c8	0.7112546
175	0xbea29dfe	-0.31761163
176	0x3f051601	0.519867
177	0xbeb73f7d	-0.35790625
178	0x3ea39f98	0.31957698
179	0x3ebfad4d	0.37436906
180	0xbe1b3e45	-0.15160473
181	0xbe8e1b70	-0.27755308
182	0xbeeb0a2e	-0.45906204
183	0x3f365713	0.71226615
184	0x3e9cf594	0.3065611
185	0xbe87206d	-0.26391926
186	0xbe7ba85f	-0.24575947
187	0xbf14a064	-0.58057237
188	0xbbcbf074	-0.0062237326
189	0xbc8b62a2	-0.017014805
190	0xbe923a1e	-0.28559965
191	0x3eda0b5d	0.42586794
192	0x3ebf8f74	0.37414134
193	0x3e87226d	0.26393452
194	0x3e95ab7a	0.2923239
195	0xbe54c748	-0.20779145
196	0x3e73006e	0.23730633
197	0x3ebd43ea	0.36965877
198	0xbea3387a	-0.31879026
199	0xbe65b134	-0.22430879
200	0x3ea60db5	0.32432333
201	0xbe431b72	-0.19053438
202	0x3e335c57	0.17515694
203	0x3ce429ea	0.027852017
204	0x3d1c7492	0.038197108
205	0x3f00774c	0.5018203
206	0x3e423990	0.18967271
207	0xbe741cb4	-0.23839074
208	0xbf2a2271	-0.66458803
209	0xbe848105	-0.25879684
210	0xbe9884d3	-0.29788837
211	0x3e866ef3	0.26256523
212	0xbf14cb7b	-0.58122987
213	0x3e108f89	0.14117254
214	0x3e0a649c	0.13514942
215	0x3e108418	0.1411289
216	0x3eb9fdf4	0.36326563
217	0x3e0a3b00	0.13499069
218	0x3ea2a596	0.31766957
219	0xbd95f158	-0.07321423
220	0xbd36183f	-0.044456717
221	0xbe428b64	-0.18998486
222	0xbdb5b759	-0.088728614
223	0xbeee0548	-0.46488404
224	0x3e7989e9	0.24369015
225	0xbf311245	-0.691685
226	0x3eddcb5c	0.43319213
227	0xbf38e76b	-0.72228116
228	0xbe30085a	-0.17190686
229	0x3f1f51bd	0.622341
230	0x3e734b8b	0.23759286
231	0xbea26afb	-0.31722245
232	0xbe28c29e	-0.1648049
233	0x3f11fe03	0.57028216
234	0x3f34cf7c	0.70629096
235	0x3ca6a713	0.02034334
236	0xbdbf9e30	-0.09356344
237	0xbd498afc	-0.04920481
238	0xbe18ad13	-0.14909773
239	0x3efcea26	0.4939739
240	0x3e43e40f	0.19129966
241	0x3e13e794	0.14443809
242	0xbe7abd45	-0.24486263
243	0x3f227524	0.6345999
244	0xbd4a14f3	-0.049336385
245	0xbf074936	-0.52846086
246	0xbe20bd3b	-0.15697186
247	0x3e3bddd2	0.18346336
248	0xbed44b04	-0.41463482
249	0x3e66c2ec	0.22535294
250	0x3e012952	0.12613419
251	0x3efa1ae2	0.48848635
252	0xbe6d7ec2	-0.23192886
253	0xbefcabbb	-0.4934977
254	0xbf0fac8e	-0.5612267
255	0x3c0c1a76	0.008551231

rnn.bias_ih_l0 f4 [50]
0	0xbe26a6f8	-0.16274631
1	0x3ecd680d	0.40118447
2	0xbedd4b56	-0.4322154
3	0x3ed15bb5	0.4089028
4	0xbece6105	-0.40308395
5	0x3cf9c80f	0.030490903
6	0xbdae178e	-0.085005865
7	0xbbfc4eee	-0.007699839
8	0x3d7c56b3	0.06160612
9	0x3c501765	0.01270089
10	0x3ea201da	0.31642038
11	0xbd577987	-0.052606132
12	0x3d94e20d	0.07269678
13	0x3d7ad898	0.061241716
14	0xbd83f5a9	-0.0644334
15	0xbe5b3cd4	-0.21409923
16	0xbf1974aa	-0.5994364
17	0x3e8db5cb	0.2767776
18	0xbe5d8f07	-0.21636592
19	0xbc16536d	-0.009175164
20	0xbeca2ae8	-0.3948586
21	0x3ddc0692	0.10743441
22	0xbf6b3fa0	-0.9189396
23	0x3b960aa6	0.004578906
24	0x3f0c5a1e	0.5482501
25	0x3e53a2cf	0.20667575
26	0xbeb0e24c	-0.3454765
27	0x3e162038	0.14660728
28	0xbe6be70a	-0.23037353
29	0xbeb5cb40	-0.3550663
30	0xbf0c7494	-0.54865384
31	0x3d0c083b	0.034187537
32	0xbde287e0	-0.11061072
33	0xbe042d68	-0.12907946
34	0xbe6f1cb1	-0.23350789
35	0xbb2e5857	-0.0026602948
36	0xbe53c824	-0.20681816
37	0xbe2e5b2c	-0.17026967
38	0x3ea340be	0.31885332
39	0x3d8af332	0.06784667
40	0x3eb9722f	0.36219928
41	0xbdc803ca	-0.09766348
42	0xbe2878c0	-0.16452312
43	0xbe0d9894	-0.13827735
44	0x3e0645d0	0.13112569
45	0xbcebc3d4	-0.028779902
46	0xbdbf48b4	-0.09340039
47	0xbc4f089f	-0.012636333
48	0x3e8db9fa	0.2768095
49	0xbe98001a	-0.29687577

rnn.bias_hh_l0 f4 [50]
0	0xbd99a637	-0.07502406
1	0x3eebea7e	0.4607734
2	0xbee33734	-0.44378054
3	0x3e534303	0.20631032
4	0xbee1e65f	-0.44121072
5	0x3d6f8484	0.058475986
6	0xbde1c6ae	-0.11024223
7	0x3bda7a35	0.0066674002
8	0x3e75266c	0.23940438
9	0xbdfd29fd	-0.12361524
10	0x3e505e45	0.20348461
11	0x3d8bdbe7	0.068290524
12	0xbc4d8be0	-0.012545556
13	0x3d841567	0.06449395
14	0xbd95ff6d	-0.07324109
15	0xbec4f241	-0.38466075
16	0xbed4d75d	-0.4157056
17	0x3e9e1264	0.30873406
18	0xbad27447	-0.0016056382
19	0x3e1dc47a	0.15406981
20	0xbede80e7	-0.4345772
21	0x3e6dcaec	0.2322194
22	0xbf5ae65a	-0.8550774
23	0xbd3ce6ec	-0.04611866
24	0x3ecf4b74	0.40487254
25	0x3d865ec7	0.06561046
26	0xbeda0d94	-0.42588484
27	0x3e1c3c4e	0.1525738
28	0xbe305451	-0.17219664
29	0xbded44c5	-0.11585382
30	0xbf1759c4	-0.59121346
31	0x3e8d89b7	0.2764413
32	0xbdd50265	-0.10400847
33	0xbe653bd3	-0.22386102
34	0xbea2f11e	-0.31824583
35	0xbe0408b0	-0.12893939
36	0xbe499c0e	-0.19688436
37	0xbe20f8a8	-0.15719855
38	0x3ecfba39	0.40571764
39	0xbdde3b83	-0.10851195
40	0x3eaaa24a	0.33326942
41	0xbe36109b	-0.17779772
42	0xbd74f747	-0.059806135
43	0xbdf5238c	-0.11969671
44	0x3d2ebb41	0.042659048
45	0x3e008a5f	0.12552784
46	0x3e1ca90f	0.15298866
47	0xbd91cf32	-0.071195975
48	0x3e6e09d2	0.23245934
49	0xbe8db0d6	-0.27673978

rnn.weight_ih_l1 f4 [50, 50]
0	0x3dc8c3dd	0.09802983
1	0x3ed9f292	0.4256788
2	0xbd0c8b49	-0.03431252
3	0xbe8862cb	-0.26637873
4	0xbeb73382	-0.35781485
5	0xbd23d763	-0.04000033
6	0xbe3fae16	-0.18718752
7	0x3da3bfc1	0.079955585
8	0xbd0f9c01	-0.035060886
9	0xbdbf7d05	-0.093500175
10	0x3ed3886a	0.41315013
11	0x3d07b196	0.033128344
12	0x3c23af8a	0.009990582
13	0x3ed3b8e0	0.41351986
14	0x3e075c7a	0.13218871
15	0x3e19b02d	0.15008612
16	0x3d9ae422	0.07563044
17	0xbed9e0d6	-0.4255435
18	0x3da1d58d	0.0790206
19	0x3ef258a8	0.47333264
20	0xbd04f3fe	-0.03245925
21	0xbe4acffe	-0.19805905
22	0xba451386	-0.0007517863
23	0xbb2060dc	-0.0024471795
24	0xbe26fb8d	-0.16306897
25	0xbcea67ea	-0.028614003
26	0xbe90ca01	-0.28279117
27	0x3e33ca78	0.17557704
28	0x3e923f63	0.28563985
29	0xbd8d269c	-0.0689213
30	0xbe368267	-0.17823182
31	0xbdbf1d4e	-0.09331761
32	0x3d838319	0.06421489
33	0xbb904b4b	-0.004403507
34	0x3c0d6ff9	0.008632653
35	0xbeba9a5e	-0.36445898
36	0xbe7ca796	-0.24673304
37	0x3d9044c2	0.070443645
38	0x3dc4cd10	0.09609425
39	0x3e2aae5a	0.16668072
40	0xbe4fc94e	-0.20291635
41	0x3e5fc193	0.21851186
42	0x3eae8d4b	0.34092173
43	0xbd5143a5	-0.0510899
44	0x3e942620	0.28935337
45	0x3dc786ae	0.09742485
46	0x3e7c8731	0.24660946
47	0x3e39665d	0.18105455
48	0xbd8fc711	-0.07020391
49	0xbebc042e	-0.3672194
50	0xbe6fea08	-0.2342912
51	0x3de37ed5	0.11108176
52	0x3e42c402	0.19020084
53	0x3c541fa6	0.012946999
54	0xbd8b42da	-0.0679986
55	0xbecda85c	-0.4016751
56	0xbde958e5	-0.113939084
57	0x3e35f55d	0.1776938
58	0x3ea4602d	0.32104626
59	0x3e660e87	0.22466479
60	0xbf36e67c	-0.7144544
61	0xbe5491b0	-0.207587
62	0x3e9c08e5	0.30475536
63	0x3df7312f	0.12069928
64	0xbe0a8777	-0.13528238
65	0x3f8b6147	1.0889062
66	0xbf18243d	-0.59430295
67	0xbc9120d5	-0.01771585
68	0x3db816ea	0.089887455
69	0xbdbc158f	-0.091837995
70	0x3e34c4d1	0.17653205
71	0x3e8fcb34	0.2808472
72	0x3e588a39	0.21146478
73	0x3dacafbb	0.084319554
74	0xbea8f954	-0.33002722
75	0x3e722cef	0.23649953
76	0xbdf115ac	-0.11771712
77	0x3e0912e5	0.13386114
78	0xbd5a580a	-0.053306617
79	0xbeb832a3	-0.35976133
80	0xbf054bea	-0.5206896
81	0x3e8bf678	0.27336478
82	0xbe936fe6	-0.2879631
83	0xbe906e07	-0.28208944
84	0xbe8ecb00	-0.27889252
85	0x3b9a498b	0.004708474
86	0xbe6c5b1a	-0.23081627
87	0x3e57326a	0.21015325
88	0xbd5ceca3	-0.05393661
89	0xbe296e56	-0.16545996
90	0x3ac601f5	0.0015106784
91	0x3ba53589	0.0050417823
92	0x3c2a4a3c	0.010393675
93	0xbeb6a837	-0.35675213
94	0x3e12ce8b	0.14336602
95	0x3e872c12	0.2640081
96	0x3d9dcd89	0.07705218
97	0x3e58ca7f	0.21170996
98	0x3ebb4808	0.36578393
99	0xbd1843ef	-0.03717416
100	0x3d86925e	0.06570886
101	0xbef1c42d	-0.47219983
102	0x3debcfa0	0.11514211
103	0x3eb1b6e9	0.34709862
104	0x3e84b747	0.2592108
105	0xbd950391	-0.07276071
106	0x3e5af321	0.21381809
107	0x3e48855b	0.19582121
108	0x3dfad530	0.122476935
109	0x3e8b4531	0.27201226
110	0xbe67b93c	-0.22629255
111	0xbebbbcb9	-0.3666742
112	0x3e4d7f2f	0.20068048
113	0xbe4ad3df	-0.19807385
114	0xbe93d9e4	-0.28877175
115	0xbcd4ece1	-0.025991859
116	0x3ed866de	0.4226598
117	0x3e23f289	0.16010489
118	0xbe04f953	-0.12985735
119	0xbeccc6f3	-0.39995536
120	0x3de318c1	0.11088706
121	0x3e25e3c4	0.16200167
122	0x3cd801c2	0.026368026
123	0x3cb906f7	0.022586329
124	0x3c456cb7	0.012049845
125	0x3d2bb8d0	0.041924298
126	0xbe567c28	-0.209458
127	0xbe0eddf6	-0.13951859
128	0xbf1eda0f	-0.6205148
129	0xbddb1df0	-0.106990695
130	0xbe1aa443	-0.15101723
131	0x3eadc888	0.33942056
132	0x3db35bae	0.08757721
133	0x3e956ebe	0.29186052
134	0x3e17fad7	0.14841782
135	0x3eb8192d	0.35956708
136	0x3e7bbfd1	0.24584891
137	0x3eb46a2c	0.35237253
138	0xbf32616b	-0.696799
139	0xbe969c95	-0.29416338
140	0x3ecb23b8	0.3967569
141	0xbe2b4cdc	-0.16728538
142	0xbe639db0	-0.22228122
143	0x3bf007af	0.0073251347
144	0xbe8f5b21	-0.27999213
145	0x3df497cb	0.11943015
146	0xbec609c3	-0.38679323
147	0x3eabea0d	0.33577004
148	0x3e85288d	0.260075
149	0x3e9777b5	0.29583517
150	0xbd93ff9c	-0.07226488
151	0x3ef910ec	0.48645723
152	0xbf2aae6a	-0.66672385
153	0xbeb0368f	-0.34416625
154	0xbef9b623	-0.48771772
155	0x3dfb4ae0	0.12270141
156	0xbea999fe	-0.331253
157	0xbe32200a	-0.17395034
158	0xbb3e747f	-0.0029061136
159	0xbd9467b6	-0.07246344
160	0x3ec9dad7	0.39424774
161	0x3e97ebeb	0.2967218
162	0xbd6a4fee	-0.057205133
163	0x3e81e1d7	0.25367615
164	0x3e86126c	0.2618593
165	0x3e0117c9	0.1260673
166	0xbedddbd2	-0.43331772
167	0xbe9a9542	-0.30192
168	0x3dfed28a	0.12442501
169	0x3e9d7a0c	0.30757177
170	0xbe415dc1	-0.1888342
171	0xbe589992	-0.21152332
172	0x3dd4affb	0.10385128
173	0xbe48681d	-0.19570966
174	0x3e08b033	0.13348465
175	0xbd28bc06	-0.041194938
176	0x3e6286c5	0.22121723
177	0xbe0e9d7c	-0.13927263
178	0x3f294ec4	0.6613581
179	0x3b999a19	0.0046875593
180	0x3ed13cc3	0.4086667
181	0xbe0f23d7	-0.13978516
182	0x3e96e368	0.29470372
183	0xbea8e0a6	-0.32983893
184	0x3dfdf884	0.12400916
185	0xbf08111c	-0.53151107
186	0xbe9ff487	-0.31241247
187	0xbde1d5e3	-0.11027124
188	0x3f5a617e	0.8530501
189	0x3d79a179	0.060945008
190	0xbee8b3c3	-0.45449647
191	0x3eb0ed00	0.34555817
192	0x3ecb632b	0.39724097
193	0x3daff3c4	0.085914165
194	0x3ec43040	0.38318062
195	0xbe0f5b8e	-0.13999769
196	0x3e214b30	0.15751338
197	0xbf5b6bf7	-0.85711616
198	0xbe1b9f44	-0.15197474
199	0xbef3af06	-0.4759447
200	0xbb80e224	-0.003933208
201	0xbe9a882e	-0.30182022
202	0xbdaea1fc	-0.0852699
203	0x3e90a5a4	0.28251374
204	0x3e5babbd	0.21452232
205	0x3db0eb02	0.08638574
206	0x3e6f0b48	0.23344147
207	0x3c96f374	0.018426634
208	0x3e149a0d	0.1451189
209	0x3df3e437	0.11908763
210	0xbe74a453	-0.2389081
211	0xbca5cf88	-0.02024056
212	0xbdc3246e	-0.09528433
213	0xbd9bd016	-0.076080486
214	0xbe48c610	-0.19606805
215	0xbeb8e7de	-0.361144
216	0xbf30a046	-0.6899456
217	0x3ea26a87	0.317219
218	0xbedd6b97	-0.43246147
219	0xbe692914	-0.22769576
220	0x3ceec276	0.02914546
221	0x3a0c4835	0.0005351336
222	0xbd947f38	-0.072508276
223	0x3e030e9b	0.1279854
224	0x3d5e71f9	0.05430791
225	0xbd0aca67	-0.033884432
226	0xbde3ae4c	-0.11117229
227	0x3e123a83	0.14280133
228	0xbe9be03d	-0.30444518
229	0x3e07bec9	0.13256373
230	0x3ef4590a	0.4772418
231	0xbc33bfd8	-0.010971032
232	0x3ece6916	0.4031455
233	0x3e1171ce	0.1420357
234	0xbbd6f4af	-0.0065599303
235	0x3ec4a794	0.38409102
236	0x3efb207c	0.4904822
237	0xbe6c9ca0	-0.23106623
238	0xbe49affa	-0.19696036
239	0xbeb28c3a	-0.3487261
240	0x3ec5bb3d	0.38619414
241	0xbeac8643	-0.33696184
242	0xbeba8e87	-0.36436865
243	0xbd8f3a54	-0.06993547
244	0xbeebb527	-0.46036646
245	0xbc3ef6ae	-0.011655493
246	0xbe9f879f	-0.31158158
247	0xbea7bec2	-0.32762724
248	0x3e02399d	0.1271729
249	0x3e66e5d2	0.22548607
250	0xbe8a9453	-0.27066287
251	0x3e0bc1a2	0.13648084
252	0xbe7ad8f2	-0.2449682
253	0xbe921456	-0.2853114
254	0xbe8ce594	-0.27518904
255	0xbee3f607	-0.4452364

rnn.weight_hh_l1 f4 [50, 50]
0	0x3dc6b274	0.09702006
1	0x3e97c38f	0.29641387
2	0x3d3ffb77	0.046870675
3	0x3e519d59	0.2047018
4	0x3d882db4	0.06649342
5	0xbda0ad0d	-0.07845507
6	0x3d8a36b1	0.06748713
7	0xbed0c73d	-0.40777007
8	0xbdda0181	-0.10644818
9	0xbe882703	-0.26592264
10	0xbd4548ef	-0.048165258
11	0x3e81a1c5	0.25318733
12	0xbebc2ee3	-0.36754522
13	0xbd3fcce5	-0.046826262
14	0x3e91cdf5	0.28477445
15	0x3e783f08	0.24242795
16	0xbea4ac11	-0.32162526
17	0x3e22d32e	0.15900871
18	0xbd91fb51	-0.07128013
19	0x3d6550d6	0.055985294
20	0x3e1b2272	0.15149859
21	0x3d65fcb0	0.056149185
22	0x3d85b9c9	0.06529576
23	0x3e7b7667	0.24556886
24	0x3eec4e7f	0.46153638
25	0xbe82c13d	-0.25538054
26	0x3c50677f	0.012719988
27	0xbe7a5974	-0.24448186
28	0xbd3caf15	-0.04606541
29	0xbe856069	-0.26050118
30	0xbe3dcc0c	-0.18534869
31	0x3df72f09	0.12069518
32	0x3db3de16	0.08782594
33	0xbd8a9e46	-0.067684695
34	0x3dac55b0	0.08414781
35	0x3dab7cd8	0.083734214
36	0xbeb30232	-0.34962612
37	0xbde2f038	-0.11080974
38	0x3e2294e2	0.15877107
39	0x3e515f2b	0.2044646
40	0x3e57aa15	0.21060975
41	0x3e93f6e6	0.28899306
42	0xbdda0bff	-0.10646819
43	0x3c89413b	0.016754737
44	0xbe0fd835	-0.1404732
45	0x3d814da6	0.063136384
46	0x3dcd0e20	0.1001246
47	0x3eb2248b	0.34793505
48	0x3e118b2d	0.14213248
49	0x3dcccba3	0.09999778
50	0xbeb79aad	-0.35860196
51	0xbe4bd874	-0.19906789
52	0x3db8cff9	0.09024043
53	0xbe015584	-0.12630278
54	0x3ea5c935	0.3238007
55	0xbee4d4c8	-0.4469359
56	0xbdc7516d	-0.097323276
57	0xbe06d6d4	-0.13167888
58	0x3e0067bd	0.12539573
59	0x3d580f72	0.052749105
60	0x3dffbd83	0.12487318
61	0x3dac9a0e	0.08427821
62	0x3b07294a	0.0020623975
63	0x3d90590a	0.07048233
64	0x3de5e0e7	0.11224537
65	0xbe6503f3	-0.22364788
66	0x3e1b3024	0.15155083
67	0xbd2d1478	-0.04225585
68	0xbe743b17	-0.23850666
69	0x3e561c79	0.20909299
70	0x3de26511	0.11054433
71	0xbe6cc6ac	-0.23122662
72	0x3e05f301	0.1308098
73	0x3d646d3e	0.055768244
74	0x3e34ae27	0.17644559
75	0xbda013a6	-0.07816248
76	0x3cd259ab	0.025677523
77	0xbe729182	-0.2368832
78	0x3e8a073f	0.26958653
79	0xbd2cc0c7	-0.042176034
80	0xbe386f74	-0.18011266
81	0xbf09a38a	-0.53765166
82	0x3e06f848	0.1318065
83	0x3e24ba8d	0.16086788
84	0xbe6b6d1d	-0.22990842
85	0x3e1a2037	0.15051351
86	0x3d161d3e	0.03664898
87	0xbe8d4183	-0.27589044
88	0xbc9a8ac8	-0.018865004
89	0x3d3e72c3	0.046496164
90	0x3e430bb9	0.1904744
91	0x3e3a456f	0.1819055
92	0x3d5447ed	0.051826406
93	0x3e28a948	0.16470826
94	0x3e6dbae3	0.23215823
95	0x3dbed330	0.093176246
96	0xbd593bbf	-0.053035494
97	0xbd9375d1	-0.07200206
98	0xbe18d158	-0.14923608
99	0x3e90294e	0.28156513
100	0x3de8e904	0.11372569
101	0xbec82a03	-0.39094552
102	0x3d341731	0.04396743
103	0xbe115f07	-0.14196406
104	0xbcd07323	-0.025445526
105	0xbe33b90a	-0.17551056
106	0x3d762c44	0.06010081
107	0x3e223f9f	0.15844582
108	0xbe7d34c2	-0.24727157
109	0x3d6aa171	0.05728287
110	0x3c65b1e9	0.014019468
111	0xbef863b3	-0.48513564
112	0x3e20b7d8	0.15695131
113	0xbef24cfe	-0.47324365
114	0xbe3eb681	-0.18624307
115	0x3e697286	0.22797593
116	0xbe92f453	-0.2870203
117	0x3e57b981	0.21066858
118	0xbe005160	-0.12531042
119	0x3d980127	0.07422095
120	0xbdc3f5a7	-0.09568339
121	0xbdb1e1e6	-0.08685665
122	0xbba408ec	-0.0050059464
123	0xbf1dd0ab	-0.6164653
124	0xbef09b16	-0.4699332
125	0x3eb6ecf2	0.3572765
126	0xbeb6eef7	-0.3572919
127	0x3e3bdbb5	0.1834553
128	0xbd83b14e	-0.064303026
129	0x3ea036a1	0.3129168
130	0xbdb25a41	-0.08708621
131	0x3ea32aa2	0.31868464
132	0xbe399718	-0.18124044
133	0xbf131a99	-0.5746246
134	0xbea7794a	-0.32709724
135	0xbf0ab1a9	-0.5417734
136	0x3fa34f3c	1.2758555
137	0xbbcde7e1	-0.0062837456
138	0xbe1386bf	-0.1440687
139	0xbe767de3	-0.2407146
140	0xbebfb428	-0.37442136
141	0xbebd1508	-0.36930108
142	0xbdb0f4ff	-0.08640479
143	0xbe6efb11	-0.23337962
144	0x3db8be0b	0.09020623
145	0x3d4742ef	0.048647817
146	0xbead2452	-0.33816773
147	0xbf8620ce	-1.0478761
148	0xbe79135a	-0.24323788
149	0xbe149cf0	-0.14512992
150	0x3d82177a	0.06352134
151	0x3e2b2843	0.16714577
152	0xbded6c09	-0.11592872
153	0xbe242748	-0.1603061
154	0x3e37d5a6	0.17952594
155	0x3e6ef07f	0.2333393
156	0xbe7aab67	-0.24479447
157	0xbe90a8cc	-0.28253782
158	0x3e36038f	0.17774795
159	0xbe0db24f	-0.1383755
160	0xbe5543df	-0.20826672
161	0x3eae1148	0.3399756
162	0xbe8a03a7	-0.26955912
163	0x3d22c64c	0.039739892
164	0x3e3f9b02	0.18711475
165	0xbdb9890a	-0.09059341
166	0x3d89a2a1	0.06720472
167	0xbe806681	-0.25078204
168	0x3c46c603	0.012132171
169	0x3e018639	0.12648858
170	0x3c226553	0.009911853
171	0x3eb63381	0.3558617
172	0x3e0ae5ff	0.13564299
173	0x3eabc1b6	0.33546227
174	0x3e87dde0	0.26536465
175	0xbec708f9	-0.38874033
176	0x3e6df233	0.23236923
177	0xbe1dc3dc	-0.15406746
178	0x3df862be	0.121282086
179	0xbe5113c3	-0.20417695
180	0xbd7d10ae	-0.061783485
181	0xbe8ce1d1	-0.27516034
182	0x3e4d2f15	0.20037492
183	0x3d6921c7	0.05691698
184	0x3d67af7b	0.056563836
185	0x3eacf0a7	0.33777353
186	0xbe2c28d4	-0.1681245
187	0xbc244e12	-0.010028379
188	0x3e11cb9e	0.1423783
189	0x3ed38170	0.4130969
190	0x3da80d16	0.08205621
191	0x3ebb1147	0.3653662
192	0xbd013dff	-0.031553265
193	0x3e98264e	0.29716724
194	0x3dbfd179	0.093661256
195	0x3d825d29	0.06365425
196	0x3d61797e	0.055047505
197	0x3e974e98	0.2955215
198	0x3ccddb62	0.025129024
199	0x3e990043	0.29883012
200	0xbe566049	-0.20935167
201	0xbec2f4e7	-0.3807747
202	0x3debab05	0.11507229
203	0xbe31c17c	-0.17358965
204	0xbca7d104	-0.020485409
205	0xbe30768d	-0.17232724
206	0xbd97afc2	-0.0740657
207	0x3e882e36	0.26597756
208	0xbd2ca8bd	-0.04215311
209	0x3ece52c1	0.4029751
210	0x3e203b77	0.15647684
211	0xbe764d77	-0.24052988
212	0x3e2ab4d2	0.1667054
213	0x3c862dc8	0.016379252
214	0xbe0e1960	-0.13876867
215	0x3d277bb0	0.040889442
216	0x3ecb0368	0.39651036
217	0xbe917c40	-0.28415108
218	0xbcfbbea2	-0.03073055
219	0xbcd34e82	-0.025794271
220	0xbe4c39e6	-0.19943962
221	0x3e1d08e6	0.15335426
222	0xbd3b6e48	-0.04575947
223	0xbe6356d9	-0.22201099
224	0xbe927200	-0.286026
225	0x3d90b987	0.070666365
226	0xbe5bbf33	-0.21459655
227	0x3dff90fa	0.12478824
228	0xbe10b0cf	-0.14129947
229	0x3e622d78	0.22087657
230	0xbe04c603	-0.1296616
231	0xbe341872	-0.1758745
232	0xbd3449d8	-0.044015735
233	0xbe121f49	-0.14269747
234	0x3dc71b2f	0.09721982
235	0xbe8c3bc5	-0.2738935
236	0x3e4ca9e7	0.19986688
237	0x3d56598d	0.052331496
238	0xbf12ea70	-0.57388973
239	0xbdd88def	-0.10573947
240	0x3d99723f	0.07492494
241	0xbdb1ea4a	-0.08687265
242	0xbe76dd12	-0.24107769
243	0x3d3a5d6a	0.045499243
244	0x3e310d68	0.1729027
245	0x3dc2dcda	0.0951478
246	0xbef02377	-0.46902058
247	0xbf147152	-0.57985413
248	0xbdc8ebe8	-0.098106205
249	0x3d4ed371	0.050494615
250	0xbe743811	-0.23849513
251	0x3ed841f4	0.42237818
252	0xbd7106e6	-0.05884447
253	0x3a090557	0.0005226931
254	0x3f02cb4f	0.51091474
255	0x3efed7fb	0.49774155

rnn.bias_ih_l1 f4 [50]
0	0xbdb10239	-0.08643002
1	0x3d851394	0.06497875
2	0xbd1d15e8	-0.03835097
3	0x3d3f3edf	0.046690818
4	0x3e20f636	0.15718922
5	0xbe5064f4	-0.2035101
6	0x3d9db5f5	0.07700721
7	0xbedca552	-0.4309488
8	0x3dd7ea3a	0.10542722
9	0xbc71a978	-0.014749877
10	0xbef2d83a	-0.47430593
11	0xbe47d621	-0.19515277
12	0xbdb0d670	-0.08634651
13	0xbe027584	-0.12740141
14	0xbe2e3739	-0.17013253
15	0x3d8c5c2d	0.06853519
16	0x3de93bf8	0.11388391
17	0xbe8fa532	-0.28055722
18	0xbddefa37	-0.108875684
19	0xbec0f2ef	-0.37685344
20	0x3e88f9c3	0.26753053
21	0x3ea00a76	0.3125798
22	0x3f1034bc	0.56330466
23	0xbdb23439	-0.08701367
24	0xbd237602	-0.039907463
25	0xbea075e2	-0.31339937
26	0xbd107314	-0.035265997
27	0xbee05e5b	-0.43821988
28	0xbd9623a3	-0.07331016
29	0xbefc4505	-0.49271408
30	0x3e4ee4ef	0.20204519
31	0xbd8ff463	-0.07029035
32	0xbb7095a0	-0.0036710277
33	0xbc9fd7f6	-0.019512158
34	0x3f0b0441	0.54303366
35	0x3e07a81e	0.13247725
36	0x3e5fa94b	0.21841924
37	0xbd07e7c7	-0.033180024
38	0x3e240d40	0.1602068
39	0x3efd1c25	0.49435535
40	0xbf0f5c3d	-0.5600012
41	0xbe8d6ccc	-0.27622068
42	0x3e850143	0.25977525
43	0xbe4fb2be	-0.20283028
44	0x3e0754c9	0.13215937
45	0xbcee9c95	-0.029127399
46	0x3e9a0840	0.3008442
47	0xbeab4a4e	-0.33455127
48	0x3d9c1b57	0.07622402
49	0xbe46f91b	-0.19430964

rnn.bias_hh_l1 f4 [50]
0	0xbc1bf8f9	-0.009519809
1	0xbe1a0c91	-0.15043856
2	0xbd743ecd	-0.059630204
3	0x3dd0931b	0.10184308
4	0x3cc90ae5	0.024541328
5	0xbec84d55	-0.391215
6	0x3d8060b5	0.062684454
7	0xbed43f89	-0.41454723
8	0xbbcd20aa	-0.0062599974
9	0xbcaa398f	-0.0207794
10	0xbeb769b7	-0.35822842
11	0xbe174cdd	-0.14775415
12	0xbe864569	-0.2622483
13	0x3cf826c4	0.030291922
14	0xbeb50cf1	-0.35361436
15	0xbce21da9	-0.027602034
16	0x3e0d4563	0.13796
17	0xbe3b8c89	-0.18315329
18	0xbe685e51	-0.22692229
19	0xbe859455	-0.2608973
20	0x3ebae9c5	0.36506477
21	0x3e8b9362	0.27260882
22	0x3f002cc7	0.50068325
23	0xbe180ace	-0.14847872
24	0xbc26a02b	-0.010170023
25	0xbeceb107	-0.40369436
26	0xbe7f4221	-0.2492757
27	0xbf0b39a4	-0.5438483
28	0xbd421c2d	-0.04739015
29	0xbeaf44d1	-0.3423219
30	0x3dbb043a	0.091316655
31	0xbde7aa6c	-0.11311802
32	0x3c2fe0f8	0.010734789
33	0x3c00aea7	0.00785414
34	0x3f0967b5	0.5367387
35	0x3e0a082f	0.13479684
36	0x3d9dfdbe	0.07714413
37	0xbdd9d7bd	-0.10636852
38	0x3e1c9f3e	0.15295121
39	0x3ee4553c	0.4459628
40	0xbf0be09f	-0.5463962
41	0xbd8d41b3	-0.06897297
42	0x3e85da75	0.26143232
43	0xbdfa0fe8	-0.12210065
44	0x3dea0e83	0.11428549
45	0xbe05a7e7	-0.13052331
46	0x3de1afd7	0.11019867
47	0xbda0e671	-0.07856453
48	0x3d8fe3ae	0.07025848
49	0xbe2cb943	-0.16867547

fc.weight f4 [1, 50]
0	0x3d65bbc1	0.05608726
1	0x3db1e8b0	0.0868696
2	0x3e23229d	0.15931173
3	0xbdeae12f	-0.114687316
4	0xbbcbbaaf	-0.006217323
5	0x3cb0c941	0.02158034
6	0xbd6f3a07	-0.05840495
7	0xbd009191	-0.031388823
8	0x3e8f0990	0.27936983
9	0x3e1df86a	0.15426794
10	0x3c174c6d	0.00923453
11	0x3db588f5	0.08864013
12	0xbd91bafe	-0.07115744
13	0x3ce1869c	0.027530007
14	0x3d86ef45	0.06588606
15	0xbd8af2d4	-0.06784597
16	0xbd20a829	-0.03922287
17	0xbb906e52	-0.0044076825
18	0x3d2914ad	0.041279484
19	0x3db7df52	0.08978142
20	0xbe81d6dc	-0.25359237
21	0xbd3fd25f	-0.046831485
22	0xbee193e6	-0.4405815
23	0x3dbe4130	0.09289777
24	0x3d1a5207	0.037675884
25	0xbded9184	-0.116000205
26	0x3d2831f6	0.04106327
27	0x3e8100fb	0.2519606
28	0x3b799445	0.003808276
29	0xbf00d666	-0.50327146
30	0x3c46c985	0.012133007
31	0xbbcacb41	-0.0061887805
32	0x3e543616	0.20723757
33	0xbe26e49e	-0.16298148
34	0xbe8077cb	-0.25091395
35	0x3d8df917	0.06932276
36	0x3de20c25	0.11037473
37	0x3e2253e8	0.1585232
38	0xbecb9fb2	-0.39770275
39	0xbd48b438	-0.048999995
40	0x3d20c235	0.03924771
41	0x3bea54c8	0.00715122
42	0xbd11c3d8	-0.03558716
43	0x3da99e32	0.082821265
44	0xbd3d3fcb	-0.046203416
45	0xbbaf1450	-0.0053429976
46	0xbd022452	-0.03177292
47	0x3d023418	0.03178796
48	0x3bc3f843	0.005980523
49	0xbc2889e8	-0.010286786
