Networks/ERN-EUR/askSeed2.pt (torch, 33123 bytes, 9 tensors)

rnn.weight_ih_l0 f4 [50, 1]
0.75302064 -2.6565738 -0.45255977 -0.980708 0.3547953 -0.5122034 -2.5984793 -0.27006084
-1.4577634 0.48043764 1.1826255 0.0039166636 -0.75397 -0.69364136 -1.3994737 0.6065025
1.0106215 -0.16762206 -1.984879 -0.6286082 -0.14319831 -0.22856984 -0.33438122 -0.5070876
1.0317122 0.73211336 -1.7207702 -0.33054054 -0.57705796 -1.0673535 -0.37322187 0.10456481
0.19161473 -0.25021482 -0.4114668 -0.9894393 1.11643 1.0798585 -0.6015888 0.5521957
-0.16499949 0.7720324 -0.95335585 0.4764329 -0.6923864 0.60832936 -1.2481434 0.25816333
-1.3904182 -0.8884977
00000000: f6c5 403f 4e05 2ac0 eab5 e7be ae0f 7bbf
00000010: bba7 b53e c31f 03bf 7c4d 26c0 6a45 8abe
00000020: fe97 babf ecfb f53e 4660 973f 5b57 803b
00000030: 2e04 41bf 7b92 31bf f421 b3bf bf43 1b3f
00000040: 0c5c 813f 1ea5 2bbe 8410 febf 78ec 20bf
00000050: 94a2 12be 360e 6abe 0434 abbe 7ed0 01bf
00000060: 250f 843f c86b 3b3f 3342 dcbf 9c3c a9be
00000070: 12ba 13bf 0a9f 88bf f016 bfbe 1326 d63d
00000080: a736 443e 281c 80be c7ab d2be e54b 7dbf
00000090: 2ee7 8e3f ce38 8a3f b901 1abf b35c 0d3f
000000a0: a0f5 28be eaa3 453f 210f 74bf 03ef f33e
000000b0: 3c40 31bf 79bb 1b3f 2ac3 9fbf fc2d 843e
000000c0: 39f9 b1bf 9674 63bf

rnn.weight_hh_l0 f4 [50, 50]
0.04807728 -0.86334825 0.44715363 0.0743036 -0.32678762 0.009001667 -0.9001789 0.07950679
-0.058955472 0.15427478 0.016701028 -0.25222665 0.34430963 -0.20543423 -0.17503306 -0.3044036
-0.3072245 -0.20428056 0.24925672 -0.18845715 -0.4547741 -0.496945 -0.008699571 -0.59870964
-0.32962626 0.16986296 -0.032584254 0.17386404 -0.23332231 0.024803676 -0.26101807 0.16461274
-0.37688 -0.099250734 0.23811112 -0.59267634 0.2434583 0.020465149 0.19619544 0.5831029
0.21783437 -0.09578365 0.07021087 0.037579905 -0.18813129 -0.16463996 0.5304081 -0.022483166
0.19924329 -0.5225431 -0.008136504 1.279148 0.6040232 -0.3247284 -0.3062343 0.26198298
0.90441334 -0.14919613 0.35890943 0.37069264 0.04480068 -0.52043855 0.04143741 0.1450724
0.13478555 0.14837666 0.2573022 -0.010824065 -0.24770075 -0.35592523 -0.08096917 0.018192157
-0.008455884 -0.20823343 -0.4586153 -0.059505053 -0.116169386 0.14402167 -0.0058411374 0.1554146
-0.13550875 0.5094381 -0.32265866 0.24488977 -0.074849784 0.11691231 0.08682571 -0.29407766
0.04921698 0.10981984 0.21452263 0.32797927 -0.036119994 0.19599572 0.18228497 0.30922124
0.21226755 0.31444868 -0.3810711 0.3881281 -0.07412138 -0.2842559 -0.3459103 -0.27301437
0.012143908 -0.6147108 -0.004023525 -0.06861316 0.076754205 0.39005166 0.3127925 -0.05552673
-0.028805912 -0.42150858 -0.48933566 -0.3751248 -0.100380234 -0.20288593 -0.13514543 0.08806617
-0.34053522 -0.30533093 0.51823217 -0.017786091 0.011471951 0.38491797 0.061768826 0.08367848
-0.3658855 -0.33337104 -0.6342061 -0.14633544 0.11366259 -0.32253727 0.21874452 -0.36203408
0.038812745 0.07140149 0.3641064 0.14020883 -0.3079329 0.080159694 0.21431439 0.039920755
-0.41092002 0.0666712 -0.7945286 0.33520338 0.05132822 -0.1017054 -0.37679076 -0.4495693
-0.6778525 -0.2843857 0.6936572 0.7245689 -0.07519582 0.5738218 -0.23006433 -0.34277254
-0.0876604 0.5912796 -0.1770852 0.24106911 0.34023064 0.26816213 0.112398446 -0.146927
0.029990528 0.15938321 0.2687066 0.53335184 -0.13357157 0.4488515 0.5523872 -0.108916946
-0.32131445 -0.42311952 0.11006377 0.08994346 0.43545178 -0.740579 0.62154734 0.1691382
-0.080314375 0.17135648 -0.31294322 -0.08284857 -0.22227748 -0.35481614 -0.40101355 -0.3330555
0.021844964 -0.2830245 0.23806483 -0.27007654 -0.15678668 0.18601286 -0.13497326 -0.45471296
0.03775548 -0.116794296 -0.0014487534 0.34943274 -0.8390049 0.6291858 0.31918684 0.41446322
-0.049170725 -0.8246007 -0.36516514 0.06443243 0.42877534 0.34879774 0.5536306 0.059649836
0.16074957 -0.074324764 0.53038406 0.24608956 0.3290125 0.4226361 -0.5873259 0.27967605
-0.021618377 -0.3542944 -0.19900243 -0.4109361 0.74218243 0.48443463 0.19129723 -0.020073796
-0.022655291 0.40632796 -0.3233313 0.47176665 -0.12519303 -0.4606526 -0.5511339 -0.43300864
0.15956645 -0.3487927 -0.41579965 -0.6665612 0.27706772 -0.419822 0.38996968 -0.57648444
-0.018012632 -0.11398237 -0.011743256 -0.091376096 -0.06977387 0.54851913 -0.0957516 0.3316967
00000000: afec 443d 6404 5dbf 52f1 e43e 7c2c 983d
00000010: b550 a7be ba7b 133c 2072 66bf 75d4 a23d
00000020: 4b7b 71bd 35fa 1d3e 98d0 883c da23 81be
00000030: 5a49 b03e 5a5d 52be de3b 33be cada 9bbe
00000040: 884c 9dbe ec2e 51be 273d 7f3e e9fa 40be
00000050: 27d8 e8be 936f febe a588 0ebc 0945 19bf
00000060: c6c4 a8be 8ef0 2d3e 1177 05bd 6a09 323e
00000070: 0bec 6ebe 1431 cb3c 29a4 85be 3e90 283e
00000080: 6af6 c0be f843 cbbd 67d3 733e a3b9 17bf
00000090: 224d 793e 87a6 a73c 75e7 483e 3b46 153f
000000a0: f90f 5f3e 382a c4bd b7ca 8f3d 63ed 193d
000000b0: 7da5 40be 6197 28be d3c8 073f 9e2e b8bc
000000c0: 6f06 4c3e 62c5 05bf f94e 05bc 1fbb a33f
000000d0: 44a1 1a3f cd42 a6be beca 9cbe a222 863e
000000e0: a287 673f dfc6 18be fac2 b73e 6dcb bd3e
000000f0: eb80 373d 763b 05bf 46ba 293d dc8d 143e
00000100: 3905 0a3e 0df0 173e 1dbd 833e 6b57 31bc
00000110: 44a5 7dbe d53b b6be 2ad3 a5bd b807 953c
00000120: 8c8a 0abc 253b 55be a0cf eabe 92bb 73bd
00000130: 37ea edbd 6b7a 133e 0367 bfbb 0125 1f3e
00000140: cec2 0abe 896a 023f 8433 a5be 62c4 7a3e
00000150: d84a 99bd b96f ef3d aed1 b13d 5991 96be
00000160: be97 493d 39e9 e03d d2ab 5b3e e6ec a73e
00000170: 8ff2 13bd 1ab3 483e e9a8 3a3e 3f52 9e3e
00000180: aa5c 593e 6bff a03e c01b c3be bab8 c63e
00000190: f3cc 97bd fd89 91be 281b b1be 8ac8 8bbe
000001a0: 3ef7 463c b05d 1dbf c6d7 83bb 0e85 8cbd
000001b0: 4f31 9d3d dab4 c73e 5726 a03e ff6f 63bd
000001c0: 60fa ebbc f9cf d7be 348a fabe 5c10 c0be
000001d0: 2794 cdbd 54c1 4fbe 9063 0abe 095c b43d
000001e0: a25a aebe 5654 9cbe ddaa 043f 23b4 91bc
000001f0: daf4 3b3c f813 c53e 4f01 7d3d 9f5f ab3d
00000200: 5855 bbbe 9caf aabe 555b 22bf f5d8 15be
00000210: efc7 e83d 9b23 a5be 90fe 5f3e 885c b9be
00000220: 1dfa 1e3d f23a 923d 276c ba3e e792 0f3e
00000230: 62a9 9dbe c42a a43d 3b75 5b3e f283 233d
00000240: 1c64 d2be e98a 883d 3a66 4bbf c79f ab3e
00000250: 8a3d 523d ec4a d0bd b8ea c0be f32d e6be
00000260: be87 2dbf 019b 91be 8593 313f 597d 393f
00000270: 4400 9abd fce5 123f fc95 6bbe e27f afbe
00000280: 4c87 b3bd 1a5e 173f d355 35be d2da 763e
00000290: b632 ae3e 8c4c 893e 2831 e63d 0874 16be
000002a0: b2ae f53c 5a35 233e e993 893e bf89 083f
000002b0: fcc6 08be ddcf e53e 3f69 0d3f d90f dfbd
000002c0: 5483 a4be 1fa3 d8be 1d69 e13d 4734 b83d
000002d0: 89f3 de3e 9696 3dbf ba1d 1f3f 9032 2d3e
000002e0: dd7b a4bd 1378 2f3e 183a a0be 83ac a9bd
000002f0: b59c 63be 76aa b5be a651 cdbe 4086 aabe
00000300: 36f4 b23c 96e8 90be 44c7 733e 7947 8abe
00000310: b08c 20be 287a 3e3e 6e36 0abe 23d0 e8be
00000320: 7da5 1a3d d931 efbd 19e4 bdba d9e8 b23e
00000330: 06c9 56bf 5212 213f 756c a33e 8634 d43e
00000340: 3e67 49bd 0819 53bf edf6 babe 26f5 833d
00000350: 7188 db3e 9e95 b23e bcba 0d3f 6353 743d
00000360: 899b 243e 9537 98bd 40c7 073f e7fe 7b3e
00000370: 5474 a83e c263 d83e fd5a 16bf b331 8f3e
00000380: 0619 b1bc 1366 b5be 4bc7 4bbe 3766 d2be
00000390: abff 3d3f d107 f83e 6ce3 433e cd71 a4bc
000003a0: 9797 b9bc 380a d03e ae8b a5be 668b f13e
000003b0: 9a32 00be a8da ebbe 1c17 0dbf 4fb3 ddbe
000003c0: 6365 233e f594 b2be b1e3 d4be c1a3 2abf
000003d0: d2db 8d3e e9f2 d6be 1baa c73e 7c94 13bf
000003e0: 3a8f 93bc 976f e9bd c966 40bc 6423 bbbd
000003f0: 9ae5 8ebd c06b 0c3f 6a19 c4bd 26d4 a93e

rnn.bias_ih_l0 f4 [50]
0.24349596 -0.14357378 -0.0035993645 0.28221896 0.057719134 -0.435526 0.14349028 0.08525296
-0.21975982 0.028488332 -0.52987117 -0.32476172 0.57619494 0.37751248 0.35616577 -0.46026677
0.051494423 -0.5429559 0.10533725 0.4669904 -0.38348272 -0.0542877 0.36439714 0.185029
-0.24656653 -0.152766 0.015241108 0.43084452 0.29126877 0.6537787 -0.3653228 0.4014091
-0.13038267 0.37533668 -0.07593207 0.28374714 -0.0267034 0.05432254 0.25106645 -0.06321396
0.03697879 -0.16851826 -0.15683345 0.042082556 -0.34424597 -0.3485553 0.037179075 0.13280368
0.12835906 -0.18227635
00000000: 0157 793e 0105 13be 51e3 6bbb 017f 903e
00000010: e66a 6c3d 44fd debe 1eef 123e 1b99 ae3d
00000020: b808 61be 5d60 e93c a3a5 07bf 2b47 a6be
00000030: 8381 133f 5149 c13e 5c5b b63e 16a8 ebbe
00000040: d1eb 523d 28ff 0abf 0ebb d73d 5e19 ef3e
00000050: d957 c4be c85c 5ebd 4392 ba3e 3e78 3d3e
00000060: f07b 7cbe b16e 1cbe d7b5 793c a797 dc3e
00000070: 2e21 953e 0a5e 273f 970b bbbe 7e85 cd3e
00000080: 0983 05be 212c c03e 4682 9bbd 4e47 913e
00000090: 17c1 dabc 5081 5e3d c88b 803e 5276 81bd
000000a0: 1277 173d 0d90 2cbe f398 20be c25e 2c3d
000000b0: 0241 b0be d775 b2be 1649 183d b0fd 073e
000000c0: 8f70 033e a7a6 3abe

rnn.bias_hh_l0 f4 [50]
0.12822229 -0.24993323 0.028498381 0.4709405 0.0832008 -0.40094268 -0.031017171 0.07163177
-0.018332921 -0.0062295995 -0.52020067 -0.15263559 0.55606484 0.25519946 0.3603344 -0.463244
0.11010788 -0.44026855 0.06864971 0.34595844 -0.23200727 -0.025631336 0.37192854 0.182231
-0.21384385 -0.086106576 0.09743501 0.59023935 0.1837682 0.6899321 -0.4282113 0.22151825
-0.16910121 0.48447713 -0.110756114 0.45339638 0.14543428 -0.1566181 0.262368 -0.0016741744
-0.030836005 -0.052276507 -0.30677322 -0.04294834 -0.16793175 -0.34197187 -0.038600773 0.06287316
0.27017185 -0.07565716
00000000: b44c 033e 7fee 7fbe 7075 e93c 1d1f f13e
00000010: 2e65 aa3d 5c48 cdbe b917 febc adb3 923d
00000020: ec2e 96bc ab21 ccbb df2b 05bf 814c 1cbe
00000030: 445a 0e3f 81a9 823e c07d b83e 512e edbe
00000040: 3d80 e13d e16a e1be 3898 8c3d 7721 b13e
00000050: 5093 6dbe cff8 d1bc 6b6d be3e c39a 3a3e
00000060: e2f9 5abe a558 b0bd 028c c73d ed19 173f
00000070: bb2d 3c3e 649f 303f 833e dbbe aed5 623e
00000080: de28 2dbe 630d f83e 1ad4 e2bd 9223 e83e
00000090: b9ec 143e 7f60 20be 1955 863e f96f dbba
000000a0: ca9b fcbc e41f 56bd 6111 9dbe 99ea 2fbd
000000b0: 4df6 2bbe f016 afbe d81b 1ebd a5c3 803d
000000c0: f753 8a3e 24f2 9abd

rnn.weight_ih_l1 f4 [50, 50]
0.11054882 -0.12505856 0.36226016 0.07160174 -0.334251 -0.32547173 -0.025557864 -0.3791307
-0.17950861 -0.10599883 0.43280244 -0.40523604 -0.23388253 -0.27819648 -0.08542045 0.10528712
0.21485612 -0.10471668 0.030171873 -0.37404692 -0.29497555 -0.3917934 -0.19156866 -0.36518916
0.032462474 0.31360665 -0.022139607 -0.18141931 -0.0042589 -0.48331833 -0.29220414 0.35219643
-0.3259508 0.17520623 -0.26829123 -0.4213508 0.23544383 0.39087474 -0.044325814 0.2817561
0.4161996 0.011689466 -0.27829096 0.54693323 -0.41914427 0.44407985 0.193701 -0.0045949384
-0.117562614 -0.1726662 -0.06279919 0.073743805 -0.16110624 -0.3860746 0.11222699 -0.33952087
0.14745584 -0.06137794 0.0850323 0.29432118 0.27893358 -0.046127293 -0.28247908 -0.21669039
-0.34310976 0.09432155 0.109784506 -0.025516097 -0.20973396 -0.0471772 -0.2433104 -0.122666106
0.21775925 -0.2727318 0.134683 0.2508702 0.027411278 0.4533625 -0.28456637 -0.05040718
0.10018462 0.03754313 -0.032817308 -0.15495883 0.14507379 -0.08361046 0.11731006 0.27450448
-0.009750714 0.24856678 -0.13453968 0.15989734 0.17860653 0.19426355 -0.17287536 0.111272596
-0.15000166 0.35823286 -0.11051923 -0.28188565 -0.12623668 0.15814622 0.27100608 -0.084520474
-0.23366053 -0.11269536 -0.15183134 -0.46864435 0.020436801 0.086419225 0.29332814 -0.38986674
-0.050971694 -0.34555775 -0.09838691 0.064286225 0.076594174 -0.2603285 -0.031091686 -0.6536332
-0.3388924 -0.3363569 0.1993203 -0.37228212 -0.25681642 0.3883149 0.11605021 0.19908176
-0.12531245 -0.31197506 -0.37606275 0.4750223 -0.28418353 0.022883672 -0.086204074 -0.42343438
0.2837908 0.102114305 0.21107662 0.41669118 0.111523055 -0.07145596 -0.0016555298 0.12974863
-0.25867411 0.32639846 0.07917729 0.15050511 0.093707204 -0.1358725 -0.14826581 0.15350194
-0.45779395 0.094052196 -0.09259084 0.3108829 0.48871455 0.52006596 0.24936545 -0.056626268
-0.4867856 0.62564355 0.23436803 0.07127713 -0.023444975 -0.026571533 -0.20135951 0.43585885
0.01878401 0.3677201 0.6784743 0.40442896 0.011931764 0.40300667 0.38263518 -0.58308226
0.04324372 -0.0667475 0.19033001 0.34486347 0.46998882 -0.62846583 0.42698234 0.015660457
0.04169288 0.73085266 -0.48170358 -0.14948228 0.113664076 -0.43865687 -0.36042285 -0.098241836
0.51059556 -0.12584198 0.3146625 0.0064172475 -0.18506657 0.119903915 0.056412622 0.04397118
0.3134517 1.3549473 -0.17225353 -0.060687102 0.41525492 -0.01389508 0.3146724 0.23367226
0.06347348 0.14855805 0.15186732 0.29741982 -0.2766491 0.007493004 -0.031753883 0.21788065
0.012778187 0.13401693 -0.11626779 0.22228064 0.20280747 0.18144917 0.4350358 0.25942183
0.19032773 0.04670677 1.148397 0.2164413 -0.074862294 -0.18615985 0.25663078 -0.15155494
0.286129 -0.4147321 0.5330384 0.430074 -0.5420388 0.04780518 0.6713942 -0.264524
-0.07711034 0.23070604 0.6351297 -0.038422827 -0.19696094 0.24591115 -0.111472026 0.2857934
1.1133437 0.5969045 -0.048402045 1.3136401 -0.092545435 -0.28074804 -0.26252678 0.039131276
00000000: 6b67 e23d 5a0f 00be 2a7a b93e efa3 923d
00000010: f222 abbe 3ba4 a6be ba5e d1bc 6b1d c2be
00000020: 1bd1 37be ea15 d9bd 4898 dd3e 197b cfbe
00000030: e77e 6fbe c56f 8ebe ebf0 aebd c6a0 d73d
00000040: 3e03 5c3e b375 d6bd 012b f73c 1483 bfbe
00000050: 0907 97be 2599 c8be 932a 44be 13fa babe
00000060: 5ff7 043d 0d91 a03e 1f5e b5bc fcc5 39be
00000070: 3e8e 8bbb 8075 f7be c89b 95be 1753 b43e
00000080: 06e3 a6be 4369 333e 785d 89be 4bbb d7be
00000090: 3018 713e bc20 c83e fc8e 35bd 5642 903e
000000a0: 1d18 d53e 2d85 3f3c 277c 8ebe d103 0c3f
000000b0: 149a d6be 6f5e e33e 8e59 463e 2391 96bb
000000c0: abc4 f0bd 69cf 30be dd9c 80bd fe06 973d
000000d0: 09f9 24be 92ab c5be 44d7 e53d aed5 adbe
000000e0: aafe 163e 6f67 7bbd 6a25 ae3d 44b1 963e
000000f0: 62d0 8e3e f9ef 3cbd 19a1 90be 16e4 5dbe
00000100: 15ac afbe a82b c13d b3d6 e03d 2207 d1bc
00000110: 80c4 56be e13c 41bd 5d26 79be 5e38 fbbd
00000120: 48fc 5e3e 81a3 8bbe 57ea 093e 0f72 803e
00000130: 9e8d e03c 211f e83e afb2 91be c277 4ebd
00000140: 982d cd3d d3c6 193d 716b 06bd 87ad 1ebe
00000150: 398e 143e f63b abbd 4240 f03d da8b 8c3e
00000160: 75c1 1fbc 4a88 7e3e c5c4 09be 21bc 233e
00000170: a1e4 363e 06ed 463e 3d06 31be e3e2 e33d
00000180: 099a 19be 4c6a b73e e857 e2bd 5153 90be
00000190: 3044 01be 15f1 213e 4fc1 8a3e 1219 adbd
000001a0: b544 6fbe d3cc e6bd ad79 1bbe 27f2 efbe
000001b0: 146b a73c 90fc b03d 1b2f 963e 9d9c c7be
000001c0: b2c7 50bd f2ec b0be 147f c9bd 7fa8 833d
000001d0: 68dd 9c3d c749 85be feb3 febc 8154 27bf
000001e0: 4e83 adbe f936 acbe 9f1a 4c3e c39b bebe
000001f0: 717d 83be 36d1 c63e bcab ed3d 17dc 4b3e
00000200: e851 00be 32bb 9fbe 4c8b c0be 1f36 f33e
00000210: 8180 91be 8a76 bb3c c38b b0bd 64cc d8be
00000220: 074d 913e 4e21 d13d 7824 583e 8c58 d53e
00000230: 3366 e43d 8157 92bd 5dfe d8ba d3dc 043e
00000240: ef70 84be b31d a73e b427 a23d 031e 1a3e
00000250: 90e9 bf3d 2922 0bbe fed2 17be 9d2f 1d3e
00000260: f863 eabe 709e c03d 44a0 bdbd 0b2c 9f3e
00000270: cb38 fa3e 0b23 053f a859 7f3e f2f0 67bd
00000280: f63b f9be 2d2a 203f 2cfe 6f3e bef9 913d
00000290: ad0f c0bc 8bac d9bc 3031 4ebe e428 df3e
000002a0: ede0 993c cf45 bc3e 7eb0 2d3f 5011 cf3e
000002b0: 727d 433c e456 ce3e c2e8 c33e e144 15bf
000002c0: 5420 313d eab2 88bd dfe5 423e f291 b03e
000002d0: 60a2 f03e 23e3 20bf 6e9d da3e 5c4a 803c
000002e0: 27c6 2a3d 2919 3b3f daa1 f6be e211 19be
000002f0: b6c8 e83d a297 e0be 5889 b8be 0433 c9bd
00000300: 64b6 023f b8dc 00be 711b a13e c647 d23b
00000310: 1782 3dbe 2f90 f53d ec10 673d 201b 343d
00000320: be7c a03e ea6e ad3f 3b63 30be 0a93 78bd
00000330: 4b9c d43e 31a8 63bc be1c a13e c847 6f3e
00000340: 62fe 813d 9a1f 183e 1b83 1b3e 6947 983e
00000350: f3a4 8dbe e087 f53b 5c10 02bd 1b1c 5f3e
00000360: 9a5b 513c bc3b 093e cf1d eebd 899d 633e
00000370: c3ac 4f3e d0cd 393e 03bd de3e f0d2 843e
00000380: 46e5 423e 994f 3f3d acfe 923f caa2 5d3e
00000390: 6751 99bd b0a0 3ebe 1c65 833e 3831 1bbe
000003a0: 807f 923e c457 d4be 3475 083f a932 dc3e
000003b0: 0ec3 0abf 5dcf 433d 7ee0 2b3f b16f 87be
000003c0: 07ec 9dbd 343e 6c3e dc97 223f 4161 1dbd
000003d0: 21b0 49be 22d0 7b3e 724b e4bd 8353 923e
000003e0: 0c82 8e3f bcce 183f 3941 46bd 5c25 a83f
000003f0: 7688 bdbd 35be 8fbe e969 86be 1e48 203d

rnn.weight_hh_l1 f4 [50, 50]
0.36020413 0.32296094 -0.05580825 0.12605919 -0.19903736 -0.034097165 -0.33021897 0.49609032
0.32616034 -0.5183712 -0.0458723 -0.55048317 -0.38575336 -0.16718265 -0.26040012 -0.22333929
-0.21493988 0.016520824 0.301112 0.37215528 -0.1145672 -0.4714969 -0.24700741 0.35282496
0.11212386 -0.04004798 0.4061039 -0.09919378 0.37608334 -0.20497422 0.38825786 0.30888715
0.26592258 0.27030593 0.35020578 -0.035047136 0.034287095 0.38474956 -0.2976651 -0.23190479
-0.35074684 0.18398276 -0.51868415 0.2985501 0.016073897 0.18150239 -0.2506931 0.31926283
-0.3716051 0.4008476 0.062695965 0.28225303 -0.011452964 -0.082611606 -0.29504842 -0.08864314
-0.12162188 0.15891673 0.05590026 0.1698139 -0.053493414 -0.1168053 -0.25606105 0.12324912
-0.19737314 0.15026961 0.035114013 0.12987398 0.22812441 0.34746927 -0.12028141 -0.054062467
-0.14343975 0.027865192 -0.23689242 -0.0956931 -0.027809428 -0.20693819 0.24495941 0.091955796
0.23797655 0.15431497 0.28313938 0.03364547 0.20531586 -0.27065995 0.08599522 0.117769204
-0.19542325 -0.3465663 -0.31932494 0.14890845 -0.05916253 0.12644356 -0.0144312205 0.36137626
-0.22143298 0.17618336 -0.13096327 0.2269955 0.2514296 0.25933662 -0.9294271 0.061358918
0.14432542 0.0075943875 -0.24068841 0.16262029 0.315376 -0.35375234 -0.017945448 -0.2633035
-0.27002606 0.2553726 -0.3727043 0.0926069 -0.5159086 -0.37509277 0.15953581 0.38841027
0.03278505 -0.34813485 -0.1018504 0.10512822 -0.07812882 -0.31560993 0.112274185 -0.30974007
0.3158769 -0.33348453 0.13020918 0.18142991 0.38389868 0.51049465 0.23651409 -0.21370973
0.03742853 0.3348563 -0.1857986 -0.16458474 -0.39002326 0.48371384 -0.29971012 0.18753739
-0.030709248 0.25076106 -0.2765245 0.25374025 -0.13400844 0.21070518 -0.34153613 -0.2829381
-0.27715218 -0.6680368 -0.49396494 -0.06498719 0.22959098 -0.57893234 -0.2584879 0.47468188
-0.17682141 0.504375 0.34359342 -0.120847195 0.35007337 -0.02931383 0.44957286 0.33670893
-0.16426162 -0.14649273 0.12878734 0.25787428 0.2465405 -0.24183854 -0.01750858 0.35075012
-0.4332109 -0.08474601 -0.2794938 0.3327997 0.053045496 -0.11722561 -0.2192604 -0.3206088
-0.20862593 -0.08439837 -0.06110169 -0.25301456 0.2382675 0.4675938 0.21003383 -0.10259024
0.5006542 -0.68628323 -0.041183475 -0.44911757 0.3972185 -0.3682363 0.13312954 -0.36748546
0.16146824 0.19368435 -0.17228149 0.22203347 -1.021141 0.08663916 -0.07119892 0.050865117
0.22172108 -0.23872472 -0.10741659 -0.1852432 -0.27620837 -0.15817067 -0.06916766 -0.15614605
-0.17473872 0.179469 0.034703042 0.12139562 0.11013824 -0.2159637 -0.039677337 0.11358224
0.051621538 0.070214204 0.15989685 -0.12218972 0.08971261 -0.2981069 -0.05137032 0.2549748
0.05669646 0.3109882 0.21859427 0.19785872 0.37436527 0.13129273 -0.3633946 -0.0916133
0.010745598 0.18872337 0.103402436 0.0036793482 -0.103885815 0.05667594 -0.24068148 0.22934313
-0.17597663 0.18316856 0.26218557 -0.10663958 0.080755524 -0.08630842 1.6369271 1.2820349
00000000: ad6c b83e 235b a53e 3197 64bd a915 013e
00000010: 73d0 4bbe 78a9 0bbd 7612 a9be 8dff fd3e
00000020: 7dfe a63e fab3 04bf 98e4 3bbd 77ec 0cbf
00000030: 7781 c5be ee31 2bbe 2a53 85be 0eb3 64be
00000040: 3319 5cbe ae56 873c 5a2b 9a3e 238b be3e
00000050: 35a2 eabd 0b68 f1be 83ef 7cbe 79a5 b43e
00000060: 32a1 e53d 5a09 24bd daec cf3e 1c26 cbbd
00000070: ff8d c03e c3e4 51be bcc9 c63e 7526 9e3e
00000080: 0127 883e 8a65 8a3e 2c4e b33e 968d 0fbd
00000090: a070 0c3d e5fd c43e 8f67 98be 7378 6dbe
000000a0: 1795 b3be fa65 3c3e 7cc8 04bf 8fdb 983e
000000b0: 68ad 833c c3db 393e d95a 80be 6b76 a33e
000000c0: 0643 bebe e63b cd3e be66 803d 7883 903e
000000d0: 36a5 3bbc 4630 a9bd 9610 97be 898a b5bd
000000e0: e414 f9bd 11bb 223e acf7 643d b2e3 2d3e
000000f0: e91b 5bbd 9e37 efbd 6f1a 83be 096a fc3d
00000100: 2f1c 4abe 47e0 193e b6d3 0f3d affd 043e
00000110: 7299 693e 7ee7 b13e 1a56 f6bd 9b70 5dbd
00000120: dfe1 12be 8b45 e43c ed93 72be befa c3bd
00000130: 99d0 e3bc 9be7 53be a4d6 7a3e 5253 bc3d
00000140: 20b0 733e be04 1e3e a5f7 903e d5cf 093d
00000150: 523e 523e f193 8abe 431e b03d fb30 f13d
00000160: 081d 48be 2371 b1be 8f7e a3be 757b 183e
00000170: 6954 72bd 6c7a 013e ed70 6cbc 4f06 b93e
00000180: 54bf 62be 6969 343e 3c1b 06be 8271 683e
00000190: 61bb 803e c5c7 843e efee 6dbf 7d53 7b3d
000001a0: 0bca 133e 57da f83b 0677 76be ef85 263e
000001b0: f778 a13e 071f b5be 5502 93bc b7cf 86be
000001c0: db40 8abe 33c0 823e 19d3 bebe b0a8 bd3d
000001d0: 9612 04bf 290c c0be 5b5d 233e b6dd c63e
000001e0: 9e49 063d bb3e b2be f196 d0bd 774d d73d
000001f0: 0102 a0bd a097 a1be 02f0 e53d 4096 9ebe
00000200: 9eba a13e 7cbe aabe 8e55 053e c3c8 393e
00000210: 5e8e c43e c7af 023f c030 723e b9d6 5abe
00000220: a94e 193d 4972 ab3e fd41 3ebe e788 28be
00000230: 21b1 c7be 57a9 f73e 9b73 99be cd09 403e
00000240: f691 fbbc c163 803e 9f94 8dbe 3eea 813e
00000250: 8239 09be 19c3 573e d3dd aebe 43dd 90be
00000260: e4e6 8dbe 7604 2bbf f9e8 fcbe 0118 85bd
00000270: e619 6b3e e934 14bf 8758 84be 8109 f33e
00000280: ac10 35be b81e 013f 7aeb af3e bc7e f7bd
00000290: d13c b33e 8f23 f0bc 6a2e e63e 1d65 ac3e
000002a0: 3334 28be 3102 16be d4e0 033e 1908 843e
000002b0: 1d75 7c3e 86a4 77be 276e 8fbc 8595 b33e
000002c0: d2cd ddbe 518f adbd d019 8fbe b964 aa3e
000002d0: 3c46 593d fb13 f0bd cc85 60be d626 a4be
000002e0: 09a2 55be 0dd9 acbd c445 7abd 208b 81be
000002f0: 65fc 733e 7468 ef3e 1c13 573e d51a d2bd
00000300: e02a 003f 42b0 2fbf 01b0 28bd bdf2 e5be
00000310: 3960 cb3e 7889 bcbe 1c53 083e 0e27 bcbe
00000320: ee57 253e 3155 463e 8f6a 30be be5c 633e
00000330: c0b4 82bf df6f b13d bdd0 91bd f157 503d
00000340: da0a 633e 4174 74be 3bfd dbbd 65b0 3dbe
00000350: 2f6b 8dbe 7ef7 21be c6a7 8dbd c0e4 1fbe
00000360: b5ee 32be b9c6 373e c724 0e3d 449e f83d
00000370: 2890 e13d 9725 5dbe b484 22bd ce9d e83d
00000380: 1b71 533d 77cc 8f3d 00bc 233e 9b3e fabd
00000390: 3fbb b73d 78a1 98be af69 52bd 0f8c 823e
000003a0: 8c3a 683d d839 9f3e 2dd7 5f3e 7a9b 4a3e
000003b0: ceac bf3e 9a71 063e db0e babe c19f bbbd
000003c0: 4e0e 303c b340 413e a8c4 d33d 3821 713b
000003d0: 16c2 d4bd 0825 683d 3575 76be edd8 6a3e
000003e0: 3833 34be 8a90 3b3e 303d 863e da65 dabd
000003f0: 2763 a53d 78c2 b0bd d486 d13f b819 a43f

rnn.bias_ih_l1 f4 [50]
-0.4408474 -0.22269474 -0.2158287 0.20968805 -0.23227665 -0.016472137 0.28165415 -0.4840797
-0.12083746 0.16904289 0.013121663 0.08732784 0.34190413 -0.09551927 0.3995699 -0.17368889
0.08572141 0.18564965 -0.20832573 -0.17893784 -0.021853494 0.093539685 0.46454152 -0.022674007
-0.13927573 0.12859398 -0.80638003 0.09938951 -0.60955673 0.16822565 -0.19425575 -0.35684243
-0.15404883 -0.27612117 -0.11177961 0.18774147 0.09263366 -0.27532855 0.22356433 0.32154948
-0.120187424 -0.2605099 0.47863182 -0.21300776 -0.014923796 -0.2562402 0.10218561 -0.22442058
0.34620285 -0.4848604
00000000: c0b6 e1be 170a 64be 3302 5dbe 77b8 563e
00000010: eed9 6dbe 93f0 86bc f934 903e 4bd9 f7be
00000020: a179 f7bd 9419 2d3e 3efc 563c f0d8 b23d
00000030: 0f0e af3e 9b9f c3bd 6d94 cc3e 80db 31be
00000040: b58e af3d f11a 3e3e 5753 55be 7b3b 37be
00000050: 1906 b3bc bc91 bf3d 63d8 ed3e d7be b9bc
00000060: 4c9e 0ebe 24ae 033e ec6e 4ebf ba8c cb3d
00000070: e90b 1cbf 5843 2c3e fbea 46be 0db4 b6be
00000080: fabe 1dbe c15f 8dbe b5ec e4bd 4d3f 403e
00000090: b7b6 bd3d ddf7 8cbe 0cee 643e 22a2 a43e
000000a0: d324 f6bd 8e61 85be 3b0f f53e b51e 5abe
000000b0: f082 74bc ea31 83be b046 d13d 82ce 65be
000000c0: 8041 b13e 9f3f f8be

rnn.bias_hh_l1 f4 [50]
-0.26445892 -0.24309912 -0.08217358 0.28250843 -0.122515716 -0.07208308 0.27110216 -0.5323107
0.06325808 0.19875823 -0.034225382 0.21429338 0.4209537 -0.3223649 0.2589734 -0.14586788
0.32271105 0.08782716 -0.15785871 -0.36059377 0.07637384 0.22751305 0.5344487 0.09943748
-0.071586646 0.10055025 -0.6240346 0.20972373 -0.615203 0.28295118 -0.1974466 -0.37695703
-0.33910832 -0.30399302 -0.32829073 0.2465352 0.08273063 -0.20495269 -0.020807205 0.13276091
-0.023339394 -0.030723104 0.530778 -0.14510202 0.12678066 -0.36059552 0.14249511 -0.22347932
0.32714382 -0.45314577
00000000: 2967 87be faee 78be 9f4a a8bd f2a4 903e
00000010: 85e9 fabd 4ba0 93bd e7cd 8a3e 8445 08bf
00000020: 748d 813d 4787 4b3e ea2f 0cbd b96f 5b3e
00000030: 3e87 d73e 030d a5be 2998 843e 645e 15be
00000040: 623a a53e bade b33d b7a5 21be bf9f b8be
00000050: e369 9c3d 2ef9 683e a1d1 083f e1a5 cb3d
00000060: 059c 92bd 4aed cd3d bbc0 1fbf d1c1 563e
00000070: f27d 1dbf fade 903e 712f 4abe 8300 c1be
00000080: 9b9f adbe f9a4 9bbe b915 a8be b973 7c3e
00000090: ad6e a93d 1edf 51be df73 aabc 7af2 073e
000000a0: 4232 bfbc 05af fbbc 11e1 073f a095 14be
000000b0: cad2 013e fa9f b8be 3dea 113e c3d7 64be
000000c0: 657f a73e b902 e8be

fc.weight f4 [1, 50]
-0.11710276 0.0858069 0.1794478 0.06796025 -0.33437088 -0.042716395 -0.059555292 -0.026089324
0.010957581 -0.16357566 -0.11155753 -0.11114933 0.031348296 -0.10757654 -0.041144196 -0.16019279
0.041108243 0.017830713 0.22189987 -0.011968091 -0.024717817 -0.070122175 -0.044758733 0.031680863
0.08223074 0.034795772 -0.005915676 -0.0035034763 0.017113257 -0.013289425 0.09494651 0.11243098
0.06489098 0.053051505 0.09739566 0.28785688 0.07245621 0.08049589 -0.12112323 0.057092614
-0.06556597 0.1416049 0.14782488 -0.09148758 0.0785351 0.08770471 -0.050093018 0.030791681
0.08280786 0.017915685
00000000: 92d3 efbd 87bb af3d 2ac1 373e be2e 8b3d
00000010: a932 abbe 63f7 2ebd 40f0 73bd 47b9 d5bc
00000020: 6d87 333c 6180 27be 4678 e4bd 43a2 e3bd
00000030: 1267 003d 1751 dcbd d186 28bd 9409 24be
00000040: 1e61 283d b711 923c b839 633e d015 44bc
00000050: 057d cabc 379c 8fbd ef54 37bd cbc3 013d
00000060: 9768 a83d 0386 0e3d 49d8 c1bb 949a 65bb
00000070: 1a31 8c3c e3bb 59bc 5173 c23d 3742 e63d
00000080: 90e5 843d 894c 593d 6077 c73d fa61 933e
00000090: ec63 943d 07db a43d 750f f8bd f2d9 693d
000000a0: 7447 86bd e000 113e 685f 173e d75d bbbd
000000b0: 03d7 a03d 879e b33d 562e 4dbd d63e fc3c
000000c0: 2b97 a93d eac3 923c
