Networks/XMRBTC/askSeed2.pt (torch, 33123 bytes, 9 tensors)

rnn.weight_ih_l0 f4 [50, 1]
000000 29 6e a9 3e e6 cd 36 3e f1 2e d2 bf 98 0e cb 3f
       0.33091858 0.17851982 -1.6420575 1.5863829
000010 85 4b 05 3f d9 f0 7a 3f 10 17 49 be 0f ea 3a bf
       0.5206836 0.98023754 -0.19637704 -0.73013395
000020 cd 2b ff 3d ca a9 6d bf c9 70 10 c0 67 47 e8 be
       0.12459526 -0.928372 -2.2568839 -0.45366976
000030 a9 73 81 3e db 4a 5c bf 16 1d fb 3e 07 5a 3c 3e
       0.25283554 -0.8605172 0.49045628 0.18393718
000040 df 86 ff 3e d4 f6 bd 3e a6 cd f4 be 09 65 fd 3d
       0.49907586 0.37102377 -0.47813147 0.123727866
000050 7a 36 96 be 1a 38 79 3e b5 60 61 40 97 c1 93 3e
       -0.29338437 0.24337807 3.5215275 0.28858635
000060 15 ca 23 3f ff 98 06 3e 86 a3 f2 40 6d bb 9b be
       0.6398023 0.13144301 7.5824614 -0.30416432
000070 46 6d 05 3d a9 f9 bb be 0d f7 12 3f 98 31 e0 3f
       0.032574914 -0.36713913 0.5740822 1.7515135
000080 c2 49 69 3f f3 3e 3b be d6 df 17 3e 8d c7 69 3e
       0.9112817 -0.18285732 0.1483148 0.22830029
000090 86 b1 32 3e 1d d0 b6 bd 20 1e ba 3e 43 e5 29 be
       0.17450532 -0.08926413 0.3635111 -0.16591363
0000a0 19 99 8f bf da 0e 86 bd c1 65 49 be b3 d7 a9 bf
       -1.1218597 -0.065458015 -0.19667722 -1.3268951
0000b0 59 78 ec 3e a3 3f 37 c1 ab f3 8f 3f 37 b3 28 be
       0.46185568 -11.453036 1.1246237 -0.16474615
0000c0 d2 2c 62 3f 22 ba a5 3f
       0.8834964 1.2947428

rnn.weight_hh_l0 f4 [50, 50]
000000 8b 4c 4d 3e 5e 39 ca be 40 69 a3 be 2f 86 5b be
       0.2004873 -0.39496893 -0.31916237 -0.21437906
000010 2e c4 20 be 6c 4c c0 3e 9a 9d 95 3e 5a 36 29 be
       -0.15699837 0.37558305 0.29221803 -0.1652464
000020 e4 58 15 3f 9e 9a 13 be a7 b2 59 3e fd 19 8e 3e
       0.5833876 -0.1441445 0.21259557 0.27754202
000030 2b 49 cb bd ba ea ef be 85 05 1b be 34 45 9a 3e
       -0.09926065 -0.4685877 -0.15138824 0.30130923
000040 09 c7 58 bc 57 9f 11 3f 14 2f b4 be db 33 1a bf
       -0.013231047 0.5688376 -0.35192168 -0.60235375
000050 70 5a 6a be 1d 69 c7 3e 48 ac 0a bd eb 1c 49 3e
       -0.22886062 0.38947383 -0.033855706 0.19639938
000060 6f 29 34 be 96 49 bf be 68 e0 7e be 9f 84 2e bd
       -0.1759393 -0.3736083 -0.24890292 -0.042606946
000070 b4 6d a3 be a5 7f b5 3e e4 2e 05 be 70 3b b9 3e
       -0.31919634 0.35448948 -0.13006169 0.3617816
000080 18 4d d9 3d 20 18 ac 3e d0 6d 9b be c5 af b2 be
       0.106104076 0.33612156 -0.30357218 -0.34899727
000090 84 8e 7a 3e 34 f3 a8 be 6c 55 62 3e 62 4d 09 bf
       0.24468428 -0.3299805 0.22102898 -0.536337
0000a0 05 de de 3e 41 ac 0e bc a7 66 52 be 79 cd 6e be
       0.43528762 -0.008708061 -0.20546971 -0.23320569
0000b0 31 67 f3 3d 89 ff ff 3d b0 75 3a 3e e8 5f eb be
       0.118849166 0.12499911 0.18208957 -0.45971608
0000c0 6a 9a f2 be 01 f2 51 be 10 af 86 be d0 d0 84 be
       -0.47383434 -0.20502473 -0.26305437 -0.2594056
0000d0 b7 75 7f 3e c9 88 5e 3e 73 c6 68 3d 04 cd c9 be
       0.24947248 0.21731867 0.05682988 -0.39414227
0000e0 49 b3 ab be c3 56 b6 3c 1f f8 9e be 07 88 dd 3e
       -0.3353522 0.022258168 -0.31048676 0.43267843
0000f0 0e f1 67 be ea ff d0 bd 6d 3a c5 bd 07 ce b2 3e
       -0.22650549 -0.10205062 -0.096302845 0.3492281
000100 a6 64 d4 3d 65 77 8c be 2f 0a 5f 3e 1d c1 69 be
       0.1037076 -0.2743484 0.21781228 -0.22827573
000110 98 b2 b4 3e da 4c 7f 3e 74 51 4b 3d fb 47 a1 be
       0.35292506 0.2493166 0.049638227 -0.3150023
000120 a5 64 93 bd e0 34 31 be bd db 01 be 0d d7 e3 3e
       -0.07196931 -0.17305326 -0.1268148 0.44500008
000130 a2 88 51 3f e6 e5 df bd 0b 8b c8 3e d6 fe 7a be
       0.8184911 -0.109325215 0.3916858 -0.24511275
000140 52 de 6e bd aa 56 d6 bd da 1a 97 be ce fc e1 be
       -0.05831749 -0.104657486 -0.29512674 -0.44138187
000150 9c 97 88 3e 95 bf 3e 3e 00 9a 36 bd 0e 40 24 3e
       0.2667817 0.1862777 -0.04458046 0.1604006
000160 29 37 8c be 35 e2 9b 3e a4 92 9a be bc be 45 3e
       -0.27385834 0.3044602 -0.30190003 0.1931104
000170 60 d3 47 3e e0 ce 86 bc 2f 93 dc 3c fa c5 93 be
       0.19514227 -0.016456068 0.026925651 -0.28861982
000180 e9 13 44 be 84 47 78 3e 00 0a 78 3e f7 17 5d 3d
       -0.1914822 0.24246031 0.24222565 0.053977933
000190 e7 31 9a be 01 a3 30 3e eb 09 9c 3f 1b 6d 75 be
       -0.30116197 0.17249681 1.2190527 -0.23967402
0001a0 73 b2 c9 3d b5 17 bb be 8c 68 fc 3d 41 82 10 be
       0.098484896 -0.36541525 0.12324628 -0.14112188
0001b0 2a ff 91 be 08 14 28 3f 0f 0a b2 be a0 16 77 be
       -0.28514987 0.65655565 -0.347733 -0.24129725
0001c0 64 f3 91 be ab 83 8a 3e 78 35 8d 3a 69 ee 7e bd
       -0.28506005 0.2705358 0.0010773381 -0.062239084
0001d0 c2 18 2b 3e 3f 65 10 bd ec 4f a6 be 0f 77 8e 3e
       0.16708663 -0.035252806 -0.3248285 0.2782521
0001e0 87 55 9a bd df d8 85 be 71 42 44 bd 34 48 4f 3e
       -0.07535844 -0.26142022 -0.047914926 0.20242387
0001f0 2d f0 ef 3e 9a 44 53 3e f6 9e 55 3e b2 b9 8e 3e
       0.46862927 0.20631638 0.2086142 0.2787605
000200 77 ff 2d 3e 33 f5 87 be fc 02 db bd 0e a1 70 be
       0.16991983 -0.2655426 -0.106939286 -0.23498937
000210 4b bd df be 24 66 80 be ac d7 bc 3d 78 63 5e 3e
       -0.43699107 -0.25077927 0.09220824 0.21717632
000220 e6 49 22 3e 69 6e 04 3e ff b5 9e be 1a b2 9f 3e
       0.15848503 0.12932743 -0.30998227 0.31190568
000230 43 d0 dd bc 2a e5 a6 3e e6 c2 9b 3e c6 b8 d1 bd
       -0.027076846 0.32596713 0.30422133 -0.10240321
000240 5e 07 0b be b8 99 93 bf 0c e9 c3 be 99 4c 7f 3e
       -0.13577029 -1.1531286 -0.38263738 0.24931563
000250 d1 e5 30 3e 76 b1 3d 3e aa 6e a5 be 30 56 98 3e
       0.17275168 0.18524727 -0.32310992 0.29753256
000260 8d 3d 8b 3e 1c 4b 8b 3f 90 31 01 3e 06 01 8c be
       0.27195397 1.0882297 0.12616563 -0.2734453
000270 b5 47 a9 3d 30 31 c9 be f1 06 a5 be b1 5a e5 3e
       0.0826563 -0.3929534 -0.32231858 0.44795755
000280 f2 ac a0 be 67 84 69 be 56 4f 0e be fa 13 3e bd
       -0.31381947 -0.22804414 -0.13897452 -0.04640577
000290 fa 10 f4 bd 04 bf 3d bd 94 88 06 3e f9 9e 35 be
       -0.119173005 -0.046324745 0.13138038 -0.17736425
0002a0 80 71 b7 be a9 f0 09 3e d2 03 e6 be e5 61 b2 be
       -0.3582878 0.13470711 -0.4492479 -0.34840313
0002b0 25 8b 11 be 4c b7 4f 3e 91 a3 ef 3d 21 e0 a4 3e
       -0.14213236 0.20284766 0.1170112 0.32202247
0002c0 28 15 93 bf d9 4a c3 3d 6e 91 c5 3e f0 10 07 bf
       -1.1490831 0.095357604 0.38587517 -0.5276022
0002d0 ae 95 24 3f e5 73 69 be 27 8f d2 be c9 bb d8 be
       0.64290893 -0.22798117 -0.41124842 -0.4233077
0002e0 4d a1 3f 3e a3 66 7f 3e 34 ec b8 3d 54 95 4b 3d
       0.18713875 0.24941497 0.09029427 0.049702957
0002f0 93 0d 49 be 61 cc 88 3e 5d 9b 8f be 57 35 b5 3e
       -0.19634084 0.2671843 -0.2804822 0.35392258
000300 e1 cb 95 3e 05 fe bf be f1 6c 7e be 26 6b 81 bf
       0.2925711 -0.3749849 -0.24846245 -1.0110824
000310 f9 8c e8 be b2 31 1c 3e f3 ef ca 3e e3 d2 d9 3e
       -0.45420054 0.15253332 0.39636192 0.42543706
000320 a0 b9 fb be 6f e8 b5 3e 29 d9 28 3c 51 08 c4 3d
       -0.49165058 0.35528895 0.010305681 0.09571899
000330 5c 22 09 3e e2 7c 1c be 94 40 f8 3c 3c b8 21 be
       0.13392013 -0.15282014 0.03030423 -0.15792936
000340 b3 8d a5 be ce 6d ab 3e f5 c8 52 be 30 e9 96 be
       -0.3233467 0.33482212 -0.20584472 -0.29474783
000350 89 be bc be 94 37 8c 3e f3 ed 5d be f5 47 4a be
       -0.36864117 0.27386153 -0.21672802 -0.19754012
000360 62 e8 ac 3e 40 3c 84 be a9 f0 48 be d2 91 6d 3e
       0.33771044 -0.25827217 -0.19623055 0.23200157
000370 2a e7 8a be a5 d8 25 be 3d 2b 2e be 3f cc e6 3d
       -0.2712949 -0.16195925 -0.17008682 0.112694256
000380 c7 ef f0 3c e7 2d 3a 3e 3f 68 00 be 57 bf 9d 3e
       0.02941121 0.18181573 -0.12539767 0.30810043
000390 62 09 8d 3c 69 22 c2 be 23 6d b6 3d 17 56 3b be
       0.017216388 -0.37916878 0.08907535 -0.1829456
0003a0 09 35 74 be 94 6c e2 bd 09 08 5a bc 58 10 8e 3e
       -0.23848356 -0.11055866 -0.01330758 0.27746844
0003b0 d2 ef 01 3e 06 2b 82 3e ef 69 b6 be d4 46 c4 3e
       0.1268914 0.2542345 -0.35627696 0.38335288
0003c0 21 fe 79 be f7 95 e2 3d 94 64 94 3d ab 0d 8c bb
       -0.24413349 0.1106376 0.07245746 -0.0042740903
0003d0 fe 0d 1f be 5e a1 68 bd 93 0d b2 bd dd 63 54 3e
       -0.15532681 -0.056794517 -0.08693995 0.2074122
0003e0 b5 02 5d 3e 89 a7 9b bc 57 1d b7 3e d3 4f 0a be
       0.21583064 -0.019000785 0.35764572 -0.13507013
0003f0 11 c1 50 be ae 84 de 3d d0 4c f0 be b2 98 87 3f
       -0.20386149 0.108651504 -0.46933603 1.0593474

rnn.bias_ih_l0 f4 [50]
000000 db 33 5b bf d0 e2 3e 3f 2a 7d 02 3f 7e 5b bd be
       -0.85626 0.7456484 0.50972235 -0.36983865
000010 06 b9 6c 3f d5 3b 32 bf a1 ae 2d 3f 30 9a e3 be
       0.92469823 -0.69622546 0.6784459 -0.44453573
000020 40 46 4a bf e5 ab c6 3e 75 61 b8 be 1d 14 46 bf
       -0.79013443 0.3880302 -0.36011854 -0.7737444
000030 e5 ac 25 bf 84 a5 9e 3f de 3b 92 be 5a 35 4c bf
       -0.6471694 1.2394261 -0.285613 -0.7976891
000040 f3 ca bc bd a3 dd 2f bf 4c 6f 69 3d 73 28 18 3f
       -0.09218397 -0.68697566 0.056990907 0.5943672
000050 35 30 db bd dd 1d 49 bf b0 11 28 be 1f fb 0b be
       -0.10702554 -0.7856119 -0.16412997 -0.13670014
000060 05 7d 35 3e ed f8 cd 3e f5 58 03 bf 5e 76 3b 3f
       0.17723472 0.40228978 -0.5130761 0.7322749
000070 8d 29 5c 3f 0d 33 58 bf 18 6e 47 be f4 dc 45 bf
       0.860009 -0.844529 -0.19475591 -0.7729027
000080 0c 30 f2 bd 32 ff 58 be 67 b6 54 3f ee 4c 4f 3f
       -0.118255705 -0.211911 0.83090824 0.8097676
000090 d9 33 79 3d fe 35 3f 3f aa 46 4e bf 6e 4a 4f 3f
       0.06084046 0.7469176 -0.80576575 0.80972946
0000a0 e8 53 49 bf 42 4a 3e 3f cb 51 0a 3f 77 72 91 3d
       -0.78643656 0.7433206 0.54031056 0.071019106
0000b0 22 d3 03 bf 76 c3 d2 be 96 77 38 3e 68 a3 dc 3e
       -0.5149404 -0.4116475 0.18014368 0.4309342
0000c0 6b 60 78 3d 14 a6 fc 3d
       0.060638826 0.123363644

rnn.bias_hh_l0 f4 [50]
000000 c9 95 44 bf 3a 6b 1d 3f f1 b7 01 3f 1c f8 8e be
       -0.76791054 0.6149174 0.506713 -0.27923667
000010 26 c8 86 3f 22 86 74 bf a2 e8 0d 3f 79 5a 8b be
       1.052983 -0.9551717 0.55433095 -0.27217463
000020 52 e1 59 bf 91 57 b1 3e fc 9e b1 be 3d 48 69 bf
       -0.85109437 0.3463712 -0.34691608 -0.9112585
000030 dd a8 42 bf 9d 57 af 3f 81 29 9d be 9b 22 78 bf
       -0.76038915 1.3698612 -0.30695727 -0.96927804
000040 8d f1 12 3e b2 61 17 bf 47 b8 aa bb 5c e8 1c 3f
       0.14349957 -0.59133446 -0.005209956 0.6129205
000050 3c b3 72 bc 4b dc 17 bf f0 0c 21 be 71 e1 71 be
       -0.014813241 -0.59320515 -0.15727592 -0.23621155
000060 89 92 7a 3e 40 ab 08 3f b0 59 10 bf 1f e8 22 3f
       0.24469961 0.53386307 -0.5638685 0.6363544
000070 22 2b 42 3f de 48 3d bf e1 97 15 be 02 14 4c bf
       0.75847065 -0.7393931 -0.14608718 -0.7971803
000080 1c 1d cd bd 8a db e9 be fd 40 72 3f 06 12 35 3f
       -0.10015318 -0.45675308 0.94630414 0.70730627
000090 c5 8b 30 3d de 8b 2d 3f 36 64 3b bf c8 6a 37 3f
       0.043102045 0.67791545 -0.73199785 0.7164731
0000a0 f6 c2 62 bf 48 76 29 3f 44 37 15 3f 22 7e 89 3d
       -0.88578737 0.6619611 0.58287454 0.06713511
0000b0 8e 88 c4 be b8 69 8d be 11 23 89 3e 2a 6d 04 3f
       -0.38385433 -0.2761972 0.26784566 0.5172907
0000c0 0f 89 ef 3d 49 4b 78 3e
       0.11696064 0.24247469

rnn.weight_ih_l1 f4 [50, 50]
000000 5f 83 96 be be ac 7f 3d 9a dc 4e 3e 8c 1d ab bd
       -0.29397103 0.0624206 0.2020134 -0.08355245
000010 04 25 77 3e fe b3 06 bf 07 f3 d7 3e 0f 03 9d bc
       0.24135214 -0.52618396 0.42177603 -0.019166498
000020 3a 3d d6 bd a6 f9 87 3e 15 91 ec be a0 29 e1 bd
       -0.10460897 0.26557654 -0.4620444 -0.109942675
000030 2e a5 11 bf 63 af b0 3e 87 e8 09 bf e0 b6 c4 be
       -0.5689267 0.3450881 -0.53870434 -0.38420773
000040 9b 49 b6 3e 81 17 ec be 60 a1 bb be 11 df bc 3e
       0.35603032 -0.46111682 -0.36646557 0.36888936
000050 02 66 e6 bd 2d 8e 2f bd 34 82 25 3e fb 7c a6 3e
       -0.11249925 -0.0428602 0.1616295 0.32517228
000060 10 de f0 3e 94 d1 7d 3e 7e d2 4e 3e 4f 3d 91 3e
       0.4704442 0.24786979 0.20197484 0.28367087
000070 1c a0 52 bb 90 4a 88 be 47 34 cd 3e 0e 51 56 be
       -0.003213889 -0.26619387 0.40078947 -0.20929357
000080 2d c1 35 bd 1c 04 3e be 4a ed 2e 3e d5 c3 f0 3e
       -0.04437368 -0.18556255 0.17082706 0.47024408
000090 d9 51 fe 3e 9f 75 34 3f c3 15 e7 be 1a 86 d2 3e
       0.4967182 0.70491976 -0.4513379 0.41117936
0000a0 30 91 bf be e3 30 c8 3e 32 6c 01 3e 92 bc 1c be
       -0.37415457 0.39099798 0.1263893 -0.15306309
0000b0 b1 25 eb be 75 e6 b2 be c8 25 97 be 6e 14 c3 3e
       -0.45927194 -0.3494145 -0.29521012 0.38101524
0000c0 0a 19 2a be 5f e1 04 3e 42 16 b4 bd b7 23 81 be
       -0.16611114 0.12976597 -0.08793308 -0.2522256
0000d0 31 c4 b4 be a8 45 3b 3e 3d 04 1e bd 7e 1a 92 3e
       -0.35305932 0.1828829 -0.03857826 0.28535837
0000e0 12 51 da be c6 ef 0c 3e 78 87 2b 3e 75 c4 81 3d
       -0.42639977 0.13763341 0.16750896 0.06336299
0000f0 00 02 8d be c7 c3 e6 3d 21 11 5f 3e 01 71 b5 be
       -0.27540588 0.1126781 0.21783878 -0.35437778
000100 16 1a 96 3e 90 81 9d 3e 09 77 dc 3d 12 36 19 3e
       0.29316777 0.3076291 0.10764892 0.14962032
000110 33 d0 8e 3e fa da ff be 82 54 dd 3d 12 71 9a bd
       0.27893218 -0.49971753 0.10807134 -0.07541098
000120 35 ca 27 3e 9c a7 b4 be a8 1a c3 be 2c ba 6a bd
       0.1638573 -0.35284126 -0.38106275 -0.057306454
000130 86 22 a4 3d 2d 96 d7 be 6d 2c 9b bd c9 6c a9 3e
       0.08014397 -0.42106763 -0.07576833 0.3309081
000140 54 2e 83 3e 24 f9 d5 3c 86 f4 3b be 27 34 7f bd
       0.25621283 0.026119776 -0.18354997 -0.062305596
000150 6f 23 f8 bd 44 80 8b be 02 f1 80 be 70 c5 04 be
       -0.121161334 -0.27246296 -0.25183874 -0.12965941
000160 fe 0d 4e 3e f1 01 fc bd f7 f3 f8 3d f4 a3 a6 bd
       0.20122525 -0.12305058 0.121559076 -0.0813674
000170 06 93 13 3e c0 5e 93 bd 50 70 a4 3e e7 2b a2 be
       0.14411554 -0.071958065 0.32116938 -0.3167412
000180 f8 00 d4 bc d5 0d c6 be a2 f7 87 be 9a 81 93 38
       -0.025879368 -0.38682428 -0.26556116 7.0336464e-05
000190 bb 4b 81 be 52 c0 29 3e 79 c0 a7 3e 77 ee 3d bd
       -0.2525309 0.1657727 0.32764032 -0.046369996
0001a0 66 56 e3 3c 7f 33 67 be 2c 2a d0 3e a5 e4 bd be
       0.027751159 -0.22578238 0.40657175 -0.37088504
0001b0 cc 28 8e bd 57 23 e2 3d 06 2a 85 bf 7f dc ab bd
       -0.06941375 0.11041897 -1.040345 -0.08391666
0001c0 c9 73 ea be de 2a 6e 3e 19 90 fd be 73 3f bc be
       -0.45791462 0.2325854 -0.49524 -0.36767158
0001d0 04 4c 3f 3e a8 2b 78 be ca 80 0b 3c 65 e9 ff 3e
       0.18681341 -0.24235404 0.008514592 0.49982753
0001e0 18 c5 95 be 43 a3 a0 be 5b 63 52 be 0f e3 19 3f
       -0.29251933 -0.3137456 -0.20545714 0.6011209
0001f0 83 0c 1e 3d ac df b3 3e 8b 58 33 3f c8 a4 9d 3e
       0.03858615 0.35131586 0.7005698 0.3078978
000200 f3 0e 90 bd 75 bb 33 be d7 c5 04 3d 49 28 9e be
       -0.07034101 -0.17551978 0.032415237 -0.3089011
000210 b7 ca bd 3c 2b f2 fa bd db fb bf 3e 41 6d 76 3e
       0.023167951 -0.12253221 0.37496838 0.24065115
000220 be 69 00 3f b2 9d 20 3e 1e 03 90 be f9 fa ec 3e
       0.5016135 0.15685156 -0.28127378 0.46285227
000230 83 1b 6d be 59 e2 6f 3d 5f 3e 2c 3e 9b 11 3b bd
       -0.23155026 0.05856547 0.16820668 -0.045671087
000240 86 c1 b1 be 22 a2 87 be 13 5c c3 be e0 68 cc 3e
       -0.3471796 -0.26490885 -0.38156185 0.39923763
000250 bb ff e7 bc fc 6d b5 3d 8a d6 a1 be a8 43 b1 3e
       -0.028320184 0.088588685 -0.31608993 0.3462193
000260 f4 a7 af 3f 9e 64 2a be 4c e7 ff 3d 47 2f 8d be
       1.372313 -0.16639945 0.12495288 -0.27575132
000270 66 54 22 3d d7 73 54 be 13 2b b9 be 8b 9d 6e 3f
       0.03963127 -0.20747314 -0.36165676 0.9320914
000280 5c 38 8e 3e 4f c7 3b bd 85 ed 39 be 49 50 89 3e
       0.27777374 -0.045844372 -0.18157013 0.26819065
000290 09 21 93 be e8 21 c5 bd 1a 80 4d 3d a7 10 46 be
       -0.2873614 -0.09625608 0.050170995 -0.1934229
0002a0 a3 ed b9 bb 11 e2 32 3e ce 8e ae be 75 70 9f be
       -0.0056740805 0.1746905 -0.34093326 -0.31140485
0002b0 32 df b1 be e9 17 e5 3d 7d f5 61 3d 2a cd 62 3e
       -0.34740597 0.11186201 0.055165756 0.22148576
0002c0 42 b5 c5 3d 70 f1 d5 3b ef b1 75 3b c9 9b b3 bc
       0.09653713 0.0065290257 0.003749009 -0.02192487
0002d0 d4 1c 48 bd db 94 7e be ab 9a 4d 3c d1 ba 30 be
       -0.048855618 -0.24861471 0.012549083 -0.17258765
0002e0 28 d4 35 3c 5d f5 a8 3d 94 f6 3e 3d 81 2b 66 3d
       0.011097945 0.08249924 0.046621874 0.056193832
0002f0 5f ce cd bd 88 e1 b4 3e b5 2e 09 be 74 6b 90 3e
       -0.10049128 0.35328317 -0.13396724 0.2820698
000300 a9 33 2a 3e 1b 09 96 be 5a e0 80 be 20 df 79 bf
       0.1662127 -0.29303822 -0.25171167 -0.97606087
000310 9f f5 7f bc 9a fe 05 3e 95 4b 2e 3e e8 94 a3 3d
       -0.0156225255 0.13085404 0.1702102 0.07987386
000320 a4 8f de 3d 91 30 62 be b0 44 30 be 1d 59 53 3e
       0.10867241 -0.22088839 -0.17213702 0.20639463
000330 36 72 8c bd 9b 46 a6 3e de cd 6a be 76 8a a9 3d
       -0.068577215 0.32475743 -0.22930095 0.082783625
000340 b7 e5 9b 3e e6 55 99 3c 1c 07 12 bd 5d a3 5f 3d
       0.30448696 0.018717717 -0.03565131 0.054599155
000350 c6 c1 22 3e 9b cb 83 be 4f 72 9e 3e 6a 76 24 3e
       0.15894231 -0.25741276 0.30946586 0.16060796
000360 2d 17 cd bd 5f e1 72 3e 39 99 06 3e c5 06 2e be
       -0.10014186 0.23718785 0.13144387 -0.1699477
000370 27 37 6e 3e d2 40 34 3e 94 66 b9 3e 7c ed c3 be
       0.23263226 0.17602852 0.36211073 -0.38267124
000380 89 a9 ee bd a2 64 b9 3c 44 47 9c 3e 00 a1 4d be
       -0.1165343 0.022630993 0.3052312 -0.20080948
000390 95 fa 2e 3d 99 8e e7 3d 83 50 f7 3d 98 b6 3a 3e
       0.042719442 0.11306495 0.12075903 0.18233716
0003a0 48 76 25 bd 99 cf ec bd 10 e8 cd 3d 64 32 91 3d
       -0.040396005 -0.115630336 0.10054028 0.070896894
0003b0 65 21 82 be 95 e3 8a be 95 43 4c 3e 88 32 b0 be
       -0.25416103 -0.27126756 0.19947655 -0.34413552
0003c0 ce 6a d1 3c 82 ea 11 3c 5c 47 92 bd 81 ac f5 3c
       0.025563624 0.008906009 -0.07142517 0.029989483
0003d0 5b 66 cb 3e 8f 55 66 be 93 72 b5 3e 7d bf 63 be
       0.3972653 -0.22493576 0.35438976 -0.22241016
0003e0 31 bc 81 be 8e 1d 63 be 46 31 4c be 91 a2 90 3e
       -0.2533889 -0.22179243 -0.19940671 0.28249028
0003f0 44 52 94 3e e4 a5 e8 3d 94 db 8c bc e3 1e a7 be
       0.28969014 0.11359766 -0.017194547 -0.32640752

rnn.weight_hh_l1 f4 [50, 50]
000000 b7 22 07 3e 36 03 0a bf 42 2e 29 3f ce 74 c3 3e
       0.13196836 -0.5391115 0.6608621 0.38175052
000010 0c d3 18 bf 42 ff b0 3e 96 a7 3b bf 77 db df 3e
       -0.5969703 0.34569746 -0.7330259 0.43722126
000020 d4 21 9f 3c d3 80 f8 be 43 2f 60 3e a8 ef 1f bf
       0.01942531 -0.48535785 0.21893029 -0.6247506
000030 9c e4 3b be 39 da 09 3e d1 33 f4 3e 57 de 32 be
       -0.18348926 0.13462152 0.47695783 -0.17467628
000040 e7 70 74 be 1c 3e e6 3d 35 04 c2 3e fe ae d0 3d
       -0.23871194 0.11242315 0.37893835 0.10189627
000050 b9 3d aa 3e 2f 88 99 3e b4 5d 08 bf 38 54 cc be
       0.33250216 0.29986712 -0.5326798 -0.39908004
000060 22 11 b1 be 90 06 0a bf 43 5c 2d 3f c5 2e 4b 3d
       -0.34583384 -0.53916264 0.67718905 0.04960515
000070 b1 05 e5 be 09 3c b9 3e 9b be ba bc e9 5c ea 3e
       -0.44730905 0.36178616 -0.022795966 0.4577401
000080 f7 69 ce be 25 c3 ca 3e 0c 3a e3 3e 9b b7 b5 be
       -0.4031522 0.39602008 0.44380224 -0.35491642
000090 02 1a 45 3e 98 d3 76 bf 45 20 f4 be fe 6f ab be
       0.19248202 -0.96416616 -0.4768087 -0.3348388
0000a0 c4 84 5f 3e b9 35 52 be 94 ad e2 3e e4 57 c9 3d
       0.2182799 -0.20528306 0.44273055 0.09831217
0000b0 aa 1b b9 3e ac f1 dd be 4b ad de be 54 dd d4 3e
       0.36153919 -0.43348444 -0.43491587 0.4157511
0000c0 25 a0 cc 3e c5 5c 08 3f 8f 26 6c bc 2d 56 0b 3f
       0.3996593 0.53266555 -0.01441349 0.5442837
0000d0 c0 8b 01 bf 8d 5a a9 3d 26 6f ac 3e 98 2b 85 be
       -0.50603867 0.08269224 0.3367855 -0.26009822
0000e0 f9 ef ce bd 9c 78 54 be 1d df 92 be 6a f5 15 3f
       -0.10104365 -0.20749134 -0.28685847 0.585776
0000f0 a3 2a 9c 3e 71 f2 91 be e4 33 22 be c9 79 fe 3e
       0.3050128 -0.2850528 -0.15840107 0.4970229
000100 37 ec ad be 4a 0f d9 3e ea 25 fe 3c ab 9a f1 3d
       -0.3396928 0.42394477 0.031023938 0.11797079
000110 2f ae 4a be 15 cb 6e be 56 7b b6 be 28 f1 24 3c
       -0.19793008 -0.23319657 -0.35640973 0.010067262
000120 5e b8 20 bd 72 92 00 3f b5 ab 3e 3e ac ad 90 3e
       -0.039238326 0.5022346 0.18620189 0.282575
000130 7f c7 85 be 3b c7 72 be bd 87 29 3e 5d da 52 3e
       -0.26128766 -0.23708813 0.16555686 0.20591111
000140 26 89 20 3e 1d 17 be be 1b 57 36 3e 06 dc 10 be
       0.15677318 -0.3712701 0.17806666 -0.14146432
000150 58 8c ba be 7c 70 92 bd 2c a8 15 be 36 64 dd 3e
       -0.364352 -0.07150361 -0.14614934 0.43240517
000160 96 b7 1a 3e 4a 1b 87 be 2b 6a ab 3d da 36 9b bd
       0.15109095 -0.26388007 0.08369859 -0.075788215
000170 d3 22 79 be 85 c2 5d 3e 9c dd 9f bd 3b 49 09 be
       -0.2432969 0.21656235 -0.078059405 -0.13406841
000180 bf 48 6e 3e eb ee ac 3e c1 6a 02 bd 51 ea ac be
       0.23269938 0.3377603 -0.03184009 -0.3377252
000190 73 41 0c 3f e1 69 9b be 87 8e 7a be 1d 52 67 3e
       0.5478737 -0.30354217 -0.24468432 0.22589917
0001a0 e6 f3 43 be 82 71 4c 3e e0 1a 50 be 35 26 93 3e
       -0.19136009 0.19965175 -0.20322752 0.28740087
0001b0 77 bd e7 3e 28 78 ee be f1 29 bb 3e a7 cd 94 be
       0.45261738 -0.46576047 0.36555436 -0.2906315
0001c0 6e d1 82 be 14 80 3a 3e 36 83 bd 3e 6f 1c 25 be
       -0.25550407 0.1821292 0.37014169 -0.16124128
0001d0 d7 58 8f be 12 fc a8 3e 46 cd fc 3d ee 8e 5a 3e
       -0.27997467 0.33004814 0.1234384 0.21343586
0001e0 a8 9f 58 3e 69 77 ac 3e fe 88 97 be 49 7e ec be
       0.21154654 0.33684853 -0.29596704 -0.46190098
0001f0 53 6e 85 be 6b 54 59 be 14 40 f7 3c b3 2e 0f 3e
       -0.26060733 -0.21223609 0.030181922 0.13982658
000200 b8 0d 17 be 7b 25 ac 3e 84 dc 3f 3e ca 71 fd 3e
       -0.14751327 0.33622345 0.18736464 0.49500877
000210 19 4a a5 be a0 44 ff 3d 25 0e b8 3e 93 b8 37 be
       -0.32283095 0.12464261 0.3594829 -0.17941503
000220 48 ec de 3e 9d 34 df be a0 f2 97 be f3 3b 03 bd
       0.43539643 -0.43594828 -0.29677296 -0.032039594
000230 3c 2d 19 3e 2e 8a 75 be 39 d6 a9 3e 2d 41 0d 3c
       0.14958662 -0.23978493 0.3317125 0.008621496
000240 92 09 3d 3e cb 31 08 be 77 db 92 be 0b f0 73 3e
       0.18460682 -0.13300245 -0.28683063 0.23822038
000250 ff 36 41 3e 14 3e b5 3e f3 df 4a 3e 9c ad 18 3e
       0.18868636 0.35398924 0.19811992 0.14909977
000260 ae 62 9d bd c0 05 cf bd 78 b4 73 bc 6b 02 b0 bc
       -0.07684837 -0.101085186 -0.01487457 -0.021485528
000270 b3 7c 90 3d 8d b2 15 3d 84 5c c5 3e 34 04 b7 3d
       0.070550345 0.036547232 0.38547146 0.089363486
000280 fa b5 11 3e 38 46 6a be 6b 8d 80 bd 1e b1 88 3e
       0.14229575 -0.22878349 -0.06276973 0.2669763
000290 6c 62 b9 3d e5 f6 4d be ba 4d a8 bd e8 99 51 be
       0.090519756 -0.20113714 -0.0821795 -0.20468867
0002a0 03 ba 5b be 3b f1 14 3e da c6 1f bb 35 32 e5 3b
       -0.21457677 0.14545147 -0.002438 0.0069945105
0002b0 f4 ac 11 be 28 e5 35 3d bd 8d 08 3e ba c6 59 be
       -0.14226133 0.044407994 0.13335319 -0.21267214
0002c0 f5 96 37 3e b3 29 06 bd 28 5e 68 3e 66 34 04 3f
       0.1792868 -0.03275461 0.22692168 0.51642454
0002d0 ac 7a 42 be 11 ef db 3e 00 23 9b 3d 68 20 7a 3e
       -0.18992108 0.4295583 0.07575035 0.24426425
0002e0 71 93 cc bd cb f8 70 be 4a 56 53 be 9c 89 0f be
       -0.0998906 -0.23532407 -0.20638385 -0.14017338
0002f0 f8 8a 3c be c8 b3 dc bd 96 32 eb 3d 89 f8 98 3e
       -0.18412387 -0.10776478 0.11484258 0.29877117
000300 24 55 b3 3d 78 bb 85 3d 39 72 69 3e 24 f0 a0 be
       0.08756474 0.065298975 0.22797479 -0.31433213
000310 33 b8 a9 bd f1 12 21 be 42 ba 7e 3e c6 af a8 bd
       -0.08287086 -0.15729882 0.24875739 -0.08236651
000320 39 46 aa be d2 47 c1 3e d9 61 b1 bd 64 bb 2c bd
       -0.332567 0.37750107 -0.08661241 -0.042170897
000330 54 56 d7 3d ba 3b 99 bd 74 b0 a0 bc 48 20 41 be
       0.10514513 -0.07482095 -0.01961539 -0.1885997
000340 fd 37 40 bb 0c 13 c5 3e ac 70 b7 bc d8 8b a4 bb
       -0.0029330247 0.38491094 -0.022392593 -0.0050215535
000350 d1 11 c8 3d b7 7a 13 3e 33 c2 a1 bc 62 b3 6c 3e
       0.09769023 0.14402281 -0.019745922 0.23115304
000360 0c b9 00 3e 6f 39 13 3e d1 ee d3 bd 1d 01 42 be
       0.1257059 0.14377378 -0.10348285 -0.18945737
000370 19 f7 d4 bd ce ff e4 3c 97 55 1c be 6f 18 b3 3e
       -0.10398693 0.027954008 -0.15267025 0.3497958
000380 b8 80 f8 3d b3 44 4a 3e bb f5 81 bd f0 90 af bd
       0.12133926 0.19752769 -0.063456975 -0.085725665
000390 70 a7 00 3e b1 92 2e 3b 26 1a 0d 3d 7a 0f 0e be
       0.12563872 0.0026637728 0.034448765 -0.13873091
0003a0 59 0e bb 3d 5a 8a d1 bd 49 8c 5f be 5e 5c a8 bb
       0.09133596 -0.102314666 -0.21830858 -0.005137964
0003b0 2e 43 55 be 7a 9e 79 3e 00 87 68 3e 14 41 d1 bd
       -0.20826408 0.2437686 0.22707748 -0.10217491
0003c0 19 d4 43 bd de 3d d3 bc c5 35 8d bd c5 61 1e bd
       -0.047809694 -0.025786337 -0.06895021 -0.03866746
0003d0 d4 be 2a be b9 78 0a 3e 50 9f b1 3d dd 2b cf 3c
       -0.16674358 0.13522615 0.086729646 0.02528947
0003e0 55 58 0d bd a7 41 a8 bd 0c 65 10 3d 1d 0a 5c 3d
       -0.034508068 -0.08215647 0.035252616 0.053720582
0003f0 bd 38 7d 3d f7 b3 6a 3e 1d 88 c7 bd 9f ba 29 3f
       0.061821688 0.22920214 -0.097427584 0.66300386

rnn.bias_ih_l1 f4 [50]
000000 fd 16 29 3e aa ae 37 be c8 a6 1a 3e ce 1b d8 3e
       0.16512676 -0.17937723 0.15102684 0.42208713
000010 ef 7b 72 be ea 11 48 3e 96 6e e5 be f2 11 93 bd
       -0.2368009 0.19538084 -0.44810933 -0.07181157
000020 01 aa 99 bd ac 39 1f be a3 50 85 3e 73 8d 87 bd
       -0.07503129 -0.15549344 0.26038083 -0.06618776
000030 a4 57 84 be 20 55 98 3e 56 08 ef 3e b8 c7 b5 3c
       -0.25848114 0.29752445 0.46686047 0.02218996
000040 72 73 86 be 94 74 8e 3e 18 92 a3 3e 34 9f 6f 3e
       -0.26259953 0.27823317 0.31947398 0.23400575
000050 f5 aa 00 bd 9e 32 86 be 8d fe 9e bd 38 fc e8 3b
       -0.031413037 -0.26210493 -0.077633955 0.007110145
000060 ca dc 3a bd 80 50 2d be 5d fe 6d 3e fb 3f a4 3e
       -0.045620717 -0.1692524 0.23241563 0.32080063
000070 dd 52 c8 bd c0 79 24 3e cf 53 a8 3e 48 e9 89 bc
       -0.0978143 0.16062069 0.3287644 -0.01683487
000080 25 58 3f be d8 65 20 3e 80 9b 5a 3e 4a ff 8c be
       -0.18685968 0.1566385 0.21348381 -0.2753852
000090 8a ee 98 bc 07 e8 78 bc 09 6c 85 be ab 5e 48 be
       -0.018668432 -0.015192038 -0.26058987 -0.19567363
0000a0 7e c3 7e 3d 54 a6 24 be 50 81 80 3c 8b 7d 9c 3d
       0.062198155 -0.16079074 0.015686661 0.07641133
0000b0 0c eb f3 3e 5f 51 82 be 46 d3 41 be f0 f0 50 bb
       0.47640264 -0.25452706 -0.1892825 -0.0031881891
0000c0 41 23 bb 3e 83 28 e0 3d
       0.36550334 0.10945227

rnn.bias_hh_l1 f4 [50]
000000 7f 9b bb 3e a2 8d b4 bd e6 7d 99 3c f7 76 a6 3e
       0.36642072 -0.08816077 0.01873679 0.32512638
000010 f4 1a 85 be e7 c5 86 3e ce 7a 0f bf 7d bf 27 3d
       -0.25997126 0.26322863 -0.5604676 0.0409541
000020 a8 18 a5 bd 11 c2 c0 bb aa b8 fb 3d 6f af c2 bd
       -0.080613434 -0.0058825095 0.12291081 -0.095061176
000030 a0 dc a1 be e4 d9 d7 3e 8a 1f 68 3e ed a1 0a be
       -0.31613636 0.42158425 0.22668281 -0.13538332
000040 e4 98 98 be e2 ea 98 3e ca 8a 4a 3e 81 7a a7 3d
       -0.29804146 0.298667 0.19779506 0.08177663
000050 1b 9a 28 bd 39 98 00 be 64 e5 59 be 9f 7c 1e be
       -0.04116259 -0.12558068 -0.21278912 -0.15477227
000060 ac dc c7 bd 4f 71 08 be 72 21 d1 3e 41 6e 0c 3e
       -0.09758887 -0.13324474 0.4084583 0.13713934
000070 f7 1c 11 be 86 e6 c1 3d c8 05 bf 3e 4d bc 93 bc
       -0.14171205 0.09467797 0.37309098 -0.018034125
000080 93 c6 89 3d bf 61 2b 3e c0 52 8d 3e 8c 9a 34 bd
       0.06727328 0.16736506 0.27602196 -0.0440927
000090 77 56 e1 bc ba f2 80 3d 7e 28 65 be f7 fe 89 be
       -0.02750705 0.062962964 -0.22378728 -0.26952335
0000a0 30 f5 51 3e 03 42 5c be 39 8a d8 3d c3 ca f2 3d
       0.20503688 -0.21509556 0.10573239 0.1185508
0000b0 fc 60 23 3f 4f 75 6e be 68 61 97 be 05 51 f4 bc
       0.6381986 -0.23286937 -0.29566503 -0.02982379
0000c0 94 68 00 3f ff 63 02 3a
       0.50159574 0.0004974007

fc.weight f4 [1, 50]
000000 d6 07 c0 3d f3 c2 16 be 67 7a ef 3c 6b d1 47 be
       0.093764946 -0.14722805 0.02923317 -0.1951348
000010 89 bd ad bd dd cb eb bd 54 4d 3b 3d d6 02 95 3c
       -0.084834166 -0.11513493 0.045728043 0.018189829
000020 20 3c 9e bd 4a d7 b4 bd 3c 3d a4 3d 28 73 7f 3c
       -0.07726312 -0.08830126 0.08019492 0.01559142
000030 9d 3e 25 3d 51 47 eb bd 4d d5 08 3d cd 25 0e 3e
       0.040342916 -0.11488212 0.033406544 0.13881607
000040 10 91 e5 3c 1e 6d 08 3e 1e b7 9d be d8 63 97 bd
       0.028023273 0.13322875 -0.3080377 -0.073920906
000050 0e 5a 79 3b 94 10 25 3d 81 c9 4d bc 98 56 fe bd
       0.0038048062 0.040299013 -0.012560249 -0.1241886
000060 b5 a5 8c bc fc b3 4b bb 48 37 3a bd ed ad 2c 3d
       -0.017168859 -0.003108262 -0.045462877 0.042158056
000070 58 d6 a5 bd 07 ae bf bd c1 f6 69 be 08 4f 95 3d
       -0.080975235 -0.09359365 -0.22848035 0.07290465
000080 f9 c0 b0 3d 01 e4 26 3c d5 13 d4 3d e2 7c 7d 3e
       0.086305566 0.010186196 0.10355345 0.2475467
000090 3b ea 7d bd 6e d7 d1 be c8 52 21 be 85 6f d5 bd
       -0.061990958 -0.40984672 -0.15754235 -0.10421661
0000a0 d1 24 b6 3c d8 81 86 be ef 43 25 3d a6 f2 8e 3e
       0.022234352 -0.26270938 0.04034799 0.279195
0000b0 fa a8 7c bd 2e b7 65 bb 51 16 5a 3d 9f 8c 9f 3a
       -0.061684586 -0.003505181 0.05324394 0.0012172646
0000c0 85 d7 36 be 73 f0 b6 3a
       -0.17855652 0.0013957157
