Networks/BTRST-EUR/bidSeed2.pt (torch, 33123 bytes, 9 tensors)

rnn.weight_ih_l0 f4 [50, 1]
0.41118407 -0.59624356 1.439677 -3.403584 0.17516406 -1.6476191 -1.892722 0.69773316
1.1112963 0.32565594 0.3462753 -0.13583025 0.04525838 0.4702448 -0.14719832 -0.022558436
-0.32544458 -0.49613187 0.3727239 0.010341148 0.54635704 -0.22245584 2.188844 -1.3951215
-0.0258198 0.07983439 -0.97399044 -0.44918177 -1.4874166 -0.03214369 -0.542167 -0.058564257
-0.26483923 0.22957799 0.4776839 -0.4225584 -0.516682 -0.32353985 -0.17114367 0.40478268
0.39357156 -1.9149355 -0.46015048 -0.74625516 0.4200726 -0.061758623 1.8037946 -0.48156446
-0.6273004 0.16112992
00000000: b886 d23e 6ba3 18bf 5647 b83f 52d4 59c0
00000010: 355e 333e 2fe5 d2bf b744 f2bf a49e 323f
00000020: f53e 8e3f 60bc a63e ff4a b13e 1617 0bbe
00000030: da60 393d edc3 f03e 28bb 16be 78cc b8bc
00000040: aca0 a6be ff04 febe abd5 be3e eb6d 293c
00000050: 0ede 0b3f 77cb 63be 0516 0c40 5793 b2bf
00000060: 0c84 d3bc 3680 a33d 7057 79bf 27fb e5be
00000070: ab63 bebf 1aa9 03bd 75cb 0abf 13e1 6fbd
00000080: 0299 87be 7e16 6b3e fc92 f43e 9359 d8be
00000090: 4645 04bf 04a7 a5be 4940 2fbe ad3f cf3e
000000a0: 3682 c93e 9b1c f5bf d898 ebbe 940a 3fbf
000000b0: c113 d73e 9cf6 7cbd bee2 e63f 9e8f f6be
000000c0: c296 20bf 3eff 243e

rnn.weight_hh_l0 f4 [50, 50]
-0.42701125 -0.0075242333 -0.13647804 0.058532346 -0.23389544 -0.112346895 -0.07420085 -0.26491264
-0.4949841 -0.20128058 -0.1930608 0.09870734 -0.30801892 -0.5129782 0.23601411 0.4682899
-0.294474 0.107089095 0.012488335 -0.14426036 -0.030666528 0.0010882879 -0.0036013422 0.03240633
-0.015081321 0.0012327856 -0.15207964 0.48142532 0.24926983 0.45909494 0.2875787 0.05143616
-0.20258176 -0.42490682 -0.17773497 0.45762092 0.045714337 0.45946002 0.29972178 0.1487725
-0.13772668 0.08038087 0.110197 0.22987707 -0.52458245 0.0989204 -0.12774214 0.0031320236
0.20449243 -0.14530818 -0.39682853 0.23988101 -0.6366979 -0.18515413 -0.19445632 -0.55063295
-0.6230806 -0.2902302 -0.14352536 -1.0343852 -0.36634383 0.20220798 -0.5152393 -0.65817946
0.21150789 0.24845403 -0.46206927 0.34988716 0.34160513 -0.48046112 -0.003646932 0.2199334
0.038943008 0.063001685 0.14566723 -0.23732784 0.1602054 0.7528854 0.5597302 0.7897398
0.47530836 0.35553345 -0.39669526 -0.7275308 -0.33539966 0.80107754 0.0742924 0.6799701
0.05109898 0.47097242 -0.5357743 0.4245056 0.08369994 0.27244368 -0.5605236 0.33240885
0.41270435 0.017472344 0.33527148 -0.33217528 -0.062475946 -0.82297385 0.35121685 -0.47157848
0.9425439 0.03313363 0.19583566 -0.0453429 -0.9000826 1.1824545 -0.01828312 0.14662494
0.34425494 -0.17762828 0.20051269 0.87616825 0.43981028 -1.0304343 -0.969931 0.8644103
-0.20752338 -0.7964701 -0.19011872 0.38847512 -0.15626289 0.9237174 0.25911716 -0.0068537747
-0.11575046 0.35762498 -0.0716168 -0.75871706 0.84294015 -0.3827581 0.77153313 0.20224802
0.12163965 0.23829949 0.24323666 -0.3813755 -0.10297446 -0.5012174 0.21493387 0.12766226
-0.14001778 -0.9225766 -0.71094275 0.17324257 -0.8326057 -0.14850864 0.4954529 0.031306513
-0.43132168 0.53369576 0.1509496 1.0426747 0.44684273 0.23247354 -0.12277638 -0.39159864
0.36456767 0.23026644 -0.01824308 -0.22015263 -0.14447801 0.08012268 0.10951487 0.06581219
0.15208483 0.18766618 -0.26867723 0.31461722 0.36054793 0.29964596 -0.2429975 0.05236454
-0.03297463 0.28838637 0.07111687 0.13653605 -0.1238333 0.062673986 -0.27058318 -0.13381022
-0.510173 0.20361671 0.43438905 0.23935309 -0.17849329 0.04873672 0.27872533 0.26393518
0.31594926 -0.3745055 -0.1852229 -0.20360748 -1.2127131 0.12961613 -0.07990376 0.28687486
0.12937579 0.15866317 0.12942348 0.0420842 -0.4092588 0.06384531 0.2862684 -0.19100887
0.0079565495 -0.24806708 -0.006365921 -0.33140504 -0.47633645 0.27897665 -0.03247229 -0.34670314
-0.34959015 0.25394014 0.3564061 -0.46699837 0.30674234 0.43004262 0.0656725 -0.114066765
0.21111988 -0.22451533 -0.17385015 -0.13068557 0.23861909 -0.2889775 0.090723984 0.3250918
-0.4526705 0.2675244 -0.47532666 -0.2766931 -0.15620135 -0.081042476 -0.22821449 0.21213636
0.06260936 0.34634688 -0.30937666 0.22200766 0.1994366 0.42515406 -0.052465916 0.023743404
0.4223507 -0.082893 -0.16815515 -0.25207305 -0.454756 0.5241232 0.051805113 -0.27789542
00000000: 38a1 dabe d88d f6bb e6c0 0bbe 9dbf 6f3d
00000010: 4982 6fbe 2116 e6bd 9ef6 97bd a1a2 87be
00000020: 8e6e fdbe 7f1c 4ebe bbb1 45be 1327 ca3d
00000030: a8b4 9dbe 8a52 03bf afad 713e b2c3 ef3e
00000040: 4cc5 96be 8751 db3d e09b 4c3c fdb8 13be
00000050: 5f38 fbbc e2a4 8e3a 7f04 6cbb 80bc 043d
00000060: a517 77bc 6c95 a13a c4ba 1bbe 617d f63e
00000070: 9740 7f3e 7e0e eb3e 843d 933e b9ae 523d
00000080: 9871 4fbe 638d d9be 2800 36be 4a4d ea3e
00000090: f53e 3b3d 583e eb3e 2275 993e d157 183e
000000a0: 3908 0dbe ba9e a43d f7ae e13d e564 6b3e
000000b0: 094b 06bf c796 ca3d d6ce 02be a342 4d3b
000000c0: 7766 513e abcb 14be 1c2d cbbe 5ea3 753e
000000d0: a2fe 22bf 0b99 3dbe 8f1f 47be 48f6 0cbf
000000e0: 3682 1fbf 0e99 94be 50f8 12be bc66 84bf
000000f0: 6b91 bbbe 9c0f 4f3e b9e6 03bf 737e 28bf
00000100: 8695 583e bc6a 7e3e 5894 ecbe 6924 b33e
00000110: dee6 ae3e 00ff f5be 5e01 6fbb 3936 613e
00000120: b482 1f3d 0707 813d ca29 153e 1206 73be
00000130: e20c 243e 19bd 403f 7a4a 0f3f 632c 4a3f
00000140: 9e5b f33e 7b08 b63e a41b cbbe 753f 3abf
00000150: 81b9 abbe 6b13 4d3f 9d26 983d 8512 2e3f
00000160: 2a4d 513d 4c23 f13e 8128 09bf cc58 d93e
00000170: e06a ab3d bd7d 8b3e 7a7e 0fbf 7e31 aa3e
00000180: fc4d d33e 2922 8f3c b4a8 ab3e e112 aabe
00000190: c7e6 7fbd 6aae 52bf b2d2 b33e bc72 f1be
000001a0: 8f4a 713f 21b7 073d 2589 483e 7ab9 39bd
000001b0: d06b 66bf ab5a 973f 7bc6 95bc d924 163e
000001c0: 2f42 b03e 30e4 35be 3353 4d3e 904c 603f
000001d0: d02e e13e 45e5 83bf 664d 78bf fe49 5d3f
000001e0: 0281 54be 77e5 4bbf 7bae 42be 36e6 c63e
000001f0: 6103 20be be78 6c3f 01ab 843e a195 e0bb
00000200: 940e edbd 9f1a b73e d4ab 92bd 483b 42bf
00000210: edca 573f dff8 c3be 3283 453f 1b1a 4f3e
00000220: 351e f93d c804 743e 0813 793e a643 c3be
00000230: 46e4 d2bd c94f 00bf a017 5c3e e5b9 023e
00000240: d260 0fbe fb2d 6cbf 5800 36bf 8066 313e
00000250: a625 55bf a612 18be 01ac fd3e 423b 003d
00000260: 32d6 dcbe 49a0 083f 8892 1a3e 5d76 853f
00000270: 92c8 e43e 8b0d 6e3e 2f72 fbbd 9e7f c8be
00000280: 9da8 ba3e f7ca 6b3e 8372 95bc b16f 61be
00000290: 0bf2 13be 5c17 a43d 5549 e03d 8bc8 863d
000002a0: 20bc 1b3e 902b 403e 1090 89be 8215 a13e
000002b0: bd99 b83e 326b 993e 56d4 78be 337c 563d
000002c0: 6810 07bd 61a7 933e b9a5 913d 1bd0 0b3e
000002d0: 509c fdbd 385b 803d e189 8abe 8c05 09be
000002e0: b39a 02bf e680 503e 3e68 de3e fa18 753e
000002f0: f2c6 36be 28a0 473d 16b5 8e3e 8322 873e
00000300: 1ac4 a13e 2fbf bfbe 12ab 3dbe 7b7e 50be
00000310: 2f3a 9bbf 17ba 043e 95a4 a3bd 43e1 923e
00000320: 167b 043e 9978 223e 9787 043e 7b60 2c3d
00000330: 5f8a d1be 54c1 823d c691 923e d497 43be
00000340: 305c 023c 4c05 7ebe 3799 d0bb ecad a9be
00000350: 5fe2 f3be 07d6 8e3e aa01 05bd 1383 b1be
00000360: 7bfd b2be 7104 823e dc7a b63e 691a efbe
00000370: 550d 9d3e 8c2e dc3e 4e7f 863d d69b e9bd
00000380: cf2f 583e 59e7 65be c605 32be 70d2 05be
00000390: 9058 743e dcf4 93be 7fcd b93d 6f72 a63e
000003a0: 6ec4 e7be f5f8 883e 045e f3be b8aa 8dbe
000003b0: 3ff3 1fbe 99f9 a5bd 0fb1 69be 463a 593e
000003c0: 5639 803d 6154 b13e 9e66 9ebe fa55 633e
000003d0: 1c39 4c3e cbad d93e 80e6 56bd 8781 c23c
000003e0: 5a3e d83e cec3 a9bd dd30 2cbe b80f 81be
000003f0: c7d5 e8be f02c 063f 9931 543d 4f48 8ebe

rnn.bias_ih_l0 f4 [50]
-0.21649651 -0.7720748 0.21267329 0.26208323 -0.15339617 0.40692112 -0.11904719 -0.2893298
0.16187616 0.6105854 0.031453013 -0.2651885 -0.185712 -0.047091685 0.17413394 0.044425044
-0.15460254 -0.20117411 0.14982446 -0.1242508 0.15253592 0.07586049 -0.09077755 -0.012682871
-0.16477087 -0.23802763 0.054817542 -0.28490332 -0.11734221 -0.12777896 0.0821114 0.25669384
-0.26022252 -0.10798161 0.074450806 -0.17638995 0.09856086 -0.0056134793 0.13669388 0.13861452
-0.12064478 -0.36343458 0.01523537 0.15805782 -0.000872806 0.1442719 -0.005858477 0.42511788
-0.09306463 -0.43838736
00000000: 43b1 5dbe b2a6 45bf 07c7 593e c62f 863e
00000010: e313 1dbe f757 d03e 03cf f3bd 0923 94be
00000020: ddc2 253e 534f 1c3f e0d4 003d c9c6 87be
00000030: 492b 3ebe 36e3 40bd 2b50 323e 09f7 353d
00000040: 2150 1ebe 9600 4ebe 956b 193e 3477 febd
00000050: 6032 1c3e bf5c 9b3d 95e9 b9bd d1cb 4fbc
00000060: b2b9 28be 84bd 73be 5c88 603d d9de 91be
00000070: 1d51 f0bd 7dd8 02be 062a a83d 606d 833e
00000080: e33b 85be 7625 ddbd aa79 983d 919f 34be
00000090: 47da c93d 47f1 b7bb 7bf9 0b3e f7f0 0d3e
000000a0: 9c14 f7bd 1914 babe c69d 793c e9d9 213e
000000b0: 05cd 64ba 03bc 133e 78f8 bfbb 0da9 d93e
000000c0: ab98 bebd 4f74 e0be

rnn.bias_hh_l0 f4 [50]
-0.36569342 -0.74550694 0.23032965 0.3770158 -0.26487032 0.22427186 -0.1907295 -0.28188857
0.39948213 0.63625467 0.15655711 -0.24103266 -0.20848046 0.0060026003 0.14778842 -0.08903267
-0.09469571 -0.1089903 0.3808863 0.013790328 0.089472614 0.23550855 -0.12758416 0.030872755
0.00055044924 -0.21584122 0.24042715 -0.17161702 -0.01047465 0.06331626 0.1871476 0.38705346
-0.29464218 0.09917226 -0.07185709 -0.086702816 0.053607356 0.022557912 0.07050109 0.13409196
-0.04895694 -0.5866265 -0.09235896 0.22931159 0.005382523 0.29689708 -0.06976293 0.25139332
-0.013402323 -0.36415523
00000000: 2b3c bbbe 8bd9 3ebf 89db 6b3e 3708 c13e
00000010: 159d 87be 86a7 653e 984e 43be b353 90be
00000020: ec88 cc3e 96e1 223f 8250 203e 44d1 76be
00000030: e77b 55be 76b1 c43b d955 173e c356 b6bd
00000040: d3ef c1bd 4e36 dfbd 8703 c33e d4f0 613c
00000050: 6b3d b73d 2729 713e 6ca5 02be dce8 fc3c
00000060: 064c 103a 7b05 5dbe 8932 763e 5fbc 2fbe
00000070: de9d 2bbc f5ab 813d 9fa3 3f3e df2b c63e
00000080: 57db 96be d31a cb3d cf29 93bd 3f91 b1bd
00000090: 6393 5b3d 5fcb b83c e062 903d 674f 093e
000000a0: 1387 48bd 282d 16bf b226 bdbd a8d0 6a3e
000000b0: e05f b03b e502 983e dedf 8ebd a0b6 803e
000000c0: 6b95 5bbc 8e72 babe

rnn.weight_ih_l1 f4 [50, 50]
-0.055084527 -0.17013136 -0.040956937 -0.05322159 -0.11618304 -0.034749657 -0.15903592 -0.02219478
-0.030625006 -0.064361796 -0.30621615 0.17244245 -0.050387274 -0.4668018 0.45566487 -0.04510194
-0.0096974075 -0.058170237 0.031044299 -0.15137875 -0.17917004 -0.018112395 -0.13931459 0.14760828
-0.30401957 -0.15684776 0.17920929 0.1949044 0.34514153 0.24107571 0.22658812 0.01205598
-0.08717791 -0.018656347 0.050225336 0.22414535 0.3026669 0.2457377 0.46217722 -0.04118431
-0.15136792 0.1376601 0.19186117 0.4096812 -0.25583518 0.15119815 -0.008964994 -0.07009175
0.037424274 -0.45037782 0.26413134 -0.075639546 -0.2199899 -0.11261807 0.3210686 0.19270968
0.18997414 0.24694744 0.021428365 0.2461389 0.2466462 -0.17186156 0.31307477 -0.019154249
-0.12716953 -0.020944573 0.15443209 -0.10372715 -0.09030886 0.28015405 0.1538946 -0.20863605
0.7239994 -0.048501663 -0.06652578 0.26043627 0.20513982 -0.024730118 -0.925757 -0.06591577
-0.4486592 -0.25168088 0.336509 0.06583227 0.30269307 -0.0960622 -0.10752575 -0.0937291
-0.030840624 -0.17396677 0.53675413 -2.1679218 0.076774426 -0.34090027 0.03329043 -0.2233204
-0.09296497 0.08618888 -0.2906756 0.27964345 -0.2846538 -0.15847208 0.1331868 -0.24350247
-0.26894814 -0.10413036 -0.24456 -0.3103372 0.05051508 -0.44613823 -0.51062894 0.15863696
-0.2135767 -0.4136478 0.3298749 -0.32009822 -0.38296413 0.25578275 0.42011577 -0.3831693
-0.18676639 0.35405836 0.3725493 0.06193209 -0.36608717 -0.3271949 -0.22626501 0.17072076
0.61647856 0.26589954 0.41368186 0.23602855 -0.38671136 -0.361682 -0.21319093 0.32899785
0.07019612 0.15166825 0.32611442 0.4124891 -0.41516086 0.18814594 0.29420394 0.32369703
-0.23433936 0.3124471 0.34175214 -0.21196564 0.08282244 -0.6838981 -0.089520425 0.16244555
-0.028096512 -1.5250468 0.07050305 0.04591238 -0.0814563 0.0063596684 0.23272842 0.58011633
-0.0018014057 0.31021026 -0.13464196 -0.30758667 -0.17256953 0.10337335 0.12677737 -0.07821884
-0.21476021 -0.0587448 -0.39700255 -0.071517944 -0.13612293 0.0712246 -0.42673084 0.06426469
0.22854356 0.65513706 -0.24033949 0.66073006 -0.3029551 -0.11340091 0.054859515 -0.7213916
0.035431255 0.33000052 0.2709037 0.3815353 0.29071072 -0.26361156 0.113857426 -0.011723545
0.42754933 -0.06397951 -0.2760309 0.32378232 1.5474507 -0.033058703 -0.042569067 0.2383022
-0.047693405 0.37077355 -0.4039772 -0.70126235 0.5216021 0.38764873 -0.04037955 0.770564
-0.072388485 0.74842834 0.38658416 -0.005668375 0.4961976 0.14164154 -0.08606689 0.32064646
0.493757 -0.2898803 -0.3171387 0.41147372 0.1797887 -0.45974335 -0.4048275 -0.41269085
0.14158496 0.55706763 0.45816895 -0.14697997 -0.7220985 -0.1859548 -0.68626946 -0.39651525
0.4093541 0.13853256 0.2352432 -0.19993497 -0.14671843 -0.15303451 -0.16526195 -0.55501443
0.34616163 -0.6525032 -0.2552697 -0.5886116 0.23276816 -0.3834633 -0.014826084 0.6918999
-0.5813795 0.44570896 0.26930967 0.35644534 -0.17289221 -0.85882914 0.46000183 0.06106232
00000000: 50a0 61bd ea36 2ebe 76c2 27bd e2fe 59bd
00000010: 60f1 edbd a855 0ebd 50da 22be d4d1 b5bc
00000020: 4be1 fabc 1ed0 83bd 5dc8 9cbe c194 303e
00000030: e362 4ebd a500 efbe e84c e93e d0bc 38bd
00000040: e0e1 1ebc ea43 6ebd 9d50 fe3c 0803 1bbe
00000050: 5a78 37be 7260 94bc 7ca8 0ebe a026 173e
00000060: 74a8 9bbe b39c 20be a482 373e 0595 473e
00000070: 64b6 b03e 8ddc 763e b706 683e 7286 453c
00000080: 558a b2bd 32d5 98bc 15b9 4d3d 5c86 653e
00000090: 28f7 9a3e aaa2 7b3e 7ea2 ec3e e1b0 28bd
000000a0: 3100 1bbe c5f6 0c3e 4177 443e bcc1 d13e
000000b0: d4fc 82be b0d3 1a3e e9e1 12bc 438c 8fbd
000000c0: 324a 193d ec97 e6be 393c 873e e8e8 9abd
000000d0: 0845 61be 4da4 e6bd 1b63 a43e b055 453e
000000e0: 9588 423e cadf 7c3e 8a8a af3c d60b 7c3e
000000f0: d290 7c3e 7afc 2fbe 564b a03e 5fe9 9cbc
00000100: bb38 02be f493 abbc 7223 1e3e e66e d4bd
00000110: daf3 b8bd 5a70 8f3e 8c96 1d3e b0a4 55be
00000120: 0658 393f aea9 46bd ab3e 88bd e757 853e
00000130: 2c10 523e d196 cabc 69fe 6cbf d9fe 86bd
00000140: a9b6 e5be 51dc 80be e84a ac3e 12d3 863d
00000150: 96fa 9a3e 42bc c4bd 7636 dcbd 0bf5 bfbd
00000160: 7aa5 fcbc 5824 32be b868 093f 3bbf 0ac0
00000170: e93b 9d3d 7b8a aebe 8c5b 083d 1aae 64be
00000180: 6b64 bebd cc83 b03d 6fd3 94be 6d2d 8f3e
00000190: 25be 91be 8146 22be 1f62 083e b658 79be
000001a0: 92b3 89be 4c42 d5bd f06d 7abe 84e4 9ebe
000001b0: e7e8 4e3d 3b6c e4be 94b8 02bf ba71 223e
000001c0: dab3 5abe a5c9 d3be 5de5 a83e eae3 a3be
000001d0: e013 c4be f5f5 823e 6a19 d73e c42e c4be
000001e0: b03f 3fbe 2347 b53e c8be be3e 81ac 7d3d
000001f0: c76f bbbe 1786 a7be 04b2 67be 6cd1 2e3e
00000200: 8ad1 1d3f fc23 883e 1cce d33e 78b1 713e
00000210: 08ff c5be 622e b9be b94e 5abe 6872 a83e
00000220: fcc2 8f3d ec4e 1b3e 78f8 a63e c531 d33e
00000230: f78f d4be 54a9 403e e6a1 963e 9ebb a53e
00000240: a8f6 6fbe 11f9 9f3e 23fa ae3e 850d 59be
00000250: d09e a93d f213 2fbf 7c56 b7bd 2058 263e
00000260: a82a e6bc bc34 c3bf e763 903d 9f0e 3c3d
00000270: 90d2 a6bd c464 d03b 5c50 6e3e 8182 143f
00000280: 251d ecba e1d3 9e3e 95df 09be 007c 9dbe
00000290: 11b6 30be 68b5 d33d edd1 013e 3331 a0bd
000002a0: 1aea 5bbe 639e 70bd eb43 cbbe 0078 92bd
000002b0: cf63 0bbe 34de 913d 777c dabe 359d 833d
000002c0: 5307 6a3e 10b7 273f 8e1b 76be 9b25 293f
000002d0: ee1c 9bbe bc3e e8bd 5fb4 603d 1fad 38bf
000002e0: 5d20 113d d4f5 a83e e4b3 8a3e 9858 c33e
000002f0: 09d8 943e 18f8 86be 152e e93d 1d14 40bc
00000300: bfe7 da3e b007 83bd ec53 8dbe ccc6 a53e
00000310: dd12 c63f 9068 07bd e75c 2ebd 7e05 743e
00000320: 295a 43bd 08d6 bd3e 19d6 cebe ee85 33bf
00000330: b787 053f e579 c63e 0765 25bd af43 453f
00000340: 6a40 94bd 0099 3f3f 5cee c53e c7bd b9bb
00000350: 9d0d fe3e 7b0a 113e d643 b0bd c62b a43e
00000360: b8cd fc3e 316b 94be 0160 a2be afac d23e
00000370: 871a 383e 7b63 ebbe 8d45 cfbe 374c d3be
00000380: a6fb 103e fc9b 0e3f 1f95 ea3e eb81 16be
00000390: 73db 38bf ef6a 3ebe 5baf 2fbf 0c04 cbbe
000003a0: dc96 d13e 7bdb 0d3e 98e3 703e c1bb 4cbe
000003b0: 5b3d 16be 14b5 1cbe 6e3a 29be 6d15 0ebf
000003c0: 193c b13e 730a 27bf b6b2 82be 40af 16bf
000003d0: c75a 6e3e 4d55 c4be 1ae9 72bc 5a20 313f
000003e0: 49d5 14bf f733 e43e f5e2 893e 0180 b63e
000003f0: a80a 31be 3adc 5bbf 5c85 eb3e 7c1c 7a3d

rnn.weight_hh_l1 f4 [50, 50]
-0.05837005 -0.16664557 0.123752974 -0.07362908 -0.056028333 0.20837224 -0.010074601 0.36038104
0.034371927 0.22440302 0.044548437 -0.032003924 0.02784847 0.026343334 -0.04311111 -0.13316941
0.14524175 0.18976013 -0.20921817 -0.08718327 -0.17393161 -0.022354439 0.023862446 -0.06818368
-0.0073301718 0.19954091 0.06872918 0.021659588 0.24824077 -0.26110107 -0.2519254 0.049403902
-0.035125684 0.14157747 -0.040366188 -0.16765001 -0.043836992 0.17365994 -0.0449075 -0.051943637
-0.043322068 0.2971285 -0.15306783 -0.06225272 -0.10415857 0.14280657 -0.118533194 -0.008023439
-0.005471895 -0.08604171 0.27984688 -0.33398673 0.1653701 0.14639822 -0.3064373 -0.22096087
-0.19986823 0.09393156 0.28980613 0.12633446 -0.06344036 0.15571173 0.40730685 0.30769005
-0.31956646 -0.009787895 -0.036666274 -0.14090893 -0.31660977 0.17188004 -0.17005286 0.15242168
-0.1926548 -0.023909219 0.18080088 0.22193067 -0.17176037 -0.14583474 0.1132553 0.16951504
0.0055282903 -0.049965568 0.16198842 -0.08414314 0.08686823 -0.23774615 -0.13261941 -0.0006548026
0.15466304 -0.036740147 -0.16199502 -0.0941966 -0.024457136 -0.12273047 -0.30361524 -0.12740435
0.09176531 0.03358904 -0.1921044 0.28440607 -0.2394149 0.15680844 -0.13201301 0.24303852
0.17140292 0.09551458 7.290123e-05 0.07820982 -0.062867776 0.07324098 0.07296929 -0.30854183
-0.09056158 0.108549416 0.22574957 -0.019244537 0.06654274 0.050368425 -0.047570035 -0.07625598
-0.16449973 0.044759497 -0.26969084 0.08861181 0.02400367 -0.12441709 0.063468896 0.27283856
0.036774404 0.07388262 -0.16400209 0.05381436 0.20572962 0.1699037 -0.27214146 -0.020737562
-0.04633836 0.20688812 0.038786165 -0.35066125 0.33243325 0.52553177 0.0513261 0.17310435
-0.20801203 -0.09108687 -0.22403905 -0.026880123 0.04311323 0.16147703 0.02536415 -0.26898244
0.06051661 1.5423495 -0.090345874 0.2974176 -0.09569153 0.26656464 0.2541275 -0.021332571
0.07171389 0.18678814 0.036719 0.107356876 -0.06412147 -0.33730578 0.0899737 -0.027896428
-0.32484892 -0.19171833 -0.22908834 0.15998259 0.11456274 0.036702424 -0.043745443 0.22392118
-0.19914289 -0.06389528 0.22382745 -0.2229173 0.15541056 0.053575303 -0.04494556 -0.008561361
-0.101372756 -0.30916303 -0.077823766 -0.09010866 0.11467379 0.31027746 -0.18387906 -0.051514767
-0.11522735 -0.19495131 -0.31146735 0.0125699835 0.17657776 0.25096887 0.1815164 -0.37943575
0.3616675 -0.52470696 0.39015117 0.049066868 -0.14137803 -0.0020658635 -0.5177903 0.22026962
0.49653456 -0.20857789 0.04049657 0.26910394 0.5249224 0.510374 -0.48767424 0.1947272
-0.09104627 -0.48158014 -0.66417074 0.19172011 0.10606376 0.5357832 -0.03915782 -0.4973526
0.43806338 0.47101128 -0.47552258 -0.39014852 -0.017919373 0.31368068 0.2689463 -0.42456612
-0.0061429716 -0.61635303 0.5212291 0.15260634 0.19674028 -0.33341044 0.2602884 0.5882139
-0.2594911 -0.68078715 0.14641002 0.0413599 0.013055158 -0.3620171 0.35526463 -0.016205922
-0.5648688 0.17088261 0.24038838 0.12340567 0.25060576 0.3581551 -0.15901086 0.02443889
00000000: 6f15 6fbd 23a5 2abe 3372 fd3d d8ca 96bd
00000010: f77d 65bd 885f 553e f00f 25bc dd83 b83e
00000020: 94c9 0c3d e8c9 653e 6c78 363d 8c16 03bd
00000030: 7922 e43c facd d73c 4695 30bd 905d 08be
00000040: 41ba 143e 7b50 423e 4a3d 56be 248d b2bd
00000050: 211b 32be a820 b7bc 2d7b c33c e3a3 8bbd
00000060: f031 f0bb 7454 4c3e e2c1 8c3d 736f b13c
00000070: d432 7e3e 0aaf 85be 5efc 80be bf5b 4a3d
00000080: f3df 0fbd aff9 103e 0457 25bd 72ac 2bbe
00000090: 6b8e 33bd e9d3 313e edf0 37bd dac2 54bd
000000a0: 7b72 31bd 3a21 983e d0bd 1cbe b5fc 7ebd
000000b0: 1751 d5bd e33b 123e 88c1 f2bd be74 03bc
000000c0: 954d b3bb a336 b0bd 1748 8f3e 4f00 abbe
000000d0: c856 293e 6ae9 153e 5ae5 9cbe 9143 62be
000000e0: 42aa 4cbe 315f c03d 7861 943e d25d 013e
000000f0: 05ed 81bd e572 1f3e 868a d03e 8d89 9d3e
00000100: 379e a3be 685d 20bc 602f 16bd 6e4a 10be
00000110: ad1a a2be 5201 303e 5622 2ebe 6e14 1c3e
00000120: 4d47 45be 44dd c3bc de23 393e cb41 633e
00000130: f3e1 2fbe b455 15be 65f2 e73d 5a95 2d3e
00000140: a926 b53b b2a8 4cbd 4be0 253e 3d53 acbd
00000150: f8e7 b13d ba73 73be 62cd 07be 0fa7 2bba
00000160: fd5f 1e3e d67c 16bd 06e2 25be 26ea c0bd
00000170: 555a c8bc 1d5a fbbd 7573 9bbe 4976 02be
00000180: 73ef bb3d a994 093d 04b7 44be ac9d 913e
00000190: 2e29 75be 6492 203e 6b2e 07be 17df 783e
000001a0: 3f84 2f3e 269d c33d 8de2 9838 782c a03d
000001b0: d2c0 80bd 5eff 953d ec70 953d 32f9 9dbe
000001c0: 5a78 b9bd 284f de3d e52a 673e b8a6 9dbc
000001d0: 8f47 883d 1f4f 4e3d ccd8 42bd 182c 9cbd
000001e0: 9e72 28be bc55 373d eb14 8abe 1c7a b53d
000001f0: 58a3 c43c 63ce febd fbfb 813d 7fb1 8b3e
00000200: c2a0 163d c54f 973d 2af0 27be 726c 5c3d
00000210: c9aa 523e 3cfb 2d3e 2056 8bbe d2e1 a9bc
00000220: 4bcd 3dbd 7bda 533e 3ede 1e3d df89 b3be
00000230: b134 aa3e 4089 063f 513b 523d 4442 313e
00000240: 1b01 55be c18b babd 7e6a 65be b433 dcbc
00000250: 8097 303d 3c5a 253e 7ac8 cf3c 11b8 89be
00000260: 44e0 773d b56b c53f 4207 b9bd 1f47 983e
00000270: ecf9 c3bd 297b 883e 001d 823e a5c1 aebc
00000280: bbde 923d 6445 3f3e aa66 163d ecdd db3d
00000290: 1e52 83bd 58b3 acbe 2244 b83d 0d87 e4bc
000002a0: 9952 a6be cf51 44be 2296 6abe 7ad2 233e
000002b0: df9f ea3d 4855 163d 6c2e 33bd 984b 653e
000002c0: 1dec 4bbe 87db 82bd 0633 653e 6f44 64be
000002d0: f223 1f3e c771 5b3d d618 38bd f344 0cbc
000002e0: 859c cfbd 9e4a 9ebe 1162 9fbd e48a b8bd
000002f0: 18da ea3d b0dc 9e3e cb4a 3cbe 2601 53bd
00000300: 51fc ebbd 51a1 47be a678 9fbe 55f2 4d3c
00000310: cdd0 343e fe7e 803e 6fdf 393e 6745 c2be
00000320: 7c2c b93e 3253 06bf e5c1 c73e 57fa 483d
00000330: 67c5 10be 7063 07bb e88d 04bf 5c8e 613e
00000340: c739 fe3e 7195 55be bbdf 253d fec7 893e
00000350: 5061 063f dfa7 023f 70b0 f9be 9166 473e
00000360: 7876 babd ac91 f6be 1807 2abf 4752 443e
00000370: f537 d93d 1629 093f f363 20bd 00a5 febe
00000380: d849 e03e 6428 f13e b277 f3be 8cc1 c7be
00000390: a6cb 92bc c19a a03e 54b3 893e bb60 d9be
000003a0: fb4a c9bb 50c9 1dbf 456f 053f d644 1c3e
000003b0: 4976 493e c6b4 aabe 8544 853e 3095 163f
000003c0: 04dc 84be 1148 2ebf 82ec 153e 0069 293d
000003d0: 4de5 553c 4e5a b9be 3fe5 b53e 48c2 84bc
000003e0: 3e9b 10bf dafb 2e3e 5f28 763e 1dbc fc3d
000003f0: 664f 803e 1b60 b73e bed3 22be 1134 c83c

rnn.bias_ih_l1 f4 [50]
-0.022735424 -0.008204623 -0.095460795 -0.21627231 -0.050074257 -0.1030865 0.78299254 0.074829504
-0.23949145 0.2565346 -0.07418897 0.10687913 0.097809784 0.41717044 -0.007841493 0.36946532
0.15546323 -0.146042 0.90537 0.32538444 0.1396622 -0.023897229 0.18486543 -0.26292223
-0.35572654 -0.20514469 0.30474398 -0.30473796 -0.21411955 -0.012145446 -0.12193575 -0.3586922
-0.4005349 -0.23179623 0.22392143 -0.0014624663 -0.018181505 -0.17057401 -0.19520505 0.2523672
0.09290952 -0.37250364 0.28097492 -0.19119021 0.4448176 0.17210333 -0.06550761 -0.2126854
0.11433305 0.06820544
00000000: a43f babc af6c 06bc f380 c3bd 7d76 5dbe
00000010: aa1a 4dbd 041f d3bd 3372 483f 3640 993d
00000020: 3f3d 75be 8158 833e 63f0 97bd 72e3 da3d
00000030: 7f50 c83d 5d97 d53e 9b79 00bc 8f2a bd3e
00000040: c131 1f3e 098c 15be 54c6 673f ca98 a63e
00000050: 9c03 0f3e 1fc4 c3bc 5d4d 3d3e be9d 86be
00000060: ca21 b6be 7311 52be 6707 9c3e 9d06 9cbe
00000070: 2842 5bbe b1fd 46bc 73b9 f9bd 81a6 b7be
00000080: e912 cdbe fe5b 6dbe a94b 653e 3ab0 bfba
00000090: 61f1 94bc f4aa 2ebe d5e3 47be 4636 813e
000000a0: 5947 be3d ccb8 bebe f2db 8f3e 5ec7 43be
000000b0: 22bf e33e db3b 303e db28 86bd 34ca 59be
000000c0: 7227 ea3d 4baf 8b3d

rnn.bias_hh_l1 f4 [50]
-0.11453014 -0.12144991 -0.03992838 -0.28482026 -0.16740827 -0.123801865 0.8683932 0.31453913
-0.12191366 0.393324 -0.0033884726 0.02031561 0.14788459 0.388012 0.009637693 0.35901752
0.32835558 0.0069035334 0.85546386 0.43322942 0.20412743 0.18685079 0.17875907 -0.24642785
-0.4337073 -0.3479708 0.37394235 -0.2679053 -0.2585542 0.10526414 0.09724942 -0.41182402
-0.38758087 -0.13934007 0.38377032 0.13132587 -0.20653385 -0.24508081 -0.03869371 0.24961838
0.0065683387 -0.42656812 0.20752083 -0.2449256 0.3956864 0.17267169 -0.08450641 -0.3791164
0.18759394 -0.021102412
00000000: c78e eabd bbba f8bd f18b 23bd f6d3 91be
00000010: 136d 2bbe d58b fdbd 044f 5e3f 460b a13e
00000020: dead f9bd c361 c93e 2311 5ebb ec6c a63c
00000030: 0f6f 173e 82a9 c63e 6ae7 1d3c 25d1 b73e
00000040: 391e a83e 0937 e23b aeff 5a3f 3fd0 dd3e
00000050: c806 513e d055 3f3e 9e0c 373e 9557 7cbe
00000060: e20e debe 3b29 b2be 5f75 bf3e e22a 89be
00000070: 3761 84be ba94 d73d b42a c73d 99da d2be
00000080: 0071 c6be 2aaf 0ebe 8b7d c43e 4a7a 063e
00000090: 9c7d 53be 77f6 7abe 4c7d 1ebd f69b 7f3e
000000a0: 383b d73b 2367 dabe 5780 543e c7cd 7abe
000000b0: 6897 ca3e d9d0 303e b211 adbd 8b1b c2be
000000c0: a018 403e f7de acbc

fc.weight f4 [1, 50]
0.001600942 0.1181379 -0.04891885 0.34699836 -0.17156145 -0.16704382 -0.071582474 -0.1903506
0.049318235 -0.19584392 0.49361122 0.13001677 -0.34236264 -0.121915594 0.08414867 0.063221544
-0.20341715 -0.07326931 -0.2398655 0.044839423 0.15766653 -0.021891164 -0.14721327 0.057640046
0.08559524 0.017942376 0.03232201 0.2798012 -0.16101612 0.35212198 0.11426569 0.04516297
0.10672853 -0.0703695 0.16170985 0.1309344 0.17896834 0.019280998 0.014203292 -0.07793419
-0.026448501 -0.099541165 0.010136557 -0.2624169 0.099152036 -0.12472602 -0.20510156 -0.16637106
0.09694159 0.17375481
00000000: b3d6 d13a 49f2 f13d 225f 48bd c5a9 b13e
00000010: cead 2fbe 890d 2bbe d599 92bd 45eb 42be
00000020: eb01 4a3d 4f8b 48be 9cba fc3e 1e23 053e
00000030: 284a afbe e2ae f9bd 2356 ac3d 4c7a 813d
00000040: 964c 50be 380e 96bd 4d9f 75be 8ba9 373d
00000050: 5673 213e 1955 b3bc 13bf 16be f817 6c3d
00000060: 8f4c af3d e4fb 923c 1564 043d 1a42 8f3e
00000070: 69e1 24be 5549 b43e 2104 ea3d cefc 383d
00000080: 7d94 da3d e21d 90bd 4497 253e ab13 063e
00000090: 7a43 373e 2ff3 9d3c edb4 683c f69b 9fbd
000000a0: 87aa d8bc 3ddc cbbd cd13 263c 825b 86be
000000b0: 3910 cb3d 5b70 ffbd 2506 52be 2d5d 2abe
000000c0: 5089 c63d c8ec 313e
