Networks/UNIBTC/askSeed0.pt (torch, 33123 bytes, 9 tensors)

rnn.weight_ih_l0 f4 [50, 1]
000000 10 ea 92 bf c7 6a dd 3f 10 56 49 bf a1 3d 8b 40
       -1.147768 1.7298211 -0.78646946 4.351273
000010 3a f0 9b 3e da 4e 33 3f cd 17 8a 40 11 e4 b2 3c
       0.30456716 0.7004219 4.3154054 0.021837266
000020 7b 96 1e bf 7c bd e0 3d 86 8b 19 c0 49 4e 58 3f
       -0.61948365 0.10973641 -2.3991408 0.84494454
000030 4c 55 cb be bf 10 27 bf 8a a1 7c 40 73 2a 9c 3f
       -0.39713514 -0.6525993 3.9473596 1.2200454
000040 eb e9 de 3f bb 4a 69 3f 65 36 fd c0 14 8e 09 c0
       1.7415136 0.91129655 -7.91289 -2.1492968
000050 d4 b5 17 3f 20 2e 54 bf 33 d3 32 40 e2 55 8c c0
       0.5926182 -0.8288288 2.7941406 -4.3854837
000060 ff 73 0e bf 7c 38 8e 3f b7 53 da 3e 24 99 87 bf
       -0.55645746 1.1110988 0.42641994 -1.059361
000070 77 e0 3d 3e a4 30 43 40 6e 31 87 3e e1 9a a1 40
       0.18542658 3.0498438 0.264049 5.050156
000080 78 be 30 3f 30 34 67 bd 9c e9 aa 40 ce a0 8d 3f
       0.6904063 -0.056446254 5.341017 1.1064699
000090 b5 27 af bf 4a 70 6f be 76 f6 a5 3f 98 1b 0c bf
       -1.3683993 -0.23382679 1.2965839 -0.54729605
0000a0 19 de 27 bf 53 1f b3 c0 44 8e 33 3f ab ca 18 3e
       -0.6557327 -5.5975738 0.70138955 0.14921062
0000b0 ca 02 98 3e 05 0e 0c 40 a6 3c 06 bf d0 79 49 3f
       0.29689628 2.1883557 -0.5243629 0.78701496
0000c0 c2 29 02 40 00 a2 1c bf
       2.0337987 -0.6118469

rnn.weight_hh_l0 f4 [50, 50]
000000 df fc 01 40 f6 c9 fd be a2 28 8a bf ba dd 06 3e
       2.031059 -0.49568146 -1.079365 0.1317052
000010 4a cd ee 3e cf c4 96 3f 25 ac ac bf 97 9d 16 3f
       0.46640998 1.1778811 -1.3490034 0.58834213
000020 fc a1 8e bd 80 83 24 3f 44 73 88 3e fe d2 6d bc
       -0.0696449 0.64263153 0.2665044 -0.0145156365
000030 ed 29 90 3f ae 8a da be 08 a0 da 3c 1f 8d 6a 3e
       1.1262795 -0.4268393 0.026687637 0.22905396
000040 55 ff 2a bf d9 67 31 bf 06 c0 67 bf 7f 5d f2 be
       -0.66795856 -0.69299084 -0.9052738 -0.47336957
000050 c6 6c 86 3f 4e 8e ce be 9d 7f c6 be f3 9e 78 3e
       1.0501945 -0.40342945 -0.38769236 0.24279384
000060 60 22 6f 3f 7e c6 67 bf 52 2a f9 be 6b 50 23 bf
       0.9341183 -0.9053725 -0.486651 -0.63794583
000070 63 87 17 3f ca 1e 7d 3e 5d 9f 9a be 8c ce 49 bf
       0.5919096 0.24718776 -0.3019971 -0.7883079
000080 72 32 a9 3f 87 c7 80 3f be 91 14 bf 72 0d 02 bf
       1.321852 1.0060891 -0.58034885 -0.50801766
000090 6a d7 96 be f9 e8 14 3c 9b 4e 6c 3f 0c 3b b0 be
       -0.29461223 0.009088748 0.9230744 -0.3442005
0000a0 bc 8f cf be a1 f9 8b 3f 66 c4 76 be 4b 37 21 bd
       -0.40539348 1.0935556 -0.24098358 -0.039359372
0000b0 03 c2 2c 3e 23 cd 51 3f dd 97 1f 3e 85 49 7c 3f
       0.16870885 0.8195364 0.15585275 0.9854968
0000c0 4c 9d a6 be c0 5b 00 bf 21 1e 80 3d fa 94 f6 3e
       -0.32541883 -0.5014 0.06255747 0.48160535
0000d0 6f fb 4a 3c cb 02 0b 40 b5 45 79 3e 97 dd be 3d
       0.012389048 2.1720455 0.24342997 0.09319609
0000e0 2f 21 ae 3e 8d 6e d3 3d 6c d4 28 3d 28 07 9e 3d
       0.34009692 0.1032382 0.041218206 0.07716209
0000f0 e2 13 8d be 71 6b 2d 3e 1e a4 89 bd 43 aa f5 3c
       -0.27554232 0.16935517 -0.06720756 0.029988414
000100 aa b0 99 3e 7c bf 3d 3e 5f d8 da 3e 27 bb 4a bd
       0.30017596 0.18530077 0.42743203 -0.04949489
000110 ed 99 03 c0 9c 73 c6 bd 14 1e 6f 3d cf ea 99 be
       -2.05627 -0.096900195 0.058378294 -0.30061957
000120 36 19 15 3f 8b 61 17 bf 9d 2f 26 3d ad ae 34 bd
       0.58241594 -0.59133214 0.04057275 -0.044111896
000130 c2 f4 d8 bd 7a 3c 09 bf 3f 58 f2 3c 06 ed c8 bd
       -0.10593559 -0.53607905 0.029583095 -0.09810834
000140 75 fa c3 be 37 3c 92 be df fe 0a be 4b 00 92 3e
       -0.3827702 -0.28561565 -0.13573788 0.2851585
000150 92 76 82 3e 0f f2 e2 3e 56 9b 4f bf d0 97 ea be
       0.25481087 0.443253 -0.810964 -0.4581895
000160 08 9c 9e be 15 69 8e be 00 f1 ca 3d 6b 55 48 bf
       -0.30978417 -0.27814546 0.09909248 -0.7825534
000170 c8 8e 6a be 1e fc 5d 3d 26 a1 07 3f a9 3f 9e 3e
       -0.22906029 0.054195516 0.5298027 0.30907944
000180 10 e2 f8 3d b3 3c 3a 3e be c1 f5 bd 9f 27 27 bf
       0.12152493 0.18187217 -0.11999844 -0.6529483
000190 7b cd 98 bd 8b 0b 98 be 18 1f 84 bf 1d 94 03 3e
       -0.07461067 -0.29696307 -1.0321989 0.1284947
0001a0 2a b8 bd 3e db 98 82 3f 93 d5 c0 be a1 7c ab 3e
       0.3705457 1.0202898 -0.37662944 0.33493522
0001b0 48 c4 7e 3d 59 06 08 be 78 bc c3 be 8a fe e5 be
       0.062198907 -0.13283671 -0.38229728 -0.4492076
0001c0 d0 4d 7d 3f af 19 60 bf 7a ab 7c bf 4e 5c 38 3f
       0.9894686 -0.8753919 -0.9869915 0.72015846
0001d0 0e 23 1a 3f dc c3 31 bf 3e bf 6d bf 44 7d 39 bf
       0.6020974 -0.6943948 -0.9286994 -0.72456765
0001e0 0c 0d 9f 3f 01 f3 97 be 73 25 43 bd 2a 26 4e 3f
       1.2425857 -0.29677585 -0.047643136 0.80526984
0001f0 67 59 2a 3f 3c b0 24 bf e5 f2 34 be d6 06 a3 be
       0.6654267 -0.6433141 -0.17670782 -0.31841153
000200 17 cb 8a 3f e0 6f ac be 4b bc da be 2e 9c 68 bf
       1.0843228 -0.33679104 -0.4272178 -0.9086331
000210 65 ea 82 3f 0a f5 76 3f 5d 20 b8 3c 64 9c 5a bf
       1.0227782 0.9646765 0.02247637 -0.85394883
000220 7d 69 be 3d d7 c2 30 be 05 b8 2a 3f a8 be ae bd
       0.09297464 -0.17261826 0.6668704 -0.085324585
000230 6d e6 77 3e 4d 47 18 bc 8f a3 b7 be 8f 06 b5 be
       0.24208994 -0.009294343 -0.35866973 -0.35356566
000240 da a5 53 bf dd a2 2e 3f 01 72 4b bc 98 ab 4e 3f
       -0.82674944 0.6821726 -0.012417317 0.8073058
000250 e6 d8 35 bd 47 1a 99 be d2 d2 9b 3e b7 56 d6 3e
       -0.044396304 -0.2990286 0.3043428 0.41863033
000260 c6 63 23 3e 80 fc b4 3f 05 ca 95 be 73 95 91 bd
       0.1595603 1.4139557 -0.2925569 -0.07108583
000270 78 63 59 be 5b 7a 4e be d2 bd 82 3e c1 34 56 be
       -0.2122935 -0.20163862 0.25535446 -0.20918562
000280 fb 1e 18 3e ee a5 36 3e 8c 79 a1 be 59 38 29 3d
       0.14855568 0.17836735 -0.31538045 0.041313503
000290 2b c2 aa 3e 11 48 32 bc cb af 9d be f5 25 88 3e
       0.33351263 -0.01088144 -0.30798182 0.2659146
0002a0 0e eb c4 3d cf ce 1d 3f 9f 02 b8 be 5a b3 89 3e
       0.096151456 0.6164369 -0.359395 0.26894647
0002b0 5a bb 58 bd ae 56 52 bf 59 88 78 be 8c ca d1 bd
       -0.052913047 -0.8216351 -0.24270763 -0.10243711
0002c0 93 d1 96 3e 4a 42 90 bd 54 94 f6 bd 40 8b a9 3e
       0.29456767 -0.07043894 -0.1204001 0.33114052
0002d0 64 36 70 3e 77 f6 52 3e b9 f7 8a be 19 c4 a7 be
       0.23458248 0.20601831 -0.27142122 -0.32766798
0002e0 14 b4 b6 be 3d 9b 0a 3d 9f 90 d0 3d d3 b2 fa bd
       -0.35684264 0.033839453 0.10183834 -0.12241139
0002f0 bd c7 c0 bd e2 cf f0 bb a2 ae 41 3b a2 22 e8 3e
       -0.09413097 -0.0073490003 0.0029553552 0.45338923
000300 10 c6 9a 3e d5 d0 ba 3e 52 91 7d be ad 81 39 3b
       0.30229235 0.3648745 -0.24762467 0.0028306053
000310 02 5a 8a be 96 1a a4 3d b4 bf b9 3d 01 77 19 3e
       -0.27021796 0.08012883 0.090697676 0.14986803
000320 87 8d 50 3e 2c 6a 1d 3f ac 18 27 3f 13 87 03 be
       0.20366488 0.6149013 0.6527202 -0.12844495
000330 3d 0c 53 bd 05 5d c6 be 96 2a 8d 3e 18 04 99 bd
       -0.051525343 -0.38742843 0.27571553 -0.07471484
000340 d5 73 a7 3d 93 d7 0d bf 69 0f 9f 3e fc 62 fb 3e
       0.0817639 -0.55407065 0.31066445 0.49098957
000350 40 f6 2b bf c6 a5 30 3f e7 02 7f 3e 54 93 16 bf
       -0.6717262 0.6900295 0.24903451 -0.58818555
000360 45 3a de be 24 91 33 3e 27 7d 29 3f 41 92 00 3f
       -0.4340383 0.17535836 0.6620659 0.50223166
000370 d5 1c f9 be f5 84 21 3e a7 e9 1b be 18 3b be be
       -0.4865481 0.15773375 -0.1522585 -0.3715446
000380 2b 06 86 be 88 e2 d1 3e c1 62 da 3e 3b ea 2c 3e
       -0.2617658 0.40993142 0.42653468 0.16886227
000390 a8 08 3c bf fb e1 4c 3e fe d5 74 3e 74 e6 1e 3f
       -0.7345071 0.2000808 0.23909757 0.62070394
0003a0 94 ea 2a bf 92 0b 1d bf 12 ae 68 3c fa be 24 3e
       -0.6676419 -0.6134578 0.014201658 0.16088477
0003b0 dc d5 bf bd 7a 36 56 bc 8e 51 e3 be e9 0b d0 3e
       -0.09366962 -0.013074512 -0.4439816 0.40634087
0003c0 9d 83 1b bc df 1c 5d bd 58 a9 77 3e bf 2c 27 3f
       -0.009491828 -0.05398261 0.24185693 0.6530265
0003d0 d5 23 c4 bd 8d 74 ff be 6e 0f ed bd 4e 8e e4 be
       -0.09577147 -0.4989361 -0.115752086 -0.4463982
0003e0 c0 ab 0a 3e 0d b3 62 3d a4 7b 9a 3d 6b 8a f2 3e
       0.1354208 0.055346537 0.07543114 0.4737123
0003f0 6f 05 ed 3c 84 b4 94 bd c2 3d 07 bf 38 f6 31 bf
       0.028933255 -0.07260993 -0.5282861 -0.69516325

rnn.bias_ih_l0 f4 [50]
000000 80 79 4e 3f 26 4d 24 bf ea 57 90 3e 14 6c 92 be
       0.80654144 -0.6418022 0.28192073 -0.28598082
000010 0d 29 8e be f3 7b b3 be fc 4f 53 bf 72 07 af be
       -0.27765694 -0.35055503 -0.8254392 -0.34185368
000020 7d 6e 17 3f 35 4e 6c 3e 02 92 81 3f 52 5f ec bd
       0.59152967 0.23076709 1.0122683 -0.115416184
000030 43 f5 99 bc fd 81 34 3f bd c1 83 bf 15 de 1e bf
       -0.018793708 0.70510846 -1.0293499 -0.6205762
000040 e5 30 d3 bf ef 7a 45 be 13 0f 04 3f ea db 90 3f
       -1.6499296 -0.19285177 0.515855 1.1317112
000050 7d 92 d3 be 76 82 b2 3e c7 1a c8 bf e5 1f 6c be
       -0.413227 0.3486516 -1.5633172 -0.23059042
000060 b2 9d ab be 67 d7 04 be fd a4 fc 3e bd fe a2 3f
       -0.3351875 -0.12972794 0.49344626 1.273399
000070 69 4f 02 be ed e2 60 bd b7 e5 b8 3e b0 2a 83 3e
       -0.12725605 -0.054903913 0.3611276 0.25618505
000080 3a 0b 19 bf 84 27 6e be 58 f8 06 bf a0 bb a0 be
       -0.59782755 -0.23257262 -0.5272269 -0.31393147
000090 7d 2a 59 3f fd f9 2c 3f 10 f3 d4 be 95 d7 0b 3f
       0.84830457 0.6756895 -0.41591692 0.5462583
0000a0 b1 f3 3b 3e 0b c3 d8 be 84 a0 0a 3e 34 d0 ed 3e
       0.1835468 -0.42336306 0.13537794 0.4644791
0000b0 5c ab 28 be 23 bf a2 bf c5 50 e1 be f0 f2 a1 be
       -0.16471618 -1.271458 -0.44006935 -0.3163066
0000c0 c5 0c 89 3d ea c5 24 3e
       0.06691889 0.16091123

rnn.bias_hh_l0 f4 [50]
000000 ef 54 59 3f dc 7c 14 bf 2e 15 8e 3e 8c 8d c9 be
       0.84895223 -0.5800302 0.27750534 -0.39365804
000010 4e be 95 bd dd 34 ab be 69 14 2c bf 46 b5 b1 be
       -0.07311688 -0.3343877 -0.67218643 -0.34708613
000020 64 b5 2f 3f 05 5d 75 3e f2 bd 57 3f 01 7f 02 3d
       0.68636155 0.23961265 0.8427421 0.0318594
000030 72 18 37 3d 68 c5 25 3f 7a 0a 7a bf b8 75 29 bf
       0.044701047 0.64754343 -0.97672236 -0.6619525
000040 89 49 c2 bf 6a 3f 65 be a9 f1 08 3f 8e a6 a4 3f
       -1.5178691 -0.22387472 0.53493744 1.2863328
000050 66 e2 b2 be 44 de ff 3e 4f 72 cb bf 0f 3b b4 be
       -0.34938353 0.49974263 -1.5894259 -0.35201308
000060 1c ef bb be 92 12 92 be 18 df ea 3e d5 2c a4 3f
       -0.36705863 -0.28529793 0.45873332 1.2826182
000070 ba 8a bc be a6 05 82 3d 4b 72 af 3e 23 34 7a 3d
       -0.3682459 0.063487336 0.34266886 0.061084878
000080 c3 f3 f8 be 7a db ee bd dd 04 22 bf 91 a7 99 be
       -0.48623475 -0.116629556 -0.6328867 -0.30010656
000090 2c 46 37 3f 3d 7a 3e 3f 65 a1 cd be 5b fd 20 3f
       0.7159145 0.7440527 -0.40162197 0.6288659
0000a0 ef 71 6b 3e 78 df f0 be 92 1b 61 3e 25 32 8e 3e
       0.22992681 -0.47045493 0.21983173 0.27772632
0000b0 f9 9d 73 bc ca 5d 9c bf 4a 51 09 bf 9a 3c ec be
       -0.014869207 -1.2216122 -0.5363966 -0.46139985
0000c0 3e 22 57 3e 59 13 92 3e
       0.21009156 0.28530386

rnn.weight_ih_l1 f4 [50, 50]
000000 28 cd 18 3d 8d fe c4 bc 0a 36 ec bd cb 1e 4c 3e
       0.037305027 -0.02404716 -0.11533745 0.19933622
000010 b6 f8 bc 3d f3 6d 1d 3e 9d d9 f5 bd 3d 93 91 3e
       0.09227125 0.15373974 -0.12004397 0.28432646
000020 ea f7 c4 bd 92 6c 4d bd bb 65 41 3d b9 e7 43 bd
       -0.09617598 -0.05015237 0.04721616 -0.04782841
000030 59 1b 9c 3e 08 34 e7 bd 87 29 43 be c8 ce 26 3e
       0.30489615 -0.11289221 -0.1905881 0.16289818
000040 91 d3 4c be 3b a7 95 3c 89 44 d5 bd b4 31 26 bd
       -0.20002581 0.018268218 -0.10413463 -0.040574744
000050 30 74 59 3e 6b b6 c0 3c d9 e2 02 3e 5f d4 68 3d
       0.21235728 0.023524484 0.12781848 0.056843158
000060 af 31 6a 3e c1 2c 39 be 6e 64 75 be 25 00 41 bd
       0.22870515 -0.18083479 -0.23964092 -0.04711928
000070 ff 8d 57 3e 7a ae a6 bd 70 f6 6e be e0 f4 6e be
       0.21050261 -0.081387475 -0.23336196 -0.233356
000080 c8 4c 28 3e b4 90 9f 3e a6 66 bf be b2 9f f6 3b
       0.1643554 0.31165087 -0.37383002 0.0075263614
000090 9d d0 b2 bd 67 87 be bd 9d c3 1a be 46 4c 96 be
       -0.08731196 -0.0930317 -0.15113683 -0.29355067
0000a0 53 30 6d bd 70 c9 4c be 73 72 75 bd 0b 36 4a be
       -0.057907414 -0.19998717 -0.0599236 -0.19747178
0000b0 88 cd 30 3e 84 e1 8b be 59 1c 60 bb ff 5b 03 3e
       0.17265904 -0.27320492 -0.0034196584 0.12828062
0000c0 8c 08 41 bc ac 39 32 be 30 26 3e be bd c0 86 bd
       -0.011781823 -0.17404813 -0.18569255 -0.06579731
0000d0 65 89 db bd 23 81 8a be cb 6b 53 bc 26 88 90 3e
       -0.10719565 -0.27051648 -0.012904118 0.28228873
0000e0 72 7c 63 bf 30 2e 18 3e 68 24 2b 3f c2 dd 0b 3f
       -0.88861763 0.14861369 0.66852427 0.5463525
0000f0 e5 f4 85 bd 09 91 42 bf 85 5d a6 3e 70 01 a8 be
       -0.065408505 -0.76002556 0.32493225 -0.32813597
000100 09 b7 14 3f 88 f3 3b 3d 15 ae 35 be 84 db dc be
       0.5809179 0.045886546 -0.17742188 -0.43136227
000110 84 54 00 be fc ba 44 3d 17 47 04 be a5 71 03 be
       -0.1253224 0.048029885 -0.12917744 -0.1283632
000120 19 17 b7 be c1 73 66 3e 16 e9 79 3e cf 6a 6e bf
       -0.3575981 0.22505094 0.24405321 -0.93131727
000130 79 13 9f be 62 f9 af 3d f5 e0 c5 3e d6 73 d0 be
       -0.31069544 0.08592488 0.3864819 -0.40713376
000140 e2 80 d4 be 46 35 92 be d5 e5 23 3b 3d 65 5e 3e
       -0.4150458 -0.2855627 0.0025008817 0.21718307
000150 80 45 0c bf d3 11 81 bf dd 13 65 bd 19 c1 12 be
       -0.5479355 -1.0083565 -0.055927146 -0.14331473
000160 35 62 ec bd 22 33 a0 be 87 bb 87 3c d7 c7 c5 be
       -0.11542169 -0.3128901 0.016568912 -0.38629028
000170 79 5b 35 be d8 05 4a be 0a 48 6e bb 86 ca b3 be
       -0.17710675 -0.19728792 -0.0036358857 -0.3511545
000180 2f d8 65 3e 53 4d b3 3b ba 19 16 bf ba 7d 9a bd
       0.22445749 0.0054718642 -0.58633006 -0.07543512
000190 fd ae 4d be 41 72 d1 bd 83 02 b2 be 24 ce 4a bb
       -0.20086284 -0.1022687 -0.3476754 -0.0030945623
0001a0 e2 f3 ab 3e 8f 84 46 3e 54 ff c5 be ab 9f 1e 3e
       0.33584505 0.19386505 -0.38671362 0.15490596
0001b0 2c 7f c8 bc a1 83 3b bc 7d 78 35 3e 2f f0 96 3c
       -0.024474703 -0.011444957 0.17721744 0.018425075
0001c0 8a af a4 3e 51 46 ba be a3 e3 88 be f7 e5 c4 3e
       0.32165176 -0.36381772 -0.26736173 0.384567
0001d0 88 11 11 3e 10 83 60 3c 72 7b 71 be a0 7b 95 3d
       0.14166844 0.013703123 -0.23582247 0.0729897
0001e0 fd 25 8f 3e 8b c6 75 be b3 ac 8c 3d 15 82 5f be
       0.2795867 -0.2400152 0.06868877 -0.21826966
0001f0 07 27 42 3e 4f 28 56 3e 31 d1 88 be ac 62 93 be
       0.189602 0.20913814 -0.267221 -0.28786218
000200 d6 da a1 3e 73 d4 f2 bc 31 15 23 be ff 38 ae be
       0.3161227 -0.02964232 -0.15926053 -0.3402786
000210 07 3d c9 3e ae bd 5e 3e e2 13 4f 3c 2e ed cd 3d
       0.39304373 0.21752045 0.012639018 0.10055004
000220 8f 28 ac be cc 19 3d be 72 a0 96 3e 28 42 9e be
       -0.33624694 -0.18466872 0.29419285 -0.30909848
000230 52 39 da 3e d9 49 a9 be ce c4 96 be b0 3b 81 be
       0.42621857 -0.33064154 -0.29447025 -0.2524085
000240 46 d0 b5 3e 3f 2c b7 3d 29 57 bd bc 88 53 c2 3e
       0.35510463 0.08943986 -0.02311285 0.37954354
000250 4d ba 43 be b9 8a f2 bd f0 88 c1 be 3e 8c 29 be
       -0.19114037 -0.118428655 -0.37799788 -0.16557404
000260 f7 6c e8 be 81 60 cc 3d b8 96 03 3f 8b 7b af 3e
       -0.45395634 0.09979344 0.51401854 0.34273943
000270 1e 83 3f be 32 fc 10 3f b8 5f c2 be 62 33 36 3e
       -0.18702361 0.5663482 -0.37963653 0.17793038
000280 8f 75 8e 3e 7b 04 69 be 6a e9 27 3f cb 3c fb be
       0.27824065 -0.22755615 0.65590537 -0.4906982
000290 4b 18 dc be aa 8b a9 3e 51 ef 9a bd 2f 88 0e be
       -0.42987284 0.33114368 -0.07565177 -0.13919137
0002a0 f0 18 e0 be 38 38 42 3e 4e aa cb 3e bb 16 7f be
       -0.43769026 0.18966758 0.3977837 -0.24911015
0002b0 7d 1f b8 bd 06 07 b2 3e a9 ab b6 3e be c8 6a be
       -0.08990381 0.34770983 0.3567784 -0.2292814
0002c0 4a a0 ce be 08 23 79 3e 3d 5b 93 3e ef 9f 90 3e
       -0.40356666 0.2432977 0.28780547 0.2824702
0002d0 ff 07 d5 be 25 ae 00 bf a5 40 cc 3e f7 8e 05 3f
       -0.41607663 -0.50265723 0.3989307 0.5217127
0002e0 93 d1 a2 be 1c c3 71 be 58 7d 08 bf 50 f3 f4 be
       -0.31800517 -0.23609585 -0.5331626 -0.47841883
0002f0 dc 76 0d 3e 41 6d 28 bf fb 69 be be cc 26 9e be
       0.13814873 -0.6579171 -0.37190232 -0.30888975
000300 6a 74 02 bf d7 86 0c bf 7f ed da 3e 93 a6 c1 be
       -0.50958884 -0.5489325 0.4275932 -0.378224
000310 15 60 4e 3e 97 9b c9 3e 96 f2 e3 bd 2b 08 fa be
       0.2015384 0.39376518 -0.11130254 -0.48834357
000320 36 2f 07 bf 1b 32 cc bd 2b 2b 5d 3e 6a f7 86 3f
       -0.52806413 -0.09970494 0.21598499 1.0544255
000330 16 97 1f be 1a bb b3 bd bd 7a fa 3e 41 e7 29 3d
       -0.15584978 -0.08775921 0.48921767 0.041480307
000340 09 19 bb bf 3b e9 d5 be 86 55 ba bf 71 98 be 3f
       -1.4617015 -0.41779503 -1.455735 1.4890271
000350 43 d4 8f bd ab f0 33 3d 8b ab b1 be b2 40 ba be
       -0.070229076 0.04393069 -0.3470119 -0.36377484
000360 0e b0 00 3f a6 6a 89 3f 60 89 67 3e a3 50 e8 be
       0.5026864 1.0735672 0.22610998 -0.4537402
000370 85 d6 9a be 46 a4 34 3e b7 59 f3 3e 89 59 87 be
       -0.3024179 0.1764079 0.47529384 -0.26435497
000380 25 e0 57 be 09 9a c2 3f 90 11 76 3e a2 6d c3 3e
       -0.21081598 1.5203258 0.24030137 0.3816958
000390 db c9 d1 be 33 bb 81 bd 59 b6 85 3e 2c f9 2b 3e
       -0.40974316 -0.063345335 0.26115683 0.1679427
0003a0 11 d8 8f be b4 7e 80 be f0 9a 30 3e 2b b8 96 3f
       -0.28094533 -0.25096667 0.17246604 1.1774954
0003b0 a2 b3 72 3e 60 3c 98 3e ee 4e b0 3e 3d 48 94 3e
       0.23701337 0.29733562 0.3443522 0.28961363
0003c0 f2 df fe 3d 3d 2c 4a be 8a a9 bc 3e b5 99 9f 3e
       0.12445058 -0.19743438 0.36848098 0.31171957
0003d0 7e c1 63 be 58 f3 87 3f 45 d8 8a be 6f 81 9c be
       -0.2224178 1.0621138 -0.27118126 -0.305675
0003e0 f7 59 fa 3e ae 53 b6 3d 13 7a 66 3e 90 4d 9d be
       0.48896763 0.089026794 0.22507505 -0.30723238
0003f0 de f4 3b 3c d5 8e 1a c0 f8 58 d4 bd 6d 18 35 bd
       0.011471955 -2.4149678 -0.10368532 -0.044212747

rnn.weight_hh_l1 f4 [50, 50]
000000 d8 79 eb bd 85 e2 91 bd 6d c7 5b be 6d e1 80 bd
       -0.11497849 -0.07123283 -0.21462794 -0.062929966
000010 1f 07 ed bc b0 96 af bd f1 bc 29 3c 93 dc a5 39
       -0.02893406 -0.08573663 0.010359989 0.00031635593
000020 f9 f3 04 bd f9 1e 57 be 12 9b 0b bd 2e 4a ae bd
       -0.032459233 -0.21007909 -0.034083433 -0.085102424
000030 c0 48 15 bc 37 d2 ff bd e2 91 fc 3e e6 72 37 bd
       -0.009111583 -0.12491267 0.4933005 -0.04478731
000040 dd 50 12 be 8f 03 e3 bd 0c b1 a2 bd 49 c1 cf 3d
       -0.1428866 -0.11084663 -0.07943925 0.10144288
000050 ed 48 2b bd 09 ea cc bd 2c 75 15 3e 51 a5 62 be
       -0.041817594 -0.10005576 0.14595479 -0.22133376
000060 5b 3d 69 be d7 e1 87 bd 21 c4 67 3d c7 d1 c6 3d
       -0.22777312 -0.066348724 0.056583527 0.097079806
000070 91 e4 14 3e 8d 5b bc 3d 4f 67 9b be 38 53 0b 3e
       0.14540316 0.091971494 -0.30352256 0.13605964
000080 04 70 b4 3d be ca 7b 3e db e7 53 bd c2 7f b2 3d
       0.08810428 0.24589059 -0.051734786 0.08715774
000090 64 50 d1 bd e4 95 a9 bd d7 c0 7d bd b8 a6 9b 3d
       -0.102204114 -0.082805425 -0.061951485 0.076001585
0000a0 ad 56 9f be 88 9d 57 be 77 df cb bc 81 c3 79 3e
       -0.31120816 -0.21056187 -0.02488683 0.24390985
0000b0 52 3b 77 3e 1a f2 29 be 44 5e 4f be 2f 9d 4c 3c
       0.24143723 -0.1659626 -0.20250803 0.012488647
0000c0 8b 0f 04 be d5 03 dc bd 3f 9b 63 bd 26 00 cf 3e
       -0.12896554 -0.107429184 -0.055567976 0.404298
0000d0 d4 2d 84 be c8 fb 8a bd c8 a7 67 bd bd 53 9b 3f
       -0.25816214 -0.06786305 -0.056556493 1.213493
0000e0 e4 33 ca 3e 64 da 19 3e 4d 10 04 be 1b 04 0e bf
       0.39492714 0.15024716 -0.12896843 -0.55475014
0000f0 45 c5 f4 bd d3 ee 37 be 07 ec 9f be 1c 52 ca be
       -0.11951689 -0.17962198 -0.31234762 -0.3951577
000100 62 82 12 3e cb 2b b9 be 1a f4 01 be ce 3a fb bd
       0.1430755 -0.36166224 -0.12690774 -0.122670755
000110 f6 b1 0e bf 62 da b6 3e a1 79 af bd 51 46 ec bd
       -0.55740297 0.35713488 -0.08568121 -0.11536849
000120 d9 de e3 bc 39 da b3 be 9f b1 03 be d6 15 9f be
       -0.027816223 -0.35127428 -0.12860726 -0.31071347
000130 b4 13 57 3d b5 a4 bd 3e e0 44 b5 be 51 f6 26 3e
       0.052509025 0.37039724 -0.3540411 0.163049
000140 84 f4 a4 be 5e d2 bd 3d 6f 72 35 3e 9a 00 8e 3e
       -0.322178 0.0926864 0.17719434 0.27734834
000150 52 21 03 bf e0 fc 58 3e 70 77 77 3e 30 eb c3 be
       -0.5122272 0.21190214 0.24166656 -0.3826537
000160 8e 6d 17 bc ec 73 8a 3e d1 2f d1 be 9b 06 d1 be
       -0.0092424285 0.27041566 -0.40856794 -0.40825352
000170 50 cd 93 be 11 6e 27 3e 3a f6 d9 3e 10 95 22 3e
       -0.28867579 0.16350581 0.42570668 0.15877175
000180 49 68 3f be 67 2b ef be 80 aa 8e bc 44 6a 6e 3e
       -0.18692125 -0.467128 -0.017415285 0.23282725
000190 a6 55 a5 bd e0 de 12 3e 27 49 81 be c6 fd 83 be
       -0.08072977 0.14342833 -0.25251123 -0.2577955
0001a0 39 64 8f 3c fe a1 b3 3e 0c 52 da 3e 41 f4 42 3e
       0.017503845 0.35084528 0.42640722 0.19038488
0001b0 9c 0e 34 be 1e 96 85 be 4c 3f 47 be c2 5a 81 be
       -0.17583698 -0.26091093 -0.1945774 -0.25264555
0001c0 0b 77 07 bd 2b 58 df bd 97 85 21 3f ce e2 43 be
       -0.033072513 -0.109054886 0.63094467 -0.19129488
0001d0 ef 0f a2 bd 19 ff a9 be e3 dd 51 be 7d 3c e2 3d
       -0.07913195 -0.33202437 -0.204948 0.110466935
0001e0 71 44 7f 3e b1 0e 91 be fe 6b dd 3d 45 4c d4 bd
       0.24928452 -0.2833152 0.108116135 -0.1036611
0001f0 2b 58 dd be 2f ce cf be 1c aa 95 3d 4c de 4c 3e
       -0.4323133 -0.40586993 0.073078364 0.20006675
000200 4b 8a 38 be 6f d7 67 3e d8 b6 7e be 47 dc b3 3d
       -0.18021505 0.22640775 -0.24874437 0.08782249
000210 49 cf a9 bd 8a 6d 9d bd 56 1a cc 3c f9 01 2b 3d
       -0.0829149 -0.076869085 0.024914902 0.04174993
000220 65 be b5 bd 06 08 61 be 87 44 94 be 17 e3 c8 3d
       -0.088742055 -0.21975717 -0.28958532 0.09808939
000230 c4 1d e2 bd 06 dc 58 be d1 84 40 be d6 77 19 3e
       -0.110408336 -0.21177682 -0.18800665 0.1498712
000240 c4 ad bb 3e 83 a8 1f bd a8 92 2e be 36 cc 17 bd
       0.3665601 -0.038979065 -0.17048132 -0.037059985
000250 54 37 72 bd b4 71 d3 3d 9e 98 c6 be 22 ad 1b be
       -0.059134796 0.103244215 -0.38788313 -0.15202764
000260 f1 c2 79 be b0 a1 64 be a5 c7 a9 3e fd 73 17 3e
       -0.2439077 -0.22327304 0.3316013 0.1479034
000270 42 77 f7 3e 4a ec 0e 3f 51 c7 ba bd 4e 2a ad be
       0.48333174 0.558293 -0.09120048 -0.33821338
000280 73 fd 56 be 1a 36 8c 3d ee 8b bf be 54 95 b8 be
       -0.2099512 0.068462566 -0.37411445 -0.36051428
000290 bc 44 51 3e 72 a7 96 be f2 35 a2 be b8 5d 98 be
       0.20436376 -0.29424626 -0.31681782 -0.29759002
0002a0 be be f1 be 94 97 65 3e 10 b7 54 3d a8 31 10 bf
       -0.47215837 0.22421104 0.051932395 -0.5632577
0002b0 3a b1 d4 3e 56 d8 9a be 76 2f b6 be a7 d3 dd be
       0.41541463 -0.30243176 -0.35583085 -0.4332554
0002c0 61 39 f5 bb 1c db 13 3f 59 9a b5 be 0a 2d cb 3e
       -0.0074836467 0.5775621 -0.3546932 0.396828
0002d0 e2 47 0d bf 13 1d 8e 3e a6 f5 e3 be 54 1f 86 3e
       -0.5518781 0.27756557 -0.44523352 0.26195776
0002e0 1e 6e bd be 42 b7 8d 3e 67 8e a6 3e 03 71 bd be
       -0.36998075 0.27678877 0.3253052 -0.37000284
0002f0 59 ff ae be 87 e7 ab 3e ec 36 d5 be f0 d0 a5 be
       -0.3417919 0.3357508 -0.41643465 -0.3238597
000300 8b 1a 85 be 2b d8 82 3e af f6 e3 3e 72 1a 09 be
       -0.25996813 0.25555548 0.44524142 -0.13388994
000310 61 32 b2 be 8d ab 6d 3e da eb 4e be 0f 18 f2 be
       -0.3480406 0.23209973 -0.20207158 -0.4728398
000320 76 38 f3 3e be e8 b0 3e 97 7f 65 3e b2 66 0b 3f
       0.47504014 0.34552568 0.22411953 0.54453576
000330 2b f4 b1 3f 4d 02 a5 bf c2 e1 ac be be 1d be bd
       1.3902639 -1.2891327 -0.3376599 -0.092830166
000340 94 5c fc 3d f2 69 fd 3d d3 4e 40 3e 62 31 0b c0
       0.123223454 0.12373723 0.18780069 -2.174889
000350 b8 d5 18 be de 76 25 3f 9c 77 41 be d8 4f a9 bd
       -0.14925277 0.646345 -0.18893284 -0.08267182
000360 43 34 04 3f 95 42 c3 3e 16 ba 45 3e a7 dd 18 bf
       0.51642245 0.38136736 0.19309267 -0.59713215
000370 eb 01 79 be cf 73 0b 3f 51 2c 06 bf b6 cc 9d 3e
       -0.24317138 0.54473585 -0.5241137 0.30820245
000380 14 d0 c8 3e 3b ee 08 3f 02 ba fb be 74 a0 8e be
       0.3922125 0.5348851 -0.4916535 -0.2785679
000390 20 be 42 3f 24 54 04 bf f3 55 b9 3e cc 51 23 be
       0.7607136 -0.5169089 0.36198387 -0.15949172
0003a0 ec 93 1f 3f fd c7 ea 3d ab f8 a7 3f 6f b9 82 be
       0.62335086 0.11463926 1.3122762 -0.255321
0003b0 6c c9 ed be cc 29 8c 3e 27 00 fa 3e c5 72 a9 be
       -0.46442735 0.27375638 0.4882824 -0.33095375
0003c0 41 8a d9 3e 6e 06 fa 3e 8c b6 f6 3e 34 fb f0 be
       0.42488292 0.4883303 0.48186147 -0.47066653
0003d0 56 74 44 bd cc 22 94 3e ac 60 8d 3e 0a e2 6b be
       -0.04796251 0.28932798 0.27612817 -0.23035446
0003e0 75 f2 83 bf 4e e3 b1 bf 20 f4 6d 3e 39 67 a8 be
       -1.0308367 -1.3897493 0.23237658 -0.32891253
0003f0 c1 6a 0b be 01 52 46 3e b3 b5 49 be 6c e3 86 3f
       -0.13614942 0.1936722 -0.19698219 1.0538154

rnn.bias_ih_l1 f4 [50]
000000 f0 f7 30 bd 7f 67 e8 3d e7 1e 58 3e 01 e3 82 3e
       -0.0432052 0.11347865 0.21105538 0.25563815
000010 1b 27 91 bf 6c 61 05 be 8a 5d fb bd 27 81 b9 be
       -1.1340059 -0.13025445 -0.122737005 -0.36231348
000020 38 63 0f 3d ed 36 3d 3e db b6 7a be 55 23 8a be
       0.03500673 0.18477984 -0.24483816 -0.2698008
000030 70 f0 3f 3f b2 3c 48 bd ad d2 bf 3e 26 58 c6 3d
       0.74976254 -0.04888601 0.3746542 0.09684782
000040 ee f9 37 be dc 04 ab bd 20 35 8c 3e 93 3d 24 3e
       -0.17966434 -0.08350536 0.2738428 0.16039114
000050 1e 39 34 3e 8d 09 91 be 8a e1 23 3d 4f 94 f0 3e
       0.17599913 -0.283276 0.040010013 0.4698815
000060 d2 bc 51 3e 2e a5 10 3d 62 74 1b 3e c8 98 00 bf
       0.20482185 0.035313778 0.15181115 -0.50233126
000070 9d f1 5f bd ff cf 51 3e 62 0d b1 3e 5d 92 03 be
       -0.05467378 0.204895 0.34580523 -0.12848802
000080 9d 23 46 3e 78 01 98 be 8b 14 55 3f 5a b3 96 be
       0.19349523 -0.2968862 0.8323447 -0.2943371
000090 20 f1 cc be 3b fb c1 3e 4c b8 81 be 40 6b 91 3e
       -0.40027714 0.37886986 -0.2533592 0.28402138
0000a0 71 33 40 3e 28 14 19 bf c6 5d 45 3e a5 c5 a3 3e
       0.18769623 -0.5979638 0.19274053 0.31986728
0000b0 fb 56 1a be f0 3e 08 bf 32 dc a1 3e 47 f6 e7 3d
       -0.15072243 -0.53221035 0.31613308 0.113262706
0000c0 0b 40 90 3e 00 1b ca 3e
       0.2817386 0.39473724

rnn.bias_hh_l1 f4 [50]
000000 18 42 1e 3e b2 cf 3e 3e f7 42 78 3c 8e 3c 48 3d
       0.154549 0.18633917 0.015152684 0.048885874
000010 d6 4c 8d bf 95 7e 7f be 74 d2 94 bd 8f a6 4d be
       -1.1039073 -0.24950631 -0.07266703 -0.20083068
000020 0f bf 1c be 1c d4 be 3e c1 08 70 be 91 57 ab be
       -0.15307258 0.37271202 -0.2344084 -0.33465245
000030 e8 cd 0b 3f 57 4f 4c be 92 a2 ce 3e 8a 9d 68 3c
       0.54611063 -0.19952141 0.40358406 0.0141977165
000040 a1 68 88 be 02 60 8b 3d 7a d9 ee 3e fd 45 79 bd
       -0.26642326 0.068054214 0.46650296 -0.06085776
000050 0d 00 c2 3e 4b db 6b be 85 c5 38 3e 62 c7 33 3f
       0.37890664 -0.23032872 0.18044098 0.7022611
000060 d8 bc 6f 3e 44 e4 a2 bd f7 ad 21 3e 90 18 b8 be
       0.23411882 -0.079536945 0.15789019 -0.3595624
000070 c2 c6 80 bd 6c ba 35 3e 82 df d6 3e c3 0a 4d bd
       -0.0628791 0.17746896 0.41967398 -0.05005909
000080 ff a1 4b 3e db ab 93 be 96 ab 3c 3f cd 26 6e be
       0.19886015 -0.28842053 0.7369932 -0.23256989
000090 40 4a cf be b5 54 f8 3e 97 9f c9 be 78 af 78 3e
       -0.40486336 0.48502126 -0.3937957 0.24285686
0000a0 7e d3 63 3e e0 e8 48 bf 8a fb 93 3e 33 bc ab 3e
       0.22248647 -0.7848034 0.28902847 0.33542022
0000b0 ac 0a a0 be 38 29 cf be e5 bc 6d 3e 4c ba 44 3e
       -0.31258142 -0.40461135 0.23216589 0.19211692
0000c0 9a 06 af 3e e5 b1 b0 3e
       0.34184724 0.34510723

fc.weight f4 [1, 50]
000000 42 cd b6 3c 2c f1 dc bd 5c bd 55 bc 9a 4f 86 3d
       0.022314671 -0.107881874 -0.013045635 0.065581515
000010 bb 10 2e 3e 33 ce 91 be bf 40 83 3c ea d9 a8 3d
       0.1699857 -0.2847763 0.016022084 0.08244689
000020 8a 8f 9d 3c ca c8 33 3d 87 bf d1 bd 8d 1d 02 3f
       0.019233484 0.04389266 -0.10241609 0.5082634
000030 6a 81 5a bd 02 1b 81 bd b1 c8 3d bd 3e 63 82 bd
       -0.053346075 -0.063039795 -0.046333972 -0.06366585
000040 1c 23 87 ba 27 d5 85 3d 0d f8 ec 3c a5 65 29 be
       -0.0010310146 0.06534796 0.028926874 -0.1654268
000050 1b 68 a7 bb 45 39 b4 3c 8f 31 77 bc 28 2b d1 3d
       -0.005108846 0.021999964 -0.015087499 0.102133095
000060 80 67 58 bd 2b 63 15 bc 10 32 a3 3d d5 d3 1f bd
       -0.05283308 -0.009117882 0.07968533 -0.03902038
000070 ea 46 c8 3d 03 c6 6a bd a4 d1 04 bd 10 c8 97 3d
       0.09779151 -0.057317745 -0.03242649 0.07411206
000080 6c 46 87 3d 5f 4d 93 3c 7b 8e 0c be ae 0f b2 bd
       0.06605229 0.01798123 -0.13726227 -0.08694397
000090 95 c3 8a bd 08 8c b4 bd 4f 49 bb bd cf 14 19 be
       -0.067755856 -0.08815771 -0.09144842 -0.14949344
0000a0 6c 56 dd bc 43 59 19 3a 28 62 f6 3d b1 1f 64 3c
       -0.027018748 0.0005849788 0.120304406 0.013923571
0000b0 c9 e6 09 bd 48 b6 97 bd 29 f6 31 3e 0a b9 38 be
       -0.03366736 -0.07407814 0.17379059 -0.18039337
0000c0 e2 05 47 3e b7 dd 09 be
       0.19435838 -0.13463484
