Networks/UNIBTC/Seed0.pt (torch, 24291 bytes, 14 tensors)

rnn.weight_ih_l0 f4 [32, 5]
0	0xbd4c5675	-0.04988714
1	0x3d9e958a	0.07743366
2	0x3ead2016	0.33813542
3	0xbf2fe36d	-0.687064
4	0xbf29bc7f	-0.6630325
5	0xbe0cc81e	-0.13748214
6	0x3e072b1a	0.13200036
7	0x3dcbce17	0.09951418
8	0x3e9ada77	0.302448
9	0x3e13a0c6	0.14416799
10	0x3f01e936	0.50746477
11	0xbf250ec7	-0.64475673
12	0xbf0a19f5	-0.5394586
13	0xbc79d2bf	-0.015248
14	0xbf17e960	-0.59340477
15	0xbf31d2a7	-0.69462055
16	0x3ef1fa97	0.47261497
17	0x3f57e380	0.8433151
18	0x3e8fb7b8	0.28069854
19	0x3ebf4869	0.37359932
20	0x3f04a67e	0.51816547
21	0xbf23f4a3	-0.6404516
22	0xbf23c4a3	-0.6397192
23	0xbede2dd2	-0.43394333
24	0xbecbec42	-0.39828688
25	0xbea5e2d8	-0.3239963
26	0x3c0cbe63	0.008590314
27	0x3cb49be5	0.022046993
28	0x3da301ba	0.07959314
29	0x3ef935bd	0.48673812
30	0x3e7a6ba7	0.24455129
31	0xbed3ebc6	-0.41390818
32	0xbf16e0bd	-0.58936673
33	0xbe9fe1a2	-0.31226832
34	0x3d3a11db	0.045427185
35	0x3e758850	0.2397778
36	0xbea9c3c4	-0.3315717
37	0xbe00668d	-0.1253912
38	0xbec2cebd	-0.38048354
39	0xbe805316	-0.2506339
40	0x3f155bd0	0.5834322
41	0xbf224695	-0.6338895
42	0xbf39df27	-0.7260613
43	0xbef1f62f	-0.47258136
44	0xbe0b815c	-0.13623565
45	0xbbecd31c	-0.0072273146
46	0x3e2e6c04	0.17033392
47	0x3e66688f	0.22500823
48	0xbeb03aff	-0.3442001
49	0xbefd80e1	-0.4951239
50	0x3e7bf8b7	0.24606596
51	0xbeb5b756	-0.35491437
52	0xbeb72974	-0.35773814
53	0xbe91252d	-0.28348675
54	0xbe98113c	-0.2970065
55	0x3da8d077	0.082428865
56	0xbe011e4f	-0.12609218
57	0xbe903ba1	-0.28170493
58	0xbec9ac0e	-0.3938908
59	0xbe39dbf1	-0.18150307
60	0xbe2cf588	-0.16890538
61	0x3d6df1c4	0.058091894
62	0xbdf295f1	-0.11845005
63	0x3e8ef20b	0.2791904
64	0x3e83d126	0.25745505
65	0x3f2f2777	0.68419594
66	0xbf4aaf37	-0.79173607
67	0xbf8637f4	-1.0485826
68	0x3ca8856a	0.02057143
69	0xbdd4f874	-0.10398951
70	0x3c45175d	0.012029496
71	0xbe9a456f	-0.301311
72	0x3d0b1f36	0.033965312
73	0xbec1b9cb	-0.3783706
74	0xbed03405	-0.40664688
75	0xbf061d22	-0.52388203
76	0x3f1bcff8	0.6086421
77	0x3f4b5aa1	0.79435164
78	0x3e8873e9	0.26650932
79	0x3f2888e8	0.658339
80	0x3f1bc141	0.6084176
81	0xbf17b67f	-0.5926284
82	0xbf17510a	-0.5910803
83	0x3ea55066	0.32287902
84	0xbee66323	-0.4499751
85	0x3ed7b149	0.42127445
86	0xbe9b434d	-0.30324784
87	0xbe9c091f	-0.3047571
88	0xbd881b7b	-0.066458665
89	0xbf407feb	-0.7519519
90	0xbe496618	-0.19667852
91	0x3f147dca	0.5800444
92	0x3eba1ca0	0.36349964
93	0x3f0828ff	0.53187555
94	0x3dec4bc2	0.11537887
95	0xbdb0f7f2	-0.08641042
96	0x3e92fb2c	0.28707254
97	0x3e8b91bc	0.27259624
98	0x3edc9739	0.43084124
99	0x3f10e171	0.56593996
100	0x3ebcf262	0.36903673
101	0xbe82684d	-0.254702
102	0xbeb69b2b	-0.3566526
103	0xbebf8330	-0.37404776
104	0xbe3b5421	-0.18293811
105	0x3f160422	0.58600056
106	0xbecc8a7b	-0.39949402
107	0xbf0c2b5c	-0.5475366
108	0xbe6af87d	-0.22946353
109	0xbf06e822	-0.52697957
110	0xbf05ce7d	-0.522682
111	0x3f007bd1	0.5018893
112	0x3f0d7c8b	0.5526816
113	0x3c99ca3f	0.018773196
114	0x3d17fc18	0.03710565
115	0xbdbb8bb3	-0.09157505
116	0xbdf60b0c	-0.12013826
117	0x3ee8df4c	0.45482862
118	0xbf71602c	-0.9428737
119	0xbf22ae84	-0.6354754
120	0xbd02626d	-0.031832147
121	0x3d866700	0.065626144
122	0xbcc46e49	-0.02397837
123	0xbf027eba	-0.5097462
124	0xbec924a9	-0.39285782
125	0x3ed1a842	0.40948683
126	0xbf0525d4	-0.52010846
127	0xbf187222	-0.5954915
128	0xbdcc739e	-0.0998299
129	0xbe0a3856	-0.13498053
130	0x3d9cf374	0.076636225
131	0xbdcdacfe	-0.10042761
132	0xbdde8435	-0.1086506
133	0x3e8c965b	0.27458462
134	0x3db363f3	0.08759298
135	0xbeba4f96	-0.36388844
136	0x3eabd7db	0.33563122
137	0x3bf4e266	0.007473278
138	0x3e576d44	0.21037775
139	0x3e402c0b	0.18766801
140	0xbe99ddce	-0.30052036
141	0xbd819329	-0.06326897
142	0x3c866def	0.016409842
143	0xbec419a5	-0.38300815
144	0xbe85ae54	-0.26109564
145	0xbe54a844	-0.20767313
146	0xbe201f2f	-0.15636896
147	0x3e273662	0.16329339
148	0xbf1c0474	-0.60944295
149	0xbea6f8ad	-0.326116
150	0x3e858994	0.26081526
151	0x3c516052	0.012779312
152	0xbe257439	-0.16157617
153	0x3e2f6def	0.1713178
154	0xbebadd95	-0.3649718
155	0x3f1ef095	0.6208585
156	0xbda44403	-0.08020785
157	0xbf297e4b	-0.6620833
158	0xbe3210c0	-0.17389202
159	0xbd91c274	-0.07117167

rnn.weight_hh_l0 f4 [32, 32]
0	0x3e25f943	0.16208367
1	0xbe5a20f6	-0.21301636
2	0xbed11078	-0.40832877
3	0x3ed169a0	0.40900898
4	0xbf03b89c	-0.51453567
5	0xbee5ea98	-0.44905543
6	0xbe5a5a29	-0.21323456
7	0xbd61c0e3	-0.05511559
8	0xbed70931	-0.419992
9	0x3f544573	0.8291847
10	0xbe52fe96	-0.2060493
11	0x3dc74a63	0.09730985
12	0xbec29b3f	-0.38009068
13	0xbf1d9f4e	-0.61571205
14	0x3e98927a	0.29799253
15	0x3eefa3e1	0.46804717
16	0xbf8009a6	-1.0002944
17	0x3e07cce2	0.1326175
18	0x3dd4354c	0.10361728
19	0xbdf79007	-0.12088018
20	0xbded67fd	-0.115921
21	0xbe9d45ef	-0.30717418
22	0xbda78922	-0.08180453
23	0x3e7923fe	0.24330136
24	0x3eac5b07	0.33663198
25	0xbf02ff76	-0.5117105
26	0xbecd8879	-0.40143183
27	0xbec81530	-0.39078665
28	0x3eddc52b	0.4331449
29	0x3f0efa5a	0.55850756
30	0x3ef02369	0.46902016
31	0xbea7f49e	-0.32803816
32	0xbed5f649	-0.41789463
33	0x3ce67727	0.028132988
34	0x3ec11a38	0.37715316
35	0xbf24fd78	-0.6444926
36	0x3ee7a14a	0.4524024
37	0x3e41e8f3	0.1893652
38	0x3ef0edcc	0.47056425
39	0xbd416bce	-0.04722195
40	0x3f1127dc	0.56701446
41	0xbebd8365	-0.3701431
42	0x3d4a167c	0.04933785
43	0xbd996165	-0.0748928
44	0x3ebe7383	0.37197503
45	0x3ee81975	0.45331922
46	0x3e9507d9	0.2910755
47	0xbf0ab876	-0.54187715
48	0x3ee878a3	0.4540454
49	0xbbbe65d0	-0.005810477
50	0xbf075583	-0.52864856
51	0xbea4d854	-0.32196295
52	0x3ef2ad14	0.47397673
53	0x3eb6e91a	0.35724717
54	0xbe486659	-0.19570293
55	0xbf0ade5a	-0.5424553
56	0xbe6ba5c0	-0.23012447
57	0x3f038616	0.51376474
58	0x3e5f1d3f	0.217885
59	0x3e2e6751	0.170316
60	0xbec22a73	-0.3792301
61	0xbdf1dea1	-0.11810041
62	0xbe893f01	-0.2680588
63	0x3f21e8b7	0.6324572
64	0xbd8ef2cf	-0.06979906
65	0x3de123d6	0.10993163
66	0xbf42bab9	-0.76066166
67	0x3f4d3df0	0.80172634
68	0xbf36f45a	-0.714666
69	0x3ddb930b	0.107214056
70	0xbf2dee98	-0.6794219
71	0x3e97b666	0.29631346
72	0xbebc3bdb	-0.36764416
73	0xbe85a288	-0.26100564
74	0xbe66579a	-0.22494355
75	0xbe4081c8	-0.18799508
76	0x3eaa0a0c	0.3321079
77	0xbe206cdd	-0.15666528
78	0xbf634ea2	-0.8879186
79	0x3f53eca3	0.82782954
80	0x3d43ff1a	0.047850706
81	0xbe9a3690	-0.30119753
82	0x3ef1cb28	0.47225308
83	0x3e391c96	0.18077311
84	0xbf3acad2	-0.7296573
85	0xbedda737	-0.43291637
86	0xbf6c39df	-0.92275804
87	0xbe3c366a	-0.18380132
88	0xbe91a7a9	-0.28448227
89	0xbf26b4fd	-0.65119916
90	0x3eab5168	0.33460546
91	0x3d2bf42f	0.04198092
92	0xbe6ed02c	-0.23321599
93	0x3e687b32	0.22703245
94	0x3d81cb1d	0.06337569
95	0xbec320e0	-0.3811102
96	0x3e5e35f1	0.21700265
97	0xbe9070b4	-0.28210986
98	0x3f4ffb2c	0.8124263
99	0xbf198217	-0.59964126
100	0x3f51b11a	0.8191086
101	0xbe3df470	-0.18550277
102	0x3f632707	0.88731426
103	0xbed5d5b6	-0.4176461
104	0x3f191156	0.5979208
105	0x3ea718aa	0.32636005
106	0x3c69f2f2	0.014279114
107	0xbd49a338	-0.049227923
108	0xbe526667	-0.20546876
109	0x3e344e55	0.17608006
110	0x3f5886d4	0.8458073
111	0xbf168ee6	-0.58811796
112	0x3f3a8820	0.7286396
113	0xbe9c9476	-0.30582017
114	0xbf3d79b6	-0.7401384
115	0xbe44f735	-0.19234927
116	0x3f3beb8d	0.73406297
117	0x3f280b4f	0.65642256
118	0x3d6e954b	0.058247846
119	0xbeecf4d5	-0.46280542
120	0x3db2f37d	0.08737848
121	0x3f43a185	0.76418334
122	0xbea069b1	-0.31330636
123	0x3dc399bd	0.095508076
124	0x3e8f2646	0.27958888
125	0xbea0bce0	-0.313941
126	0x3d9a15c5	0.075236835
127	0xbed5c16b	-0.4174913
128	0xbee2acf6	-0.44272584
129	0xbd33e159	-0.04391608
130	0xbe98a804	-0.29815686
131	0x3ef43220	0.47694492
132	0xbf352a82	-0.70767987
133	0xbd7ce56c	-0.06174223
134	0xbf53f8c4	-0.8280146
135	0x3e91889d	0.2842454
136	0xbf1f90e8	-0.62330484
137	0xbcf60131	-0.030029865
138	0x3e684132	0.2268112
139	0x3d869d38	0.06572956
140	0xbe6006eb	-0.21877639
141	0xbe4b51a2	-0.19855359
142	0xbf14422f	-0.5791349
143	0x3ef896e7	0.4855263
144	0xbf1c1c59	-0.60980755
145	0x3d52adf8	0.05143544
146	0x3f14b61f	0.58090395
147	0x3e918e34	0.28428805
148	0xbf2e6126	-0.68116987
149	0xbe6f61a4	-0.2337709
150	0xbf10f6af	-0.5662641
151	0xbdd88ee5	-0.1057413
152	0x3eafb857	0.34320328
153	0xbf37042a	-0.7149073
154	0xbe208483	-0.15675549
155	0xbb9a0913	-0.0047007888
156	0xbda5dfd7	-0.08099335
157	0x3dd90968	0.10597497
158	0x3da5bb08	0.08092314
159	0x3f1b8310	0.6074686
160	0xbf4bb668	-0.79575205
161	0x3e63ec15	0.22258027
162	0x3e283221	0.16425373
163	0xbeed7a7d	-0.46382514
164	0x3ef20a0c	0.4727329
165	0x3d192575	0.037389237
166	0x3eedf226	0.46473807
167	0xbec72375	-0.3889424
168	0x3e3f2daa	0.18669763
169	0xbf127294	-0.5720608
170	0xbe8982c3	-0.26857576
171	0xbe91a32a	-0.28444797
172	0x3f1c0f71	0.6096106
173	0x3f19aaec	0.6002643
174	0xbdb5a8c7	-0.08870082
175	0xbead4d07	-0.3384783
176	0x3e1e4aa5	0.15458162
177	0xbe9b290f	-0.30304763
178	0xbe81a99a	-0.25324708
179	0xbdfcacf4	-0.12337676
180	0x3f2e42a0	0.6807041
181	0x3e0393fe	0.12849423
182	0xbf271a4a	-0.6527449
183	0xbf36816c	-0.7129123
184	0xbf25458c	-0.64559245
185	0x3f275acd	0.65372926
186	0x3e4a9673	0.19783954
187	0x3e6f6080	0.23376656
188	0xbf3fa809	-0.74865776
189	0xbf06e24a	-0.5268904
190	0xbe7d7137	-0.2475022
191	0x3f2fa203	0.68606585
192	0xbeb56b9b	-0.3543366
193	0x3dd8be14	0.105831295
194	0xbf30373a	-0.6883427
195	0x3f01d8d1	0.5072146
196	0xbf1a3e57	-0.60251373
197	0xbdb6eee8	-0.089322865
198	0xbf317a90	-0.6932764
199	0x3e6d1025	0.2315069
200	0xbf18076c	-0.59386325
201	0x3c7720e3	0.015083524
202	0x3d66cfd0	0.05635053
203	0x3e6c9bde	0.23106334
204	0xbe6e60c9	-0.23279108
205	0xbe9759d1	-0.29560712
206	0xbeeb7447	-0.4598715
207	0x3f0a4fe2	0.5402814
208	0xbeee6dd8	-0.4656818
209	0xbe428648	-0.18996537
210	0x3f033184	0.5124743
211	0x3f16f217	0.5896315
212	0xbf34cd60	-0.7062588
213	0xbefee611	-0.49784902
214	0x3dd1f48d	0.102517225
215	0x3e44632c	0.19178456
216	0xbcc3e221	-0.023911538
217	0xbefe62d6	-0.4968478
218	0xbdd516fd	-0.10404775
219	0xbb83d3d1	-0.004023053
220	0xba42b887	-0.00074280094
221	0x3e79e866	0.24405059
222	0x3db6f81f	0.08934044
223	0xbe9860a4	-0.2976123
224	0xbe91dc53	-0.28488407
225	0xbf0f8b8e	-0.5607232
226	0xbe5a4c41	-0.21318151
227	0x3e19646a	0.14979711
228	0xbdf925a3	-0.12165382
229	0xbe3540ea	-0.17700544
230	0xbd49e9ab	-0.04929511
231	0x3e218f06	0.15777215
232	0xbe10f63a	-0.14156428
233	0x3e1e5e9f	0.15465783
234	0x3ec0320b	0.3753818
235	0x3f0ae6ca	0.54258406
236	0xbe3f18d5	-0.18661816
237	0xbe6c4cb1	-0.2307613
238	0xbde7799d	-0.11302493
239	0x3df1fc5c	0.11815712
240	0xbe83913a	-0.25696737
241	0x3e1bed57	0.15227257
242	0xbd941834	-0.07231179
243	0x3ef0846b	0.46976027
244	0xbddc30c8	-0.10751492
245	0xbf14c879	-0.58118397
246	0x3c0fe5a1	0.008782775
247	0xbf1d349b	-0.61408395
248	0x3ddb8254	0.107182175
249	0xbe10fbf1	-0.14158608
250	0xbf160e2d	-0.5861538
251	0xbee7127a	-0.45131284
252	0x3f256076	0.6460031
253	0x3d8e18ea	0.06938346
254	0x3e404f1b	0.18780176
255	0xbf53e281	-0.8276749

rnn.bias_ih_l0 f4 [32]
0	0x3f0c34bd	0.5476797
1	0xbea6ce29	-0.32579163
2	0x3f10249c	0.5630586
3	0xbe9ee410	-0.31033373
4	0x3e9b7cc1	0.30368617
5	0xbe512a89	-0.20426382
6	0x3ed8b88b	0.42328295
7	0x3ec67c2b	0.38766608
8	0x3ec844cd	0.3911499
9	0x3f1eea81	0.62076575
10	0x3e83868b	0.25688586
11	0xbd3c4682	-0.04596568
12	0xbea1b46d	-0.31582966
13	0x3e0c0a7f	0.13675879
14	0x3f0587e8	0.521605
15	0xbeafbe76	-0.34324998
16	0x3ea2727d	0.31727973
17	0x3e2370ac	0.1596095
18	0xbf054280	-0.52054596
19	0xbeb83b92	-0.3598295
20	0x3f3f4a50	0.74722767
21	0x3e7602e8	0.24024546
22	0xbdf4c49a	-0.11951561
23	0x3f1499c6	0.5804714
24	0x3e875d68	0.2643845
25	0x3f06616f	0.5249242
26	0xbe10c296	-0.14136729
27	0xbe904b14	-0.2818228
28	0x3e9015df	0.28141686
29	0x3ecce9ac	0.40022027
30	0x3e96435f	0.29348275
31	0xbd03772a	-0.032096066

rnn.bias_hh_l0 f4 [32]
0	0x3f1f215c	0.6216028
1	0xbebb8ebe	-0.3663234
2	0x3ef3d90e	0.47626537
3	0xbe91f435	-0.28506628
4	0x3eb72a0b	0.35774264
5	0xbe264f70	-0.1624124
6	0x3f07783b	0.5291783
7	0x3e05bf17	0.13061176
8	0x3eb9f15b	0.36316952
9	0x3ee0e497	0.439244
10	0x3d81ed2b	0.06344064
11	0xbb194d72	-0.0023392108
12	0xbeaa8880	-0.33307266
13	0x3e30a23d	0.17249389
14	0x3f046278	0.5171275
15	0xbea77745	-0.32708183
16	0x3eb79729	0.35857514
17	0x3e5bd6ae	0.21468613
18	0xbeebf627	-0.46086237
19	0xbf2586d0	-0.6465883
20	0x3f0625c6	0.5240139
21	0x3eac6a5c	0.33674896
22	0xbdd01111	-0.10159505
23	0x3f12bc33	0.5731842
24	0x3f0f4bda	0.55975115
25	0x3edc3806	0.43011492
26	0xbe6f689a	-0.23379746
27	0xbe325791	-0.17416216
28	0x3e9d0685	0.30669037
29	0x3e3abaac	0.18235272
30	0x3e17ccc1	0.14824201
31	0x3d2b7b41	0.04186559

rnn.weight_ih_l1 f4 [32, 32]
0	0x3dd15e0f	0.102230184
1	0xbf344b01	-0.70426947
2	0x3f09965d	0.5374506
3	0xbf6dd170	-0.928977
4	0x3f05e42c	0.5230129
5	0xbe45423e	-0.1926355
6	0x3f05f65b	0.52329034
7	0xbf2a242e	-0.66461456
8	0x3ea76b74	0.32699168
9	0xbdbc7dee	-0.09203707
10	0x3f7a8da8	0.978724
11	0x3f221c9a	0.6332489
12	0x3e091ff0	0.1339109
13	0x3f45c1eb	0.7724902
14	0x3e8620c8	0.26196885
15	0xbef6d57c	-0.4820975
16	0xbd218018	-0.0394288
17	0x3f6c9a6e	0.9242314
18	0xbe0f21bc	-0.13977712
19	0x3ee7dff3	0.45288047
20	0x3ed366fc	0.41289508
21	0x3e28d7e9	0.16488613
22	0xbd15a11d	-0.036530603
23	0x3d657fef	0.05603021
24	0xbd24488c	-0.04010825
25	0x3f3d560a	0.7395941
26	0xbe436aab	-0.1908366
27	0xbe27d8ac	-0.16391248
28	0x3e853b37	0.2602174
29	0xbf2f2338	-0.68413115
30	0x3e9bcafb	0.304283
31	0x3e26ed6a	0.16301504
32	0x3e3e8a11	0.18607356
33	0x3ede62b4	0.4343468
34	0xbf3bfd89	-0.7343374
35	0x3f1536d5	0.5828679
36	0xbef33229	-0.47499207
37	0x3db608a6	0.08888368
38	0xbec5021a	-0.38478166
39	0x3ea89a5f	0.32930276
40	0xbebbc1a0	-0.36671162
41	0x3f0f987d	0.56092054
42	0xbf046eb8	-0.51731443
43	0xbe8d9b5b	-0.2765759
44	0x3e8ddfd4	0.2770983
45	0xbf0fc9db	-0.5616738
46	0xbea8b8a0	-0.32953358
47	0x3f0d9307	0.5530247
48	0xbf0b8226	-0.54495466
49	0xbe9bf291	-0.304585
50	0x3e8ae299	0.27126005
51	0xbe35ec36	-0.17765889
52	0xbcec7932	-0.028866384
53	0xbf32670c	-0.6968849
54	0xbf0738ac	-0.5282085
55	0x3f08c4c7	0.5342526
56	0x3f0b8618	0.54501486
57	0xbf1918ce	-0.59803474
58	0x3dfd3ed9	0.12365503
59	0x3ef20208	0.47267175
60	0xbea049c6	-0.31306285
61	0x3f002cfc	0.5006864
62	0xbf1d89c5	-0.61538345
63	0x3eb41e50	0.35179377
64	0x3ec37eb7	0.38182613
65	0x3e8dc5b7	0.27689907
66	0xbf2268f0	-0.6344137
67	0x3f1e5ba5	0.6185859
68	0xbe2a8d78	-0.16655529
69	0x3d8052dc	0.06265804
70	0xbe2157e9	-0.15756191
71	0xbdacd654	-0.08439317
72	0xbf6860d8	-0.9077277
73	0x3f10fce4	0.5663588
74	0xbefef3ed	-0.49795476
75	0xbe6197d2	-0.22030571
76	0xbf143681	-0.57895666
77	0xbf25f33c	-0.6482427
78	0xbe9b2f44	-0.30309498
79	0x3f33f65e	0.702978
80	0xbe4e5458	-0.20149362
81	0xbe927d49	-0.2861121
82	0x3ed2165e	0.4103269
83	0x3baa744e	0.005201853
84	0xbce9366a	-0.02846833
85	0xbecaa524	-0.39579117
86	0x3e3c8fd1	0.18414237
87	0x3e2c0388	0.16798222
88	0x3ec48534	0.38382876
89	0xbe332f7f	-0.17498587
90	0xbddcc06b	-0.10778888
91	0x3e3880b8	0.18017852
92	0x3cb0aafb	0.021565905
93	0x3ec3db27	0.38253137
94	0x3d790c24	0.060802594
95	0xbedcc837	-0.43121502
96	0xbe5f622b	-0.21814792
97	0x3f177577	0.5916361
98	0x3d7a3141	0.06108213
99	0xbf28cd23	-0.65938014
100	0xbdc6af0d	-0.09701357
101	0x3e328128	0.17432082
102	0xbebae7ea	-0.3650506
103	0x3eb3e8db	0.35138592
104	0x3f967e39	1.175727
105	0xbb1906f0	-0.0023350082
106	0xbe1f8c6b	-0.15580909
107	0xbdca30e4	-0.098726064
108	0x3e1efe68	0.15526736
109	0x3f002eed	0.50071603
110	0xbe952d5f	-0.29136178
111	0xbe6297d6	-0.22128233
112	0xbe3fb794	-0.18722373
113	0xbd03b1f7	-0.032152142
114	0x3ecac2ff	0.39601895
115	0xbe96de83	-0.29466638
116	0xbedff785	-0.4374353
117	0x3edf5a4b	0.43623576
118	0xbf30de90	-0.69089603
119	0xbdffc59c	-0.12488863
120	0x3e263d83	0.16234402
121	0xbe426229	-0.18982758
122	0x3ecc79b1	0.39936593
123	0x3ebab6c5	0.36467567
124	0xbf2fcf9c	-0.6867616
125	0xbe64e7f0	-0.22354102
126	0x3e3aa985	0.18228729
127	0x3f415e37	0.75534385
128	0x3e3d70d6	0.18500075
129	0xbdd05b03	-0.10173609
130	0xbe16a2de	-0.14710566
131	0xbddbc2d9	-0.107305236
132	0x3cee9a40	0.029126287
133	0xbf32a3fa	-0.6978146
134	0xbcea8f94	-0.028632917
135	0x3f2ce266	0.67532957
136	0xbdc71fd0	-0.09722865
137	0x3f844e89	1.0336467
138	0x3da76ff7	0.081756525
139	0x3f0c1d14	0.5473187
140	0xbe924b8e	-0.2857327
141	0xbe20e4ec	-0.15712327
142	0x3d2e5e63	0.042570483
143	0x3d5320b8	0.051544875
144	0xbe313e45	-0.1730891
145	0x3daafed5	0.083493866
146	0x3e7cc25a	0.24683514
147	0xbf2eeee9	-0.683333
148	0xbd8a202f	-0.0674442
149	0xbefab5f1	-0.48966935
150	0xbe9dbad5	-0.30806604
151	0x3ec58691	0.3857923
152	0x3ece799d	0.4032716
153	0x3e868268	0.26271367
154	0xbf0fa75e	-0.5611476
155	0x3daa2b37	0.08309024
156	0x3ee92575	0.4553639
157	0x3f07f241	0.53104025
158	0x3f5c028b	0.8594138
159	0xbe917bfb	-0.28414902
160	0x3d911b9f	0.070853464
161	0xbf0b29be	-0.5436057
162	0xbd7a6a77	-0.06113669
163	0xbe0a44a8	-0.13502753
164	0x3e8f8179	0.28028467
165	0xbed1c038	-0.40966964
166	0x3ebd5921	0.36982062
167	0x3e5b7423	0.21431021
168	0x3eab4c53	0.33456668
169	0x3e6594ea	0.22420087
170	0x3e800119	0.25000837
171	0x3ecfcc55	0.4058558
172	0xbe72741c	-0.23677105
173	0xbe2fffae	-0.17187378
174	0x3eb2e0a5	0.34937015
175	0xbe3d462a	-0.18483797
176	0x3e8f4304	0.27980816
177	0xbe46303a	-0.19354334
178	0xbf15b9d4	-0.58486676
179	0xbd58a537	-0.052891936
180	0x3f5da9d3	0.86587256
181	0x3d5d546b	0.054035585
182	0x3ebd8aa5	0.3701984
183	0x3e106f42	0.14104941
184	0x3e84bc7c	0.25925052
185	0x3f0d80c8	0.5527463
186	0xbf679159	-0.9045616
187	0xbea6a180	-0.3254509
188	0x3eb9d1ca	0.3629287
189	0x3dba151f	0.0908606
190	0x3e055fbe	0.13024804
191	0xbe8f6d34	-0.28013003
192	0xbebab5a0	-0.36466694
193	0x3e7c44b0	0.24635577
194	0xbf0eaad7	-0.5572943
195	0x3e49f25b	0.19721358
196	0xbe918e13	-0.28428707
197	0x3eb46e74	0.3524052
198	0xbecb6f50	-0.39733362
199	0xbece7455	-0.4032313
200	0xbe580151	-0.21094252
201	0xbea5011d	-0.32227412
202	0xbece4dda	-0.4029377
203	0xbee9abad	-0.4563879
204	0x3ecaa423	0.3957835
205	0x3eb43ba5	0.35201755
206	0xbf1255ed	-0.5716236
207	0x3e3a135e	0.1817145
208	0xbd5d06fb	-0.053961735
209	0xbde19f12	-0.110166684
210	0x3f0df6af	0.55454534
211	0x3ca193fa	0.019723881
212	0xbeec904e	-0.46203846
213	0xbdaf4dcc	-0.085597605
214	0xbed1a1cb	-0.4094375
215	0xbe681413	-0.22663908
216	0xbe4d43c8	-0.20045388
217	0xbdfb0cfb	-0.12258335
218	0x3f17a099	0.5922943
219	0x3e6c9111	0.23102213
220	0xbf644bc4	-0.8917811
221	0xbda2cfb1	-0.0794977
222	0xbd334168	-0.043763548
223	0x3cdf190a	0.02723362
224	0xbea3e714	-0.32012236
225	0x3ee99fe8	0.4562981
226	0xbece1571	-0.40250733
227	0xbe0c2f48	-0.13689911
228	0xbd55c189	-0.052186523
229	0x3e90fe9d	0.28319255
230	0xbf11c200	-0.56936646
231	0x3e81e456	0.2536952
232	0xbddcbe8b	-0.10778531
233	0xbd1c0d36	-0.038098536
234	0xbda6b8d2	-0.081407204
235	0xbe89b418	-0.26895213
236	0x3f256301	0.6460419
237	0x3e7bf873	0.24606495
238	0xbe891272	-0.26771885
239	0x3dd0e47d	0.10199831
240	0x3cac93f2	0.02106664
241	0x3c9ed4b4	0.019388534
242	0x3f2f2835	0.68420726
243	0x3bf50de6	0.0074784635
244	0xbe740a59	-0.23832072
245	0xbe214609	-0.15749373
246	0xbecf20cf	-0.40454718
247	0x3d8aadf4	0.0677146
248	0x3cdf9c3f	0.027296184
249	0xbde5ba0a	-0.11217125
250	0x3f39ac97	0.72528976
251	0x3f14906c	0.5803287
252	0xbecd1cd4	-0.40061057
253	0xbc4cb4ef	-0.01249431
254	0xbf04d702	-0.51890576
255	0x3e361791	0.17782427

rnn.weight_hh_l1 f4 [32, 32]
0	0xbdcc9b40	-0.09990549
1	0x3ebc8342	0.36818892
2	0x3eb6cf96	0.3570525
3	0x3d5d57f3	0.054038953
4	0x3da26914	0.07930198
5	0xbdb4a7c4	-0.08821061
6	0x3f34d0c4	0.7063105
7	0xbd79f8bc	-0.061028227
8	0xbf0346a7	-0.5127968
9	0x3dd97576	0.10618107
10	0x3edf1208	0.43568444
11	0x3e0d1b34	0.13779908
12	0xbdf13789	-0.117781706
13	0x3e588c52	0.21147278
14	0xbe516b6c	-0.20451134
15	0xbd40128d	-0.04689269
16	0x3e0f9407	0.14021312
17	0xbe7a0072	-0.24414232
18	0x3b865553	0.004099527
19	0xbf27c4af	-0.6553449
20	0x3ee7b4f6	0.4525525
21	0xbec9eae7	-0.3943703
22	0xbf1f0460	-0.6211605
23	0x3e2d8235	0.16944201
24	0x3edaef49	0.42760685
25	0x3ead2039	0.33813646
26	0x3eab30bd	0.33435622
27	0x3e05dbca	0.13072124
28	0xbe99b9bb	-0.30024514
29	0x3dc9d4a2	0.098550096
30	0x3ef515ab	0.47868094
31	0xbe442d26	-0.19157848
32	0x3eac0d83	0.3360406
33	0xbd5e19c6	-0.0542238
34	0x3dce150a	0.10062607
35	0x3e866279	0.26247004
36	0x3e535c6a	0.20640722
37	0x3e55191d	0.20810361
38	0xbe8d7b73	-0.27633247
39	0xbee3f472	-0.44522434
40	0x3e99d8ae	0.30048126
41	0x3eb7a5df	0.35868737
42	0xbce72516	-0.028215926
43	0x3eadf207	0.33973715
44	0x3ecb0918	0.39655375
45	0xbeabc43e	-0.33548158
46	0xbedf332c	-0.4359373
47	0x3eff3259	0.498431
48	0xbe12c2cd	-0.14332123
49	0x3e51142d	0.20417853
50	0x3ecf93f2	0.4054256
51	0x3e2975c0	0.16548824
52	0xbe8a2437	-0.26980755
53	0x3e460a47	0.19339858
54	0x3f11b892	0.56922257
55	0x3f156e72	0.5837165
56	0xbf569653	-0.83823127
57	0x3e194dae	0.14971039
58	0xbf1f906c	-0.62329745
59	0x3eb174b0	0.34659338
60	0x3e98ad4f	0.29819724
61	0xbdd24f45	-0.10269026
62	0xbf31bb3c	-0.6942632
63	0x3eaf3070	0.34216642
64	0xbef2cce6	-0.4742195
65	0x3e2d44ee	0.16920826
66	0x3db8f22d	0.09030566
67	0xbee35a0c	-0.44404638
68	0x3e99516a	0.29944927
69	0x3e9dab57	0.30794784
70	0xbe18332c	-0.1486327
71	0xbf07bfa3	-0.5302679
72	0x3e639e5b	0.22228377
73	0x3e428d4b	0.18999211
74	0xbeb31e18	-0.34983897
75	0x3ec678e2	0.387641
76	0x3dfb0de8	0.12258512
77	0xbeead1b2	-0.4586311
78	0xbe8a7573	-0.27042732
79	0x3edd71c7	0.43250868
80	0xbead9e71	-0.33909944
81	0xbf5689a9	-0.838038
82	0xbe319d7b	-0.1734523
83	0x3e94b0b3	0.2904106
84	0xbebaec78	-0.36508536
85	0xbe9afda8	-0.3027165
86	0x3ea2b4e9	0.31778648
87	0xbcfa34df	-0.030542789
88	0xbe49e032	-0.1971443
89	0x3ccd3232	0.025048349
90	0xbe4486d3	-0.19192056
91	0x3f3d4dbb	0.7394673
92	0x3f2c169a	0.6722199
93	0xbf0352af	-0.5129804
94	0xbe174a81	-0.14774515
95	0x3e807f9b	0.25097355
96	0x3f2f988e	0.68592155
97	0xbde2398f	-0.11046135
98	0xbf2416ef	-0.64097494
99	0x3e4e0181	0.20117761
100	0x3f1365fd	0.57577497
101	0x3e6448a9	0.22293343
102	0xbd8ee784	-0.06977752
103	0x3d6231b2	0.055223174
104	0x3ebe13d5	0.37124506
105	0x3f87aa9b	1.059894
106	0xbf22c68b	-0.635842
107	0xbf4b703f	-0.7946815
108	0x3f5ba212	0.85794175
109	0x3f9e434f	1.2364291
110	0xbe8d5386	-0.27602786
111	0xbe1a89b5	-0.15091594
112	0xbd894d54	-0.06704202
113	0xbef23a15	-0.47309938
114	0x3f51958a	0.81868804
115	0xbd67de1b	-0.0566083
116	0xbe926dd0	-0.28599405
117	0xbf4c162c	-0.7972133
118	0x3e6de328	0.23231184
119	0x3f5c52fe	0.86064136
120	0x3d1461f1	0.036226217
121	0x3f513dcb	0.81734914
122	0xbe7fd13b	-0.24982159
123	0xbf0af46e	-0.5427922
124	0x3e77b38d	0.24189587
125	0x3d9e3c98	0.07726401
126	0x3d92d582	0.0716963
127	0x3ed42743	0.41436204
128	0xbe6c975d	-0.23104616
129	0xbe4010b7	-0.18756376
130	0xbe2e4f45	-0.17022426
131	0xbe067bba	-0.13133135
132	0x3ca4e195	0.020127097
133	0xbe4b0779	-0.1982707
134	0x3daff6da	0.08592005
135	0xbd2f0d00	-0.042737007
136	0x3cb61c19	0.022230195
137	0xbdace307	-0.084417395
138	0xbd7361b8	-0.059419364
139	0xbdff7825	-0.124740876
140	0xbda15e83	-0.07879355
141	0xbf207447	-0.62677425
142	0xbe02618c	-0.12732524
143	0x3ecbc5b2	0.39799267
144	0x3d2b9ba3	0.041896474
145	0xbe9c5464	-0.30533135
146	0xbdf7d75e	-0.12101625
147	0xbeb221d8	-0.34791446
148	0x3e9f128e	0.31068844
149	0xbf2b6160	-0.6694546
150	0x3e5b6727	0.21426068
151	0x3e041775	0.12899573
152	0xbec181f6	-0.37794465
153	0x3e82e2d9	0.25563696
154	0xbee0e495	-0.43924394
155	0x3edd58d7	0.43231842
156	0x3eb8cb93	0.36092815
157	0xbbc09dab	-0.0058781705
158	0x3e945ec6	0.28978556
159	0xbe2e95b2	-0.17049292
160	0xbeff70f4	-0.49890864
161	0xbed4f855	-0.41595712
162	0xbe9efae9	-0.31050804
163	0xbcf80c8c	-0.03027942
164	0xbdc2e239	-0.09515805
165	0xbee7a71a	-0.45244676
166	0x3ee6aa0d	0.45051613
167	0x3d67ec9b	0.05662213
168	0xbf00ca4e	-0.5030869
169	0xbf001814	-0.5003674
170	0x3e7634c2	0.24043563
171	0xbded0a60	-0.115742445
172	0xbeb9a984	-0.36262143
173	0xbe0d8975	-0.13821967
174	0x3eb3a8d9	0.35089758
175	0x3d158cd7	0.03651127
176	0x3e851240	0.25990486
177	0xbee7f202	-0.45301825
178	0xbd8e7063	-0.0695503
179	0xbf0ec9ac	-0.55776477
180	0x3f3ae57e	0.7300643
181	0x3f015733	0.5052368
182	0xbeccb59f	-0.39982316
183	0xbe2336d9	-0.15938891
184	0xbe619d4e	-0.22032663
185	0x3f0215ac	0.5081432
186	0xbe9fecb6	-0.31235284
187	0x3ed466b9	0.4148462
188	0x3ec192ec	0.37807405
189	0x3ebbb9fe	0.36665338
190	0xbe882f87	-0.2659876
191	0xbf5ba86b	-0.8580386
192	0x3ed76437	0.42068645
193	0xbde51452	-0.111855164
194	0x3f1cd12c	0.6125667
195	0xbdc3f783	-0.095686935
196	0x3ef20b6c	0.4727434
197	0x3ebb9134	0.3663422
198	0xbe0038a4	-0.12521607
199	0x37feb739	3.036448e-05
200	0x3e97ef0b	0.29674563
201	0x3ee76e3c	0.4520129
202	0xbf1e4e8c	-0.61838603
203	0xbc994e7f	-0.018714188
204	0x3ea0ccda	0.3140629
205	0x3efd9b6b	0.49532637
206	0xbeaf06ac	-0.34184778
207	0x3ea315b8	0.31852508
208	0xbeccadc0	-0.3997631
209	0x3e8f08ab	0.279363
210	0x3ec1508b	0.37756762
211	0x3ec3531a	0.3814934
212	0xbeb98b10	-0.3623891
213	0xbc57719a	-0.013149643
214	0x3eaf716d	0.34266225
215	0x3f0e2c61	0.55536467
216	0x3e1a0022	0.15039113
217	0xbecb027b	-0.3965033
218	0xbdf0e76b	-0.117628895
219	0xbe273e2e	-0.16332313
220	0xbe1106bc	-0.14162725
221	0xbe1e5a7f	-0.15464209
222	0xbe6d5070	-0.23175216
223	0x3f0ff51a	0.5623337
224	0x3f30605b	0.68897027
225	0xbe6d39dd	-0.23166604
226	0xbcdcc98d	-0.026951576
227	0x3e841e02	0.25804144
228	0xbcfea4c2	-0.031084422
229	0x3e0c283a	0.1368722
230	0xbd529e72	-0.051420636
231	0x3d27d9c3	0.040979158
232	0x3e49dc29	0.1971289
233	0x3f1c3cfb	0.6103055
234	0xbebbdbbc	-0.36691082
235	0xbe99f301	-0.3006821
236	0x3f2baf83	0.67064685
237	0x3efcc3da	0.49368173
238	0xbdc377bc	-0.09544322
239	0xbd672bd7	-0.056438293
240	0xbe921df9	-0.28538492
241	0xbe5bd3b6	-0.2146748
242	0x3f2ef4f7	0.68342537
243	0x3e3880c5	0.18017872
244	0xbe64dadf	-0.22349118
245	0xbedeabd0	-0.43490458
246	0x3e489aff	0.19590376
247	0x3f0711d4	0.5276158
248	0x3e490d1e	0.1963391
249	0x3ef74c29	0.48300293
250	0xbe3453a4	-0.17610031
251	0xbe92daf2	-0.28682667
252	0xbde65fa0	-0.11248708
253	0xbd2a90e2	-0.041642077
254	0x3e5970a4	0.21234375
255	0x3eef6cc9	0.46762684

rnn.bias_ih_l1 f4 [32]
0	0x3e683638	0.22676933
1	0x3e90b139	0.2826021
2	0xbf23c3af	-0.63970464
3	0x3f198fe2	0.5998517
4	0xbca356cc	-0.019938849
5	0xbcf012b8	-0.0293058
6	0x3bc9c0bf	0.0061570103
7	0xbc7d33ad	-0.015454215
8	0x3e84ef24	0.259637
9	0xbe8439dd	-0.25825396
10	0x3e358fbc	0.17730612
11	0xbddd553c	-0.10807273
12	0xbebba10f	-0.36646315
13	0x3e74249b	0.23842089
14	0x3e9920b2	0.29907757
15	0xbdee9418	-0.116493404
16	0x3eafbfdf	0.34326074
17	0x3e86fc20	0.2636423
18	0x3e889b8d	0.26681176
19	0x3ef9e057	0.4880397
20	0xbe0f0580	-0.13966942
21	0xbdf90b0f	-0.121603124
22	0x3e9c146f	0.3048434
23	0xbe1eb67b	-0.15499298
24	0xbd81d772	-0.06339921
25	0xbe699c9a	-0.22813645
26	0xbd050a5c	-0.032480583
27	0x3e804b0a	0.2505725
28	0x3e071d6a	0.13194814
29	0x3ea38ec8	0.3194487
30	0xbdb82065	-0.08990554
31	0x3eaeea3e	0.34163088

rnn.bias_hh_l1 f4 [32]
0	0x3df35992	0.118823186
1	0x3eabe457	0.33572647
2	0xbeef2e8c	-0.467152
3	0x3f61c248	0.88187075
4	0x3e5225e2	0.20522264
5	0xbe2a1e27	-0.16613065
6	0x3e06a0a7	0.13147222
7	0xbd56c9e6	-0.05243864
8	0x3e71e6e3	0.23623233
9	0x3c6f00a6	0.014587557
10	0x3cd6686c	0.02617284
11	0xbe41c40b	-0.1892244
12	0xbe6d1243	-0.23151498
13	0x3edbccd1	0.429297
14	0x3efb6c2f	0.49105975
15	0xbe836692	-0.25664192
16	0x3ec77907	0.38959524
17	0x3f00ecdf	0.50361437
18	0x3e5dd845	0.21664532
19	0x3e377dd4	0.17919093
20	0x3e3afd2d	0.18260641
21	0x3df8d01d	0.121490695
22	0x3e2f3aea	0.17112318
23	0xbea5b41b	-0.32363972
24	0xbc31d561	-0.010854096
25	0x3c3d1c16	0.011542341
26	0xbdd480b3	-0.1037611
27	0x3e95d741	0.29265788
28	0x3d98d677	0.07462781
29	0x3e754b8f	0.23954605
30	0xbd8cb88e	-0.068711385
31	0x3e7190da	0.23590413

rnn.weight_ih_l2 f4 [32, 32]
0	0x3ed18b19	0.40926436
1	0x3e640f30	0.22271419
2	0xbf0f76a8	-0.5604043
3	0x3c406902	0.011743786
4	0x3dc0ccfa	0.09414096
5	0x3ee5089a	0.44733125
6	0xbf5e6728	-0.86876154
7	0x3e1a4008	0.15063488
8	0x3ed60017	0.41796944
9	0x3eb498bf	0.35272786
10	0xbf2fd448	-0.6868329
11	0x3e5eef02	0.21770862
12	0x3ebdd31a	0.3707512
13	0x3e770d9d	0.24126287
14	0xbeeb2fd3	-0.45934924
15	0x3f0d1d2f	0.55122656
16	0xbf281132	-0.6565124
17	0x3c723c13	0.014784831
18	0x3ef8ed31	0.48618463
19	0x3e5a0523	0.21291022
20	0xbf0b0158	-0.54298925
21	0x3f362acc	0.7115905
22	0x3f47c26c	0.7803104
23	0x3e95d6a7	0.2926533
24	0xbf381a99	-0.71915585
25	0xbe6570b1	-0.2240627
26	0xbf430c0f	-0.76190275
27	0xbf0942fd	-0.5361784
28	0xbe457fbd	-0.1928701
29	0x3dcdbb7d	0.10045526
30	0xbf3b65b2	-0.7320205
31	0x3efbe982	0.4920159
32	0x3f1bd995	0.6087888
33	0xbef52dd1	-0.47886518
34	0xbe10e303	-0.14149098
35	0x3f1766f9	0.591415
36	0xbb4647d1	-0.0030255208
37	0x3e31c21b	0.17359202
38	0xbeceaa74	-0.4036442
39	0x3eaa5cd0	0.33273935
40	0x3e887668	0.26652837
41	0xbcfd4304	-0.030915745
42	0xbe2f6c47	-0.17131148
43	0xbe72a6a2	-0.23696378
44	0x3e47bed9	0.19506396
45	0x3d5a0374	0.05322595
46	0xbe693d8f	-0.22777389
47	0x3e3e223b	0.18567745
48	0xbedfa379	-0.43679407
49	0x3e6be2f0	0.23035789
50	0x3f05cf58	0.52269506
51	0x3e8654e7	0.2623665
52	0xbe919c4c	-0.28439558
53	0x3f0e1714	0.55503964
54	0x3e98e830	0.29864645
55	0x3f097bfe	0.5370482
56	0xbe9755ff	-0.29557797
57	0xbe460877	-0.19339167
58	0xbf13d79d	-0.57750875
59	0xbf2e8142	-0.6816598
60	0xbe91a17a	-0.2844351
61	0x3edc5f29	0.4304135
62	0xbededcad	-0.43527737
63	0x3eb44f0e	0.35216564
64	0x3f141f5c	0.5786035
65	0xbed3ecb1	-0.4139152
66	0xbeac2712	-0.33623558
67	0x3ebc2f46	0.36754817
68	0x3e52424b	0.20533101
69	0x3ee3cbec	0.44491518
70	0xbec639a0	-0.3871584
71	0x3c3fc6b9	0.011705094
72	0x3e5d6758	0.21621454
73	0x3e25b732	0.16183165
74	0xbeb0a4bc	-0.34500682
75	0xbdaf459f	-0.08558201
76	0x3e505b57	0.20347343
77	0x3e8c0837	0.27350017
78	0xbea73624	-0.32658494
79	0x3e9a7f70	0.30175352
80	0xbf284e20	-0.6574421
81	0x3e60593f	0.21909045
82	0x3ec504d2	0.3848024
83	0x3dd27ec6	0.10278086
84	0xbe870f15	-0.26378694
85	0x3e1d4843	0.15359597
86	0x3f15a5ae	0.5845593
87	0xbcf98831	-0.030460449
88	0xbf08b4bd	-0.53400785
89	0xbe944481	-0.28958514
90	0xbe96d527	-0.29459497
91	0xbefd2543	-0.4944249
92	0x3e3160bf	0.17322062
93	0xbd3c8e96	-0.046034418
94	0xbf0b3a31	-0.5438567
95	0x3e9fe397	0.31228325
96	0x3e33647c	0.175188
97	0xbe83a996	-0.2571532
98	0x3c7dccea	0.01549075
99	0x3c754a6c	0.014971357
100	0x3ce181de	0.027527746
101	0x3ede45de	0.4341268
102	0xbef170d4	-0.47156394
103	0x3e7704f7	0.24122988
104	0x3dd087ab	0.101821266
105	0x3df4e007	0.11956792
106	0xbe9f42da	-0.3110569
107	0x3ef64ab8	0.4810388
108	0x3d5f295f	0.054482814
109	0x3e6b0272	0.22950152
110	0xbee7926c	-0.452289
111	0x3ea0c37b	0.3139914
112	0xbf10fd88	-0.5663686
113	0x3d34147e	0.043964855
114	0x3e95a06e	0.2922396
115	0x3e178bf9	0.14799489
116	0xbe99e92d	-0.30060712
117	0x3ef72a7b	0.48274598
118	0x3f0d0035	0.5507844
119	0x3e0e1b21	0.13877536
120	0xbeaae0f4	-0.3337475
121	0xbefee512	-0.49784142
122	0xbeaaab61	-0.33333877
123	0xbf257fe9	-0.646483
124	0xbec58595	-0.38578478
125	0x3e363204	0.17792517
126	0xbf202315	-0.6255353
127	0x3d33fe8c	0.043943927
128	0x3d02dd25	0.03194918
129	0xbdb766d4	-0.0895516
130	0xbecc8e90	-0.39952517
131	0x3ecd5a86	0.40108126
132	0xbe9d5dcb	-0.3073562
133	0xbf053612	-0.5203563
134	0x3ef4db27	0.4782345
135	0x3de4f011	0.111786015
136	0xbe9db8df	-0.30805108
137	0xbefaf5d7	-0.49015686
138	0x3f0a3cdd	0.5399912
139	0xbea6c281	-0.3257027
140	0xbeab4b5a	-0.33455926
141	0x3e83fcf3	0.25778922
142	0x3eabbba4	0.33541596
143	0xbe82d1f5	-0.2555081
144	0x3f2164b2	0.63044274
145	0xbe6efceb	-0.23338668
146	0xbe82d2c8	-0.25551438
147	0xbf25b157	-0.64723724
148	0x3ee96058	0.45581317
149	0x3e5a593a	0.213231
150	0xbf049964	-0.51796556
151	0xbecd8598	-0.40140986
152	0x3e06e5c7	0.1317359
153	0x3eb5b645	0.35490623
154	0x3e2434fa	0.16035834
155	0x3efb0344	0.4902593
156	0xbe446ba5	-0.19181688
157	0x3ddf9b63	0.109183095
158	0x3f17eae5	0.59342796
159	0xbf008271	-0.5019904
160	0xbe651e23	-0.22374777
161	0x3f6d3b9a	0.9266907
162	0x3f9e74d6	1.2379405
163	0xbe545026	-0.20733699
164	0x3f5f54fd	0.87239057
165	0x3e72034f	0.23634075
166	0xbc9a50d2	-0.018837366
167	0x3e035815	0.1282657
168	0xbdb6160b	-0.08890923
169	0xbe1f82ed	-0.15577288
170	0x3e5610e4	0.20904881
171	0x3f2d9417	0.6780409
172	0xbe84771c	-0.25872123
173	0xbe8016ec	-0.25017488
174	0xbe99fe97	-0.3007705
175	0x3dac2aad	0.08406577
176	0xbeb285e2	-0.3486777
177	0xbd948bcf	-0.07253229
178	0xbec5743a	-0.38565236
179	0x3db30ebf	0.08743047
180	0x3e9e5ffe	0.3093261
181	0xbfacf771	-1.3513013
182	0xbed06f09	-0.40709713
183	0xbeca5b2e	-0.3952269
184	0x3e3cc022	0.18432668
185	0x3e2f9b60	0.17149115
186	0x3ef1d909	0.47235897
187	0x3e03c945	0.12869747
188	0xbed46038	-0.4147966
189	0x3e7d1a48	0.24717057
190	0x3e270a44	0.1631251
191	0x3df164b1	0.117867835
192	0xbe57d283	-0.21076398
193	0xbee26554	-0.44217932
194	0x3da9a38b	0.082831465
195	0xbed44053	-0.41455325
196	0xbe70b500	-0.23506546
197	0xbe7ecb47	-0.24882232
198	0x3e6b3262	0.22968438
199	0xbee14f3c	-0.44005764
200	0x3c4eb8fe	0.012617348
201	0x3d23ddf9	0.04000661
202	0x3d2f35f9	0.04277608
203	0xbe4edf37	-0.20202337
204	0xbbe534cb	-0.006994819
205	0x3dfbedf9	0.12301249
206	0xbd2b5450	-0.041828454
207	0x3f7fef78	0.99974775
208	0x3e706f22	0.23479894
209	0xbeaf3b70	-0.34225035
210	0xbdd019cf	-0.101611726
211	0x3e3c5290	0.1839087
212	0xbc040b45	-0.0080593275
213	0xbe507522	-0.20357183
214	0xbcbb745b	-0.022882631
215	0x3ece13b3	0.40249404
216	0x3e8d0f6e	0.27550834
217	0x3d5df5f1	0.054189626
218	0x3dbe6bd0	0.09297907
219	0x3db89a7f	0.09013843
220	0x3fa5b9df	1.2947348
221	0xbf853194	-1.0405755
222	0x3e8fb9af	0.28071353
223	0x3dbffd3d	0.09374473
224	0xbe0fc2fe	-0.14039227
225	0xbd58524c	-0.05281286
226	0xbded17cd	-0.11576805
227	0xbe83739b	-0.25674137
228	0x3ebcb298	0.36855006
229	0x3e7b2e53	0.2452939
230	0xbe6f79ea	-0.2338635
231	0xbf46db52	-0.77678406
232	0x3e89a1c2	0.26881224
233	0x3e84693a	0.25861531
234	0xbec6006e	-0.38672203
235	0xbe7e2b15	-0.24821122
236	0x3ef5057e	0.47855753
237	0xbe54b873	-0.20773487
238	0xbe418083	-0.1889668
239	0x3efb52d3	0.49086627
240	0xbed5d769	-0.41765907
241	0xbe7f84e3	-0.24953036
242	0xbc50c0ae	-0.012741251
243	0xbe88e030	-0.2673354
244	0xbf0b9d40	-0.5453682
245	0xbf6bc2f1	-0.9209433
246	0x3ea3b7ef	0.31976268
247	0x3e5a14a6	0.21296939
248	0xbe97bf01	-0.29637912
249	0x3f0ac229	0.54202515
250	0xbe2160ad	-0.15759535
251	0x3e90b1d9	0.28260687
252	0x3f5819e5	0.8441451
253	0xbec6afb1	-0.38805917
254	0xbd8910c1	-0.06692649
255	0x3c930c0d	0.017950082

rnn.weight_hh_l2 f4 [32, 32]
0	0xbf17bb31	-0.59270006
1	0xbecc49ea	-0.39900142
2	0xbef8539c	-0.4850129
3	0xbf005b07	-0.50138897
4	0x3d7a1ce9	0.061062727
5	0x3e49aaf1	0.19694115
6	0xbe987cfe	-0.2978286
7	0xbf1557b7	-0.5833697
8	0x3ec19cfc	0.37815082
9	0x3cee9466	0.029123496
10	0xbf599889	-0.84998375
11	0x3e8c7fb3	0.27441177
12	0x39c3758b	0.00037280875
13	0xbe9f7bfa	-0.31149274
14	0xbcc71581	-0.024302246
15	0xbea55084	-0.3228799
16	0x3d6d4796	0.057929598
17	0x3e3fc890	0.18728852
18	0xbf0370e7	-0.5134415
19	0xbec04c29	-0.37558106
20	0x3e636126	0.22205028
21	0x3bd0f5c0	0.006376952
22	0x3e546e35	0.20745166
23	0x3ee723d4	0.45144522
24	0x3da987b9	0.0827784
25	0xbdbc6cb5	-0.09200422
26	0xbe2569db	-0.16153662
27	0x3d366361	0.04452837
28	0xbee451d6	-0.44593686
29	0x3ed14538	0.40873122
30	0x3dd8651b	0.10566159
31	0x3f0582d3	0.52152747
32	0xbf049d05	-0.5180209
33	0x3ec2ab1e	0.38021177
34	0xbd5bebf2	-0.05369181
35	0xbf3a2fc3	-0.7272913
36	0x3e8d2351	0.27566007
37	0xbda1c45e	-0.07898782
38	0xbde3c9fb	-0.11122509
39	0xbdf4ef2e	-0.119596824
40	0x3f0e4813	0.55578727
41	0xbef3fec6	-0.47655314
42	0xbe28b5a1	-0.16475536
43	0xbe828770	-0.25493956
44	0xbe0acc02	-0.13554385
45	0x3e9790e8	0.29602742
46	0xbeccb5e1	-0.39982513
47	0xbe2ddd13	-0.16978864
48	0xbe4a2230	-0.19739604
49	0x3e56e8c2	0.20987228
50	0xbeb14093	-0.3461958
51	0xbe326cea	-0.1742436
52	0xbed53ebd	-0.41649428
53	0x3c00eace	0.007868482
54	0x3c7e69bf	0.0155281415
55	0xbca0d20a	-0.019631404
56	0x3e13ddcd	0.14440079
57	0xbf065e6d	-0.5248783
58	0x3f3c7e01	0.73629767
59	0x3e165997	0.14682613
60	0xbeb84629	-0.35991028
61	0xbe266e54	-0.16253024
62	0x3dbc7651	0.092022546
63	0x3db47ce4	0.088128835
64	0xbe881452	-0.26578003
65	0xbe335eba	-0.17516604
66	0xbe2b3b45	-0.16721828
67	0xbeb7db8c	-0.35909688
68	0x3ecfd054	0.4058863
69	0xbdecee9d	-0.11568949
70	0x3cc6050e	0.024172332
71	0xbe68ec2b	-0.22746341
72	0x3e5a1204	0.21295935
73	0xbe6cecb6	-0.23137173
74	0xbe67f497	-0.22651897
75	0xbebec9ea	-0.37263423
76	0x3e62e510	0.22157693
77	0xbd1e95b1	-0.038716976
78	0x3d8313f7	0.06400292
79	0xbeae1633	-0.34001312
80	0xbec8a6ed	-0.39189854
81	0xbe95ed66	-0.29282683
82	0xbefb5c59	-0.49093893
83	0x3dabd606	0.08390431
84	0x3e11d345	0.14240749
85	0x3e518220	0.20459795
86	0xbdc7c071	-0.09753502
87	0x3efd8a67	0.49519655
88	0xbc89c588	-0.016817823
89	0xbee4896f	-0.44636104
90	0xbeb0aa00	-0.345047
91	0x3ee3f95a	0.44526178
92	0xbe11c23c	-0.14234251
93	0xbe991e7e	-0.29906076
94	0x3eafe7eb	0.34356627
95	0xbd91b8ba	-0.07115312
96	0x3e120a53	0.14261751
97	0x3eb5e621	0.35527137
98	0xbea11d71	-0.31467775
99	0x3a0fc92c	0.0005484994
100	0x3ee02501	0.43778232
101	0x3ee6c449	0.4507163
102	0x3ec82f48	0.39098573
103	0xbedd64ac	-0.4324087
104	0x3ec7fd51	0.39060453
105	0x3e81dc78	0.25363517
106	0xbedb2643	-0.4280263
107	0x3dae78df	0.08519148
108	0x3f10c722	0.5655385
109	0xbea1644c	-0.31521833
110	0xbe1d683c	-0.15371794
111	0xbe925de4	-0.28587258
112	0xbe41c115	-0.18921311
113	0x3d397f63	0.0452875
114	0xbd2c54ec	-0.042073175
115	0xbe2a1dca	-0.16612926
116	0x3ab00879	0.001343026
117	0x3f06ed4b	0.5270583
118	0x3f1d2ee4	0.61399674
119	0xbebd4d1d	-0.36972895
120	0x3d706acf	0.05869561
121	0xbf18b51a	-0.5965134
122	0x3ea084a7	0.31351206
123	0x3e8d009d	0.2753953
124	0xbe8f212f	-0.27955005
125	0xbe9bcfab	-0.30431876
126	0xbeefb069	-0.46814278
127	0x3e612e51	0.21990325
128	0xbe9a5533	-0.30143127
129	0xbe7cdb07	-0.24692927
130	0x3eac52b6	0.33656853
131	0xbee9f910	-0.45697832
132	0xbf203ac8	-0.62589693
133	0x3edff429	0.43740967
134	0x3e63af4b	0.22234838
135	0x3ed2528b	0.410786
136	0xbd9f7da7	-0.07787638
137	0x3e0a29aa	0.13492456
138	0x3dca3c84	0.09874824
139	0x3d830369	0.06397135
140	0xbe67f62f	-0.22652505
141	0x3f096406	0.5366825
142	0xbe569e5c	-0.20958847
143	0x3f0d526a	0.5520388
144	0x3e18dbc8	0.1492759
145	0xbdda2bdb	-0.10652896
146	0x3ec2c416	0.38040227
147	0xbec592d9	-0.38588598
148	0xbe42ab93	-0.19010763
149	0x3db7720c	0.089572996
150	0x3e8fb861	0.28070357
151	0x3d33864e	0.043829255
152	0xbe23e6ce	-0.16006014
153	0xbe2443dd	-0.16041513
154	0x3bef3a4f	0.007300652
155	0xbe400982	-0.18753627
156	0x3ecbdf9c	0.39819038
157	0x3ede18ed	0.43378392
158	0xbef43ceb	-0.47702727
159	0xbecbfce2	-0.39841372
160	0xbe2c7f04	-0.16845328
161	0x3e4781f5	0.19483168
162	0xbe5216ba	-0.20516482
163	0xbf4d3236	-0.8015474
164	0xbf39e04b	-0.7260787
165	0xbe1a4ed7	-0.15069138
166	0xbf4ed770	-0.8079748
167	0x3f51ea99	0.8199859
168	0xbde8f6a9	-0.11375172
169	0x3c1b43a0	0.009476572
170	0x3f04dab5	0.5189622
171	0xbf02d34f	-0.5110368
172	0xbdd958f5	-0.1061267
173	0xbd413ee6	-0.047179125
174	0x3f970529	1.179845
175	0x3ec35a9d	0.3815507
176	0xbe4a9f41	-0.19787313
177	0x3f29d38e	0.6633843
178	0x3eaa23f4	0.33230555
179	0x3e44ef9c	0.19232029
180	0xbf2597d3	-0.6468479
181	0xbeb6eaaf	-0.35725924
182	0xbf624605	-0.8838809
183	0xbe93a113	-0.28833827
184	0xbe19f0ee	-0.15033314
185	0x3f6d4962	0.926901
186	0xbe1de8db	-0.15420859
187	0xbedffc8d	-0.43747368
188	0xbd5d7b17	-0.054072466
189	0xbdf334cf	-0.11875307
190	0xbf006508	-0.5015416
191	0xbe6b1717	-0.22958027
192	0x3efd9337	0.4952638
193	0xbe85af48	-0.2611029
194	0xbe51f740	-0.20504475
195	0x3e4249bf	0.18973444
196	0x3de1f287	0.110325865
197	0x3f327319	0.69706875
198	0x3f893335	1.0718752
199	0x3ee0506f	0.43811366
200	0x3cc41b5a	0.023938823
201	0x3ca11f7a	0.01966833
202	0xbd09ae15	-0.033613283
203	0xbd08c69e	-0.03339254
204	0x3e77f14a	0.24213138
205	0x3e0ca871	0.1373613
206	0x3ee484bb	0.44632515
207	0xbb9cb0f0	-0.004781835
208	0x3f279cd1	0.6547366
209	0xbe8bda5c	-0.27315032
210	0x3e656935	0.22403415
211	0x3e2f9c4c	0.17149466
212	0x3f11e98c	0.5699699
213	0x3f076162	0.5288297
214	0xbd4783d4	-0.048709705
215	0xbf6d1ebe	-0.92625034
216	0x3e8b0cf3	0.27158317
217	0xbee2d590	-0.4430356
218	0xbe80b620	-0.2513895
219	0x3f217b4d	0.6307877
220	0x3ecab10c	0.395882
221	0x3e8d1fd5	0.27563348
222	0xbe597e2c	-0.21239537
223	0xbbbd7430	-0.005781673
224	0xbe19e2b7	-0.15027891
225	0xbef1ff04	-0.47264874
226	0xbebeff15	-0.37303987
227	0x3ee1155e	0.43961614
228	0x3e2aae65	0.16668089
229	0xbe68c7ec	-0.22732514
230	0x3cf6a242	0.030106667
231	0x3e5abc53	0.21360902
232	0x3e224d10	0.1584971
233	0xbee6150b	-0.4493793
234	0xbd9dfa4e	-0.077137575
235	0x3e1d9fed	0.15393038
236	0x3d4151f9	0.047197316
237	0x3edc3d85	0.43015686
238	0xbe19e887	-0.15030108
239	0xbe617b18	-0.22019613
240	0x3ed417ca	0.414244
241	0xbd8a4718	-0.06751841
242	0xbe80ffe0	-0.25195217
243	0x3f19e70c	0.60118175
244	0x3e33ccec	0.1755864
245	0x3e4eb0a6	0.20184574
246	0xbcb83ad1	-0.022488983
247	0x3ea93171	0.33045533
248	0xbd476192	-0.048677035
249	0xbd951177	-0.07278722
250	0x3e1677eb	0.14694183
251	0x3e92bd08	0.28659844
252	0x3f1b0e9b	0.6056916
253	0x3f037876	0.51355684
254	0x3e30b1d9	0.17255343
255	0x3ef016b9	0.46892336

rnn.bias_ih_l2 f4 [32]
0	0x3ed1285e	0.4085111
1	0xbee5af8a	-0.44860488
2	0xbd59f7b6	-0.05321475
3	0x3e009735	0.12557681
4	0xbdd491d8	-0.1037938
5	0x3e8bf2a6	0.27333564
6	0xbf0b481d	-0.5440691
7	0xbe138b98	-0.1440872
8	0x3bfc1937	0.0076934355
9	0xbeaef3ae	-0.34170288
10	0x3e2ad07a	0.1668109
11	0x3e234a81	0.1594639
12	0xbdcc5fe9	-0.09979231
13	0x3c81785d	0.015804464
14	0xbdce893e	-0.100847706
15	0xbe819b58	-0.2531383
16	0x3f3fc503	0.7490999
17	0x3ef044b2	0.4692741
18	0xbef32a1e	-0.4749307
19	0xbd098b17	-0.033579912
20	0x3f5b39d0	0.8563509
21	0xbf155169	-0.5832735
22	0xbc1bb4f9	-0.009503596
23	0x3e576030	0.21032786
24	0x3e183b94	0.14866477
25	0x3ee00cf3	0.4375988
26	0xbf712a26	-0.9420494
27	0xbe81f41c	-0.25381553
28	0x3e71c5a7	0.23610555
29	0x3ec857b7	0.3912942
30	0x3f398d58	0.724813
31	0x3c52d078	0.012867086

rnn.bias_hh_l2 f4 [32]
0	0x3ef78477	0.4834325
1	0xbf479a4e	-0.77969825
2	0x3dc9fd4e	0.09862767
3	0xbe027c48	-0.12742722
4	0xbdae2cb1	-0.08504618
5	0x3e00649b	0.12538378
6	0xbf0b6c3b	-0.5446202
7	0xbe0cd777	-0.13754068
8	0x3ea09b6c	0.31368577
9	0xbe80e4a0	-0.25174427
10	0x3e282cae	0.16423294
11	0xbd232056	-0.03982576
12	0xbddfc539	-0.10926289
13	0x3e03823b	0.12842648
14	0xbdea2e3b	-0.11434599
15	0xbe821b27	-0.2541134
16	0x3f2e63c3	0.68120974
17	0x3ee3b029	0.44470337
18	0xbe825ffb	-0.25463852
19	0xbe931e05	-0.2873384
20	0x3f573ee5	0.84080344
21	0xbee79552	-0.4523111
22	0xbdd0da40	-0.10197878
23	0x3e5e1a33	0.21689682
24	0x3e2236e5	0.15841253
25	0x3eae5f14	0.34056914
26	0xbf54a82c	-0.8306911
27	0xbe8c5a14	-0.27412474
28	0x3e524a4a	0.20536152
29	0x3f1d26cf	0.6138734
30	0x3f577b2d	0.84172326
31	0x3d946aeb	0.072469555

fc.weight f4 [2, 32]
0	0xbda736da	-0.08164759
1	0x3d175dac	0.036954567
2	0x3ad0756d	0.0015904136
3	0x3ca27e5a	0.01983564
4	0xbd67224c	-0.056429192
5	0x3e91b89a	0.28461152
6	0xbeb1fef4	-0.34764826
7	0xbe04da54	-0.1297391
8	0xbd37b60a	-0.04485134
9	0xbd9edae5	-0.077565946
10	0x3e1f9659	0.15584697
11	0xbe8cac49	-0.27475193
12	0x3e36e142	0.17859367
13	0xbcb2cc4a	-0.021825928
14	0xb9eb51af	-0.00044883552
15	0xbddb442c	-0.10706362
16	0xbdc1bd5e	-0.09459947
17	0x3d7565be	0.059911482
18	0x3e511ea9	0.20421852
19	0x3da1c68b	0.07899197
20	0xbe1b2780	-0.15151787
21	0xbe447e73	-0.19188862
22	0xbeb43265	-0.35194698
23	0x3e727907	0.23678981
24	0xbe3925c3	-0.18080811
25	0x3c7de615	0.01549675
26	0x3e1953e1	0.14973404
27	0xbdabb953	-0.08384957
28	0xbc8aa20e	-0.016922977
29	0x3cd43ca5	0.025907824
30	0x3e0c863a	0.13723078
31	0xbdefb1a2	-0.11703803
32	0xbb3c3fa7	-0.0028724463
33	0xbe402a00	-0.18766022
34	0x3d875161	0.06607319
35	0x3d0a7cf4	0.03381057
36	0xbe2049fc	-0.15653223
37	0x3e934b30	0.287683
38	0xbe9879f8	-0.29780555
39	0xbe13507c	-0.14386171
40	0xbdbedd40	-0.09319544
41	0x3d00edec	0.0314769
42	0x3e508974	0.20364934
43	0xbe625bd3	-0.2210534
44	0x3e9abd2f	0.3022246
45	0xbd563378	-0.05229518
46	0x3d8de5ca	0.069285944
47	0x3d8dc015	0.06921402
48	0xbcc491db	-0.02399533
49	0xbb2faa1b	-0.0026804272
50	0x3e7dc0df	0.24780606
51	0x3c836e61	0.016043844
52	0xbdef9fa5	-0.11700372
53	0xbe10f4df	-0.14155911
54	0xbed55932	-0.41669613
55	0x3e65b803	0.22433476
56	0xbe4da45c	-0.2008223
57	0xbc3063c5	-0.010765974
58	0x3d806758	0.06269711
59	0xbe18e663	-0.14931636
60	0x3d54c857	0.05194887
61	0xbc7c1f6d	-0.015388352
62	0x3e2a1f0e	0.16613409
63	0xbdf548e5	-0.11976794

fc.bias f4 [2]
0	0xbe1cdf82	-0.15319636
1	0x3d74cbcf	0.05976468
