Networks/CRVBTC/bidSeed3.pt (torch, 33123 bytes, 9 tensors)

rnn.weight_ih_l0 f4 [50, 1]
00000000: c182 7b3f 3180 0cbf d9ac be3e b599 13bf
00000010: 8a1e afbe c816 053f 3f56 79be 556f 593d
00000020: fe25 8a3f 92a5 55bf a51a 91be f5a9 5b3e
00000030: a150 22bf 9b78 8bbe d878 c13e 1dea 4c3e
00000040: f00d fdbd bf45 71bf 77ec dc3d 4632 23bf
00000050: 7942 973e 48d5 053d 726f 16bf 30bc ddbd
00000060: dea0 a1bf 355c e9bd 1fc9 23bf 3951 1a3e
00000070: 808e 3c3f 8181 9cbe 8e00 81bf 28f4 59bf
00000080: fec0 5e3f 8214 c4be a2a7 343e 9751 193f
00000090: 3c98 123f 2f43 f53e 3128 8040 f2c4 8f3f
000000a0: 3626 a23c 4cbe 78bf 74e5 363f 2d8f 1b3f
000000b0: 717a aebe 9b24 dcbd a092 b33f d24f 403e
000000c0: 721b 86bf 0c82 a73f
0.9824639 -0.54883105 0.37241247 -0.57656413 -0.34202987 0.51987886 -0.24349307 0.05308469
1.0792844 -0.83455765 -0.2834064 0.21451552 -0.6340428 -0.27240452 0.3778751 0.20011182
-0.12356174 -0.9424705 0.107872896 -0.63748586 0.29542902 0.032674104 -0.587638 -0.108269095
-1.2627218 -0.1139454 -0.6397876 0.15070046 0.7365494 -0.30567554 -1.0078294 -0.8513818
0.8701323 -0.38296896 0.17642072 0.5989012 0.5726354 0.4790282 4.004906 1.1231978
0.019793611 -0.9716537 0.7144387 0.60765344 -0.3407779 -0.107491694 1.4029121 0.18780449
-1.0477126 1.3086562

rnn.weight_hh_l0 f4 [50, 50]
00000000: 8eac 463e 2eef abbe f775 a3be 7588 f0be
00000010: 0b35 c83e c268 abbd 8935 c5be 8df4 603e
00000020: 6ded 523e 75c1 ecbe 337d 04bf f0c1 23be
00000030: e2d6 abbe 1569 87be 7ceb 423e 2cff 473e
00000040: 3446 e8be 70b7 f0be 5793 423d 8a5d afbe
00000050: 6cf7 ec3e 179b 9d3e df15 a0be defe a1be
00000060: 4778 babe 02d8 913e 3fd1 9cbe c4d3 c43d
00000070: af80 94be 1df3 8abe 8abd 0e3e e1b9 6d3e
00000080: 16fb f7bd 9dd8 adbe 8101 b53e ef79 ea3e
00000090: 4dde 973e 1032 98be 5c74 18be f1ad bb3e
000000a0: ebf6 84bc f179 79be 17cf 43be d5e5 b43e
000000b0: 9826 9f3e 3c72 cbbe e20e 60be 1260 5b3e
000000c0: aff5 ae3d fc45 643e 8627 fcbe a026 6b3e
000000d0: 95f5 e3bc 4e38 f13e fed3 02be a1ee e23d
000000e0: 03b7 e73e 15fc c0be 4614 73be b5d4 e43e
000000f0: 52c5 e43e 1854 493e 9a9f d63e 86e9 143f
00000100: 8252 c2be d9b3 66be 13d1 fd3e 8db0 0c3f
00000110: 7712 93be 347c bf3e 245f a3be 7b72 cabe
00000120: b426 dd3e 88b5 b13e 57ea 60be 590c 6fbe
00000130: 0e00 963e 6071 acbe 7c59 3e3e 8d6b ed3e
00000140: 0030 41be 146d f8bd 580f c03d 7a8b 833e
00000150: 2b6a a9be afa7 c4be 6a1f 94be b32d 7e3e
00000160: 8fe4 933d b026 9d3e f7b6 6e3e 582a 953e
00000170: 9ccc c93d f0db 6bbe 8f4e 6ebe 3172 093f
00000180: d24f 3f3e 14a8 ebbe 474e 7dbe b899 ccbe
00000190: 1246 bdbc 2822 1ebe 69fd 313f d17a 973d
000001a0: 140a 1fbf 5c9b 133f 58cf 003f 1f0c 3ebf
000001b0: 567e 55bf ae83 09be 6f7d 5a3f 4ae5 81be
000001c0: c7ff 2a3f 57d6 333f 08f9 4b3e 2295 0abf
000001d0: 5a62 533e 556d 46bd 3460 10bf 5d68 14be
000001e0: 1a43 0bbf b508 1abf bae4 083f a9d5 733f
000001f0: 9c1c ce3d 4105 0cbf b3c0 14bd be9d 42bf
00000200: b5c9 b03c df53 f23e 6f10 3a3e a8d8 9bbd
00000210: 37c5 08bd 83bd 1e3f a552 21bf 1e81 bfbe
00000220: ca5b 25bf ff24 4b3f fdec 87bd 6f65 043e
00000230: 23ea 04be 239d 423f 6269 683d 4624 72bd
00000240: e3b4 39bf e780 ec3e 1485 5d3d 90d0 653e
00000250: 6875 b3bd e79f d0bc 2449 af3e 7f0d b23e
00000260: 8357 003e 445d a43e fd36 d5be d589 9f3c
00000270: 366a b83e 6fc4 89be bfcb 9dbe 5607 263f
00000280: 5847 6b3e d3b5 a73e 2ca2 7d3e 5d9b a53e
00000290: ef06 c7be 7fdc 15bf 12f7 5c3e 0974 e93e
000002a0: 83ae 8fbe 4f84 0a3f 5c45 eebd 8764 b0be
000002b0: 6aa7 613e 667b e03e 525a a7be 33b8 21bf
000002c0: f00e cf3d 50b0 cdbe 8dbb b43d 6eb9 d83e
000002d0: 13af 5cbe 55e6 21be 1a00 a93e bcb3 c73e
000002e0: 8159 aebe 5657 60be 9074 0abf 0403 e93e
000002f0: 18df 563e 3db9 433e f42b 5e3e c912 443e
00000300: fba5 82bd 42e5 163e 6e51 74be 1551 ea3e
00000310: 3edc 843e b95e 23bf 9e56 4fbe 7239 8fbe
00000320: 054f d6bb c11a 46bc 1c8a 18bf eefe d83c
00000330: 6e2a d13e 785c 0ebf 11bc eebe c6a4 133f
00000340: b697 1f3f 1ac1 5f3e 39fe 36bf c71a 6dbe
00000350: b2b4 22bf 71e2 21bf 7779 d1bc da1b 103f
00000360: bab0 953e 4b37 8e3d 5620 f93e 7691 b53c
00000370: 702b 0f3f 5f2e 343f 2dea d1be de4f 0dbf
00000380: eb61 543e 0452 533f 31fd 2fbe 0a4c 243f
00000390: ccc9 d63b 1349 09bf 32d7 813d 69d8 da3c
000003a0: 58ac 58be c79e 41bf cfba 91bc 975f 1ebe
000003b0: 2281 213f f750 13bf 381e 65be e3b4 2abe
000003c0: 28bf f0bc 1522 30bf fe35 313d ccd6 94ba
000003d0: f69d 3f3f 1155 0fbf 4cfb 51bc ffda 10bd
000003e0: 8fbd 75bd b618 37bc 8913 03be ef3b 96bd
000003f0: 4aaa 373f e5c2 e53d 13f2 20bf e10c 0b3f
0.19401762 -0.33580917 -0.31925938 -0.46979108 0.3910297 -0.0836959 -0.38517407 0.21968289
0.20598383 -0.46241346 -0.5175354 -0.1599195 -0.3356238 -0.2644736 0.19035143 0.19530934
-0.4536606 -0.47014952 0.047503795 -0.34251052 0.46282518 0.30782387 -0.31266686 -0.3163976
-0.3641989 0.28485113 -0.30628392 0.096107036 -0.29004428 -0.27138606 0.13939491 0.23215438
-0.12108438 -0.33954325 0.3535271 0.45796153 0.2966179 -0.29725695 -0.14888138 0.36656144
-0.01623102 -0.24362923 -0.19121967 0.35331598 0.31084132 -0.3973559 -0.21880677 0.21423367
0.08542954 0.22292322 -0.49248904 0.22963953 -0.027827064 0.4711327 -0.12776181 0.11080671
0.45256814 -0.37692323 -0.23738202 0.44693533 0.44681793 0.19660985 0.4191864 0.5816883
-0.37953573 -0.22529544 0.49573573 0.54956895 -0.28725025 0.37399447 -0.31908524 -0.39540467
0.4319359 0.3470881 -0.21964394 -0.23344554 0.29296917 -0.33680248 0.18588823 0.46371117
-0.18865967 -0.1213018 0.093779266 0.2569235 -0.33088812 -0.38409182 -0.28930217 0.2482212
0.072213285 0.3069358 0.23311983 0.29133868 0.09853479 -0.23033118 -0.23272155 0.5368987
0.18682793 -0.4602667 -0.24736892 -0.39961028 -0.023104701 -0.15442717 0.695273 0.07396472
-0.62124753 0.57658935 0.5031638 -0.74237245 -0.833959 -0.13429138 0.85347646 -0.25370246
0.66796535 0.7024893 0.19919217 -0.5413381 0.20642987 -0.04844411 -0.56396794 -0.14492936
-0.54399264 -0.60169536 0.5347401 0.95247895 0.100640506 -0.54695517 -0.036316585 -0.76021945
0.021580556 0.47329614 0.18170331 -0.07609683 -0.033391204 0.6200792 -0.6301673 -0.37403196
-0.64593184 0.79353327 -0.06636999 0.12929319 -0.12979941 0.7602102 0.056741126 -0.059116624
-0.72541636 0.46192095 0.05408199 0.22442842 -0.08762628 -0.025466872 0.3423549 0.34775922
0.12533383 0.32102406 -0.41643515 0.019474903 0.36018533 -0.2690768 -0.30819508 0.64854944
0.22976434 0.32755908 0.24768895 0.32345095 -0.38872477 -0.58539575 0.21578625 0.4559634
-0.2806283 0.54108137 -0.11634323 -0.34451696 0.2203652 0.43844146 -0.32686096 -0.6317169
0.10110271 -0.40173578 0.08824835 0.42328972 -0.2155116 -0.15810521 0.3300789 0.39004314
-0.3405266 -0.21908316 -0.5408411 0.45510113 0.20983541 0.19113632 0.21696454 0.19147791
-0.063793145 0.14735892 -0.23859188 0.45764986 0.2594928 -0.6381641 -0.20247886 -0.27973515
-0.0065401816 -0.01209134 -0.5958574 0.026488747 0.40852684 -0.55609846 -0.46627858 0.576733
0.6234087 0.21851006 -0.71481663 -0.23154746 -0.6355697 -0.6323615 -0.025570614 0.562925
0.29236394 0.0694414 0.48657483 0.022164088 0.55925655 0.70383257 -0.40998974 -0.5519999
0.20740478 0.8254702 -0.17186429 0.64178526 0.006554818 -0.5362713 0.063398734 0.02671452
-0.21159494 -0.756329 -0.017789273 -0.15466152 0.63087666 -0.5754542 -0.22374809 -0.16670565
-0.029388025 -0.68802005 0.04326438 -0.0011355518 0.74850404 -0.55989176 -0.0128162615 -0.0353651
-0.05999523 -0.011175325 -0.12800421 -0.0733565 0.71744215 0.11218814 -0.62869376 0.54316527

rnn.bias_ih_l0 f4 [50]
00000000: 721a e0be 45f2 053f 9998 93bd de32 a83e
00000010: 3830 093e 5841 23be cffd b43e 9ab3 fd3d
00000020: dcdc 10bf f06b d53e 4057 923e da4a a1bd
00000030: 9ccf bf3e 3d2c da3e f2ca ddbe 64ee 98be
00000040: 95c8 933e 09f9 e03e d934 01bf f867 0c3f
00000050: 70b1 d83d 5ea2 dabe bb04 cabd 841c d13e
00000060: 5034 383f 677e 80be e0f7 a23e 2e7f e13d
00000070: 2d86 0dbf 2dc9 e63e a51d 3c3f cbf6 1b3f
00000080: 62d4 e2be 32f6 ccbd 281d 92be a814 bebd
00000090: 1239 0bbf de98 c03e eedb 65bd 7f25 40bf
000000a0: 3a09 bf3e 7d9c c13e 08f0 d0be a3ed b3be
000000b0: 2b5f 583c 6955 89bd ce69 ccbe 775d b4be
000000c0: 93c2 343f b59d 03bf
-0.43770176 0.523228 -0.0720684 0.3285131 0.133973 -0.15942895 0.3534989 0.12387772
-0.56587005 0.41683912 0.2858219 -0.07875605 0.3746308 0.42611876 -0.43318897 -0.29869378
0.2886397 0.4394 -0.50471264 0.54846144 0.105807185 -0.42702 -0.098641835 0.40842068
0.7195482 -0.25096437 0.3182974 0.11010586 -0.5528286 0.4507536 0.73482734 0.6092345
-0.4430266 -0.100078955 -0.2853787 -0.092812836 -0.5438396 0.37616628 -0.056117944 -0.75057214
0.37311727 0.37814704 -0.4080813 -0.3514224 0.013206284 -0.06705744 -0.39924473 -0.35227558
0.70609397 -0.51412517

rnn.bias_hh_l0 f4 [50]
00000000: c325 c3be d83b d83e a704 653d 77f6 e33e
00000010: 2ffa a23c 7715 08be d10c 173f 211f 7d3d
00000020: 765f ccbe 4f9e e73e cbf5 df3e 14c4 34b9
00000030: be59 893e 461b b33e 5bb5 acbe df35 dfbe
00000040: cf4d a13e b2a2 0f3f 371f 7ebe fefc 133f
00000050: 714c 4a3e 951a d5be 8ec0 37be 124a f73e
00000060: 33c3 543f c023 4dbe 8934 073f 5abc 683e
00000070: 68e0 07bf c843 b63e 335c 1f3f 742c 113f
00000080: fc1f 0bbf 27f7 93bd 5e6a b5be 45a3 0f3e
00000090: 8542 d8be ca1f ec3e 7404 193d 49fd 79bf
000000a0: 5fdb c33e 2bce da3e 1910 d3be 7489 c7be
000000b0: ecc0 743c 0448 63bd d43b 14bf 0426 b1be
000000c0: 84ac 483f 9d60 a8be
-0.38114747 0.42233157 0.05591264 0.44523975 0.019894687 -0.13289438 0.5900393 0.061797265
-0.3991658 0.45237967 0.43742213 -0.00017239182 0.2682628 0.34981745 -0.33732113 -0.43595788
0.31504676 0.5610763 -0.24816595 0.5780791 0.19755723 -0.41621843 -0.17944548 0.482987
0.8311035 -0.20033169 0.5281454 0.227281 -0.5307679 0.35598588 0.6225006 0.56708455
-0.5434568 -0.07224875 -0.35432714 0.14027126 -0.4223825 0.46118003 0.037357762 -0.9765211
0.38253304 0.4273542 -0.4122322 -0.38972056 0.014938574 -0.0554886 -0.5790379 -0.34599316
0.7838824 -0.3288621

rnn.weight_ih_l1 f4 [50, 50]
00000000: 87c0 9d3e 4f61 17bf 7213 be3e 0c36 ffbe
00000010: 61d4 55be 1d6b 663e 24e9 12bf 9cbb 55be
00000020: ca29 d3bd 2362 00bf 970a c3be 0014 ac3d
00000030: 3235 9ebe 051c 0ebf 402b 0d3f f0c7 473f
00000040: 043f 0cbf 88be 02bf af05 343f 80c9 11bf
00000050: ece3 dabd 3937 403f 8efe db3d f769 b8be
00000060: 4022 c7be f1c1 fa3e 4802 07bf 6c0d 83be
00000070: 3b22 883e 670f 06bf d31d b4be cf01 2abf
00000080: f9c3 083f cd8c 9f3d 2a8e 203f 3a4a 93be
00000090: 34a1 033f 0c10 0cbf 6a63 463e 4630 153f
000000a0: 40a5 8a3e e2d5 94be 9a60 fc3e eb8c e93e
000000b0: cd4a 34bd 142f b8be bc47 9c3e 2213 243f
000000c0: 3ffc 11bf 9496 a73e 0c54 1abd 391f 93bc
000000d0: ab58 a8bd 06bb 3abe 772c abbe 7727 df3d
000000e0: 35d1 043f be38 5fbe f1e2 e4be 3723 ef3e
000000f0: ec18 3d3f b236 be3d 1f5e 0b3f 6334 053f
00000100: 1606 cd3d 6d10 acbe 721f 03bc c77f 183f
00000110: 8213 e5be 7ce9 003f debd 4fbe e00b 65be
00000120: 3391 0a3f 5c52 443f eb1e 2dbd bf2f 8ebe
00000130: 9740 acbe 8472 43be 6fbf 84bd 3f12 a63e
00000140: e780 54bd b0bd fdbd 43ff b13d 4d1f 2c3f
00000150: 2c61 043e f6d8 23bf b202 ccbe e9bd 173d
00000160: 35f9 753e 5970 bd3d 51cc 393e ee28 d13e
00000170: 0779 e03d d7d7 92bd e25a 3cbf fc60 e33e
00000180: 4a0f 563e a299 f73d f2b4 c8bd 81d7 8a3e
00000190: 152c 5ebd c7e0 1f3e 1fd7 c0bd e853 243e
000001a0: ad24 3c3e ece3 88be 512a f9be dc8c e43e
000001b0: 7fc5 083f cdad 3a3e 732d 8fbe a66c 53be
000001c0: c70b 583e 9945 c7be 0ce7 7ebe 8add 943e
000001d0: 1522 9e3e de81 933e f275 a53e e824 023e
000001e0: 8642 333e 0e61 95be 2604 12bf ae62 8e3e
000001f0: 1d3d 3d3d 70f8 d9be 7187 ab3d 9936 c43e
00000200: de89 9abd 963c eebe 9451 0f3e cb61 273e
00000210: f793 b6be c60f 18bf 293a a5be 70b8 b83e
00000220: 4181 c23e 2fff 673e f74b a9be 74c7 19be
00000230: 04f3 e4bd 2fcb 303e 248a 82bd 2a7f 45be
00000240: 7887 f13e c126 1cbf da2e d8bd 2232 acbe
00000250: 250e 6f3e 0b7f 95bd 96b1 0b3f 4b1e 0cbf
00000260: 9e27 343e 635a 0ebf a6d4 34be 1717 a1bd
00000270: 902b 6fbe 0e14 ab3e 9638 b63d c184 fabe
00000280: 85ae 2dbf 9711 8a3e a5c5 98be cf8f d2be
00000290: f136 283f 2fa9 ba3e 5b5f 33bf befc f9be
000002a0: 0709 d33e b087 17bf c6cf cdbe f25d 003f
000002b0: e70d 193e 2f2a 00bf f2b7 f6be f800 1a3f
000002c0: fac3 12bf 189d 343e ed40 033f e27a 07bf
000002d0: 6ddb d8be 2b62 b6be 7dda f03e 2d49 5d3d
000002e0: 2910 0c3f b903 98be 40fc ec3e d12d 1ebf
000002f0: 0c7e a13e 17aa 203e 5d03 363e 7a44 99be
00000300: cca7 ad3e 1745 023f 9513 65be b626 c6be
00000310: e173 ab3e 0390 073f e329 8fbe dcd2 fd3d
00000320: 1f58 1e3f 16fa 09bf d865 f63e bfef 37bf
00000330: 3e63 8dbe dd56 9d3e 0ebe 86be 0812 733d
00000340: 9355 16be db6a 0ebf e837 973d b9f3 b33e
00000350: d143 24bf e3fa 40bf f769 e63e fc35 f03d
00000360: 31c0 f2be 83aa 1fbf dcd2 563d fa84 2cbf
00000370: f558 11be 2b87 2c3f 0a4f 1d3e 1206 c3be
00000380: 1092 a3be 76d2 243f e012 cabe e91c 70be
00000390: 6107 073f 5bf9 c4b8 0542 2bbf fbf9 3ebf
000003a0: 6132 f33e f774 69bd 6f46 0b3f c9c5 13bd
000003b0: 24f1 babd 7c54 c9be d91f c03e 1095 133f
000003c0: cfbb 973e f7b3 ddbe 5333 133f f393 b43e
000003d0: 59eb 7bbe 21e9 4cbf 3e97 163f d8a1 1d3f
000003e0: a030 17bf e43a 0a3f 964b 8f3e 5375 7fbe
000003f0: 4f73 5c3f 8ec3 b2be faaf f7be 9d53 1b3f
0.3081095 -0.59132856 0.3712421 -0.49845922 -0.20881797 0.22501798 -0.57386994 -0.20872349
-0.10310705 -0.50149745 -0.38094017 0.08402252 -0.3089996 -0.55511504 0.5514412 0.78039455
-0.54783654 -0.5107198 0.7032117 -0.5694809 -0.10688004 0.75084263 0.10741912 -0.36018345
-0.38893318 0.4897609 -0.52737856 -0.25596178 0.26588616 -0.5236725 -0.35179004 -0.6640901
0.5342403 0.077905275 0.62716925 -0.28767568 0.5141785 -0.54711986 0.19373861 0.58276784
0.270792 -0.2906943 0.4929245 0.45615324 -0.044016648 -0.35973418 0.3052348 0.64091694
-0.5702552 0.3273207 -0.03767781 -0.017959224 -0.08220037 -0.18235406 -0.3343236 0.10896199
0.51881725 -0.21798989 -0.44704393 0.46706554 0.7386615 0.09287776 0.5444049 0.5203306
0.100109264 -0.33606282 -0.008003103 0.5956997 -0.44741446 0.5035627 -0.20287272 -0.22367811
0.54127806 0.7668817 -0.042265814 -0.27770802 -0.33643028 -0.19086653 -0.064818256 0.32435796
-0.051880743 -0.12389696 0.086912654 0.6723526 0.12927693 -0.6400293 -0.39845806 0.037046347
0.24020846 0.09249944 0.18144347 0.4085154 0.10960584 -0.071700744 -0.73576176 0.4440993
0.2090427 0.1208985 -0.098001376 0.2711754 -0.05424126 0.1561309 -0.09416031 0.16047633
0.18373366 -0.2673639 -0.48665097 0.44638717 0.53426355 0.18230362 -0.27964363 -0.20646915
0.21098243 -0.38920286 -0.24892825 0.2907527 0.30885378 0.28810018 0.32316548 0.12709391
0.17505845 -0.2917561 -0.5703758 0.27809662 0.04620086 -0.42572355 0.08375443 0.38322905
-0.07545827 -0.46530598 0.13995963 0.16345899 -0.35659763 -0.5939907 -0.32270935 0.36078215
0.37989238 0.22655939 -0.3306577 -0.15017492 -0.11179164 0.17265008 -0.063740045 -0.1928679
0.47173667 -0.60996634 -0.10555811 -0.33631998 0.2334524 -0.07299622 0.5456785 -0.54733723
0.17593238 -0.5560667 -0.17659244 -0.07865732 -0.23356462 0.33413738 0.08897512 -0.48929408
-0.6784442 0.26966545 -0.2983829 -0.41125342 0.65708834 0.36457202 -0.70067376 -0.4882564
0.41217825 -0.5919142 -0.4019758 0.5014335 0.1494671 -0.5006437 -0.48187214 0.6015773
-0.57330287 0.17638052 0.51270944 -0.5292188 -0.4235491 -0.3562177 0.47041693 0.054024864
0.5471216 -0.2969034 0.462862 -0.6178866 0.3154148 0.15689884 0.1777472 -0.29935056
0.3391708 0.5088667 -0.22370751 -0.3870141 0.33486846 0.5295412 -0.27961645 0.12393734
0.6185321 -0.53897226 0.48124576 -0.718502 -0.27614778 0.30730334 -0.26316875 0.059343368
-0.14681081 -0.556318 0.0738371 0.35146883 -0.6416598 -0.7538282 0.4500272 0.11729047
-0.47412255 -0.62369555 0.052447185 -0.67390406 -0.1419409 0.6739375 0.15362182 -0.3809057
-0.31947374 0.6438364 -0.39467525 -0.23448528 0.52745634 -9.3924544e-05 -0.6689761 -0.7460019
0.47499374 -0.056996312 0.5440435 -0.036077294 -0.09128025 -0.3932227 0.37524298 0.57649326
0.29635474 -0.43301365 0.5750019 0.35269126 -0.24601497 -0.80043226 0.5882453 0.6157508
-0.5905857 0.5399611 0.27987355 -0.249471 0.86113447 -0.3491482 -0.48376447 0.6067446

rnn.weight_hh_l1 f4 [50, 50]
00000000: 2b90 b9bd 6290 2fbe 7fcd 36be 0829 09be
00000010: 9144 c7bd e51b c8be dfe8 afbd c0ea 703c
00000020: b6b2 55be 8d1d 493e 1106 3dbe e340 573e
00000030: 8407 0ebf b60e 893d 3239 413e 41d1 723e
00000040: 8aa1 753d de14 68be 90d6 a8be e061 e7bd
00000050: c56c 293e 1da1 823d 55a6 93bd 19a7 3ebe
00000060: 6b1f 513e 661e d53e 2ee7 a9be 83a2 ac3d
00000070: 9a48 06bf a4a9 293e a455 7f3e 765b 4c3e
00000080: c255 3fbe 0571 9a3d 6eab 8f3d 6223 e73c
00000090: 6d60 88be 07e4 15be bca0 703e 4f88 45bd
000000a0: fcc3 63be 1264 e1be 807a ccbe 5883 023d
000000b0: 1ad4 08be 540a 2ebe d927 9f3e 7ba4 433e
000000c0: 97af db3e 256d 343e c1ba 53be 7ddd c93e
000000d0: 77c9 d7be 5505 95be ee29 d2be 1b62 babe
000000e0: ba59 c1be cc32 543e 6c4d 0ebe 38c9 c23e
000000f0: 450a a2be 564f ff3e 0353 68be 471a 9f3e
00000100: 5c0b 333f cf5b 483e 8469 0a3f 9d04 e8be
00000110: ef33 d8bd 06eb cbbe 7005 763e 3e48 173e
00000120: a50d cfbe 935c 10bf 9ece e53e 80dd b7be
00000130: a7c4 7fbe c1de 9dbe c89e 123e a4e9 f43e
00000140: 9cf2 093f b798 793e a523 98be f5dc 373e
00000150: 615b b53e 2e58 873e 9f80 aabe 6622 d0be
00000160: ac46 1b3f d4f2 84be 8c32 0ebf ba2a ea3e
00000170: 921f afbe 52b4 f13e 7c9c 8ebe 6d19 afbe
00000180: 3508 b23e e63e ea3e b19a b13e 3202 d23e
00000190: 045e bd3e 7f72 babe 026b d83e 921b 9a3e
000001a0: 93c1 8a3e 9676 de3e bf0d ee3e 709a 7ebe
000001b0: a251 803e c4bf 74be 26fc f73e 0724 fabe
000001c0: 67b0 123e a105 9fbe 8c4c ccbe cdbe 9dbe
000001d0: 69f1 fdbe e6c4 ad3e 45a8 043e 1576 b63e
000001e0: 53ef c7be 0f31 d5be ca20 ed3e 3ab8 0b3f
000001f0: c640 e5be 38fc e3bd cdb8 063f c52c d83e
00000200: 0681 073e b04d 0ebf 69f9 babe be84 d5be
00000210: f183 de3e 3a86 9dbe 044f ebbe c177 53be
00000220: 8255 ff3e 5286 8f3e c993 09bf 62bb 023f
00000230: ba65 ea3e 4f58 e4be 0d26 d83e 276a d6be
00000240: 059e 843e 4255 ef3e 83fa 22be a7bc c2be
00000250: e0c2 c8bd 0520 afbe 8405 14be 6722 b13c
00000260: 11b7 31be 5324 d0be 9514 0abd 51a2 9fbe
00000270: e98a 37be 757b 823e 2c2d b8bd a8c6 043e
00000280: e02f 83be 25f5 843e c73f c1be c00b 763e
00000290: 20eb 773e 9ff6 9c3b eea4 ab3d 7eca 623d
000002a0: 6488 cfbe 0f8d 123e 86d3 223e 1925 d33d
000002b0: 559d efbd 62a3 4fbe 7c30 703e 9143 a03e
000002c0: dce0 76be c5d4 063e 01ab 9cbe 3f49 063e
000002d0: 4f32 753d 7c69 243e 7f40 93bd d781 753d
000002e0: 843a 413d 7907 343e f263 80bd 4243 3cbe
000002f0: ef81 7c3e 748c a5bd 3cf0 a8bd c49a 12bf
00000300: 7bc7 a53c 4b83 26bd d076 fdbd 6c01 9ebe
00000310: 1a91 4f3e 90de 093e 1bb9 243f af69 45bd
00000320: eae2 95be 1297 13be e0c2 07bc 5564 1abe
00000330: ff54 1dbe 25b5 80bd 9e96 d1bd 3558 3b3e
00000340: 9a79 22be 8c74 8b3d cb86 1f3d 0d9e c93c
00000350: 577a 2ebe 86d3 393e 6741 383e 3b71 203e
00000360: a474 8c3d 4650 31be 68c5 d8be 6535 1fbe
00000370: 1ad4 8c3d 0f98 943d d42d 27be c8d8 20be
00000380: 8d73 f03d 7df2 363f 81f4 c9be e858 ad3d
00000390: 1e7e 20bf 3a31 273e 3451 a93d 61b0 f33d
000003a0: 597f e8bd f4dc 7b3e dd47 3f3e 82d2 253e
000003b0: cee3 20be 7009 6dbe 8401 583e da7c 00bd
000003c0: 0e86 8bbd 2647 173d 12f9 2cbd b45c bb3c
000003d0: aa94 46be cf40 90bd 0494 353e 31f7 b43d
000003e0: dd0b 1a3f 46d8 563e d878 ddbe 5bd8 f43e
000003f0: fc04 abbe 7776 1fbf e05f e6be 7dc6 d53e
-0.09060701 -0.17144921 -0.17851828 -0.13394558 -0.09729875 -0.39083782 -0.085893385 0.014704406
-0.20868954 0.19640179 -0.18459345 0.21020846 -0.5548022 0.06692259 0.18869475 0.23712637
0.05996851 -0.2266421 -0.32976198 -0.11297965 0.16545399 0.06378386 -0.0720946 -0.1861843
0.20422141 0.41624755 -0.3318419 0.08429434 -0.5245453 0.16568619 0.24935013 0.19956765
-0.18685058 0.07541088 0.070151195 0.028215114 -0.26636067 -0.14637767 0.23498815 -0.048225697
-0.22242731 -0.4402166 -0.3993721 0.03186354 -0.1336216 -0.16996127 0.3108509 0.19105713
0.42907402 0.1761976 -0.2067671 0.39426795 -0.42145893 -0.2910563 -0.41047615 -0.36402974
-0.37763768 0.20722502 -0.13896722 0.38044143 -0.3164846 0.49865216 -0.22687916 0.31074736
0.6993921 0.19566272 0.54067254 -0.4531602 -0.105567805 -0.39827746 0.24025512 0.14773652
-0.40440097 -0.5639126 0.448842 -0.3591118 -0.2497736 -0.3083401 0.14318383 0.47834504
0.5388582 0.24374662 -0.29714695 0.17955382 0.3542128 0.26434463 -0.33301255 -0.40651244
0.6065471 -0.25966513 -0.5554588 0.45735723 -0.34203774 0.47207886 -0.27853763 -0.34199086
0.34771886 0.45751113 0.34688333 0.410173 0.3698579 -0.3641548 0.4226914 0.3009916
0.2710081 0.4344985 0.46494862 -0.248636 0.2506228 -0.23901278 0.48434561 -0.48855612
0.14325105 -0.31058982 -0.3990215 -0.30809632 -0.49598244 0.33939284 0.12954815 0.35636964
-0.39049777 -0.4163899 0.4631408 0.5457798 -0.4477598 -0.11132091 0.52625734 0.42221656
0.13232812 -0.5558729 -0.3651841 -0.41702837 0.43460038 -0.3076647 -0.45958722 -0.20651151
0.49869925 0.28032166 -0.5374113 0.51067173 0.45780736 -0.44598624 0.4221653 -0.41877863
0.2590181 0.46744734 -0.15915875 -0.38034555 -0.098027945 -0.34204116 -0.14455229 0.02162285
-0.1735499 -0.40652713 -0.033711035 -0.31178525 -0.17924084 0.25484815 -0.08992991 0.12966406
-0.25622463 0.2596828 -0.3774397 0.2402792 0.24210787 0.0047901417 0.08381067 0.055368893
-0.40533745 0.14311622 0.15901002 0.1030981 -0.116999306 -0.2027717 0.23455995 0.3130155
-0.24109215 0.13167103 -0.30599216 0.13113879 0.05986243 0.16055864 -0.07190036 0.059938278
0.047174945 0.17580976 -0.06269063 -0.18385032 0.2465894 -0.0808343 -0.08248946 -0.57267404
0.020236721 -0.040652554 -0.12376177 -0.3086046 0.20270196 0.13463807 0.6434495 -0.04819649
-0.29274684 -0.14413098 -0.008286208 -0.15077336 -0.15364455 -0.062845506 -0.10233806 0.18295367
-0.158667 0.06809339 0.038946908 0.024611497 -0.17038856 0.18147096 0.17993699 0.15668194
0.06858185 -0.17315778 -0.4233811 -0.15547712 0.06876393 0.072555654 -0.16326076 -0.15707695
0.117407896 0.7146376 -0.39444354 0.08464223 -0.6269244 0.16327372 0.082674414 0.11898876
-0.11352415 0.24596006 0.18679757 0.16193584 -0.157119 -0.23148131 0.21094328 -0.031369068
-0.06812678 0.036933087 -0.04222972 0.022871353 -0.19392648 -0.07043611 0.17732245 0.088362105
0.6017435 0.2098094 -0.4325626 0.47821316 -0.3340224 -0.6229014 -0.44995022 0.41752997

rnn.bias_ih_l1 f4 [50]
00000000: 599a 773e bf17 b23e ed0a 0ebf c3df 123e
00000010: 108f 58bd 1da6 d63e adb6 e53d 7f90 a03e
00000020: a471 eabe 573b a03e 2b47 1cbf b626 bcbe
00000030: 73e4 04be 8149 a73e d3ba febe 4fcd e53e
00000040: 34af b53e adac 223e cdd0 7fbe 5aa2 a9be
00000050: 6ef5 26be 0b4b 72be 7264 313d 2829 fb3c
00000060: 04c9 cebd 8b2c d9be e337 dd3e 8fc4 d5be
00000070: 198f b83e 8e3e c43e f2fb f13e 547c 52be
00000080: d4e1 163e 2d09 d33e edd4 7abe d3d2 c53e
00000090: 1774 993e f083 723e 07e4 4cbe 54f3 643c
000000a0: fb59 1dbf 0560 f33e 62aa 803e eb55 2e3f
000000b0: 7455 0a3e 3984 dabe e9c9 203e 9d19 a7bc
000000c0: c6a7 f3be 75ef 033f
0.24179973 0.34783742 -0.5548542 0.14343171 -0.05287081 0.4192361 0.11216483 0.31360242
-0.45789826 0.31295273 -0.61046094 -0.36748284 -0.12977771 0.32673267 -0.4975191 0.448832
0.35485232 0.15886183 -0.24981995 -0.33131677 -0.16304561 -0.23661439 0.043308683 0.030659273
-0.100969344 -0.42416796 0.432067 -0.41751525 0.36046675 0.38328975 0.47262532 -0.2055524
0.14734584 0.41217938 -0.24495287 0.3863741 0.29971382 0.23683143 -0.2000886 0.01397403
-0.61465424 0.47534195 0.25129992 0.6809985 0.1350916 -0.42679003 0.15702023 -0.020397956
-0.47588938 0.5153726

rnn.bias_hh_l1 f4 [50]
00000000: 0480 f83d cfd0 f83e 6082 0fbf e577 ac3e
00000010: e12a 3d3e 86fe 8e3e fe44 163e bd8e b73e
00000020: ef0c c1be d69a ec3e 5ac3 0abf 56f4 0fbe
00000030: af06 afbe 7f72 5d3e 7dcc eabe 290c 0e3f
00000040: 5d0d 173f 6a9c ae3d 2373 17be 6724 c8be
00000050: e2b5 f4bd 01a0 19bd 4533 84bd f5a8 97bd
00000060: 533c 00bd 2fdf e9be b9e0 e93e 0cb3 c1be
00000070: f66f d83e 0a36 9e3e 9df1 003f 37a4 1fbd
00000080: 09e7 253e f7b9 dc3e 85b6 c8be 13b0 f73e
00000090: 4a8d ab3e 3273 643e d3df 80be ca04 2f3e
000000a0: 678a 13bf 520b f93e e2aa c33d a6d7 283f
000000b0: 31d9 973d 4289 e2be e6ec 1e3e 3cf7 f43b
000000c0: a0f1 e4be f50e d63e
0.12133792 0.48596808 -0.5605831 0.33685222 0.18473388 0.2792856 0.14674756 0.35851088
-0.3770518 0.4621188 -0.5420433 -0.1405805 -0.34184787 0.21625708 -0.45859137 0.55487305
0.59004766 0.08525927 -0.14790015 -0.39090273 -0.11948754 -0.037506107 -0.064550914 -0.07405273
-0.03130753 -0.45678088 0.45679262 -0.37831914 0.4227292 0.30900604 0.5036867 -0.038974967
0.16201414 0.4311063 -0.3920175 0.4837652 0.33506233 0.22309569 -0.25170764 0.1709167
-0.5763306 0.4864145 0.09554078 0.65954053 0.07414473 -0.44245344 0.15520057 0.0074757617
-0.44715595 0.41808286

fc.weight f4 [1, 50]
00000000: b981 9bbd 58a2 233d 5dae d23b 089f f6bc
00000010: 5286 2cbd fea2 f9bd 714d 8bbd 867f 2dbd
00000020: 28a6 8b3d 985c 8abd 37e0 553c ee52 92b9
00000030: 5f9e 24bd b75d b8bd af02 f5bc 685b 84bd
00000040: 32fe 09bd 17f8 3abd 5527 453e c7f5 c4bc
00000050: 9898 a73c 3a6f 88bb 1fbf 643e 3dcf aabd
00000060: 91c7 d23d 128a 2cbe 0fdd 713d 4d6f cdbd
00000070: 8fba 2d3e ff2d 78bd 4ab6 a4bd 0178 683d
00000080: 5b26 353d 8ae0 a4bc 6bfa 10bd 9e77 30bd
00000090: 7d40 5a3d c307 89bd 763a 563c 19e4 8dbd
000000a0: 95a1 413e 15aa aa3d 4a4d 8abd b55b 0fbe
000000b0: f6a2 04bd 70a4 0e3e 7ea4 42bb 92f1 393d
000000c0: e7cc 3cbe d42d 62bd
-0.07593102 0.039949745 0.006429477 -0.030105129 -0.042120285 -0.121892914 -0.0680188 -0.042357944
0.06818801 -0.06755942 0.013053945 -0.00027909077 -0.040190097 -0.0900225 -0.029908506 -0.06462747
-0.033689685 -0.045646753 0.19253285 -0.024042977 0.020458505 -0.00416365 0.22338532 -0.08340309
0.102919705 -0.16849545 0.05904871 -0.100309946 0.16965698 -0.06059074 -0.080425814 0.05675507
0.04422603 -0.0201266 -0.035395067 -0.043082826 0.053284157 -0.066909336 0.013075462 -0.06928272
0.18909295 0.08333222 -0.06753023 -0.13999827 -0.032381974 0.13929915 -0.0029700096 0.045396395
-0.18437539 -0.055219486
