Networks/ALGO-EUR/bidSeed2.pt (torch, 33123 bytes, 9 tensors)

rnn.weight_ih_l0 f4 [50, 1]
00000000: bf28 2c3f 9385 7ebf 7368 bc3f 4346 1e40
00000010: b0a7 1540 124e 853f d750 513f 544e ffbf
00000020: ae7f 723f 907d 54c0 6604 5e3f 97ed 99be
00000030: 1c56 38bf 8060 0fbf 2443 3c3e 73a1 573f
00000040: 1c8d fec0 ed6e 17bf 30e7 4dc0 2274 613f
00000050: 2ba3 19bf a429 643f 7ed4 733f e10c 473e
00000060: 16c3 823f 6777 38bf 80d9 f53e a452 9dbe
00000070: 71bb d93e b26e 8140 6624 a440 5777 b1bf
00000080: 038a ed3f b428 c6bf 26b9 953f de5c 783e
00000090: 61d1 29bf 82f4 3f3e 2612 20bf d919 5abe
000000a0: 5000 6d3f 85d4 9cbd e247 8b3e 074e 903f
000000b0: 2278 2540 5dab 763f f362 97bf fbf6 ba3f
000000c0: 7af9 493f f2ff b3be
0.67249674 -0.9942257 1.4719375 2.4730384 2.3383598 1.041445 0.81763977 -1.9945779
0.94726074 -3.3201637 0.8672546 -0.3006408 -0.7200639 -0.5600662 0.18384987 0.84230727
-7.9547253 -0.59153634 -3.2172356 0.8806783 -0.600146 0.8912604 0.9524611 0.19438507
1.0215786 -0.72057194 0.48017502 -0.30727112 0.4252582 4.0447626 5.129443 -1.3864545
1.8557743 -1.5481172 1.1697128 0.24254176 -0.6633511 0.18745616 -0.6252769 -0.21298923
0.925786 -0.076577224 0.2720328 1.1273812 2.5854573 0.9635523 -1.1827072 1.4606622
0.78896296 -0.35156208

rnn.weight_hh_l0 f4 [50, 50]
00000000: 15ed adbe 8fc5 22bf 262e d3bd c1e3 b03e
00000010: e6af 993e e43a 503f b2a8 3bbe 6e86 173e
00000020: ff51 5b3f c520 9f3d 3084 33bf 9dad 8bbe
00000030: f16f a13e a004 11bf 7c2e ec3e e894 2f3f
00000040: d1f4 6ebf 79a9 163f 6b96 aebe dbd8 c7bc
00000050: f63a 153e 5760 053e ad5b 10be e216 fe3e
00000060: ddf5 7a3e 2f28 813f 058a d7be 7ba3 81bf
00000070: aa2c 773e fcd9 e13e c3f7 95be 8563 f73e
00000080: a5d0 073e 37fc 873e 24eb e0be 8035 34ba
00000090: a1c8 ffbd 45be 4e3f 0885 e0bc c5b8 96be
000000a0: 745d 753d 6966 153f c8e7 9b3d 25da 773d
000000b0: f5b7 0f3f 3dd9 3e3f f5f7 c2be 96a2 f93d
000000c0: ba70 853e 0c25 71bf 028b 353f 302a 7ebe
000000d0: 417a 573f e236 db3b 4046 0d40 f8a8 bdbd
000000e0: fca4 ed3e ee07 04bf d3da 9abe 5c1b 4cbf
000000f0: 64df 633e 56c7 94be 0603 6abe 6699 d83e
00000100: 359a c5be 6fbb a53e 1007 84be cea3 29bf
00000110: e2c4 a8be 9041 4f3f a796 43bf c2e0 893e
00000120: aff9 743e 80b2 0bbf a93f 553f 1392 263e
00000130: efe4 733e f58b 953e 5125 f8be 191c c33d
00000140: b510 1d3f a4d6 a8be fd30 523f cead 5bbf
00000150: 7ad5 903e e298 74be 0977 85be 407b 1ebf
00000160: 8503 39bf 3b52 cfbe 81a3 243f 9a35 a6be
00000170: 5b3a dcbe 5988 163f 11d0 af3d 16bd 3b3e
00000180: 0c8c 0abf 8288 113f 22bb a43e f731 403e
00000190: 16bc a23d d6e9 19bf 2400 44be 8ff9 b13e
000001a0: 9490 7d3e 2d14 663f 6e30 cdbd fdda 953d
000001b0: 89ad 8c3f f33c 3f3d fb25 0cbf 6503 aabe
000001c0: 1284 053f f0de f8be 39be fb3e b34d 063f
000001d0: f404 37bf d34b 243e 750f b5bf 5943 8ebd
000001e0: 75ca 8cbd b2f8 c23d 7aac c3be b2a8 343e
000001f0: 05cd 38be 50bd 863f 9686 f7be 94ba 53bf
00000200: d591 883d c273 183f 0c48 dfbd 220c 0e3f
00000210: 6e3a b63e f0e8 51be eebd e2be 6b11 c9bd
00000220: 5848 80be 5a29 693f f850 883c c98f 84be
00000230: 09f1 4dbc 4faf 2d3f 190c 8a3e 46e9 713e
00000240: c083 083f 407c 373f 3369 c5be b46f e83e
00000250: 52e9 b93e f806 74bf 7304 6a3d 8561 4bbf
00000260: 88f2 11be d1d6 a43f 4c00 96be 0bf4 a93f
00000270: ad88 60bd 2b2d 793e 4c19 cc3e 60df 803e
00000280: 6b43 cabe f6f4 013e de56 8a3e 1a62 18bf
00000290: e688 363f 1e9c 9dbd a291 953d ec3d 043e
000002a0: 9cae 023e 8b7d 34be 2971 9b3e 378d d93e
000002b0: 94a8 4fbe 38ff 273e 6d76 fcbe 5431 023f
000002c0: 4b88 1abf b2fc 81be 27f5 d93d 1e36 683d
000002d0: 23f4 04be abad 793e 89c9 483d 3b86 963e
000002e0: 30e7 10bf 6f41 f5be a0a5 d53c 62bd c03e
000002f0: d057 c93d 0c75 403d bc53 c7bd d398 1c3f
00000300: 1dc8 a1be 4c5e 6cbe a13b 033d 6197 983e
00000310: 0d90 943e 8368 a6bd 6aa2 e3bd 0ebc 60bf
00000320: b93f 373f d901 45be 59ee fb3e e740 a2bf
00000330: 6af3 a83e 90e0 e23e 5e08 cf3e e2da 923e
00000340: cfb2 f03e 726e 01be dfc6 15be 6dad a0be
00000350: cd1f 883e b09e fabc 0080 73bb 7fdb d83d
00000360: 94d5 d63c 95f6 f23d 44f1 acbe 93a4 bc3d
00000370: 8b2e 99bd 7661 423f d87e a1bd 1667 fbbd
00000380: 0486 953e 3bc8 053f 836d c9bd 62c2 11bf
00000390: d8b2 12bf d07e 693f d264 133f 1839 663d
000003a0: 9128 d8be 1d94 5cbc 6007 6e3d 380e eabe
000003b0: 715b 9cbe 3fd8 013f 4300 063e 1d7b 1cbf
000003c0: eb60 d23d 14f9 a1bd 627a 1abf b8f7 093f
000003d0: 67ba a2bf 789a e33e 9d59 58be b2cd 923e
000003e0: d2a4 9c3e f815 babe 809d f5be 52d1 b83c
000003f0: f36d 87be 6a08 82bf afc7 263e ee64 9fbe
-0.33969942 -0.635827 -0.103115365 0.34548762 0.30017012 0.8133986 -0.18326071 0.14797375
0.8567199 0.07769922 -0.7012358 -0.27280894 0.31530717 -0.5664768 0.46129215 0.6858659
-0.9334231 0.58852345 -0.34099135 -0.024395397 0.14573273 0.13025032 -0.14097472 0.49626833
0.24507852 1.0090388 -0.42097488 -1.0128015 0.24138132 0.4411162 -0.2929059 0.48318115
0.13263185 0.26559612 -0.43929398 -0.0006874427 -0.12489439 0.8075908 -0.027407184 -0.29437843
0.059903577 0.5835939 0.07612568 0.060510773 0.5614007 0.7455023 -0.380798 0.12189214
0.26062566 -0.94197154 0.70915234 -0.24820781 0.8417092 0.006689892 2.2074127 -0.09260744
0.46414936 -0.515746 -0.30245075 -0.7972925 0.22253186 -0.2905833 -0.22852716 0.42304534
-0.38594213 0.32369563 -0.25786638 -0.6626557 -0.3296271 0.80959415 -0.7640175 0.2692929
0.23923372 -0.54569244 0.8330026 0.1626666 0.238178 0.2920834 -0.4846597 0.095268436
0.6135362 -0.32976258 0.82106 -0.8581208 0.2828787 -0.23886445 -0.2606738 -0.61906815
-0.72270995 -0.40492424 0.6431199 -0.3246277 -0.43013272 0.588018 0.085846074 0.1833385
-0.54119945 0.5684892 0.3217402 0.1876906 0.07946031 -0.6012243 -0.19140679 0.3476071
0.24762183 0.89874536 -0.10019003 0.07317159 1.0990459 0.046688985 -0.54745454 -0.33205715
0.5215465 -0.48607588 0.49168566 0.5246231 -0.7149193 0.1604455 -1.4145342 -0.06946439
-0.06874553 0.09520091 -0.38217527 0.17642477 -0.18046959 1.0526524 -0.48344868 -0.8270657
0.0666844 0.5955163 -0.10902414 0.55487263 0.35591453 -0.20499015 -0.4428553 -0.09817775
-0.25055194 0.9107872 0.016640171 -0.2589095 -0.012569674 0.67845625 0.26962355 0.23624143
0.53326035 0.71673965 -0.38556823 0.45397723 0.36310822 -0.95323133 0.05713315 -0.7944568
-0.14252675 1.2878057 -0.29297101 1.3277601 -0.054817844 0.24333636 0.3986305 0.25170422
-0.3950456 0.12691101 0.270194 -0.5952469 0.7130264 -0.076957926 0.07303168 0.12914246
0.1276192 -0.17626016 0.30359772 0.4249055 -0.20279151 0.16405952 -0.49309102 0.5085652
-0.60364217 -0.25388104 0.10642462 0.056692235 -0.12983756 0.24382655 0.049020324 0.29399285
-0.56602764 -0.47901484 0.026079953 0.37644488 0.09831202 0.046986625 -0.09732768 0.6117069
-0.31597987 -0.23082846 0.03203929 0.29802993 0.29016152 -0.08125403 -0.111149624 -0.8778695
0.7158161 -0.19238986 0.49205282 -1.2676057 0.3299821 0.44311953 0.4043607 0.2868262
0.4701142 -0.12639788 -0.14626645 -0.31382313 0.26586762 -0.030593246 -0.0037155151 0.105887406
0.026224889 0.11863438 -0.3377782 0.092110775 -0.074795805 0.75929964 -0.07885522 -0.122755215
0.29203808 0.5225865 -0.09835341 -0.5693723 -0.57304144 0.91209126 0.57575715 0.056206793
-0.4221845 -0.013463047 0.058112502 -0.45713973 -0.30538514 0.5072059 0.13086037 -0.61125356
0.10272392 -0.07908836 -0.6034299 0.53893614 -1.2713135 0.44453788 -0.21127935 0.28672558
0.30594498 -0.36344886 -0.47971725 0.02256075 -0.26451072 -1.0158818 0.16287111 -0.3113169

rnn.bias_ih_l0 f4 [50]
00000000: 67a2 1cbe 9145 f33e fcbf 4d3e 4def ae3e
00000010: 36fc 903f 88ab 8abc cc9a 993c e7a6 1fbd
00000020: 12cd 983e eda8 cb3b 8f88 8cbe 8567 e2bc
00000030: d8c9 2b3e bd1d 80be 4482 cf3e f19e 373e
00000040: 07fc fa3f 26bf b33e 04bb fc3d 7e82 8cbe
00000050: 9e00 083e 7bc9 bfbf 20c8 b7bd 0c61 033e
00000060: a37b 0f3f 3715 0f3f 07b5 d6be 0556 edbe
00000070: fb42 e03c 5432 a6bd 6e6e ae3d 3d9a 8c3e
00000080: 6020 1e3f 838f edbc cc09 80be 7696 d43e
00000090: 2b8d 413e 0f42 cf3e 47db 2e3d 3f98 c5be
000000a0: f01c e9bd 7e3f d53e 6eb6 d93e f304 1ebe
000000b0: 0ffc bc3d 81ca 98be 04ce b1bd 3581 353e
000000c0: 9bda 2a3f 4ba6 a5be
-0.15296327 0.47514012 0.20092767 0.34166947 1.1326969 -0.016927496 0.01875057 -0.03897753
0.29843956 0.006215206 -0.27447936 -0.027637253 0.16776216 -0.25022689 0.40529072 0.17931725
1.9608163 0.35106772 0.12340358 -0.27443308 0.13281485 -1.4983362 -0.08973718 0.12829989
0.5604803 0.55891746 -0.41934988 -0.4635469 0.027375689 -0.08115068 0.085171565 0.27461424
0.6176815 -0.028999096 -0.25007474 0.41521043 0.18901508 0.40480086 0.042689588 -0.38592717
-0.113824725 0.41650003 0.42521995 -0.15431575 0.09227764 -0.29841998 -0.086818725 0.1772507
0.66739815 -0.32353434

rnn.bias_hh_l0 f4 [50]
00000000: a140 12be 04e6 a83e 00f4 403e 98b9 cc3e
00000010: ecbf a03f 50a0 1e3c f62a 43bd db52 afbd
00000020: 9d8b db3e 7ce1 0d3e 6265 60be 8e25 10be
00000030: aec2 4c3d 81f4 83be 2cf7 1a3f 9265 413e
00000040: e019 e13f 136f 9d3e 0504 1d3e 45d8 78bd
00000050: 65c4 283e d21c d3bf d5c1 33be 0a0d 873e
00000060: d5ff 3c3f 034b 323f 7e18 e5be ff1e 97be
00000070: 38ec edbc 538f 70bd 3886 70bd 5ecf bd3e
00000080: 52d3 053f fbdb 973d 2a35 86be 416c da3e
00000090: 4c45 e13c a218 eb3e 1169 e4bd aec3 dcbe
000000a0: 13dd 1bbe c57b af3e d126 833e 4655 d0bd
000000b0: ffb7 abbd 3e81 a8be 1b11 ca3d 941e c63d
000000c0: 040f 083f 206e bbbe
-0.14282466 0.32987988 0.18843079 0.39985347 1.255857 0.009681776 -0.047648393 -0.08560725
0.42879954 0.13855547 -0.21913674 -0.14076826 0.04999035 -0.2577248 0.60533404 0.18886402
1.7586021 0.30748805 0.15333565 -0.060753126 0.16481169 -1.649317 -0.1755441 0.26377136
0.7382787 0.6964571 -0.4474525 -0.29515836 -0.029043302 -0.058730435 -0.05872175 0.3707227
0.52275574 0.07415005 -0.26212436 0.42660716 0.027498864 0.4591723 -0.11152852 -0.43118042
-0.15221052 0.34274116 0.25615552 -0.101725146 -0.08384704 -0.32911104 0.09866544 0.09673801
0.5314791 -0.36607456

rnn.weight_ih_l1 f4 [50, 50]
00000000: 16a2 ee3d f7ce 3c3e 6f73 89be 85a7 7d3d
00000010: 61c2 8b3e 99bb 4cbd 2d20 023e 1c30 f7bd
00000020: 1f62 ad3d bc89 6cbe f7fa 88bc c53a d0be
00000030: 235c febe c8d4 cfbd bcac 2b3c 8e1f 15be
00000040: a9e7 573e f5d0 b9be 498a 1abf 4a5c 913e
00000050: 0a7e b7be 5585 3cbf ecd6 e33d 8733 b53c
00000060: 73ed 273f 53af acbc 4970 723e c8ac 963e
00000070: ef18 e5be d095 7d3d f19c e53c 4094 b3be
00000080: ea9d d93e 5fef afbe 44d8 b73e 4483 823e
00000090: 7779 2ebe 3f59 0abe eefd 37be d4e4 0cbe
000000a0: 0e85 f83c d861 c9be 0abb 8e3e 1ee4 833f
000000b0: e806 99be b59d 87be 5ab0 3b3e c345 363f
000000c0: d5b2 093f c087 593e 1356 8bbe 5093 4cbd
000000d0: dd2e 26be fe3a 823c af9d 8ebe 9e9b 7f3e
000000e0: aa08 1ebe 15e5 a13e fe88 083f b366 143f
000000f0: 8d56 26be 9493 833d c7c6 6a3d 120e f0bd
00000100: 69f4 cc3d 7546 a2bd c374 29be ff1c de3e
00000110: 026c 3e3e f6b8 1bbf a92f 843e e047 12be
00000120: eceb 52be 84dc 653e cc6a 26be c71e c13e
00000130: b7f1 41be 9b15 0bbe 6f3c 1f3e 477b a43e
00000140: b5c6 74be d410 dd3d f066 52bc 4493 e33e
00000150: fa40 6f3d a1a3 2cbd b0c6 213e 363d 703e
00000160: 3e85 b13e 9910 7c3e 162e adbe 80a9 a83e
00000170: dece e6bd ede4 f2be 274e e6bd 7158 14be
00000180: fe59 de3e 58c4 33be 4113 ec3d 5316 993d
00000190: b27f 2e3e 5310 2fbd 53b3 2b3e ff99 823e
000001a0: afde fe3f 2e2b 63be e139 063e 6e6d 00be
000001b0: 3b84 b6be dde7 5cbe 8683 993c ee63 11bf
000001c0: 6871 e0be c33d 383e 4b70 2d3c cf0f 1a3f
000001d0: cf44 a5be e377 253e d246 1cbf 9d1b ae3e
000001e0: 215a 493d 735a 43bf 1acf 1b3e 53ef 653e
000001f0: 9a1a 3f3f d68a c7be 8d95 b5bd c9b7 9a3d
00000200: a01a 1cbe 653c 153e 76eb 02be 84f4 dd3c
00000210: 26c5 ad3e fb2e 92be abee a2be 0aaa 3d3f
00000220: 5a26 2fbf c2fc f53b 00b6 00bf e040 29bf
00000230: a121 463e 9186 383e b16d f13e 7110 973e
00000240: 67cd c13e 636d 563e ecfe c1ba 128f e83e
00000250: 77fd be3e 168a 69bc 3a74 19be 17f2 de3e
00000260: 3702 87be daf7 a6be 11c7 07bd 3bae 38bf
00000270: cdff 78bd 4f76 b9be 25de 0bbf 3a79 99bd
00000280: 3cbd eb3e 5695 803e dd7f 11bf e5ad 0c3f
00000290: 94fe d5be d5fc 00bf 4fed 9b3e 2bf9 41be
000002a0: 0a41 d03e 2706 c03d 5cc7 193e 323e 4bbe
000002b0: 8921 2fbe a05a f2be 0f7a 43bd 4fa2 0ebf
000002c0: bad5 de3e b223 1b3f 427e 18bf 2c0c babe
000002d0: 5719 a2bd 1b1b fcbe 91cf 80be dec6 9fbd
000002e0: 357d 8e3e 235d 8d3e c8b9 863e 7e14 1abf
000002f0: 6e7a 13bf 9b74 dd3e 9ea5 66bd 31ef 05bf
00000300: 5e57 91bd 4849 4fbd 7b7f 0bbf 1841 10bf
00000310: 307a be3d f11a 373e b726 05bf 496f 243f
00000320: 3716 403f 9314 af3e e7c9 343f a9a2 e23d
00000330: d834 de3e fc06 13bd 2d4e 923e cf58 21bf
00000340: 0a5d b9bd 5d29 5fbf c902 a33e 0447 f1be
00000350: 4d1a 20bf c768 483e ac0f 03be 8406 7a3e
00000360: eb15 5cbf cdc7 bbbe ab98 bcbe 09f1 4e3f
00000370: 3d20 4abf d17f c13e 57a7 593f 74e0 fcbe
00000380: a52d 0b3f 8b63 2fbe 9800 3a3e 11cb 3d3e
00000390: 8473 f0be 8e41 2540 0e91 b23f 6609 80be
000003a0: 7331 1bbd 2fe3 04bf c5ed 883e e567 97be
000003b0: b171 c2be 55ec 04be 08fc 53bf d44b 87be
000003c0: 660d b53f 6732 c9be 4250 02be 50cf 2bbe
000003d0: 0a43 d23e c675 0a3e 8e6e 12c0 141d c63e
000003e0: 2116 dd3e 413a 7c3e a9cd 42bf 7fb6 343e
000003f0: f050 f9be ca4e bcbf 9a6f d1be 1a11 94be
0.11652009 0.18438326 -0.2684588 0.061927337 0.27296737 -0.049983595 0.12707587 -0.12069723
0.08465981 -0.23099416 -0.016721232 -0.40669838 -0.4967967 -0.10148007 0.010478195 -0.14562818
0.21084465 -0.36292234 -0.60367256 0.28390723 -0.35838348 -0.7364095 0.111249775 0.022119297
0.65596694 -0.021079695 0.23675646 0.29428697 -0.44745585 0.06191045 0.028028937 -0.35074043
0.4250329 -0.34362313 0.35907185 0.25490773 -0.17038523 -0.13510607 -0.1796796 -0.13759166
0.030336883 -0.3933246 0.27877074 1.0303991 -0.29888082 -0.26487508 0.18328992 0.712002
0.537885 0.21243191 -0.27214107 -0.049945176 -0.16228814 0.01589727 -0.27854678 0.24961707
-0.15432993 0.31620088 0.53334033 0.57969207 -0.16243954 0.06424633 0.057318475 -0.11721434
0.10007555 -0.07923595 -0.16548447 0.43381497 0.18595889 -0.60829103 0.25817612 -0.1428523
-0.2059781 0.22447401 -0.16251677 0.37718794 -0.18939863 -0.1358246 0.15550397 0.32125303
-0.23903926 0.10794225 -0.012841925 0.44448292 0.058411576 -0.042148236 0.1579845 0.2346085
0.34671968 0.24615707 -0.33824223 0.32941818 -0.112699255 -0.47440282 -0.11245375 -0.14486863
0.43428034 -0.17555368 0.1152711 0.07474961 0.170409 -0.042740177 0.16767626 0.25508115
1.9911708 -0.2218444 0.13108017 -0.12541744 -0.3564776 -0.21572824 0.018739473 -0.56793106
-0.43836522 0.1799231 0.010585855 0.6018037 -0.3227906 0.16159014 -0.61045563 0.34005442
0.04915822 -0.7630989 0.15215722 0.22454576 0.74649966 -0.3897311 -0.08866415 0.075545855
-0.15244532 0.1457382 -0.12785134 0.027094133 0.33939475 -0.28551468 -0.31822714 0.74087584
-0.68417895 0.0075069377 -0.5027771 -0.66114616 0.19348766 0.18020083 0.47154 0.2950473
0.37852022 0.20940165 -0.0014800704 0.45421654 0.37302753 -0.014254114 -0.14985743 0.43544075
-0.26368877 -0.3261097 -0.03314883 -0.72140855 -0.060790826 -0.36223075 -0.5463584 -0.07493825
0.46042812 0.25113934 -0.5683573 0.5495284 -0.4179579 -0.5038579 0.3045449 -0.18942706
0.4067462 0.093761735 0.15017456 -0.19847944 -0.17102636 -0.47334766 -0.047723826 -0.55716413
0.43522435 0.6060134 -0.59567654 -0.3633741 -0.079149894 -0.4923943 -0.2515836 -0.07801603
0.278299 0.2761012 0.26313615 -0.6018752 -0.5760869 0.43253025 -0.05631029 -0.523181
-0.07096742 -0.050606996 -0.54491395 -0.56349325 0.09300649 0.17881371 -0.520122 0.6423231
0.750339 0.34195384 0.7062058 0.11066181 0.43399692 -0.035895333 0.28575268 -0.63026136
-0.09050949 -0.8717249 0.31838062 -0.47124493 -0.6254013 0.1957122 -0.12798947 0.24416548
-0.85970944 -0.36675873 -0.36835226 0.8083654 -0.7895544 0.3779283 0.85020965 -0.49389994
0.54366523 -0.17127816 0.18164289 0.18534495 -0.4696313 2.5821261 1.3950517 -0.2500717
-0.037888955 -0.51909155 0.26743904 -0.29571453 -0.37977365 -0.12980779 -0.82806444 -0.2642504
1.4144714 -0.39296266 -0.12725928 -0.16778302 0.41066772 0.1352149 -2.2879977 0.3869406
0.43180946 0.24631597 -0.7609506 0.17647742 -0.48694563 -1.4711545 -0.40905458 -0.28919297

rnn.weight_hh_l1 f4 [50, 50]
00000000: e27d dabd aa4e 06bf d625 a23d ae52 e3b9
00000010: 83ac 433f bd2d f5be a4a7 77be e800 873e
00000020: 04f4 9bbe 8506 d63e db9c 7ebe c9e3 8fbe
00000030: b69e 1bbf 20b9 b4be b174 033f 8f40 32bd
00000040: 0089 91be d327 2e3e 95c5 49bf a22e 493f
00000050: 72fe ee3d cfb8 19be c33b f13e aaf1 42bf
00000060: e289 1c3f 7505 a0be 3501 49bf 1f2b edbe
00000070: b1a2 053e 90c8 6fbf ea07 bc3e d022 393e
00000080: 4590 82bd 18d3 ad3e 0c49 09bf ebaf 463f
00000090: aebe 103d 836f e83e ce79 38bf bc4e b03e
000000a0: b9c8 943e 758b 58bc e4cd 09bf 2819 5e3f
000000b0: 7c58 04bf 3175 823e 4fc6 893d b3a2 da3e
000000c0: a4c3 003e daf2 43bf 0fd0 153f a3e3 1c3f
000000d0: 776d c43e a9d5 2cbe 910c a73c 446e a8be
000000e0: 0acf 0dbf 210d 90ba 9b4b 12be 281a 2f3e
000000f0: 2bb5 96be a159 18bf 66a2 973e 2da6 853e
00000100: b5aa df3e b2ac 0d3f 3f85 c93e 8316 bdbe
00000110: bca6 d83d 468e 81bd 2515 f23e c317 d3be
00000120: df1f 933e 4dce 903d 7ca1 bfbe 573b 80be
00000130: 92fb dbbd 7542 7b3d 1177 e1be 41b2 8bbe
00000140: ac5e 063f b47c 2c3e 1e41 1fbf 9fd0 9abe
00000150: 65e5 09bd 48b2 df3e 0eee 86be cb79 f83e
00000160: f5b0 8abe 6383 10be 8d5f 323f 68a9 963e
00000170: 66e2 3ebf 6012 583e 0d48 e3be 13c6 103f
00000180: 1625 9abe 1810 0c3e df2e e7be f285 233e
00000190: 7d40 593f b2ee 513c d601 5cbe 135d 74bf
000001a0: 7193 653e 1ef7 69bf a246 52be 4bfe 0abe
000001b0: ac2b 0a3f 07a1 073f c5b7 6cbf d9c9 50be
000001c0: 5cf7 fdbe 3346 0cbf cfdd 213e 2d77 3b3e
000001d0: bac4 983d 9f68 d0be a287 22bf 3699 0d3f
000001e0: 5335 813e d688 6fbe e614 b6bd ea0e b3be
000001f0: f072 203f c210 91be 6732 c0be cebb 1cbd
00000200: fc72 bb3e 4c6e 43bf 448e f13e 5304 d33e
00000210: 7020 b23c b654 ec3e 564a 8d3d 385c 4c3f
00000220: 3ed5 d13e baa3 8a3f b695 0dbf 55a7 1d3f
00000230: c093 0e3c 38b0 b63e 5a09 383e 2837 1c3f
00000240: 2c19 52be ca84 d1bc 6d3a 993e 790a 143e
00000250: 8148 2e3f 5d05 28bf 7d75 0abe 912a c5bd
00000260: c95f 603e ae1c ecbe 5ab5 ee3e 90c3 8dbe
00000270: d790 54bd 4a66 6ebe efe2 7bbe 67c3 f33d
00000280: 8576 3dbe 245e 913c f0d4 333e ee21 acbe
00000290: a979 07bf 6ece 16bd 3b67 0b3e 0287 35bd
000002a0: 1e89 12be bb91 373e e5b5 ba3e 9498 8bbe
000002b0: d2ab 653e 5f6c 3cbe ef62 613d 1961 1dbe
000002c0: 12be 67be d7f9 31be 0555 0ebe 0552 5dbe
000002d0: 9425 8d3d cb5b d93e bb00 69bd 09e8 503e
000002e0: de9d 98be e41c 973e 7c2c 4cbf 6212 373e
000002f0: bf73 37be e33d ce3d 58fc 0e3e b0d6 933e
00000300: 8bd0 29be a6f7 4d3e 59ec 4fbc ead5 9b3d
00000310: a6a4 dcbb 18e2 d53e 24d9 b9bd d4a8 84be
00000320: 3e02 23be daba ea3d 8cc3 a7be 9800 ccbe
00000330: bcc1 893f 5cda 28be 2e1c 3d3e 35d3 483d
00000340: 91bb a83e 85a8 623e 4df9 7fbe 7f26 c73d
00000350: 708e 29be f1c4 2ebe eb6b c5bc 9fcd 4cbe
00000360: b1e4 54be f188 2d3e b126 81be 694a b83e
00000370: fe1c ebbf f6f4 243e 35b8 ab3e dc3a 18be
00000380: e174 aa3e fa28 6f3e a529 ebbe 42c3 81be
00000390: 45ab 943e 2ddb 99be b444 30be 550c 0ebf
000003a0: 2b85 e8bc b807 1a3e 9327 55bc fbed 923e
000003b0: 8356 073f fba8 be3e 57e3 b5be e16f fd3e
000003c0: 559b 84bd 940a 2b3e 3f9c b23e f5b4 df3e
000003d0: de8f 53bc e2be a1bd 785f fc3d fd8f 183e
000003e0: 0905 633e 554f c5be f4f3 85be 330c 8bbe
000003f0: 272d 193e b3b8 5e3e 71f4 dbbd 1355 2a3e
-0.106685415 -0.5246378 0.07917373 -0.00043358415 0.76435107 -0.47886458 -0.24185044 0.2636788
-0.30459607 0.4180185 -0.24864523 -0.28103474 -0.6078905 -0.3529749 0.5134993 -0.0435186
-0.28424835 0.17007379 -0.7881711 0.7858678 0.11669625 -0.15011905 0.47115907 -0.7615
0.6114789 -0.31254163 -0.78517467 -0.4632196 0.13050343 -0.9366541 0.36724788 0.18079686
-0.063751735 0.33950114 -0.53627086 0.7761218 0.035338096 0.45397577 -0.7206086 0.3443507
0.2905939 -0.013216843 -0.5382979 0.86757135 -0.51697516 0.25480035 0.067272775 0.42702255
0.12574631 -0.7654244 0.585206 0.61284846 0.38364765 -0.1687838 0.020391734 -0.32896626
-0.5539404 -0.0010990241 -0.14286654 0.17099822 -0.29435095 -0.5951176 0.29616088 0.26103345
0.43684927 0.5534164 0.3935947 -0.36931238 0.10578677 -0.06325965 0.47281757 -0.41229066
0.28735253 0.07070599 -0.3742789 -0.25045273 -0.107413426 0.061342675 -0.44036153 -0.27284434
0.5248821 0.16844445 -0.62208736 -0.3023729 -0.033666033 0.43690705 -0.26353496 0.4853042
-0.27088133 -0.1411262 0.6967705 0.29426122 -0.74564207 0.2110076 -0.44390908 0.5655224
-0.3010642 0.13678014 -0.45152947 0.15969065 0.84864026 0.012813257 -0.21485075 -0.9545452
0.22419526 -0.91392696 -0.20534757 -0.13573568 0.5397289 0.52980083 -0.9246791 -0.20389499
-0.49602783 -0.54794616 0.1580727 0.1830718 0.074593976 -0.4070482 -0.6348821 0.55311906
0.25235996 -0.23392043 -0.08890705 -0.34972316 0.6267538 -0.28333098 -0.37538454 -0.038265042
0.36611164 -0.76340175 0.47178853 0.41214237 0.021743983 0.4615838 0.06898944 0.79828215
0.40983003 1.0831215 -0.55306566 0.61583453 0.0087022185 0.3568132 0.17972317 0.6102166
-0.20517415 -0.025576014 0.29927388 0.1445712 0.6807938 -0.65633184 -0.1352138 -0.096272595
0.21911539 -0.4611563 0.46622735 -0.27688265 -0.051895943 -0.23281208 -0.24598287 0.119025044
-0.18502243 0.017745085 0.17561698 -0.33619636 -0.52920014 -0.03681796 0.13613598 -0.044318207
-0.14310119 0.17926686 0.364669 -0.27264845 0.22428825 -0.18400715 0.05502599 -0.15369071
-0.226311 -0.17380463 -0.1389962 -0.21613319 0.06891933 0.42452845 -0.056885462 0.20401014
-0.29807943 0.2951423 -0.7975538 0.17878106 -0.17915247 0.10070398 0.13963449 0.2887473
-0.16583459 0.20114002 -0.012690627 0.0760916 -0.006733495 0.41774058 -0.090746194 -0.25910056
-0.15918824 0.1146142 -0.32766378 -0.39844203 1.0762248 -0.16489547 0.18467781 0.049029548
0.32955602 0.22134598 -0.24997444 0.097241394 -0.16558242 -0.17067315 -0.02409931 -0.20000313
-0.20790364 0.1694677 -0.25224832 0.3599427 -1.8368223 0.1610907 0.33538976 -0.14866203
0.33292297 0.23355475 -0.4593021 -0.25344282 0.29036918 -0.3005003 -0.17213708 -0.5548757
-0.028383812 0.15042007 -0.0130099235 0.2869719 0.5286638 0.37238297 -0.3552501 0.4949942
-0.0647494 0.16703254 0.3488483 0.43692747 -0.012912719 -0.07897736 0.12322897 0.14898677
0.2216989 -0.38537088 -0.26162684 -0.27157745 0.1495863 0.21750145 -0.10739983 0.16634016

rnn.bias_ih_l1 f4 [50]
00000000: d875 1ebe 73dd 21bf 3414 3abd 8cbc 223e
00000010: e679 7c3e 8059 ba3e c830 eb3d 7f37 68be
00000020: 4782 af3e e540 46be 0f0e a2bc 90d1 c53e
00000030: 9297 4a3f 5e68 e53e b965 82bf 95d9 70be
00000040: c413 8a3e 2259 93be f89a 453e 50b2 47be
00000050: 0227 753d 1270 abbe 4e6d aabe ee0b 26bd
00000060: f20b 9a3e 4182 3c3f 194b 7a3d 5e43 00be
00000070: 7cc9 773d 2113 0c3f b947 ed3e 9438 243e
00000080: 2f0b c7be a35e 59be e34a 693e 7dd8 b53d
00000090: 3f9c 4ebe 581d b33d 73b0 dc3c 6038 7b3d
000000a0: 3229 96be 3dbe 343e 3666 9b3d 54ee a0be
000000b0: a0d7 16be 3f46 df3e 5003 de3d 14c4 95be
000000c0: d130 edbe 6a2d 9e3e
-0.15474641 -0.6322853 -0.045429423 0.15892237 0.24655876 0.36396408 0.11483914 -0.2267742
0.3427908 -0.19360693 -0.019782094 0.38636446 0.7913753 0.44806188 -1.0187293 -0.23520501
0.26968205 -0.2877894 0.19297397 -0.19501615 0.059851654 -0.3348394 -0.33286518 -0.04053872
0.3008724 0.7363625 0.061106775 -0.12525699 0.060494885 0.5471669 0.46343783 0.16037208
-0.3887572 -0.21227507 0.22782473 0.088791825 -0.2017679 0.08745831 0.026939606 0.06133306
-0.29328305 0.17650695 0.075878546 -0.3143183 -0.14730692 0.4360828 0.108404756 -0.29251158
-0.46326306 0.30894023

rnn.bias_hh_l1 f4 [50]
00000000: 67fb 4cbe ad92 42bf 82ad 6ebd f082 713e
00000010: b6c0 ac3e 073d 023f 8e5f d03d dc80 afbe
00000020: 3459 133e 26d8 52be 16bf a33d 622f d93e
00000030: 437f 4a3f a922 ff3e daad 82bf c0fc 7fbe
00000040: 4573 363e bc36 ecbe c23a 43bb 9e19 96be
00000050: 4a47 dbbd 22a4 80be 8181 86be b0c4 583e
00000060: a45e bc3e a5e4 1d3f f679 313d 80c7 b4bd
00000070: 96b0 b6bd 4c30 ff3e 0f16 533e 5c30 9d3e
00000080: f3df 9cbe cf5d f9bd 5c27 ac3e 75a6 4f3d
00000090: e0dd dfbd bb78 c43d c11e 4bbe 35b7 f6bc
000000a0: 1abc 2cbe 7fe6 7cbd 42bc ab3d 9c94 d1be
000000b0: e62e 9a3d 6d7a 123f 6341 b7bc 1a1d 44be
000000c0: da58 01bf fa46 613e
-0.20017777 -0.7600506 -0.05827094 0.23585105 0.33740777 0.5087437 0.101744756 -0.34278
0.14389497 -0.20590267 0.07995431 0.42418963 0.79100436 0.4983113 -1.0209305 -0.2499876
0.1781741 -0.4613551 -0.002978966 -0.2931642 -0.10706957 -0.25125223 -0.2627068 0.2116878
0.36790955 0.6167701 0.0433292 -0.08827114 -0.089204 0.49841535 0.20613883 0.30700958
-0.3063961 -0.12176096 0.3362378 0.050695855 -0.10930991 0.0959334 -0.1983595 -0.030116657
-0.1686863 -0.061743256 0.08385517 -0.40933692 0.075284764 0.57218057 -0.022370046 -0.19151726
-0.505262 0.21999732

fc.weight f4 [1, 50]
00000000: eeea 553d df0a 09bc 5344 883e 5b4b 6fbc
00000010: 2c72 0bbe 3696 3bbe d422 243d c486 50bd
00000020: c134 7a3d cbc8 0abd 4865 833c 65e3 913d
00000030: 991d b6bd 66e9 02bd 2bd4 693e 0337 aa3c
00000040: 8466 a4bc d55b cabc 5ea2 233d a0e6 753d
00000050: e306 713c 3d30 b6bd d34b 15bd f2fe 9d3d
00000060: e75e b53b b542 ad3d e58d 873c a85c ef3d
00000070: fed9 b4bc c8da a73d 93a2 a9bd d2d1 c23d
00000080: 20c3 643d bd24 f0bc 49e4 aebc 9a87 eabb
00000090: 4744 f63d 565c a1ba 731b 763c 604d 5d3d
000000a0: 961c b7bd d055 50bd b480 e7bc 0cc6 26bd
000000b0: 35fc 7d3d 7731 a0ba 23ca 2dbd c840 e13c
000000c0: 3f1c 1e3d 99da 2f3c
0.052226 -0.008364408 0.26614627 -0.0146053685 -0.13617772 -0.1831902 0.040072277 -0.050909773
0.061085466 -0.033882897 0.016039506 0.0712345 -0.08892364 -0.031960867 0.22834842 0.020778185
-0.020068415 -0.024701992 0.039949767 0.060034394 0.014711115 -0.088959195 -0.036449265 0.077146426
0.005534995 0.08459989 0.016547153 0.11687595 -0.022076603 0.08196026 -0.08282962 0.09512676
0.05585015 -0.029314393 -0.02134909 -0.0071572782 0.120247416 -0.0012310843 0.015021193 0.05402887
-0.08940999 -0.050863087 -0.028259613 -0.040716216 0.0620081 -0.0012221773 -0.0424291 0.02749671
0.038601156 0.01073327
