Networks/EUROC-EUR/Seed1.pt (torch, 24291 bytes, 14 tensors)

rnn.weight_ih_l0 f4 [32, 5]
0	0xbf11ea45	-0.5699809
1	0xbeec8bb5	-0.46200338
2	0x3f0ab871	0.54187685
3	0xbe9b8a3b	-0.303789
4	0xbe5fbb65	-0.21848829
5	0xbf0eabcc	-0.5573089
6	0xbebc3ae4	-0.3676368
7	0x3d9a13f4	0.07523337
8	0xbc4b850b	-0.012421857
9	0xbe0ed408	-0.13948071
10	0x3ec6b5ca	0.3881057
11	0x3ea05ffc	0.3132323
12	0xbe9696ec	-0.2941202
13	0xbd3d452b	-0.04620854
14	0xbdca01c4	-0.09863618
15	0x3fbac520	1.4591408
16	0xbdba4994	-0.09096065
17	0x3ebf2d3d	0.37339202
18	0xbf19d51c	-0.60090804
19	0xbeed206d	-0.463138
20	0xbf5f33df	-0.87188524
21	0xbebeb7f4	-0.3724972
22	0x3f00c3e9	0.50298935
23	0xbe35bb99	-0.17747344
24	0xbee185c7	-0.44047377
25	0xbeb8738a	-0.3602565
26	0xbeae9707	-0.340996
27	0x3e8050f2	0.25061756
28	0xbdebbab0	-0.11510217
29	0xbe80d971	-0.25165895
30	0x3ee8908c	0.4542278
31	0x3ee4bc3a	0.44674855
32	0xbec0d217	-0.37660286
33	0x3e8f3ca8	0.27975965
34	0x3e0be2b3	0.13660698
35	0x3ee6e0d5	0.45093408
36	0x3ef6dc1d	0.48214808
37	0xbf6431b6	-0.8913835
38	0x3f15e1ec	0.58547854
39	0x3e8a309e	0.26990217
40	0xbeda262a	-0.42607242
41	0xbdacec99	-0.08443565
42	0x3ebd6943	0.3699437
43	0xbe4535c4	-0.19258791
44	0xbe282b0a	-0.16422668
45	0x3d99f355	0.07517115
46	0xbe18e466	-0.14930877
47	0x3e1ee2e1	0.15516235
48	0xbe21b57f	-0.15791892
49	0xbeb395df	-0.3507528
50	0x3ec762f9	0.38942698
51	0x3ee546e9	0.44780663
52	0xbde9b9d7	-0.11412399
53	0x3eac31af	0.33631656
54	0xbd1d8587	-0.03845742
55	0x3f858e4f	1.0434054
56	0xba983a23	-0.0011614006
57	0xbeb603f8	-0.35549903
58	0x3ea83f52	0.3286081
59	0x3f0a6822	0.54065144
60	0x3d27d9e8	0.040979296
61	0xbca55472	-0.020181868
62	0xbe8252ff	-0.25453946
63	0x3e8d1718	0.27556682
64	0x3decf696	0.1157047
65	0xbf28543c	-0.6575353
66	0xbf1895e4	-0.59603715
67	0x3eca402b	0.3950208
68	0xbeeed42f	-0.46646258
69	0xbddf9f38	-0.109190404
70	0x3f064301	0.5244599
71	0x3e8da3cf	0.2766404
72	0xbe35bf89	-0.17748846
73	0x3e98f421	0.29873756
74	0x3e9d4b8f	0.3072171
75	0xbe756730	-0.23965144
76	0xbe9d0aae	-0.3067221
77	0x3f2ab5b2	0.66683495
78	0xbe9acb71	-0.30233338
79	0xbce971b3	-0.028496599
80	0xbf163d8c	-0.58687663
81	0x3e28006a	0.16406408
82	0xbdd48ab8	-0.10378021
83	0xbded6604	-0.115917236
84	0x3f20f33b	0.6287114
85	0x3e8f18b1	0.27948526
86	0x3d08d676	0.03340765
87	0xbe8eb53e	-0.27872652
88	0x3e4c8b2c	0.19974965
89	0xbf3b3407	-0.7312626
90	0xbf13a783	-0.5767748
91	0xbf173195	-0.5906003
92	0x3ee44934	0.445871
93	0xbeb86c92	-0.36020333
94	0xbef25ae4	-0.4733497
95	0xbf81f73a	-1.0153573
96	0x3cf76c17	0.030202908
97	0x3df82152	0.1211573
98	0xbeaaa85d	-0.33331576
99	0x3f4b6763	0.7945463
100	0x3f819dfb	1.0126337
101	0x3eb7ff39	0.35936907
102	0xbec06bc2	-0.37582213
103	0x3ee854cc	0.45377195
104	0x3ed0db73	0.40792426
105	0xbf43c4f9	-0.7647243
106	0xbedc4c78	-0.4302709
107	0x3e5e0ea6	0.21685275
108	0xbe38022c	-0.17969579
109	0xbe99f5c1	-0.30070308
110	0x3f9fd0e4	1.2485623
111	0x3da710da	0.08157511
112	0xbe97ba83	-0.29634485
113	0xbe953cf5	-0.2914807
114	0x3f4096f8	0.7523036
115	0xbe089890	-0.13339448
116	0xbeb87529	-0.36026886
117	0x3e3c4b4c	0.18388098
118	0x3dc78b49	0.097433634
119	0x3e587f00	0.21142197
120	0xc007da70	-2.1227074
121	0xbeaa9886	-0.3331949
122	0x4002fb41	2.0465853
123	0xbeb47269	-0.35243538
124	0xbee10927	-0.43952295
125	0xbedb8ccb	-0.42880854
126	0xbe92a93d	-0.28644744
127	0x3e961cd7	0.29318878
128	0x3f3d0626	0.73837507
129	0x3e0f6a22	0.1400533
130	0x3f4d3206	0.80154455
131	0x3e95b027	0.29235956
132	0xbe530009	-0.20605482
133	0x3ba6b672	0.005087667
134	0x3e662162	0.22473672
135	0x3f4b6ebd	0.7946585
136	0x3ebbf9ec	0.36714113
137	0xbe64bce2	-0.22337678
138	0x3bc9194c	0.006137049
139	0x3ecaa7ee	0.39581245
140	0xbeadd3f5	-0.33950773
141	0xbdde66c1	-0.108594425
142	0x3c0a8e23	0.00845674
143	0x3d08657c	0.033299908
144	0x3f632a1a	0.88736117
145	0x3f5af07f	0.8552322
146	0x3e441bb5	0.19151194
147	0xbeab815c	-0.3349713
148	0xbd262ba9	-0.04056898
149	0x3e68209b	0.22668688
150	0xbf6d9818	-0.928102
151	0xbe1c25bf	-0.15248774
152	0x3e95e30e	0.2927479
153	0x3e377d33	0.17918853
154	0xbe0a4693	-0.13503484
155	0xbf4e1455	-0.80499774
156	0x3ea884d4	0.3291384
157	0xbebc6e50	-0.36802912
158	0x3f3be9cd	0.73403627
159	0x3bfcfc70	0.0077205226

rnn.weight_hh_l0 f4 [32, 32]
0	0x3e3b749a	0.18306199
1	0x3ee4cc72	0.4468723
2	0xbd01fb1e	-0.031733625
3	0xbdc567ba	-0.09638925
4	0x3f256e25	0.6462119
5	0x3e6a5d7f	0.22887228
6	0xbee0e301	-0.4392319
7	0xbf4eebca	-0.80828536
8	0x3ebb3a7b	0.36568055
9	0x3e8aeb6a	0.27132732
10	0x3e3e4d4e	0.18584177
11	0xbd0646e9	-0.03278247
12	0xbf4b507b	-0.7941968
13	0x3e62a996	0.22135004
14	0xbe20807f	-0.15674017
15	0x3ef477ae	0.47747558
16	0x3e1e4474	0.154558
17	0x3d113800	0.035453796
18	0x3f6313ad	0.887019
19	0xbe7b19f8	-0.24521625
20	0xbe8b9a45	-0.27266136
21	0x3f2832bf	0.6570243
22	0x3dd05b4c	0.101736635
23	0xbec8bf0f	-0.39208266
24	0xbed925d9	-0.42411688
25	0xbd8ca387	-0.06867128
26	0x3bd8c48b	0.0066152266
27	0xbf102994	-0.56313443
28	0xbe8f190f	-0.27948806
29	0xbde2496c	-0.1104916
30	0x3f003aeb	0.500899
31	0xbee20c60	-0.44150066
32	0x3e0ba494	0.13637
33	0x3efcf727	0.49407312
34	0xba8fd24a	-0.0010972705
35	0x3e8b54e0	0.27213192
36	0x3f021111	0.5080729
37	0x3e1155bc	0.14192861
38	0xbe6fd198	-0.23419797
39	0xbe92a912	-0.28644615
40	0x3f030994	0.5118649
41	0x3ef3c03a	0.47607595
42	0xbd6b0e3b	-0.057386618
43	0xbd5ac3c3	-0.05340935
44	0xbe89601e	-0.26831144
45	0x3ea2a07d	0.31763068
46	0xbf12f9f3	-0.5741264
47	0xbd341f58	-0.043975204
48	0xbe62841c	-0.22120708
49	0x3ea87718	0.3290336
50	0x3e4ddd3d	0.20103927
51	0xbf1bda83	-0.608803
52	0xbea29859	-0.31756857
53	0x3f2b7096	0.6696867
54	0x3d1feac3	0.039042246
55	0x3d2802b9	0.04101822
56	0x3dcaafa4	0.09896782
57	0x3ccfcf4d	0.025367403
58	0xbf09eebc	-0.53879905
59	0xbf1c72e9	-0.6111284
60	0x3dc47b99	0.09593887
61	0xbf17113c	-0.5901067
62	0x3d963ce6	0.07335834
63	0x3caf73ed	0.021417582
64	0x3e454df9	0.19268025
65	0xbf29f137	-0.6638369
66	0x3dc8b682	0.098004356
67	0x3e9756a8	0.295583
68	0xbf37e3bc	-0.7183187
69	0x3d13bc5e	0.036068313
70	0x3f01ed08	0.50752306
71	0x3e269d53	0.16270952
72	0xbee7caa3	-0.45271787
73	0xbec254cc	-0.3795532
74	0xbc8d0744	-0.017215379
75	0x3e7e712c	0.24847859
76	0x3f206924	0.6266043
77	0xbf3c69ec	-0.73599124
78	0x3ef0b51d	0.47013178
79	0x3cd63eb2	0.026152942
80	0x3ed5aaca	0.41731864
81	0xbeb7763c	-0.35832393
82	0x3eefaa49	0.46809605
83	0x3ef236a7	0.4730732
84	0x3e8d295a	0.2757061
85	0xbec6f6e6	-0.38860244
86	0x3e2c4772	0.16824129
87	0xbedc832f	-0.43068835
88	0xbdfc9d4b	-0.12334689
89	0x3eb3b01b	0.35095295
90	0x3f11fb3b	0.5702397
91	0x3f407fe1	0.7519513
92	0xbdf02b5d	-0.11727021
93	0x3f1ab60d	0.6043404
94	0xbf05487f	-0.52063745
95	0x3e49e56f	0.19716428
96	0x3f175b0e	0.59123313
97	0xbd89f8a0	-0.067368746
98	0xbf14cc7b	-0.5812451
99	0xbed62cda	-0.41831094
100	0xbd4f6a4d	-0.050638486
101	0x3e20acae	0.15690872
102	0xbe9b3612	-0.3031469
103	0xbece1f64	-0.40258324
104	0x3e0457d4	0.12924129
105	0x3ed2406d	0.41064778
106	0xbeaf4e8d	-0.34239617
107	0x3f3c6007	0.73584026
108	0xbe237911	-0.15964152
109	0x3ea34851	0.3189111
110	0x3c5db5e0	0.013532132
111	0x3d13047a	0.03589294
112	0xbe1b34bd	-0.15156837
113	0x3e36839b	0.17823641
114	0x3f2f4698	0.6846709
115	0x3e4d5536	0.20052037
116	0xbe893c95	-0.26804033
117	0x3c48e114	0.012260694
118	0x3f34b675	0.7059091
119	0x3eaa0c68	0.3321259
120	0xbfa2524f	-1.2681369
121	0x3f5606d0	0.83604145
122	0x3ddbaf23	0.10726764
123	0xbd4f2caa	-0.050579704
124	0x3f80dc53	1.0067238
125	0xbea8ea7d	-0.329914
126	0x3e0e4cb9	0.13896455
127	0xbe996715	-0.29961458
128	0x3dd42e0b	0.103603445
129	0x3e34a4da	0.17641011
130	0x3e42ffcb	0.1904289
131	0x3e98ad3e	0.29819673
132	0x3f007cfe	0.5019072
133	0x3e435b2f	0.19077753
134	0xbee4a40b	-0.44656405
135	0xbe6c60c1	-0.23083784
136	0x3e853311	0.26015523
137	0x3e45df48	0.19323456
138	0x3e75fa48	0.24021256
139	0xbebdb545	-0.3705236
140	0xbdaac15c	-0.083376616
141	0x3ef2e2e3	0.47438726
142	0xbf1436c1	-0.5789605
143	0x3e4267e5	0.18984945
144	0xbdfda00c	-0.12384042
145	0x3df2bc3f	0.11852311
146	0x3c4220e0	0.011848658
147	0xbeb6b5a4	-0.35685456
148	0xbf13883e	-0.57629764
149	0x3eafc11e	0.34327024
150	0xbe0ab28c	-0.13544673
151	0xbdffaf93	-0.1248466
152	0x3edea543	0.4348546
153	0xbec83068	-0.3909943
154	0xbf0f757d	-0.5603865
155	0xbf22be38	-0.635715
156	0xbe34a4de	-0.17641017
157	0x3d22282f	0.039589103
158	0xbe32a060	-0.1744399
159	0xbea48b45	-0.32137504
160	0x3eae64da	0.3406132
161	0x3dd44f4e	0.10366689
162	0xbd699f59	-0.05703673
163	0x3bcd75e6	0.006270158
164	0x3ec17bfc	0.37789905
165	0x3ea0eb7b	0.31429657
166	0xbef07883	-0.46966943
167	0xbf031767	-0.51207584
168	0x3e983d8f	0.29734465
169	0x3e303f63	0.1721168
170	0x3e3ab20a	0.18231979
171	0xbde3e3e7	-0.11127453
172	0xbe5dd533	-0.2166336
173	0x3e85002f	0.25976703
174	0xbdb41457	-0.08792942
175	0x3e6ab6f6	0.22921357
176	0xbd08ff9a	-0.033446886
177	0xbd239a2c	-0.03994195
178	0x3e1924a8	0.1495539
179	0xbd5e0b25	-0.054209847
180	0x3d9fed87	0.078089766
181	0x3f1f7193	0.62282676
182	0x3ec7d650	0.39030695
183	0x3d8ebb6a	0.0696934
184	0xbe01d92d	-0.12680502
185	0xbe26018d	-0.16211529
186	0xbe9cc2b2	-0.3061729
187	0xbf491f93	-0.78563803
188	0x3c29dfef	0.010368331
189	0xbe50d981	-0.20395471
190	0x3e09b755	0.13448842
191	0xbe442853	-0.19156007
192	0xbe0c4abf	-0.13700388
193	0xbd895700	-0.06706047
194	0xbe97fbbe	-0.29684252
195	0xbdb62cf8	-0.08895296
196	0x3d846f1e	0.064665064
197	0xbe744a4b	-0.23856466
198	0x3ed628b4	0.4182793
199	0x3e1e26fe	0.15444562
200	0xbeaf92c9	-0.34291676
201	0xbe313c46	-0.17308149
202	0xbe4a88ca	-0.19778743
203	0x3e4256dd	0.18978448
204	0x3e83c0e5	0.25733104
205	0xbeadf9ac	-0.33979547
206	0x3e9089c4	0.28230107
207	0xbe4db3d2	-0.20088127
208	0x3d961ec7	0.07330089
209	0xbe6902fd	-0.22755046
210	0xbe599ea7	-0.21251927
211	0x3e101e8a	0.1407415
212	0xbcb98294	-0.022645272
213	0xbebd2ff0	-0.36950636
214	0xbe8f1c13	-0.27951106
215	0x3dacfec1	0.08447028
216	0x3e895a7a	0.2682684
217	0x3da97247	0.0827375
218	0x3ea886b0	0.32915258
219	0x3e9684a1	0.29398063
220	0x3d37192d	0.044701744
221	0x3e62f8f3	0.22165279
222	0xbdddb5e9	-0.10825712
223	0x3e6c80b2	0.23095968
224	0xbf5a0052	-0.8515674
225	0xbe4ad97f	-0.1980953
226	0x3e515e6a	0.20446172
227	0xbe46f326	-0.19428691
228	0x3e0453e5	0.12922628
229	0xbef5296f	-0.47883174
230	0x3ea16f2d	0.31530133
231	0xbe06af2e	-0.13152763
232	0xbeae03c6	-0.33987254
233	0x3dfe1de9	0.12408049
234	0x3d0c7d1c	0.034299
235	0xbe0f7aaf	-0.14011644
236	0xbef1fae5	-0.4726173
237	0xbbe994fe	-0.007128357
238	0x3ee5e00c	0.44897497
239	0xbeddb72a	-0.43303806
240	0x3e281615	0.16414674
241	0xbeb3d22e	-0.35121292
242	0xbf86d8ef	-1.0534953
243	0x3e7146e4	0.23562199
244	0xbdd024c1	-0.1016326
245	0xbd7af227	-0.06126609
246	0x3e46a66d	0.19399424
247	0xbe4fa022	-0.2027593
248	0xbf07c294	-0.5303128
249	0xbd8e1080	-0.06936741
250	0x3eb95ee5	0.3620521
251	0xbe4b01c1	-0.19824888
252	0xbe67e430	-0.2264564
253	0x3f22eef1	0.63645846
254	0xbf479f61	-0.7797757
255	0x3e25bc43	0.16185097

rnn.bias_ih_l0 f4 [32]
0	0xbf0eb401	-0.55743414
1	0xbedf29fc	-0.4358672
2	0x3e73a80e	0.23794577
3	0xbdcb438f	-0.09924995
4	0xbe907d0f	-0.28220412
5	0xbf07cac2	-0.5304376
6	0x3ee3168c	0.4435314
7	0x3e954bf1	0.291595
8	0xbe64c7e6	-0.2234188
9	0x3d0685f2	0.032842584
10	0x3e41c446	0.18922529
11	0xbd9cca05	-0.0765572
12	0xbd217e41	-0.039427046
13	0xbef74815	-0.48297182
14	0x3e3533ee	0.17695591
15	0xbe2bf491	-0.16792513
16	0x3edba40f	0.42898604
17	0x3e2f775c	0.17135376
18	0xbeb2c679	-0.34917048
19	0xbe872888	-0.2639811
20	0x3e65bd3b	0.22435467
21	0xbea2daae	-0.31807464
22	0x3e3819e7	0.17978631
23	0xbe8aff56	-0.2714793
24	0xbe82aab8	-0.25520873
25	0xbe0954ea	-0.13411298
26	0x3e53bacf	0.2067673
27	0x3ec38cb6	0.3819329
28	0xbec512da	-0.38490945
29	0x3f0534a2	0.52033436
30	0xbeb10768	-0.34575963
31	0x3e86aa96	0.26302022

rnn.bias_hh_l0 f4 [32]
0	0xbedc5ac0	-0.43037987
1	0xbea88909	-0.3291705
2	0x3df68326	0.12036733
3	0xbe9ac179	-0.30225733
4	0xbebb5d1c	-0.36594474
5	0xbecd60fc	-0.40113056
6	0x3ebbb20c	0.36659276
7	0x3e0f37d5	0.13986142
8	0xbedcecfe	-0.4314956
9	0x3c7d9e4a	0.015479634
10	0x3e92a249	0.2863944
11	0xbdf3642c	-0.11884341
12	0x3dc7da7a	0.09758468
13	0xbf1ae108	-0.6049962
14	0x3edad6f4	0.4274212
15	0xbea91bc0	-0.33028984
16	0x3e6c8060	0.23095846
17	0x3d7875f9	0.060659382
18	0xbeed4c1c	-0.4634713
19	0xbd2636ad	-0.040579487
20	0x3e4d603f	0.20056246
21	0xbefddc51	-0.4958215
22	0x3d3a9fd5	0.045562584
23	0xbe2da145	-0.1695605
24	0xbe1365ef	-0.14394353
25	0xbe722373	-0.23646335
26	0x3efdab4c	0.49544752
27	0x3ed46a20	0.41487217
28	0xbdc2f685	-0.09519676
29	0x3efd1962	0.49433428
30	0xbf03d2e8	-0.5149369
31	0x3d81ec17	0.06343859

rnn.weight_ih_l1 f4 [32, 32]
0	0xbe9cb204	-0.30604565
1	0xbe855e76	-0.2604863
2	0x3d513382	0.051074512
3	0xbd92b402	-0.0716324
4	0xbe99b4f5	-0.30020872
5	0xbf2909b3	-0.66030425
6	0x3f0335e8	0.5125413
7	0x3ecb0ee3	0.39659795
8	0xbf161c23	-0.58636683
9	0xbd81af6b	-0.063322864
10	0x3d837d70	0.0642041
11	0x3d9fff6f	0.07812392
12	0x3e1011b3	0.14069252
13	0xbe5114be	-0.20418069
14	0xbcc365a5	-0.023852179
15	0xbe797e00	-0.24364471
16	0x3dd856b8	0.10563415
17	0xbd4e2cdf	-0.05033576
18	0xbedb6f90	-0.42858553
19	0x3ec57ac1	0.38570216
20	0x3e62c344	0.221448
21	0xbe766398	-0.2406143
22	0xbcb0d583	-0.021586185
23	0x3dc33218	0.09531039
24	0x3da13161	0.078707464
25	0x3d4a56fb	0.049399357
26	0xbded791f	-0.11595368
27	0xbdf48e9f	-0.11941265
28	0x3d11578f	0.035483893
29	0x3e01e349	0.12684359
30	0xbe824b36	-0.25448006
31	0x3e3bf382	0.1835461
32	0xbe307e37	-0.17235647
33	0xbec4c840	-0.3843403
34	0xbdb59249	-0.08865792
35	0xbf32a604	-0.6978457
36	0x3e0232bc	0.12714666
37	0xbea8fb6c	-0.3300432
38	0x3e132549	0.14369692
39	0x3e74d020	0.23907518
40	0x3c9ddf4e	0.019271519
41	0x3dfcb1b4	0.12338582
42	0x3de5c96b	0.11220058
43	0x3e9b5f89	0.30346325
44	0x3e86f6f8	0.26360297
45	0x3d6a7bc3	0.057246935
46	0xbe281e10	-0.16417718
47	0xbea345dc	-0.31889236
48	0xbe6b7647	-0.22994338
49	0xbcc33c7a	-0.023832548
50	0xbeb8e64f	-0.36113212
51	0xbf205323	-0.62626857
52	0xbe6cbdf6	-0.2311934
53	0x3b3f942b	0.0029232602
54	0xbfa29699	-1.2702209
55	0xbf700c45	-0.9376872
56	0x3f8eeb6e	1.1165597
57	0x3d62d965	0.055383105
58	0xbded67be	-0.11592053
59	0xbe2ee8ce	-0.17080995
60	0x3e6db893	0.2321494
61	0xbeab82bd	-0.33498183
62	0xbe433a5b	-0.1906523
63	0x3e44d984	0.192236
64	0xbd86d0f5	-0.06582824
65	0x3d6fa09e	0.058502786
66	0x3e848d09	0.2588885
67	0x3e2129a6	0.15738544
68	0xbe44de3d	-0.19225402
69	0xbcf9b034	-0.030479528
70	0xbb516d5d	-0.0031956055
71	0x3dfb71c9	0.12277562
72	0xbea515de	-0.32243246
73	0xbdf61704	-0.12016109
74	0x3e37fbb5	0.17967112
75	0xbc062960	-0.0081885755
76	0xbd6530ee	-0.055954866
77	0xbd05dc59	-0.032680843
78	0x3eafccad	0.34335843
79	0x3df58eb6	0.119901106
80	0x3ea0bb09	0.31392696
81	0xbf2dde77	-0.6791758
82	0xbd8452ce	-0.06461106
83	0x3e821401	0.25405887
84	0x3e91f7c5	0.28509346
85	0xbeb050c9	-0.34436634
86	0x3e5a5fa2	0.21325544
87	0xbe8cf976	-0.27534074
88	0xbe7212c3	-0.2363997
89	0xbe3da528	-0.18520033
90	0x3ee790ea	0.45227748
91	0x3f33dbab	0.7025706
92	0xbe789722	-0.24276403
93	0x3e979048	0.29602265
94	0x3e5bad5e	0.21452853
95	0xbefe4820	-0.49664402
96	0xbda445a1	-0.08021093
97	0x3f0a729f	0.5408115
98	0xbefe462e	-0.49662918
99	0x3ebfd7f4	0.37469447
100	0x3d90bf04	0.07067683
101	0xbdf2313d	-0.11825798
102	0x3d9e9e3e	0.07745026
103	0x3e20cac1	0.15702344
104	0xbd4c5226	-0.04988303
105	0x3e946ae9	0.28987816
106	0xbebda592	-0.37040383
107	0xbe5c21dc	-0.21497291
108	0xbedac7ed	-0.42730656
109	0x3e361541	0.17781545
110	0xbe7855a4	-0.2425142
111	0x3e548d41	0.20757009
112	0xbeedbcad	-0.4643301
113	0xbfa1816f	-1.2617625
114	0x3ed7199f	0.42011735
115	0x3f0d1aa6	0.5511879
116	0xbe5eea5c	-0.21769089
117	0xbe42964f	-0.1900265
118	0x3f15a730	0.5845823
119	0x3f183abb	0.59464616
120	0xc0747fcf	-3.8203008
121	0x3f2569d0	0.6461458
122	0xbe083a7f	-0.13303564
123	0xbcac36ab	-0.021022161
124	0x3f5c0bb6	0.8595537
125	0xbea3d6f5	-0.31999937
126	0x3eada326	0.33913535
127	0xbea10a5b	-0.31453213
128	0x3e44a05b	0.19201796
129	0x3e43055f	0.19045018
130	0xbf30b481	-0.6902543
131	0xbcd00e4d	-0.025397444
132	0x3ee0a83e	0.4387836
133	0x3e252434	0.16127092
134	0xbe465367	-0.19367753
135	0x3d3c0379	0.04590175
136	0x3ec97e4f	0.39354178
137	0x3ecfa20d	0.40553322
138	0xbee8c286	-0.4546091
139	0xbe0a7c00	-0.13523865
140	0xbe476770	-0.19473052
141	0x3e94e555	0.29081216
142	0xbe1da4d6	-0.15394911
143	0x3e7ed477	0.24885736
144	0xbec0ef03	-0.3768235
145	0x3f285236	0.65750444
146	0x3da5fd7b	0.08104988
147	0xbf19c563	-0.60066813
148	0xbef44242	-0.477068
149	0x3e9c04f0	0.30472517
150	0xbe2262ac	-0.15857953
151	0x3f58f65a	0.847509
152	0x3dc4280a	0.09577949
153	0x3d5830c4	0.05278088
154	0xbe57fb07	-0.21091853
155	0xbeec196a	-0.4611314
156	0xbceae1d6	-0.02867214
157	0xbea59458	-0.3233974
158	0xbd711dd9	-0.058866356
159	0xbe9c73fb	-0.30557236
160	0x3d0859eb	0.033288877
161	0x3ec72851	0.38897946
162	0xbe00b8cc	-0.12570494
163	0x3f2d8177	0.6777567
164	0xbd40392c	-0.046929523
165	0x3e2dea0d	0.16983815
166	0xbe22b0e6	-0.15887794
167	0xbf0793f8	-0.5296016
168	0x3e869012	0.26281792
169	0x3e807f81	0.25097278
170	0xbe797552	-0.2436116
171	0xbe88aab9	-0.2669275
172	0xbefb0350	-0.49025965
173	0xbd19b10c	-0.03752236
174	0x3e31d9e8	0.17368281
175	0x3e821ed3	0.25414142
176	0x3dd4ddde	0.1039388
177	0xbe16ebc2	-0.14738372
178	0x3e1aafb4	0.15106088
179	0x3f1c38e1	0.6102429
180	0xbca91a32	-0.020642374
181	0x3e816ad5	0.2527682
182	0x3f953ec4	1.165978
183	0x3f5031ee	0.81326187
184	0xbfaf5be6	-1.369992
185	0x3d26c4d8	0.04071507
186	0xbd3ee553	-0.04660542
187	0x3e8e4d13	0.27793178
188	0xbdf24de3	-0.11831262
189	0xbcef9ad9	-0.029248642
190	0x3e96fc82	0.29489523
191	0xbeb94b8e	-0.36190456
192	0x3dacdc12	0.084404126
193	0x3e7fd857	0.24984871
194	0x3e5e1a56	0.21689734
195	0x3c23a9ae	0.009989185
196	0xbec6a41a	-0.38797075
197	0xbe46b110	-0.19403481
198	0x3d0250b9	0.031815264
199	0xbd869d59	-0.065729804
200	0x3ce3fa0e	0.027829196
201	0xbdcf630b	-0.10126313
202	0xbbca6236	-0.0061762584
203	0xbe55ce8e	-0.20879576
204	0xbdfe3487	-0.124123625
205	0xbe4eb2a9	-0.20185341
206	0x3eb08dea	0.34483272
207	0xbd48e855	-0.049049694
208	0x3ccec6d2	0.02524129
209	0xbebc68eb	-0.36798796
210	0x3d4a14cb	0.049336236
211	0x3cd94477	0.026521904
212	0x3e845c76	0.25851792
213	0xbf1fd3c8	-0.6243253
214	0xbd52971f	-0.05141365
215	0xbc7e0059	-0.015503013
216	0xbe952ced	-0.29135838
217	0xbd7df2cd	-0.06199913
218	0x3f0ce8e3	0.55042857
219	0x3ed7409d	0.42041484
220	0xbe4918ad	-0.1963832
221	0x3e2ce926	0.16885814
222	0xbe1110b3	-0.14166526
223	0xbde53a65	-0.111927785
224	0x3e849905	0.25897995
225	0xba93d656	-0.0011279087
226	0x3c8e059a	0.017336655
227	0xbe09b751	-0.13448836
228	0x3de19758	0.11015195
229	0x3ed2956a	0.4112962
230	0xbeeac23d	-0.45851317
231	0xbe6ac274	-0.2292574
232	0x3e908fd3	0.2823473
233	0x3deb41ae	0.11487137
234	0xbd83e459	-0.06440038
235	0x3e9c06c4	0.30473912
236	0xbe85c670	-0.26127958
237	0x3ddf4acd	0.10902939
238	0x3e6b7383	0.22993283
239	0xbe0b3526	-0.13594493
240	0x3d4b1670	0.049581945
241	0x3eb6563b	0.35612664
242	0xbdba8e16	-0.09109132
243	0xbe3ef1b7	-0.18646894
244	0xbe3ea3a7	-0.18617116
245	0x3e8929fd	0.26789847
246	0x3e054bbb	0.1301717
247	0x3db8987e	0.090134606
248	0xbdeaf17a	-0.11471839
249	0xbdc81bd5	-0.097709335
250	0xbd412ee2	-0.04716385
251	0x3bef11c7	0.0072958204
252	0xbe1d21d2	-0.15344933
253	0xbcc5ac6a	-0.024130065
254	0x3d8745e6	0.06605129
255	0xbeb1f326	-0.3475582

rnn.weight_hh_l1 f4 [32, 32]
0	0x3ece6515	0.40311494
1	0xbdff77a0	-0.124739885
2	0xbb85d2c1	-0.0040839617
3	0x3e6b498d	0.22977276
4	0xbe3f3f21	-0.18676426
5	0x3c78761c	0.015164878
6	0xbe23e93b	-0.16006939
7	0xbecc88d8	-0.39948153
8	0xbe9f6d17	-0.31137916
9	0x3e2b0d3b	0.16704266
10	0xbd8f6d2b	-0.07003244
11	0xbe0cebab	-0.13761775
12	0xbf11d102	-0.56959546
13	0xbf0d03c1	-0.55083853
14	0xbccac387	-0.024751438
15	0xbf02e5e2	-0.51132023
16	0xbeaed4fa	-0.34146863
17	0x3eb29f56	0.3488719
18	0x3de25d05	0.11052898
19	0x3d2a21a3	0.041535985
20	0xb90f39a2	-0.00013659013
21	0x3c7b31bf	0.015331685
22	0xbee279ce	-0.44233555
23	0xbcc173be	-0.02361476
24	0xbbae5551	-0.005320229
25	0xbe030ff4	-0.12799054
26	0xbe4f6931	-0.20254971
27	0x3e43a24f	0.19104885
28	0xbde53725	-0.111921586
29	0xbe66fd8f	-0.22557662
30	0xbeeb8429	-0.45999268
31	0x3cbb748b	0.02288272
32	0x3ee730e4	0.45154488
33	0x3fa8c2c8	1.3184443
34	0xbe073080	-0.13202095
35	0x3d26f0fa	0.040757157
36	0xbd497a82	-0.0491891
37	0xbf46cba1	-0.77654463
38	0x3e95bacc	0.29244077
39	0xbe6452a6	-0.22297153
40	0xbe2086ac	-0.15676373
41	0x3cbe84a4	0.023256607
42	0xbde0dbf5	-0.109794535
43	0xbe1cd1d1	-0.15314414
44	0xbe91bfe6	-0.2846672
45	0xbe79dab3	-0.24399833
46	0x3dae7b0f	0.08519565
47	0xbeaf0227	-0.3418133
48	0xbdf3fe71	-0.11913765
49	0x3e4a3344	0.19746119
50	0x3d29d963	0.04146708
51	0x3e36274f	0.17788433
52	0x3d35e299	0.044405553
53	0x3db0f9b6	0.086413786
54	0xbefabcd4	-0.4897219
55	0x3d909642	0.070599094
56	0xbdd33a74	-0.103138834
57	0xbdfb436a	-0.122687176
58	0xbe9f924b	-0.311663
59	0x3d08528e	0.033281855
60	0x3eaccc4a	0.3374961
61	0xbcabb4c0	-0.020960212
62	0xbeb8949c	-0.3605088
63	0x3d63ea01	0.055643085
64	0x3cda0415	0.026613275
65	0xbe918e4c	-0.28428876
66	0x3e7aa8a1	0.2447839
67	0x3d78a8f2	0.060707994
68	0x3dc61cdf	0.096734755
69	0x3ebd25d9	0.36942938
70	0x3da6aae9	0.08138067
71	0x3c33992e	0.010961814
72	0xbe7780dd	-0.24170251
73	0xbe90c477	-0.2827489
74	0x3e3a739e	0.18208167
75	0x3e87d3bb	0.26528725
76	0xbda3d27e	-0.079991326
77	0xbe5ef89f	-0.21774529
78	0xbe5b42f0	-0.21412253
79	0x3e94b29c	0.29042518
80	0xbe325535	-0.17415316
81	0xbd86d48a	-0.06583507
82	0xbea9b43b	-0.33145317
83	0xbe507084	-0.20355421
84	0x3f05b1f1	0.5222464
85	0xbe8d1618	-0.2755592
86	0x3e067621	0.13131
87	0xbe71f2c2	-0.23627761
88	0x3e9679cc	0.293898
89	0x3f316179	0.69289356
90	0xbc40d4e1	-0.011769504
91	0x3db1b864	0.08677748
92	0xbe1d2fbc	-0.1535024
93	0x3df983e2	0.12183358
94	0x3ebb160a	0.36540252
95	0xbe802b75	-0.25033155
96	0xbd8d2de2	-0.06893517
97	0xbe9f9e9e	-0.31175703
98	0xbcff9b98	-0.031202123
99	0x3fe46e16	1.7846096
100	0xbca53fb3	-0.020171976
101	0x3dfa4d0d	0.122217275
102	0xbe52608c	-0.20544642
103	0x3e480d42	0.19536307
104	0x3e3e5ec6	0.1859084
105	0x3dd7b520	0.10532594
106	0xbe715b26	-0.23569927
107	0xbed4b4a3	-0.41544065
108	0x3dc3360e	0.095317945
109	0x3dedcee2	0.116117254
110	0x3e6a5281	0.22883035
111	0xbd04cdce	-0.032422833
112	0x3da7b429	0.0818866
113	0xbe29f621	-0.16597797
114	0xbecd789d	-0.40131083
115	0x3e793f36	0.2434052
116	0xbeadd6b5	-0.3395287
117	0x3ddfe1b6	0.10931723
118	0x3e416725	0.18887003
119	0xbf914cdf	-1.1351584
120	0xbe879923	-0.26484022
121	0xbe350e70	-0.17681289
122	0x3db6627f	0.089055054
123	0xbe109bb9	-0.14121903
124	0xbeaaa6ac	-0.33330286
125	0xbea77be2	-0.32711703
126	0xbc8c83b8	-0.017152652
127	0x3c79d8e2	0.015249463
128	0xbeca17a9	-0.39471176
129	0x3ea26405	0.31716934
130	0xbe9e8e79	-0.30968073
131	0xbd97d02d	-0.07412753
132	0x3e60af96	0.2194198
133	0xbe0931e2	-0.13397935
134	0xbe006240	-0.1253748
135	0x3e504521	0.2033887
136	0x3e759b12	0.23984936
137	0x3eb19e26	0.3469097
138	0xbe6268d5	-0.22110303
139	0x3b9f2d42	0.00485769
140	0x3e2b6a40	0.1673975
141	0x3dfb492a	0.12269814
142	0x3d892071	0.06695641
143	0x3dbea9b5	0.09309713
144	0x3d09c1a8	0.03363195
145	0xbe3b3299	-0.1828102
146	0x3db8d6ef	0.0902537
147	0xbd23e66e	-0.040014677
148	0xbbd498c7	-0.006487939
149	0x3eaebf21	0.34130195
150	0x3e543631	0.20723797
151	0x3e68b4d8	0.22725236
152	0xbe77af3a	-0.24187937
153	0xbe48321d	-0.19550367
154	0x3e8092a5	0.2511188
155	0xbef19b49	-0.47188786
156	0x3e066ac2	0.13126662
157	0xbdfba91a	-0.12288113
158	0x3d14a66e	0.036291532
159	0x3d1f798c	0.038934276
160	0xbdc98dc2	-0.09841491
161	0xbf3f58d2	-0.74744904
162	0x3bde2e37	0.0067804116
163	0xbdd55b45	-0.10417799
164	0x3ed81a90	0.42207766
165	0x3f2c0cd5	0.6720708
166	0xbe89114e	-0.26771015
167	0x3e56f597	0.20992123
168	0xbe2e2443	-0.1700602
169	0xbd38a04d	-0.04507475
170	0xbe388082	-0.18017772
171	0xbda0c2ac	-0.07849631
172	0x3dcb2c7c	0.09920594
173	0x3ddaa3d0	0.10675776
174	0xbd583d90	-0.052793086
175	0x3e2b5d5e	0.16734836
176	0xbe4ef88c	-0.20212
177	0xbe86e01d	-0.2634286
178	0xbd8e2519	-0.069406696
179	0x3ea4779d	0.32122508
180	0x3e2ede6d	0.17077036
181	0x3d260ba7	0.040538456
182	0x3eb99e7b	0.36253724
183	0xbeb1ceb8	-0.34728026
184	0xbd89b894	-0.067246586
185	0xbe7da43e	-0.24769685
186	0x3ec0f564	0.37687218
187	0xbdf7bf2a	-0.120970085
188	0xbf04fbe2	-0.5194684
189	0x3eb61677	0.35564014
190	0x3e6b939d	0.23005529
191	0xbe17f63d	-0.14840026
192	0x3e70f291	0.23530032
193	0xbd807883	-0.06272986
194	0x3e81ef46	0.25377864
195	0x3e24d7f3	0.16098003
196	0x3d72c536	0.059270106
197	0xbdc40450	-0.09571135
198	0xbee979ad	-0.45600644
199	0x3e0e443c	0.13893217
200	0xbec54c39	-0.38534716
201	0xbf02824e	-0.5098008
202	0xbcecbeaa	-0.02889951
203	0xbd449a86	-0.047998928
204	0x3dd00010	0.10156262
205	0x3d3df678	0.04637763
206	0xbe9d1725	-0.3068172
207	0x3d828c5e	0.06374429
208	0x3c5c59ea	0.013449172
209	0xbe0f3376	-0.13984475
210	0xbea4ed44	-0.3221227
211	0xbf017c2a	-0.50580084
212	0xbcf9cf22	-0.030494276
213	0xbecb4ae4	-0.39705575
214	0x3eb03027	0.34411737
215	0xbeac18b3	-0.33612594
216	0x3e2b9bbb	0.16758625
217	0x3e45e01a	0.19323769
218	0xbe1027f9	-0.14077748
219	0xbeb16995	-0.34650865
220	0x3e2404cb	0.16017453
221	0x3e59b5af	0.21260713
222	0x3e452d62	0.19255593
223	0xbe75f7ae	-0.24020264
224	0xbeb066a1	-0.344533
225	0xbdf2d62c	-0.11857256
226	0xbbcf6a34	-0.006329799
227	0xbcad5992	-0.021160875
228	0x3d8f1de0	0.0698812
229	0xbdeecb9a	-0.11659928
230	0x3d368286	0.04455807
231	0xb9871f52	-0.00025772542
232	0x3e40d849	0.18832506
233	0x3aeb0041	0.0017929153
234	0x3e19c2bb	0.1501569
235	0x3c96b216	0.018395465
236	0x3ec863bd	0.39138594
237	0x3e76ee3d	0.24114318
238	0x3c8fe64b	0.017565867
239	0x3e4e7723	0.20162635
240	0x3e3a5f9a	0.18200532
241	0xbe995f69	-0.29955605
242	0x3c8ecdda	0.017432142
243	0xbe85ceb1	-0.26134256
244	0x3d83697a	0.064166024
245	0x3e405bf8	0.18785083
246	0x3e3bcbfa	0.1833953
247	0x3dc08fa3	0.094023965
248	0x3ddaf9f9	0.1069221
249	0xbe0a0878	-0.13479793
250	0x3eb9a5de	0.3625936
251	0xbf0a64e4	-0.54060197
252	0x3db702a7	0.08936053
253	0xbcf436f4	-0.02981136
254	0xbd51af21	-0.051192407
255	0x3bd0c3f1	0.0063710143

rnn.bias_ih_l1 f4 [32]
0	0x3ef28224	0.47364914
1	0x3e3ebb16	0.18626055
2	0x3dc07d17	0.09398859
3	0xbdfcfd38	-0.12352985
4	0xbe95aa18	-0.29231334
5	0xbce45426	-0.027872156
6	0x3dc446f2	0.09583844
7	0xbe880886	-0.26569003
8	0xbe6685cf	-0.22511981
9	0x3e3c8e2f	0.18413614
10	0x3db436a7	0.087994866
11	0xbd64bbdb	-0.055843215
12	0xbe269a4d	-0.16269799
13	0x3cda3f4c	0.02664151
14	0xbcd35e07	-0.025801672
15	0xbee70b0d	-0.4512562
16	0xbef8279c	-0.4846772
17	0x3ea04948	0.3130591
18	0x3c79c2ba	0.01524418
19	0xbde89af2	-0.113576785
20	0x3e130cc7	0.14360343
21	0x3e31e9e3	0.17374377
22	0xbe8491de	-0.25892538
23	0x3e27176d	0.1631753
24	0x3e0220f3	0.12707882
25	0xbcd9cb5d	-0.026586229
26	0xbe456335	-0.19276126
27	0x3e6b69c4	0.22989565
28	0x3d0e733b	0.03477786
29	0x3e6ba7cf	0.23013233
30	0xbe715e13	-0.23571043
31	0xbe23a7a4	-0.15981919

rnn.bias_hh_l1 f4 [32]
0	0x3e9aa08e	0.30200619
1	0x3e61f6f3	0.2206686
2	0x3c9a8719	0.018863248
3	0x3e10b980	0.14133263
4	0xbe881054	-0.26574957
5	0xbe9afe2c	-0.30272043
6	0x3cec2ff8	0.028831467
7	0xbe8f13b6	-0.27944726
8	0xbeb00157	-0.34376022
9	0x3d91ff0f	0.07128727
10	0x3c154aa2	0.009112032
11	0x3db97072	0.0905465
12	0xbeab07e1	-0.3340445
13	0xbe251316	-0.16120562
14	0xbe1a5978	-0.15073192
15	0xbef14fa4	-0.47131073
16	0xbee5ed11	-0.4490743
17	0x3ebc0dd8	0.36729312
18	0x3e0eda0b	0.13950364
19	0x3e332f07	0.17498408
20	0x3e505af1	0.20347191
21	0x3c7a2905	0.015268569
22	0xbdc58bd1	-0.096458085
23	0x3d73cad2	0.059519596
24	0xbcbbe486	-0.022936117
25	0x3e57db32	0.2107971
26	0x3d0a2803	0.033729564
27	0x3e8d2d18	0.27573466
28	0xbd23c792	-0.039985247
29	0x3e8cd929	0.2750943
30	0xbe7d297d	-0.24722858
31	0xbe02ccff	-0.12773512

rnn.weight_ih_l2 f4 [32, 32]
0	0x3ecbbe8a	0.39793807
1	0x3e05efb4	0.1307972
2	0xbeb97ec6	-0.36229533
3	0x3e2aab63	0.16666941
4	0x3cc34ca8	0.023840263
5	0x3dd0e8f8	0.10200685
6	0x3f0eed49	0.5583082
7	0xbed9120c	-0.4239658
8	0x3e0168cb	0.12637632
9	0x3e2e00ef	0.16992544
10	0x3ea80e0c	0.32823217
11	0xbdd24262	-0.10266568
12	0xbe56c7fd	-0.20974727
13	0xbe05e91d	-0.13077207
14	0x3db188b8	0.08668655
15	0xbeb3e37b	-0.3513449
16	0xbd4ff453	-0.050770115
17	0x3e9a5549	0.30143192
18	0x3d596b52	0.053080864
19	0x3e7d3a68	0.24729311
20	0xbe6dbd00	-0.23216629
21	0x3ea69890	0.3253827
22	0xbe65bba9	-0.22434868
23	0x3e72ecba	0.23723117
24	0xbe94114a	-0.2891944
25	0xbe26fc4d	-0.16307183
26	0xbe26d160	-0.16290808
27	0x3d8a00f8	0.06738466
28	0x3eb14262	0.3462096
29	0xbeba7cc7	-0.36423323
30	0xbeeb9169	-0.46009377
31	0xbdfe30a7	-0.124116234
32	0x3e2771a4	0.16351944
33	0xbed05672	-0.40690953
34	0x3e2e1ccd	0.17003174
35	0x3d72aa8c	0.059244677
36	0xbe5889ba	-0.21146289
37	0x3ede7146	0.43445796
38	0x3eed4e3f	0.4634876
39	0xbec058d8	-0.37567782
40	0xbe5bdbaf	-0.21470521
41	0xbe65f975	-0.22458442
42	0x3f09c49b	0.5381562
43	0x3e93ac18	0.28842235
44	0xbeb6fff5	-0.35742155
45	0xbe8270d9	-0.2547672
46	0xbec945ed	-0.39311162
47	0xbe0ee671	-0.13955094
48	0x3e1054ea	0.14094892
49	0x3e9ac479	0.30228022
50	0xbe81d43e	-0.2535724
51	0xbd831eb3	-0.0640234
52	0xbe25b341	-0.16181661
53	0xbe4d3a11	-0.20041682
54	0xbe7f300e	-0.24920675
55	0xbe021cbc	-0.12706274
56	0xbe90a7aa	-0.28252918
57	0x3e4d7a68	0.20066226
58	0xbe8dcaec	-0.2769388
59	0x3ed1cc15	0.40976015
60	0x3eb5a255	0.35475412
61	0xbf2efbb9	-0.6835285
62	0xbe81ea4c	-0.25374067
63	0xbd20d2fe	-0.039263718
64	0x3dd3a035	0.103332914
65	0xbea13e3e	-0.314928
66	0x3f13dbc0	0.57757187
67	0x3e924e7a	0.28575498
68	0xbc5e2d6f	-0.013560637
69	0x3eab24f0	0.3342662
70	0xbd3ecf3d	-0.046584357
71	0x3db95a30	0.09050405
72	0xbd661191	-0.056169096
73	0xbed6d56e	-0.4195971
74	0x3eabf780	0.33587265
75	0x3ee4b267	0.4466736
76	0x3d3cd4e5	0.04610147
77	0xbe791c8f	-0.243273
78	0xbe2f8053	-0.17138796
79	0xbb997ddc	-0.004684193
80	0xbeb327a8	-0.34991193
81	0x3e1967b4	0.14980966
82	0xbe7a5c98	-0.24449384
83	0xbf201e1a	-0.6254593
84	0x3e59c55b	0.21266691
85	0xbe8a56eb	-0.27019438
86	0x3bdac1a3	0.0066759153
87	0xbdc6472c	-0.09681544
88	0x3e3ab5c7	0.18233405
89	0x3f28fbd3	0.66009253
90	0xbe23281a	-0.15933266
91	0x3e8832d9	0.26601294
92	0x3e640097	0.2226585
93	0x3c670038	0.014099173
94	0x3d511bc9	0.05105189
95	0xbeb3d689	-0.35124615
96	0xbdced362	-0.10098912
97	0xbd7e7578	-0.062123746
98	0x3d395a08	0.045251876
99	0xbdb64d7f	-0.089015
100	0x3eebbb77	0.46041462
101	0xbd0bc983	-0.034127723
102	0xbe2b89d4	-0.16751796
103	0x3eb01168	0.3438828
104	0x3efcdee9	0.49388817
105	0xbc2c484d	-0.010515285
106	0xbe593ec6	-0.21215352
107	0xbe3c72d3	-0.18403177
108	0x3eefa6e2	0.4680701
109	0x3f0e53d3	0.55596656
110	0x3d63327b	0.055468064
111	0x3ee6845f	0.45022866
112	0x3ef71496	0.48257893
113	0xbef3e7b5	-0.47637716
114	0x3e0e75f4	0.13912183
115	0x3dfc25f9	0.1231193
116	0x3df9f4d8	0.12204903
117	0x3e08bd1a	0.13353387
118	0x3f018912	0.5059978
119	0x3ecab453	0.395907
120	0xbe3ae171	-0.18250062
121	0xbe16d8b5	-0.14731105
122	0x3ee96e20	0.4559183
123	0xbe970cac	-0.29501855
124	0x3e06f512	0.13179424
125	0x3e2232e9	0.15839733
126	0x3e2fe8e8	0.1717869
127	0x3dbfd9d9	0.09367723
128	0x3dea50bd	0.11441181
129	0xbe3ad3ee	-0.18244907
130	0xbe12688f	-0.14297698
131	0xbe805d56	-0.2507121
132	0x3e5a2ad4	0.213054
133	0x3c81fa99	0.015866565
134	0xbda8506b	-0.082184635
135	0x3e6454a0	0.22297907
136	0xbe7e062f	-0.24807046
137	0x3df3a5a0	0.11896825
138	0xbe09de91	-0.13463809
139	0xbcfd0e64	-0.030890651
140	0x3e72c9fb	0.23709862
141	0x3de00ae9	0.10939581
142	0x3d04238e	0.03226047
143	0x3ea52d32	0.32261044
144	0x3c003dab	0.007827203
145	0xbe6d5fc5	-0.23181064
146	0x3d1c1861	0.038109187
147	0x3e349196	0.17633662
148	0x3e95b2b0	0.2923789
149	0xbed4bca8	-0.41550183
150	0x3de4b988	0.111682
151	0xbcfddddf	-0.030989585
152	0x3e2f823c	0.17139524
153	0xbe1d14c0	-0.15339947
154	0x3e3b1f35	0.18273623
155	0xbeb0de2f	-0.34544513
156	0xbcaf2d16	-0.021383803
157	0x3c6c7dd2	0.014434295
158	0x3e7af289	0.24506582
159	0xbec758a1	-0.38934806
160	0x3d13b7bb	0.03606389
161	0xbf89d272	-1.0767348
162	0x3e16b8f6	0.14718994
163	0xbdb98da9	-0.09060223
164	0x3ebed158	0.37269092
165	0x3f7075a5	0.9392951
166	0xbd94be85	-0.07262901
167	0x3dcb9e01	0.09942246
168	0x3eace16d	0.33765736
169	0x3cfdced0	0.030982405
170	0x3d803f86	0.06262116
171	0x3e65e56c	0.22450799
172	0x3e65aeb4	0.22429925
173	0xbd97fc47	-0.07421165
174	0xbd110a46	-0.03541019
175	0x3dc93640	0.098248005
176	0x3e675a6b	0.22593085
177	0xbd7c5b42	-0.061610468
178	0xbccf0e9d	-0.025275523
179	0xbe83f3f7	-0.25772068
180	0x3ecbf3d1	0.39834455
181	0x3e000616	0.12502322
182	0x3efd8552	0.49515778
183	0x3e5f878f	0.21829055
184	0xbc2c0ff0	-0.010501847
185	0x3ee753f0	0.45181227
186	0xba1471e6	-0.0005662724
187	0xbd5d1c21	-0.053981904
188	0x3f1b5d91	0.60689646
189	0xbe797d8a	-0.24364296
190	0x3e2f7ff2	0.17138651
191	0x3e5e93ee	0.21736118
192	0x3ebdf2c0	0.37099266
193	0x3e4cfaee	0.20017597
194	0xbed6fb08	-0.41988397
195	0xbe19e62b	-0.15029208
196	0xbea0a492	-0.31375557
197	0xbeb40e88	-0.35167336
198	0xbe8c9cf6	-0.27463502
199	0xbecd19a8	-0.40058637
200	0xbe9d4b47	-0.30721495
201	0x3de48877	0.11158841
202	0xbd46012e	-0.04834097
203	0xbe911fed	-0.2834467
204	0xbea97ab9	-0.33101442
205	0xbe2da0f4	-0.1695593
206	0x3e96cb3f	0.2945194
207	0xbeb95076	-0.361942
208	0xbec8859a	-0.3916443
209	0x3ec02228	0.3752606
210	0x3da963ce	0.08270989
211	0x3e774867	0.24148713
212	0xbe8f9681	-0.28044513
213	0x3c8057e5	0.015666911
214	0xbdc39303	-0.09549525
215	0xbe805619	-0.25065687
216	0x3dc8309f	0.09774899
217	0xbe0d33f5	-0.13789351
218	0xbe0e7354	-0.13911182
219	0x3e8d3efd	0.2758712
220	0xbdc1bf48	-0.09460312
221	0x3e07bd55	0.13255818
222	0xbd4843c2	-0.048892744
223	0x3be60199	0.0070192334
224	0xbdcf2a29	-0.10115463
225	0x3e1dbdc5	0.15404423
226	0x3da1cefa	0.07900806
227	0xbcecfa72	-0.028928015
228	0xbe82d2bd	-0.25551406
229	0xbe32a77b	-0.17446701
230	0x3e29dded	0.16588564
231	0xbe09ef2d	-0.13470145
232	0x3e112380	0.14173698
233	0xbe27f57a	-0.16402236
234	0xbd37bc1b	-0.044857126
235	0xbdf2710e	-0.1183797
236	0xbd7cd0af	-0.061722454
237	0xbe3ac3e1	-0.18238784
238	0x3da23206	0.079196975
239	0xbd37d2af	-0.044878658
240	0xbe15a156	-0.14612326
241	0x3e8b8db3	0.27256545
242	0xbd7036d4	-0.05864604
243	0x3caaa3b3	0.020830011
244	0xbd3a3d92	-0.045468874
245	0xbe0266d2	-0.12734535
246	0xbe120cf5	-0.14262755
247	0x3d22df2e	0.039763622
248	0xbd32fddc	-0.04369913
249	0x3dc7bf5c	0.09753296
250	0x3d05784e	0.032585435
251	0xbe040f7a	-0.12896529
252	0x3e50946d	0.2036912
253	0x3d0cc19c	0.034364328
254	0xbe8e2af0	-0.27767134
255	0x3a7bfea3	0.0009612834

rnn.weight_hh_l2 f4 [32, 32]
0	0xbd94e1be	-0.072696194
1	0xbe2b16f7	-0.16707979
2	0x3e20ba1c	0.15695995
3	0xbc989f7a	-0.018630732
4	0x3e3e1ccf	0.18565677
5	0x3e2a6e87	0.16643725
6	0x3e3c6d31	0.18401028
7	0x3e1574c6	0.14595327
8	0x3f42e54e	0.7613114
9	0xbdab9fae	-0.08380066
10	0xbef13cdc	-0.47116745
11	0xbeaae5bd	-0.333784
12	0x3d67f75b	0.05663238
13	0x3dff0b49	0.12453324
14	0x3b835245	0.00400761
15	0xbe31af08	-0.17351925
16	0x3e6c3102	0.2306557
17	0x3e201b2f	0.1563537
18	0x3cb5ac4a	0.02217688
19	0x3e05605d	0.13025041
20	0x3d395385	0.045245666
21	0xbdaf6d7b	-0.085658036
22	0x3e8b901a	0.27258378
23	0xbe87fe03	-0.26560983
24	0x3d9771e8	0.07394773
25	0xbe8c98d0	-0.27460337
26	0x3da89ab7	0.082326345
27	0xbe66a4a8	-0.22523749
28	0x3dcb3267	0.09921723
29	0xbdb598e0	-0.08867049
30	0x3ebc01b3	0.36720046
31	0xbe61150f	-0.2198069
32	0x3ef46f39	0.47741106
33	0xbf1757b6	-0.5911821
34	0x3ef40e1f	0.47667024
35	0xbe8eec2b	-0.27914557
36	0xbd4a3742	-0.049369104
37	0x3c980faa	0.018562157
38	0x3eeacb9f	0.45858476
39	0x3e63354e	0.22188303
40	0x3e753c88	0.23948872
41	0xbe57bdbc	-0.21068472
42	0xbf34482c	-0.70422626
43	0xbf3db294	-0.74100614
44	0xbd5d3ef6	-0.054015122
45	0x3dffd98d	0.124926664
46	0x3e27837b	0.1635875
47	0xbeafccf0	-0.34336042
48	0x3f022c79	0.5084911
49	0x3eaffa89	0.3437083
50	0x3d5fff47	0.05468681
51	0xbebd5048	-0.36975312
52	0x3f1d0dc2	0.6134912
53	0xbdd9ee6e	-0.1064118
54	0x3e833cc2	0.25632292
55	0xbe5182f3	-0.2046011
56	0xbdefad7b	-0.11703011
57	0xbecf850b	-0.4053119
58	0x3ebe63a9	0.3718541
59	0xbeb513cb	-0.35366663
60	0x3ec3bb59	0.38228872
61	0xbdba150d	-0.09086046
62	0x3f50e844	0.8160441
63	0xbe1bb289	-0.15204825
64	0xbdf15e38	-0.11785549
65	0x3d16147e	0.036640637
66	0x3e8cd950	0.27509546
67	0xbe04c3d2	-0.12965325
68	0xbbf0679b	-0.0073365695
69	0xbd6063b7	-0.054782595
70	0xbd4b257b	-0.04959629
71	0x3e3adbf0	0.18247962
72	0xbe87c6d4	-0.2651888
73	0xbd0f6242	-0.035005815
74	0xbea886c9	-0.32915333
75	0xbe228944	-0.15872675
76	0xbd7005ba	-0.05859921
77	0x3e662b08	0.22477353
78	0x3d80dc47	0.062920146
79	0xbde09c3b	-0.109672986
80	0x3e7033cd	0.2345726
81	0xbd475633	-0.04866619
82	0xbeb021a4	-0.34400666
83	0xbe9c6fc8	-0.30554032
84	0x3e9324b9	0.28738955
85	0x3ca9c342	0.020722989
86	0x3d302eaf	0.04301327
87	0xbdbe27c2	-0.09284927
88	0xbec64990	-0.38728
89	0xbcb9efcd	-0.022697354
90	0x3e7d73be	0.24751183
91	0x3e0f4908	0.13992703
92	0x3e8a8096	0.27051228
93	0xbe8f11c4	-0.27943242
94	0x3ec77865	0.3895904
95	0xbc0fafbf	-0.0087699285
96	0xbebc0b98	-0.36727595
97	0xbdbc417d	-0.091921784
98	0x3db7d193	0.0897552
99	0x3ec5e62e	0.38652176
100	0x3f0dadf6	0.5534357
101	0x3e60b38f	0.21943496
102	0xbf014e59	-0.50510174
103	0xbeba65a7	-0.3640568
104	0x3e941d68	0.28928685
105	0x3edd2ea7	0.43199655
106	0x3b867283	0.0041030063
107	0xbc39fd86	-0.011351949
108	0x3ee51c86	0.44748324
109	0xbe066961	-0.13126136
110	0xbf2ab17b	-0.66677064
111	0x3f10b83b	0.56531113
112	0xbc814d88	-0.01578404
113	0xbee2c3f7	-0.44290134
114	0x3de68c2e	0.11257206
115	0xbe6994e7	-0.22810708
116	0x3da73878	0.081650674
117	0xbf2bba38	-0.6708102
118	0xbf110eef	-0.5666341
119	0x3e50c785	0.2038861
120	0x3edcaacf	0.43099067
121	0x3ebfd7fc	0.3746947
122	0xbd8e3f23	-0.06945636
123	0x3f28d3d7	0.6594824
124	0xbed5335f	-0.41640756
125	0xbda0e7a1	-0.0785668
126	0x3bd8a2ce	0.0066112047
127	0x3f24cc93	0.64374655
128	0xbe53e8fc	-0.20694345
129	0x3dc9ef47	0.09860092
130	0xbe03b19e	-0.12860724
131	0x3ec8131a	0.39077073
132	0xbe9770bd	-0.295782
133	0x3cf0e11d	0.029404217
134	0xbe2ab0cb	-0.16669004
135	0xbeac690f	-0.33673903
136	0x3e9245f0	0.28568983
137	0x3df30c61	0.118675955
138	0x3eb2c6c0	0.3491726
139	0x3c5a03d6	0.013306579
140	0x3ebd2eaa	0.36949664
141	0xbe60b4f8	-0.21944034
142	0xbe5cd968	-0.21567309
143	0x3e167653	0.14693575
144	0xbe4df20a	-0.20111862
145	0xbd76ccff	-0.060254093
146	0x3e8a797f	0.2704582
147	0xbe9157b8	-0.28387237
148	0x3e2844d1	0.16432501
149	0xbe4258b0	-0.18979144
150	0xbe1ed3e2	-0.15510514
151	0xbf45d88f	-0.7728357
152	0x3eff618a	0.49879104
153	0x3dfb7c51	0.12279571
154	0xbe7aa158	-0.2447561
155	0x3e1dbf82	0.15405086
156	0x3c5a9dcb	0.013343285
157	0x3d8bbf30	0.068235755
158	0x3e4518c8	0.19247735
159	0x3e876d34	0.26450503
160	0xbe6dd4bf	-0.23225687
161	0x3eab15a6	0.33414954
162	0x3e0a72af	0.13520311
163	0x3e0fc921	0.14041568
164	0x3e9117fe	0.28338617
165	0x3e8eb9c6	0.2787611
166	0xbe61bd1f	-0.220448
167	0xbd982ae1	-0.074300535
168	0xbe59c57b	-0.21266739
169	0x3ddf4cc1	0.109033115
170	0xbe9fee95	-0.3123671
171	0xbe905175	-0.28187147
172	0x3df6163d	0.1201596
173	0xbd84b9dd	-0.06480763
174	0xbe008b6a	-0.12553182
175	0x3d0bd2ca	0.03413657
176	0xbde3db85	-0.111258544
177	0xbe437d60	-0.19090796
178	0xbe55e9ad	-0.20889921
179	0xbf225d95	-0.63424045
180	0xbe46f3ed	-0.19428988
181	0xbed72287	-0.4201853
182	0x3745f248	1.17985255e-05
183	0x3d2b4544	0.041814104
184	0xbd8707f8	-0.06593317
185	0x3e072394	0.13197166
186	0x3f1906eb	0.5977618
187	0x3deb067c	0.11475846
188	0xbe871ad5	-0.2638766
189	0x3dfd9724	0.123823434
190	0x3d70fb48	0.05883339
191	0x3ab368b5	0.0013687821
192	0x3d166d51	0.036725346
193	0x3d8a3e3e	0.06750153
194	0xbe64c118	-0.22339284
195	0xbe90c2e5	-0.28273693
196	0xbe99e807	-0.30059835
197	0xbe0cfb10	-0.13767648
198	0x3ece4aa6	0.40291327
199	0x3e68d489	0.22737326
200	0xbebe71b9	-0.37196139
201	0xbebfeaf9	-0.37483957
202	0x3dc72fb6	0.09725897
203	0x3d89a233	0.0672039
204	0xbe16fe8e	-0.14745542
205	0x3bf940c7	0.007606599
206	0x3ea62775	0.32451978
207	0xbefa4f34	-0.48888552
208	0xbc72c21b	-0.014816786
209	0x3e897298	0.2684524
210	0x3e8f0609	0.27934292
211	0x3e5e0a89	0.21683706
212	0xbe3d57e7	-0.18490563
213	0x3e327979	0.1742915
214	0x3ef532ce	0.47890323
215	0xbe908464	-0.28226006
216	0xbea85cb2	-0.3288322
217	0xbe9c1fa1	-0.3049288
218	0x3e8ff28b	0.28114733
219	0xbe437281	-0.19086649
220	0x3ceb5b73	0.02873013
221	0x3d9b7043	0.075897716
222	0xbe9dbb03	-0.3080674
223	0xbe009b38	-0.12559211
224	0xbdcc5234	-0.099766165
225	0xbd83bfd5	-0.064330734
226	0x3e3b3c52	0.18284729
227	0xbd58c3ac	-0.052920982
228	0x3e1c237e	0.15247914
229	0xbe07c4b6	-0.13258633
230	0x3d0eca63	0.03486098
231	0xbe9d8340	-0.30764198
232	0xbe6f616e	-0.2337701
233	0xbe2129fc	-0.15738672
234	0xbde07c8d	-0.10961256
235	0xbe06ec3d	-0.13176055
236	0x3e3eb46b	0.18623511
237	0x3ed3cdc1	0.41367915
238	0x3d9563bf	0.07294416
239	0xbe98ddde	-0.2985677
240	0x3d700774	0.058600858
241	0x3e7a401f	0.24438523
242	0x3f0e7adc	0.5565622
243	0x3e393007	0.18084727
244	0xbe398d38	-0.18120277
245	0xbe2c5288	-0.16828358
246	0x3df94bbe	0.1217265
247	0xbf496736	-0.7867311
248	0x3da35a26	0.07976179
249	0xbe088a00	-0.13333893
250	0x3eccd53d	0.40006438
251	0xbd2972f9	-0.041369412
252	0x3e82758d	0.2548031
253	0x3ce2f517	0.027704759
254	0xbda097a2	-0.07841422
255	0xbe25c661	-0.16188957

rnn.bias_ih_l2 f4 [32]
0	0x3db171b3	0.086642645
1	0x3e4439ff	0.19162749
2	0xbe3e9434	-0.18611223
3	0xbe8301ff	-0.2558746
4	0xbe7957c0	-0.2434988
5	0xbe385081	-0.1799946
6	0x3e8761e4	0.26441872
7	0x3ea0270d	0.31279793
8	0xbdfdba25	-0.1238902
9	0xbe914237	-0.2837083
10	0x3ddd49bc	0.10805079
11	0x3db92acb	0.09041365
12	0xbe2300a9	-0.1591822
13	0x3ce71c37	0.028211696
14	0x3e7bdcd9	0.24595965
15	0xbe9eb7e7	-0.3099968
16	0x3e011973	0.12607364
17	0x3e34de70	0.17662978
18	0xbe25de01	-0.16197969
19	0x3db214a5	0.08695344
20	0x3e02dc10	0.1277926
21	0x3e1e59ce	0.15463945
22	0x3e902c84	0.28158963
23	0xbe369070	-0.17828536
24	0x3d92926d	0.07156835
25	0xbd13ed96	-0.03611525
26	0x3e8759c3	0.2643567
27	0xbe5bec3f	-0.2147684
28	0x3e408622	0.18801168
29	0xbd83ccd7	-0.064355545
30	0xbe726a46	-0.23673353
31	0xbe7cb67d	-0.24678989

rnn.bias_hh_l2 f4 [32]
0	0x3c96a167	0.01838751
1	0x3d807912	0.06273092
2	0xbe321aec	-0.17393082
3	0xbeb80f11	-0.35948995
4	0xbdbca0dc	-0.09210369
5	0x3c19bbac	0.009383123
6	0x3e41cc04	0.18925482
7	0x3eb0509f	0.3443651
8	0xbcb5df95	-0.022201339
9	0xbeea236f	-0.4573016
10	0xbe515baf	-0.20445131
11	0x3e657d13	0.22410993
12	0xbe8fe1d5	-0.28101984
13	0x3e6b75db	0.22994177
14	0x3e6ab136	0.22919163
15	0xbeb11298	-0.34584498
16	0x3da22654	0.07917467
17	0x3de3ab8d	0.11116705
18	0xbeb6c57e	-0.3569755
19	0x3e3cea74	0.18448812
20	0xbd8e8e19	-0.06960697
21	0x3e8f6e3d	0.28013793
22	0x3ea8a244	0.329363
23	0xbd85d2bd	-0.06534336
24	0x3cb788fa	0.022404183
25	0xbd14e3d6	-0.036350094
26	0x3da199d6	0.0789067
27	0xbe8b5f49	-0.27221134
28	0x3c9f6462	0.019457046
29	0x3de55aed	0.11198983
30	0x3dbea9a9	0.09309704
31	0xbe9c01a5	-0.30470005

fc.weight f4 [2, 32]
0	0xbd72dc5f	-0.059292194
1	0x3cacb9e4	0.021084733
2	0xbc38b4a4	-0.011273537
3	0xbdd7c955	-0.10536448
4	0x3c762fa5	0.015026008
5	0x3bf511fa	0.0074789496
6	0x3e16e6c3	0.14736466
7	0x3db34b79	0.0875463
8	0x3db22d08	0.08699995
9	0x3d5db302	0.054125793
10	0xbd23f3eb	-0.04002754
11	0xbb437d04	-0.0029829154
12	0xbd1bddf9	-0.038053486
13	0xbdcdcd24	-0.10048893
14	0x3e3ece1d	0.18633313
15	0xbccac14b	-0.024750372
16	0x3a90d3ba	0.0011049428
17	0x3cc8e4e2	0.024523202
18	0xbdf5d75b	-0.120039664
19	0xbd440191	-0.047853056
20	0x3bebcc1e	0.0071959635
21	0x3d9df83c	0.077133626
22	0x3de231f9	0.11044688
23	0x3d206112	0.039155073
24	0xbc6bfac9	-0.014403054
25	0xbc98f917	-0.018673463
26	0xbd7f5912	-0.062340803
27	0xbdeb9cab	-0.115044914
28	0xbc7a32b4	-0.015270878
29	0x3b26c0fd	0.002544462
30	0x3aee5286	0.0018182553
31	0xbd9480ce	-0.0725113
32	0x3c2bc331	0.010483549
33	0xbd6812a6	-0.05665841
34	0x3d9a4564	0.075327665
35	0x3e574fa2	0.21026471
36	0xbd85a030	-0.06524694
37	0x3db18239	0.08667416
38	0xbe0d321d	-0.13788648
39	0x3c3b3871	0.011427031
40	0xbb5bd1ec	-0.0033541871
41	0x3dea4738	0.11439365
42	0x3c942d9e	0.018088158
43	0x3df0a79c	0.11750719
44	0x3cffd6d5	0.03123037
45	0xbd9d0c2f	-0.076683395
46	0xbe033d08	-0.1281625
47	0xbd30a14f	-0.043122586
48	0x3e07cc7c	0.13261598
49	0xbe13ad2f	-0.14421533
50	0xbea01b94	-0.3127104
51	0xbde3b87c	-0.11119172
52	0x3d2ef8e8	0.042717844
53	0xbc2c4696	-0.010514876
54	0xbc513c2e	-0.012770696
55	0x3d665b23	0.05623926
56	0x3d23a4f9	0.039952252
57	0x3e201869	0.15634312
58	0xbd641e51	-0.055692974
59	0x3cb7e2b1	0.022446962
60	0xbd547845	-0.05187251
61	0x3d834e35	0.06411401
62	0xbbf5f228	-0.007505674
63	0x3dadb921	0.08482576

fc.bias f4 [2]
0	0x3e504fc0	0.20342922
1	0xbe17b807	-0.14816295
