Networks/ONEINCHBTC/askSeed0.pt (torch, 33123 bytes, 9 tensors)

rnn.weight_ih_l0 f4 [50, 1]
0	0x3f67d9ef	0.90566915
1	0xbf0d9516	-0.5530561
2	0x3f69dc29	0.9135156
3	0x3d93a8d5	0.072099365
4	0x40c310f7	6.095821
5	0xbea5fc96	-0.3241927
6	0x40482b15	3.1276295
7	0x3f4c87e8	0.79894876
8	0x3ef04a17	0.46931526
9	0xbf76d2e3	-0.9641554
10	0x3f812a8d	1.009111
11	0xc0080de6	-2.1258483
12	0x4154a905	13.291265
13	0x3e3a416c	0.18189019
14	0x3f95b6d2	1.1696417
15	0xbe51a0c0	-0.20471478
16	0x402b0183	2.6719673
17	0xbf9905a0	-1.1954842
18	0xbe128239	-0.14307489
19	0x3eef6b72	0.46761662
20	0x40b11fbd	5.5351243
21	0xbee04eb5	-0.4381005
22	0xbf07e154	-0.530782
23	0xbebfc8f2	-0.37457997
24	0x3f14ab81	0.58074194
25	0x3f2e9b38	0.68205595
26	0xc002e50a	-2.0452294
27	0x3e30c451	0.17262389
28	0x40de2605	6.942141
29	0x3e954977	0.29157612
30	0x3fa92074	1.3213029
31	0x3f024006	0.5087894
32	0xbfbc2a5e	-1.470043
33	0xbed4a0e2	-0.41528994
34	0xbe743acd	-0.23850556
35	0x3f343d38	0.7040591
36	0x3e2d3ca7	0.16917668
37	0x3f773acb	0.96574086
38	0xbeb9dd24	-0.3630153
39	0x40a87151	5.2638326
40	0xc0c21670	-6.065239
41	0xbf0835e0	-0.53207207
42	0xc1443c66	-12.264746
43	0x3f8b1b68	1.0867739
44	0x4085c69f	4.1804957
45	0xbdd3772c	-0.103254646
46	0xc0135a7f	-2.3023984
47	0xbecd2c23	-0.40072736
48	0xc07febd4	-3.9987688
49	0xc00a87b4	-2.1645327

rnn.weight_hh_l0 f4 [50, 50]
0	0xbf0f2b3b	-0.5592534
1	0x3e5fa472	0.21840075
2	0x3e7db730	0.24776912
3	0x3ead909a	0.33899385
4	0x3eb10a2e	0.3457808
5	0x3f4fe27e	0.81204975
6	0x3f1c9eac	0.61179614
7	0xbf3e630b	-0.7436988
8	0x3f7875f0	0.9705496
9	0x3f14d08d	0.58130723
10	0xbf4beb76	-0.7965616
11	0xbe89b1b6	-0.26893395
12	0x3c3b9031	0.011447952
13	0x3e80a310	0.25124407
14	0xbedab1b5	-0.42713705
15	0xbf1cf86e	-0.61316574
16	0x3e1e8181	0.1547909
17	0xbe700f4a	-0.23443332
18	0xbd436087	-0.047699478
19	0x3e36b142	0.17841056
20	0x3ea5fbfb	0.32418808
21	0xbec90137	-0.3925874
22	0xbe4d3759	-0.20040645
23	0xbe8a436e	-0.2700457
24	0xbef1949f	-0.471837
25	0xbf2adb44	-0.6674082
26	0xbdca6aa1	-0.09883619
27	0x3e0cff4a	0.1376926
28	0x3ec2fd9d	0.38084117
29	0x3e447518	0.19185293
30	0xbdfc6633	-0.123241805
31	0xbf2c07ef	-0.67199606
32	0xbde155c0	-0.11002684
33	0x3fa026dd	1.251186
34	0xbd9bce3a	-0.07607694
35	0xbf3bc73a	-0.7335087
36	0xbe57105d	-0.21002336
37	0xbf36458b	-0.71199864
38	0xbe6f316c	-0.23358697
39	0xbe3aaefd	-0.18230815
40	0xbde655ab	-0.112468086
41	0xbe32b2ea	-0.17451063
42	0x3ea44dd5	0.3209063
43	0x3dfa44af	0.122201316
44	0xbf9715b5	-1.18035
45	0x3e114e69	0.14190067
46	0xbe810cb8	-0.25205016
47	0xbf36bdd3	-0.713834
48	0xbea42aea	-0.3206399
49	0x3dbb0470	0.09131706
50	0xbe2f499a	-0.1711792
51	0x3f097e60	0.5370846
52	0xbe7d9aac	-0.24766034
53	0xbf521880	-0.82068634
54	0xbf350154	-0.7070515
55	0xbf263bd7	-0.6493506
56	0xbf117325	-0.5681632
57	0x3f1c7462	0.61115086
58	0xbebe4956	-0.37165326
59	0xbeb4aa12	-0.35286003
60	0x3ed2c630	0.4116683
61	0x3e48c1f6	0.1960524
62	0x3e2c5652	0.16829804
63	0xbd0d7515	-0.034535486
64	0x3f6bbba3	0.92083186
65	0x3e4e3887	0.20138751
66	0xbe127f73	-0.1430643
67	0x3e94e478	0.29080558
68	0xbf0669a8	-0.5250497
69	0x3d3410fc	0.04396151
70	0xbe9f18f4	-0.31073725
71	0x3f167b5b	0.58781976
72	0xbd8106ae	-0.06300102
73	0x3e08ebd2	0.13371208
74	0x3e2c37ae	0.16818115
75	0x3f5cc3f7	0.8623652
76	0xbd9eb565	-0.07749442
77	0x3e9e4f29	0.3091977
78	0xbea57b93	-0.32320842
79	0xbf2f6a2e	-0.6852139
80	0xbf0ce32d	-0.5503414
81	0x3f2697ca	0.6507536
82	0x3e180db0	0.14848971
83	0xbf087456	-0.53302515
84	0xbe804607	-0.25053427
85	0x3a880e6e	0.0010380277
86	0x3ca62c1e	0.020284709
87	0x3f01dbfb	0.5072629
88	0x3dee7ac2	0.11644508
89	0x3db7eb59	0.08980436
90	0xbcc2e156	-0.02378909
91	0x3d1f2c6e	0.03886073
92	0x3f002849	0.5006147
93	0xbd41b5a3	-0.047292363
94	0x3e8a9f2a	0.27074558
95	0x3ee0a1ae	0.43873352
96	0x3e3e0cbf	0.1855955
97	0x3f428501	0.759842
98	0x3e2462c3	0.160533
99	0xbdf97d17	-0.12182062
100	0xbe7d0a2d	-0.24710913
101	0x3eca913d	0.39563933
102	0xbe4ab965	-0.19797285
103	0xbe870dc5	-0.26377693
104	0xbd9de28b	-0.07709225
105	0xbea41495	-0.32046953
106	0xbf2aedbb	-0.66769
107	0x3eae1761	0.34002212
108	0xbf0d28bb	-0.55140275
109	0xbe5adf0e	-0.21374151
110	0x3e12a91b	0.14322321
111	0xbf2b71cc	-0.66970515
112	0x3fcaf41b	1.5855745
113	0x3ea6e87f	0.32599255
114	0x3ecf0aed	0.40438023
115	0x3e69da81	0.22837259
116	0xbe1b3aba	-0.15159121
117	0xbc9ab795	-0.018886367
118	0xbf2bcafb	-0.671066
119	0x3f0963b1	0.5366774
120	0xbfe36ddc	-1.7767901
121	0x3e2a2c9b	0.16618578
122	0xbdb0fbef	-0.086418025
123	0xbea6b14f	-0.3255715
124	0x3ec52e83	0.38512048
125	0x3ecca51c	0.39969718
126	0xbe637c86	-0.2221547
127	0x3efec201	0.49757388
128	0xc02935dc	-2.6439123
129	0xbe19a628	-0.1500479
130	0xbee893de	-0.45425314
131	0x3e7c4b99	0.24638213
132	0x3ea78e51	0.32725766
133	0xbe6e493b	-0.23270123
134	0xbe222964	-0.15836102
135	0x3e9ad29e	0.30238813
136	0xbee29283	-0.44252405
137	0x3ef80384	0.48440182
138	0x3b9f87f6	0.0048685027
139	0x3f51c5b2	0.81942284
140	0x3e7147c1	0.23562528
141	0x3daab2b6	0.08334868
142	0x3e1b1762	0.15145639
143	0x3cd2d8b1	0.025738092
144	0xbeaa3cc5	-0.33249488
145	0x3ebf92bc	0.37416637
146	0x3e9fdf18	0.31224895
147	0x3e521a7c	0.20517915
148	0x3e6c1c5e	0.23057696
149	0x3e6e9a11	0.23300959
150	0xbe9fea98	-0.31233668
151	0xbe8bd035	-0.27307287
152	0x3f4eb2c0	0.807415
153	0x3e04658c	0.12929362
154	0x3edfe10b	0.43726382
155	0xbd3b58a1	-0.04573882
156	0x3da427b9	0.08015389
157	0xbd849074	-0.06472865
158	0x3c46f583	0.0121434955
159	0x3f2db230	0.6785002
160	0x3e3c3b63	0.18382029
161	0xbf19afb2	-0.60033715
162	0x3dcdb14c	0.10043582
163	0x3f3b9cfb	0.7328641
164	0xbe9ab375	-0.3021504
165	0xbd82b76b	-0.063826405
166	0x3ecbec76	0.39828843
167	0xbf9114eb	-1.1334509
168	0x3e448bb5	0.19193919
169	0x3e93eaeb	0.28890166
170	0xbd828380	-0.06372738
171	0xbdfda2bd	-0.123845555
172	0xbf2346fa	-0.63780177
173	0xbf7067f9	-0.9390865
174	0xbd2c305f	-0.042038318
175	0x3c91a1c0	0.017777324
176	0xbf09d9d7	-0.5384802
177	0x3ef2303f	0.47302434
178	0xbe0b4efd	-0.1360435
179	0x3e9dfb4c	0.30855787
180	0xbde2f362	-0.11081578
181	0x3d178889	0.036995444
182	0x3c691407	0.014225966
183	0x3dc767bd	0.097365834
184	0xbe46c478	-0.19410884
185	0xbe67daa1	-0.22641994
186	0xbf86fb4a	-1.0545437
187	0x3e91a85a	0.28448755
188	0xbf5173cc	-0.81817317
189	0x3ec201f6	0.3789212
190	0xbedd41fd	-0.43214408
191	0xbf6396c8	-0.8890195
192	0xbe58b38a	-0.21162239
193	0x3f61dc9d	0.88227254
194	0xbe25df7a	-0.16198531
195	0x3eb78dac	0.35850275
196	0xbecfb422	-0.40567118
197	0xbea5ce4c	-0.32383955
198	0x3dfd42ad	0.12366233
199	0xbf7b5aa2	-0.9818517
200	0xbeb2318a	-0.3480342
201	0xbda4db07	-0.08049589
202	0x3edbc66c	0.4292482
203	0x3c31a09d	0.010841516
204	0xbdd9df50	-0.106382966
205	0xbd3989ed	-0.045297552
206	0xbedcd11d	-0.4312829
207	0x3d91dd3f	0.071222775
208	0xbe37a7c4	-0.17935091
209	0xbd4d06f5	-0.050055463
210	0x3daa062a	0.08301957
211	0xbf4341a7	-0.7627205
212	0x3ebee632	0.37285
213	0x3ef7d22a	0.4840253
214	0x3d2c7603	0.042104732
215	0x3e16ee99	0.14739455
216	0x3f931ab0	1.1492519
217	0xbebdb723	-0.37053785
218	0x3e083f7e	0.1330547
219	0x3f305680	0.6888199
220	0xbe4b6c45	-0.1986552
221	0xbe232982	-0.15933803
222	0xbec62b26	-0.38704795
223	0xbec11658	-0.3771236
224	0x3dfc7048	0.123261034
225	0xbcd4fcff	-0.025999544
226	0xbf073122	-0.52809346
227	0x3f13b8d4	0.577039
228	0xbe63ba2b	-0.22238986
229	0x3e94c0f6	0.29053468
230	0xbd027e24	-0.03185858
231	0x3dd086e7	0.101819806
232	0xbcf67116	-0.03008322
233	0xbd85448c	-0.06507215
234	0xbeb2a7b9	-0.34893587
235	0x3ea603d1	0.32424787
236	0xbeeafe2b	-0.4589704
237	0x3d9e1d86	0.07720475
238	0xbe3d5be5	-0.18492086
239	0x3f41a0cb	0.75635976
240	0xbf932796	-1.1496456
241	0xbe99cee0	-0.30040646
242	0x3e875882	0.26434714
243	0x3ec96018	0.39331126
244	0x3ccd6b40	0.025075555
245	0x3e4fbf60	0.20287848
246	0xbe3d1072	-0.18463305
247	0x3c7a698c	0.015283953
248	0x3eb35e96	0.350331
249	0xbe85ae1d	-0.261094
250	0xbeb92b93	-0.36166057
251	0xbf06f12b	-0.52711743
252	0x3f9f47f1	1.244383
253	0x3f008a70	0.5021124
254	0x3f59aa67	0.8502564
255	0xbe7355cd	-0.23763199

rnn.bias_ih_l0 f4 [50]
0	0x3e690f48	0.22759736
1	0x3d0c8c9c	0.034313783
2	0xbfa4c6d2	-1.2873175
3	0xbd4ea2fe	-0.05044841
4	0xbedd1df6	-0.4318692
5	0xbe587ee2	-0.21142152
6	0xbf343048	-0.7038617
7	0x3f9466fd	1.159393
8	0xbe4a3600	-0.19747162
9	0xbf1507d2	-0.5821506
10	0x3f34de7e	0.70651996
11	0x3d331c46	0.043728136
12	0xbdabeac0	-0.083943844
13	0xbf6db933	-0.92860717
14	0x3f926348	1.1436548
15	0x3f15e786	0.585564
16	0xbe785d14	-0.24254256
17	0x3d77ac08	0.060466796
18	0xbfb6b619	-1.4274322
19	0xbe9dade0	-0.3079672
20	0xbe67a26e	-0.22620556
21	0x3ee4d8bd	0.44696608
22	0xbeda31c0	-0.4261608
23	0xbd60986f	-0.054832872
24	0x3ef10086	0.47070712
25	0x3e4caa6a	0.19986883
26	0x3ecb5aae	0.3971762
27	0x3e27d374	0.16389257
28	0x3d3e9b81	0.04653502
29	0xbe5362bf	-0.20643137
30	0xbdc8047f	-0.097664826
31	0x3efee0f4	0.49781
32	0xbe3b9e2e	-0.1832206
33	0xbdf0090d	-0.11720476
34	0x3a9fd84b	0.0012195198
35	0x3f28b4d0	0.659009
36	0x3e786e64	0.2426086
37	0x3dcba4b9	0.09943528
38	0x3f49da89	0.78849083
39	0x3eb7f911	0.3593221
40	0xbfb85978	-1.4402304
41	0x3df1e244	0.11810735
42	0x3f02c4f5	0.5108178
43	0xbdccf215	-0.10007111
44	0x3f490317	0.7852034
45	0xbca2f71a	-0.019893218
46	0xbe5f9009	-0.21832289
47	0x3eef1121	0.46692756
48	0x3f1f1690	0.621438
49	0xbf3195a6	-0.6936897

rnn.bias_hh_l0 f4 [50]
0	0x3e239fda	0.15978947
1	0x3e80f499	0.25186613
2	0xbf9f2572	-1.2433302
3	0xbd89cb48	-0.06728226
4	0xbe8b9ce8	-0.27268147
5	0xbe9d1867	-0.3068268
6	0xbf33890c	-0.7013099
7	0x3f8c73ef	1.097288
8	0xbdd03dd7	-0.10168045
9	0xbee40c69	-0.44540718
10	0x3f46968b	0.7757346
11	0x3e23c2ab	0.15992229
12	0xbe226c05	-0.15861519
13	0xbf478e84	-0.77951837
14	0x3f63fb04	0.89054894
15	0x3f192c49	0.598332
16	0xbe68b31b	-0.22724573
17	0x3d307e52	0.04308922
18	0xbfd2c62a	-1.6466725
19	0xbea393b4	-0.31948626
20	0xbebae659	-0.36503866
21	0x3ee26031	0.44214013
22	0xbf08ec89	-0.53485924
23	0x3dde950b	0.108682714
24	0x3efb2a85	0.49055877
25	0x3e3300ec	0.1748082
26	0x3e279532	0.16365507
27	0x3e543fcb	0.2072746
28	0xbdad484e	-0.08461057
29	0xbe029c84	-0.12755018
30	0xbe7202bd	-0.23633857
31	0x3f034377	0.5127482
32	0xbd869eee	-0.06573282
33	0xbdd73d30	-0.105097175
34	0xbe79ede9	-0.24407162
35	0x3f04ccb8	0.51874876
36	0x3e574c28	0.21025145
37	0x3ea5a733	0.32354125
38	0x3f268949	0.6505323
39	0x3ea63d66	0.32468718
40	0xbfbed7b8	-1.4909582
41	0x3ce248ea	0.027622659
42	0x3f062d25	0.52412635
43	0x3c79a2da	0.015236581
44	0x3f7cd5bf	0.9876365
45	0x3df59999	0.11992187
46	0xbe89a96f	-0.2688708
47	0x3ec59974	0.38593638
48	0x3eead955	0.45868936
49	0xbf3a117c	-0.7268293

rnn.weight_ih_l1 f4 [50, 50]
0	0xbb590d1e	-0.003311939
1	0x3eb42db9	0.35191134
2	0xbe7aa30e	-0.24476263
3	0xbee2f408	-0.44326806
4	0xbea9aaf9	-0.33138254
5	0xbe81b77c	-0.253353
6	0x3d1387cb	0.036018174
7	0x3ebe6f65	0.37194362
8	0xbfd51218	-1.6646147
9	0xbf5ccf57	-0.86253875
10	0x3e8e492e	0.27790207
11	0xbdaff3aa	-0.08591397
12	0x40126fae	2.2880664
13	0xbc244bd5	-0.010027845
14	0x3f0491f3	0.517852
15	0x3f502a0b	0.8131415
16	0x3d55ed6f	0.052228387
17	0xbe3304ac	-0.17482251
18	0xbd31dfb2	-0.043426223
19	0xbcb48a24	-0.022038527
20	0xc08988c5	-4.2979455
21	0x3e18d51b	0.14925043
22	0xbdfc2e28	-0.12313491
23	0x3de6d854	0.1127173
24	0x3ea15baa	0.31515247
25	0x3f53edb0	0.8278456
26	0x3c8e2bc2	0.01735485
27	0xbc7ea156	-0.015541395
28	0xc015da98	-2.341467
29	0xbf0cf6e8	-0.5506425
30	0xbe0a0ec3	-0.13482194
31	0x3f3e7980	0.74404144
32	0x3e3960b2	0.18103293
33	0xbe115611	-0.14192988
34	0xbe9c01f8	-0.30470252
35	0x3e3d5914	0.18491012
36	0xbda85b69	-0.0822056
37	0x3e9c731b	0.30556569
38	0x3e2c6822	0.16836599
39	0xbe06581a	-0.13119546
40	0xbe51f677	-0.20504175
41	0x3d6ef4fa	0.058339097
42	0x3e97dced	0.2966074
43	0x3d5c57b8	0.053794593
44	0x3d04bbbe	0.032405607
45	0xbe0bd9d4	-0.13657314
46	0x3ec1d3c5	0.3785688
47	0x3f045e28	0.5170617
48	0x3dc7694a	0.09736879
49	0xbc264e8d	-0.010150564
50	0x3eb639ff	0.35591123
51	0xbe073d26	-0.1320692
52	0xbcb3ff8e	-0.021972444
53	0x3d5380ee	0.05163663
54	0xbc426ae4	-0.011866305
55	0x3e56f7ff	0.2099304
56	0x3e2f7051	0.17132689
57	0xbe4c54f4	-0.19954282
58	0x3eee5bdf	0.46554467
59	0x3e67834c	0.2260868
60	0xbeb99ca6	-0.36252326
61	0x3e1ad7e8	0.15121424
62	0xbe974fcc	-0.29553068
63	0xbe629056	-0.22125372
64	0xbe707863	-0.23483424
65	0xbe8e8430	-0.27835226
66	0xbee63691	-0.44963506
67	0x3e36c30b	0.1784784
68	0x3f0c888c	0.54895854
69	0xbecdbc39	-0.40182665
70	0x3ed8bd1b	0.42331776
71	0x3e607a6b	0.21921699
72	0x3e730eb9	0.23736085
73	0x3e7d0752	0.24709824
74	0xbf1f5d4d	-0.6225174
75	0xbcc20525	-0.023684094
76	0x3eb21da0	0.34788227
77	0xbebc1318	-0.36733317
78	0x3e933bf6	0.28756684
79	0xbebc5156	-0.36780804
80	0x3eb1fa3d	0.3476123
81	0xbe779c50	-0.24180722
82	0xbef075ef	-0.46964976
83	0x3e63b8b0	0.22238421
84	0x3ed8d647	0.4235098
85	0x3d8fb106	0.070161864
86	0x3e0c15a7	0.13680135
87	0xbee49d03	-0.4465104
88	0x3e02022a	0.12696138
89	0xbed08415	-0.4072577
90	0x3e2110a6	0.15729007
91	0x3e9f97a0	0.31170368
92	0xbea359a9	-0.31904343
93	0xbe99631b	-0.29958424
94	0xbe01dffe	-0.12683102
95	0xbf02ce64	-0.5109618
96	0xbe9cafa3	-0.3060275
97	0xbe0f0796	-0.13967738
98	0xbf21e22b	-0.6323573
99	0x3eaca0e2	0.33716494
100	0xbd1d2d94	-0.038373545
101	0xbe387aae	-0.18015549
102	0x3f6b8f13	0.9201519
103	0x3e939be1	0.28829864
104	0x3f0161a4	0.5053961
105	0x3e61b0d1	0.22040106
106	0x3f08f77b	0.53502625
107	0xbe8020ab	-0.25024924
108	0xbda97635	-0.08274499
109	0x3f99779b	1.1989626
110	0xbd6e2009	-0.05813602
111	0xbef4d85a	-0.47821313
112	0xbe92bc34	-0.28659213
113	0x3f2d77cb	0.67760915
114	0xbf453b34	-0.7704346
115	0xbf82f35c	-1.0230517
116	0xbd916cec	-0.07100853
117	0xbf15d5bd	-0.58529264
118	0x3e91d90d	0.2848591
119	0x3d9f3625	0.07773999
120	0x3ec4cfd2	0.38439804
121	0x3b920ef1	0.0044573476
122	0xbf0441ba	-0.5166279
123	0xbf5e0cb9	-0.86738163
124	0x3e01b051	0.12664916
125	0xbf1b6ea1	-0.6071568
126	0xbd3dea5b	-0.046366077
127	0x3dff18b2	0.12455882
128	0xbc091086	-0.008365756
129	0x3e91b515	0.28458467
130	0x3ea86918	0.3289268
131	0xbefafbb1	-0.4902015
132	0xbe1917b6	-0.14950451
133	0xbde1e5b4	-0.110301405
134	0x3da82f5b	0.08212157
135	0xbf539ec9	-0.8266416
136	0xbf227398	-0.6345763
137	0xbe42c8ee	-0.19021961
138	0xbf082c47	-0.5319256
139	0xbde8ebfd	-0.11373136
140	0xbf373c9e	-0.7157687
141	0xbf13d0f9	-0.5774074
142	0xbebcccd0	-0.3687501
143	0x3ecc8d2f	0.39951465
144	0x3bfdf562	0.007750199
145	0x3d7906ca	0.06079749
146	0xbf80b1d4	-1.0054269
147	0xbf03e3c9	-0.5151945
148	0xbe8e7fc2	-0.27831846
149	0xbf167ee0	-0.58787346
150	0xbf19e8cd	-0.6012085
151	0x3f082e5e	0.5319575
152	0x3e79b4f2	0.24385431
153	0xbca9ba51	-0.020718725
154	0xbe7e70e5	-0.24847753
155	0xbd78018a	-0.060548343
156	0xbdd680e7	-0.10473805
157	0x3dfc692e	0.12324749
158	0xbe6a3a9c	-0.2287392
159	0xbea82862	-0.3284331
160	0x3e4e4a66	0.20145568
161	0xbe3be4e0	-0.18349028
162	0x3f115612	0.5677196
163	0xbd57df2f	-0.05270308
164	0x3e8e8110	0.27832842
165	0x3e3c66df	0.18398617
166	0x3ec2793b	0.37983117
167	0x3dc0b2a4	0.09409073
168	0xbea8634e	-0.32888263
169	0x3e436f39	0.19085397
170	0xc06f2b7a	-3.7370286
171	0x3e7b4768	0.24538958
172	0x3ebcdddb	0.36888012
173	0xbb72fe4d	-0.0037077845
174	0x3eefd322	0.4684077
175	0x3ecb1e15	0.39671388
176	0x3ea848cb	0.32868037
177	0xbdd80ce4	-0.10549334
178	0xc023cdce	-2.5594363
179	0xbdb3c5ce	-0.087779626
180	0xbe4eecf2	-0.20207575
181	0x3e44ad41	0.19206716
182	0x3f00ca1b	0.5030839
183	0xbe83ff9d	-0.25780955
184	0xbd098b9f	-0.03358042
185	0x3e3bdd8b	0.1834623
186	0x3ec889d2	0.3916765
187	0x3e8699a6	0.262891
188	0xbd73649d	-0.059422124
189	0x3ec5065f	0.38481423
190	0x3e62aa1c	0.22135204
191	0x3ec4d15c	0.3844098
192	0x3ee25e35	0.442125
193	0xbeafe898	-0.34357142
194	0xbf3578a3	-0.708872
195	0x3eb20b73	0.3477436
196	0x3e5eeadf	0.21769284
197	0x3d73913e	0.059464686
198	0x3f11235a	0.5669457
199	0x3eb15665	0.34636226
200	0x3d9ef75e	0.07762025
201	0xbeaa5b4e	-0.33272785
202	0xbe9d93e6	-0.307769
203	0xbc4cbbf2	-0.0124959815
204	0xbe1a4f5f	-0.1506934
205	0x3e05b24e	0.13056299
206	0x3e732e5c	0.23748153
207	0xbe883eec	-0.26610506
208	0x3ea9bb99	0.33150938
209	0xbe1c19d6	-0.1524423
210	0x3e0c0eba	0.13677493
211	0x3e58bc0d	0.21165486
212	0xbe902242	-0.28151137
213	0xbe567072	-0.20941332
214	0xbe77ce0e	-0.24199697
215	0xbea2ebe7	-0.31820604
216	0xbd71957a	-0.058980443
217	0xbd50005e	-0.0507816
218	0x3f2bbab4	0.6708176
219	0xbe555dbf	-0.20836543
220	0x3d2eeea3	0.04270805
221	0xbea878d4	-0.32904685
222	0x3dc3cc70	0.09560478
223	0x3e42e07d	0.19030948
224	0xbf0ffe82	-0.56247723
225	0xbe9fd398	-0.3121612
226	0x3de8a00d	0.11358652
227	0xbf310dae	-0.691615
228	0x3de763f3	0.11298361
229	0xbe11215a	-0.14172879
230	0x3f1760ef	0.59132284
231	0xbe681812	-0.22665432
232	0xbe2572b9	-0.16157044
233	0x3ebc90b7	0.3682916
234	0x3f06a485	0.52594787
235	0x3e0ed89b	0.13949816
236	0x3e758134	0.23975068
237	0xbd4aed0e	-0.04954248
238	0x3ea74904	0.32672894
239	0xbe50d235	-0.20392688
240	0x3ea930be	0.33045
241	0x3e7b9903	0.24570088
242	0xbdf48a2a	-0.11940415
243	0xbe5f9967	-0.21835862
244	0xbd4c3a16	-0.049860083
245	0xbe4ee25d	-0.20203538
246	0xbe658709	-0.22414793
247	0xbe2d038b	-0.16895883
248	0xbe41975d	-0.18905397
249	0x3d662f49	0.05619744
250	0x3de17aa8	0.11009723
251	0x3eb61cb2	0.35568768
252	0xbe00d203	-0.12580113
253	0xbf162ddd	-0.5866373
254	0x3e70b19e	0.23505256
255	0xbef22083	-0.4729043

rnn.weight_hh_l1 f4 [50, 50]
0	0xbd86bc40	-0.065788746
1	0x3c851aff	0.016248224
2	0xbc9011e0	-0.017586648
3	0xbe66d92b	-0.2254378
4	0x3dba0e01	0.09084702
5	0x3db7fd59	0.08983869
6	0xbdeba0d7	-0.11505287
7	0x3d246f4b	0.0401452
8	0xbf990d6c	-1.1957221
9	0x3c8b9c1b	0.01704221
10	0x3bd1105c	0.006380124
11	0xbe686172	-0.22693422
12	0x3e975991	0.2956052
13	0x3cadde14	0.02122406
14	0xbe2d6c55	-0.16935857
15	0x3c91528c	0.017739557
16	0x3e5d255f	0.21596287
17	0x3e5a5ec7	0.21325217
18	0x3ce29796	0.027660172
19	0xbdd6267e	-0.104565606
20	0x3e3767d0	0.17910695
21	0x3d5885a0	0.05286181
22	0xbce1aa02	-0.027546886
23	0xbedf453f	-0.43607518
24	0x3e0bb6d3	0.1364396
25	0x3e174faa	0.14776483
26	0x3e104174	0.14087468
27	0x3dc8c769	0.098036595
28	0xbd12ca43	-0.035837423
29	0xbf9b009f	-1.2109565
30	0x3e1e9af3	0.15488796
31	0xbd09ceb8	-0.033644408
32	0x3dae533f	0.08511972
33	0x3d3c9282	0.04603816
34	0x3c695af6	0.014242878
35	0x3da5f11a	0.08102627
36	0x3e352db8	0.17693222
37	0x3dcc40f8	0.09973329
38	0xbd554f2b	-0.052077454
39	0x3e5fd44c	0.21858329
40	0xbe1acb20	-0.15116549
41	0xbeab2493	-0.3342634
42	0x3d97a053	0.07403626
43	0xbd8bb50b	-0.068216406
44	0x3f9b30df	1.2124289
45	0x3daa4962	0.08314778
46	0xbdb5b3b7	-0.088721685
47	0x3ff289a9	1.894826
48	0xbdfb7a96	-0.12279241
49	0xbf354df6	-0.70822084
50	0xbee01d90	-0.43772554
51	0x3e15636a	0.14588705
52	0x3e13766c	0.14400643
53	0x3d44ca87	0.048044708
54	0x3e2ee899	0.17080916
55	0xbe84d849	-0.25946262
56	0xbe9fa618	-0.31181407
57	0x3d42f3bb	0.04759572
58	0x3dbc9461	0.092079885
59	0x3e45f6b1	0.19332387
60	0x3ef65feb	0.48120055
61	0xbd60f65d	-0.05492245
62	0x3dc6348a	0.0967799
63	0xbe2b41a4	-0.16724259
64	0x3de088c2	0.109635845
65	0x3e0ef927	0.13962232
66	0xbe924ce0	-0.28574276
67	0xbcac97b0	-0.021068424
68	0x3e81c349	0.25344303
69	0x3e0623e2	0.13099626
70	0x3d896fe5	0.06710795
71	0xbdba7b1a	-0.09105511
72	0xbc018be5	-0.007906889
73	0x3e9e34ef	0.3089976
74	0xbea62bed	-0.32455388
75	0xbe9d0254	-0.3066584
76	0xbe9d8fff	-0.30773923
77	0xbc8fc2d3	-0.017548954
78	0xbe41a383	-0.18910031
79	0x3e2e1ab7	0.17002378
80	0xbdc92296	-0.0982105
81	0xbbab3721	-0.0052250777
82	0xbd64b26f	-0.05583423
83	0xbbe6a70d	-0.007038957
84	0x3ebac4be	0.36478227
85	0xbeea4a0a	-0.45759612
86	0x3ea1d258	0.31605792
87	0xbe77c937	-0.24197851
88	0x3e98bd91	0.29832128
89	0x3ea543cd	0.3227829
90	0xbe3d59ff	-0.18491362
91	0x39b093cf	0.00033679462
92	0x3df736f8	0.12071031
93	0x3e395a7f	0.18100928
94	0xbe1f4924	-0.15555245
95	0xbec858ca	-0.3913024
96	0xbebace8f	-0.36485717
97	0xbecde45d	-0.4021329
98	0x3e278843	0.16360573
99	0xbda03d9d	-0.07824252
100	0xbf01013e	-0.5039252
101	0xbedd6b57	-0.43245956
102	0x3d86f161	0.06589008
103	0x3efc53ad	0.4928259
104	0xbf216bff	-0.63055414
105	0xbe440c22	-0.19145253
106	0x3d6058a3	0.05477203
107	0xbd29b93a	-0.04143641
108	0x3d4dbe09	0.05023006
109	0xbf0e4e4f	-0.5558824
110	0xbd6378e9	-0.05553523
111	0x3d45a075	0.048248727
112	0xbec4b505	-0.38419357
113	0x3e153994	0.14572746
114	0x3edc83d1	0.43069318
115	0xbd87f26c	-0.06638035
116	0xbcb64435	-0.02224932
117	0xbe856912	-0.26056725
118	0x3e58b2d0	0.21161962
119	0x3e012421	0.12611438
120	0xbf065294	-0.52469754
121	0xbc5ee14b	-0.013603519
122	0xbf257178	-0.64626265
123	0x3ec245ef	0.3794398
124	0xbc5719fc	-0.013128754
125	0x3ed4decb	0.41576228
126	0x3d56688b	0.052345794
127	0x3eee22db	0.46510968
128	0x3ed13950	0.40864038
129	0x3dc2d2de	0.09512876
130	0x3f12c3a0	0.5732975
131	0xbeb13718	-0.34612346
132	0x3dfecabe	0.12441014
133	0xbea8fe2f	-0.33006427
134	0x3cb2244d	0.021745825
135	0x3eaea161	0.34107497
136	0x3e01109d	0.12603994
137	0x3e0cacc2	0.13737777
138	0x3e7b4770	0.2453897
139	0xbd6c6fb1	-0.057723705
140	0x3e832bc8	0.2561934
141	0x3c82af15	0.015952626
142	0xbed8ac31	-0.42318872
143	0xbe1b5cdc	-0.15172142
144	0xbd983f60	-0.07433963
145	0x3d344a14	0.04401596
146	0x3d0a8d59	0.033826206
147	0xbeff7ce6	-0.49899977
148	0x3eb22a5c	0.34797943
149	0x3f0c53da	0.5481545
150	0x3eb291f1	0.3487697
151	0xbd31916d	-0.04335158
152	0x3e221df1	0.15831734
153	0x3e20cdb0	0.15703464
154	0xbe101284	-0.14069563
155	0x3ea085cc	0.3135208
156	0x3e8be7a0	0.27325153
157	0xbe9c7e26	-0.30564994
158	0x3e8172be	0.25282854
159	0xbe989ac0	-0.29805565
160	0xbe31ca9c	-0.17362446
161	0x3e576dcc	0.21037978
162	0xbe2c39da	-0.16818944
163	0xbd6bb38a	-0.05754427
164	0x3e81af47	0.25329039
165	0x3d98dce9	0.0746401
166	0x3e850228	0.25978208
167	0x3a874117	0.0010319081
168	0xbea981dc	-0.33106887
169	0xbe106310	-0.1410029
170	0xbdfdb086	-0.12387185
171	0x3df49a39	0.11943478
172	0xbe069e97	-0.13146435
173	0x3cb36a04	0.021901138
174	0x3e130331	0.14356686
175	0x3e7613c1	0.24030973
176	0x3d5ad21d	0.053423036
177	0x3dd81bbf	0.10552167
178	0x3e2687c7	0.16262732
179	0xbe3e682d	-0.18594427
180	0x3e2e9f6d	0.17053004
181	0xbdcc7893	-0.09983935
182	0x3e3c36e9	0.18380322
183	0xbeb12669	-0.34599617
184	0xbe4fa97e	-0.202795
185	0x3eda5fa4	0.42651093
186	0xbe98731f	-0.2977533
187	0x3e2bb0ab	0.16766612
188	0xbe030328	-0.12794173
189	0xbe5acde0	-0.21367598
190	0xbe834143	-0.25635728
191	0xbe9ab9e5	-0.3021995
192	0xbe81f0af	-0.2537894
193	0xbe73d48a	-0.23811546
194	0x3e89f223	0.26942548
195	0x3f0cb89f	0.5496921
196	0x3e8cbe95	0.27489153
197	0x3dd26a9e	0.10274242
198	0x3e30641a	0.17225686
199	0xbe9092d6	-0.28237027
200	0xbf1586b2	-0.58408654
201	0xbd339d99	-0.04385147
202	0x3ec4465e	0.38334936
203	0xbdad3399	-0.08457107
204	0xbddd90f4	-0.10818663
205	0xbeb41c76	-0.35177964
206	0xbeba3383	-0.36367425
207	0x3e5d30fd	0.21600719
208	0x3f105580	0.5638046
209	0x3d34dcff	0.04415607
210	0x3e972000	0.29516602
211	0x3daf770c	0.08567628
212	0xbe820b1a	-0.25399095
213	0xbeb55bef	-0.35421702
214	0x3e282315	0.16419633
215	0xbd00f6cf	-0.031485375
216	0xbe5edf85	-0.21764953
217	0xbe90a71a	-0.28252488
218	0x3ef32ffe	0.47497553
219	0x3f52ca16	0.8233961
220	0xbc9bb5d1	-0.019007595
221	0x3dcbc74c	0.09950122
222	0x3e8c451d	0.2739648
223	0x3df82061	0.12115551
224	0xbe879fa4	-0.26488984
225	0xbf1d9338	-0.61552763
226	0xbee2f1bd	-0.44325057
227	0xbe390adf	-0.18070553
228	0xbe7734ee	-0.24141285
229	0x3ef3d44f	0.47622916
230	0xbe229bf1	-0.158798
231	0xbed2da06	-0.41181964
232	0xbe318cc4	-0.17338854
233	0xbe695f81	-0.22790338
234	0x3eb58a3b	0.35457024
235	0xbe48fe49	-0.19628252
236	0x3e8a3c18	0.26998973
237	0xbee12ac5	-0.43977943
238	0x3e61668a	0.22011772
239	0x3be0a56f	0.0068556587
240	0x3e841ec8	0.25804734
241	0xbe602f51	-0.2189305
242	0xbd09dfed	-0.033660818
243	0x3e328895	0.17434914
244	0xbf2164df	-0.6304454
245	0xbdbb6c61	-0.09151531
246	0xbb88a64c	-0.0041702148
247	0xbe8f3e56	-0.27977246
248	0x3e4b6c7c	0.19865602
249	0x3d067577	0.032826867
250	0x3d9b8ca5	0.07595185
251	0xbbbed35c	-0.005823536
252	0xbce13d37	-0.02749501
253	0x3dd889ef	0.10573184
254	0x3cc5d0b4	0.024147369
255	0xbce1466d	-0.027499402

rnn.bias_ih_l1 f4 [50]
0	0x3d830070	0.06396568
1	0xbce441c0	-0.027863383
2	0x3d123044	0.03569056
3	0xbde4d854	-0.11174074
4	0xbda57b74	-0.080801874
5	0xbe80dd0a	-0.2516864
6	0xbe4afa46	-0.19822034
7	0x3cd9fa66	0.026608657
8	0xbedbbf16	-0.42919225
9	0x3ddba531	0.10724867
10	0xbe015cd0	-0.12633061
11	0x3dc3fc82	0.095696464
12	0x3f03ecc6	0.5153316
13	0xbec9ab6b	-0.39388594
14	0x3c7062dc	0.014672007
15	0x3d4b1975	0.049584825
16	0xbe075924	-0.13217598
17	0x3e53513d	0.20636459
18	0x3e2a3622	0.16622213
19	0x3ec89edd	0.39183703
20	0xbea63912	-0.32465416
21	0xbe4a5b1b	-0.19761316
22	0xbdeb3333	-0.11484375
23	0xbdab887e	-0.08375643
24	0xbe7e11b6	-0.24811444
25	0x3ca9c684	0.020724542
26	0x3d1c11e0	0.038102984
27	0xbefa2794	-0.4885832
28	0xbda49d2d	-0.080377914
29	0x3e9028b1	0.28156045
30	0x3e6679e7	0.2250744
31	0x3f16a765	0.58849174
32	0x3e04a15d	0.1295218
33	0xbea8a4c0	-0.32938194
34	0xbe12a221	-0.1431966
35	0x3eacdc18	0.33761668
36	0x3e0f4894	0.1399253
37	0x3d2b43ab	0.04181258
38	0x3e6d0549	0.23146547
39	0x3e71163d	0.2354364
40	0x3f3ed5c1	0.7454491
41	0x3ec2f818	0.38079906
42	0xbc964e32	-0.018347833
43	0xbd73095e	-0.059335105
44	0x3f1036bb	0.5633351
45	0x3d090314	0.0334502
46	0x3e144f21	0.1448331
47	0x3f0cafc0	0.54955673
48	0x3c316ec1	0.010829628
49	0xbdcdb556	-0.10044353

rnn.bias_hh_l1 f4 [50]
0	0x3daa45c8	0.08314091
1	0x3d2f01cc	0.042726323
2	0x3e771756	0.24129996
3	0xbd162eb6	-0.03666564
4	0x3bcf1730	0.006319903
5	0xbdecac67	-0.11556321
6	0xbee733a6	-0.45156592
7	0xbd3008c0	-0.042977095
8	0xbedcbafa	-0.43111402
9	0x3e3a31c8	0.18183053
10	0xbe32e3a6	-0.17469653
11	0x3bdf0e40	0.0068071187
12	0x3f018dc7	0.5060696
13	0xbe47c7a5	-0.19509752
14	0x3da325bd	0.079661824
15	0x3e5be21b	0.21472971
16	0xbceae984	-0.028675802
17	0x3e7b0bc0	0.24516201
18	0x3e8f9d01	0.28049472
19	0x3ee7c783	0.45269403
20	0xbe523d3e	-0.20531175
21	0xbebac3ef	-0.3647761
22	0xbd133e76	-0.03594824
23	0xbe951212	-0.2911535
24	0xbe272c20	-0.16325426
25	0xbcdb526f	-0.026772706
26	0xbc9bafd0	-0.019004732
27	0xbe80b5e4	-0.25138772
28	0xbe07dcf5	-0.13267882
29	0x3e2f73a2	0.17133954
30	0x3e9709a1	0.29499534
31	0x3eefcdf2	0.4683681
32	0x3dda153b	0.10648581
33	0xbea5a455	-0.32351938
34	0xbe2427aa	-0.16030756
35	0x3eae918b	0.34095415
36	0x3e8bd26f	0.27308986
37	0x3cd8f750	0.026485115
38	0x3e9048f2	0.28180653
39	0x3eaafac1	0.33394435
40	0x3f7993fa	0.9749142
41	0x3e803bc2	0.25045592
42	0xbc57a7a0	-0.0131625235
43	0xbbef7316	-0.0073074205
44	0x3f14f45e	0.58185375
45	0xbd0f771b	-0.035025697
46	0x3d8e6b78	0.06954092
47	0x3edba4ea	0.42899257
48	0xbc9a08cf	-0.018803028
49	0xbd9636ef	-0.073346965

fc.weight f4 [1, 50]
0	0xbf00cab3	-0.50309294
1	0xbd6f03dc	-0.05835329
2	0x3c9057f0	0.017620057
3	0x3dd1703e	0.102264866
4	0xbd1282ae	-0.035769157
5	0x3c0ab8b4	0.008466888
6	0x3d85347e	0.06504153
7	0xbda8f02d	-0.08248935
8	0xbdb2f87d	-0.08738802
9	0xbd56aa30	-0.052408397
10	0xbcba5839	-0.022747146
11	0x3d8dd00f	0.0692445
12	0x3f5e36d2	0.868024
13	0x3d3e06a2	0.046393044
14	0x3d5f3658	0.054495186
15	0x3e73d6ff	0.23812483
16	0x3e01f814	0.1269229
17	0xbd5f83b6	-0.05456897
18	0x3b12f0fb	0.0022421468
19	0x3e4a6ab2	0.19767264
20	0xbc3024f1	-0.010750995
21	0x3da66fee	0.08126818
22	0xbe3b8466	-0.18312225
23	0xbd9b7894	-0.07591358
24	0x3e61a0f7	0.2203406
25	0xbd2b6d95	-0.041852552
26	0x3d239ec4	0.039946333
27	0xbd5705fc	-0.05249594
28	0xbddae19d	-0.106875636
29	0x3e1e11fc	0.15436548
30	0x3d3635e0	0.044484973
31	0x3d8c4521	0.06849123
32	0x3cf99a1a	0.03046899
33	0x3e3ec8ea	0.1863133
34	0xbdafa72c	-0.085768074
35	0x3e2db73e	0.16964433
36	0x3ccb096f	0.024784772
37	0x3e109de3	0.14122729
38	0xbd6877b6	-0.05675479
39	0x3e1a6e7a	0.15081206
40	0x3ee73abb	0.45161995
41	0x3deb6c42	0.11495258
42	0x3d545af9	0.05184457
43	0xbdc3f141	-0.095675
44	0x3d24d36f	0.0402407
45	0x3e289c45	0.16465862
46	0x3d45bd7e	0.048276417
47	0xbc3cfe2a	-0.011535207
48	0x3e2945af	0.16530488
49	0x3c8e3429	0.017358856
