Networks/SHPING-EUR/bidSeed0.pt (torch, 33123 bytes, 9 tensors)

rnn.weight_ih_l0 f4 [50, 1]
0	0xbf17192c	-0.59022784
1	0x3f9b265f	1.2121085
2	0xbf7ec7e2	-0.99523747
3	0x3dd22513	0.102609776
4	0xbeeb41a8	-0.4594853
5	0x3fb72d59	1.4310714
6	0x3f6d2245	0.92630416
7	0x3f1fd1b6	0.6242937
8	0x3f9d019c	1.2266116
9	0xbf170d7c	-0.5900495
10	0xbead1d77	-0.33811542
11	0x3f582104	0.8442538
12	0x3f457a26	0.7713951
13	0xbf5942a3	-0.84867305
14	0x3f55f673	0.83579177
15	0xbfbe6e09	-1.487733
16	0x3f7df142	0.99196255
17	0xbf3914cb	-0.7229735
18	0x3f384c8f	0.7199182
19	0x3f871636	1.0553653
20	0x3e716bdb	0.235763
21	0x3efc32c0	0.4925747
22	0xbe16abd7	-0.14713989
23	0xbe891d5e	-0.26780218
24	0x3f6f90cb	0.9358031
25	0x3efb69f6	0.4910428
26	0xbf08b6c1	-0.5340386
27	0x3f43478f	0.76281065
28	0x3ddc57d6	0.10758941
29	0xbfdf62fa	-1.745208
30	0x3f9c6809	1.2219249
31	0x3ef0fe5a	0.47069055
32	0xbf6e65c8	-0.93124056
33	0xbf1a8202	-0.60354626
34	0xbfafe101	-1.3740541
35	0xbe1538ca	-0.14572445
36	0x3f481aac	0.781657
37	0x3f03072a	0.51182806
38	0xbec0f0b8	-0.37683654
39	0x3f5b308e	0.85620964
40	0x3f8b68c7	1.089135
41	0x3f1b5902	0.6068269
42	0xbf012a2c	-0.50454974
43	0xbf3b8294	-0.7324612
44	0x3f879cde	1.0594747
45	0x3f1eeda0	0.62081337
46	0x3f8511d4	1.0396066
47	0x3f2714f7	0.65266365
48	0x3ec8b773	0.3920246
49	0xbde7bad5	-0.11314932

rnn.weight_hh_l0 f4 [50, 50]
0	0xbccf5e63	-0.025313562
1	0xbedc450c	-0.4302143
2	0x3e952a85	0.29134002
3	0x3eb181a7	0.3466923
4	0x3d6493a4	0.055804864
5	0x3e017d7b	0.12645523
6	0x3d6c353c	0.057667956
7	0xbf57e27c	-0.8432996
8	0xbe2519ea	-0.16123167
9	0x3d75df06	0.060027145
10	0x3e9cc60c	0.30619848
11	0x3d552884	0.05204059
12	0x3d2f4b46	0.042796396
13	0x3eafd2af	0.34340426
14	0xbd82f027	-0.06393462
15	0xbe9575ab	-0.29191336
16	0xbebfaced	-0.3743662
17	0xbe5ccf45	-0.21563442
18	0x3e072cab	0.13200633
19	0x3edab355	0.42714944
20	0x3c96aec7	0.018393887
21	0xbe4e4d2c	-0.20146626
22	0x3ea9c180	0.3315544
23	0x3ecf5202	0.40492254
24	0x3de44438	0.11145824
25	0x3d3041c6	0.043031476
26	0x3f049ab5	0.51798564
27	0x3f350622	0.7071248
28	0xbf2bdf0a	-0.67137206
29	0x3eb23442	0.34805495
30	0xbe904300	-0.28176117
31	0xbe85e3a1	-0.2615023
32	0x3f004915	0.50111514
33	0x3ef215ef	0.4728236
34	0x3e01af52	0.12664536
35	0x3f0440e6	0.5166153
36	0xbf10439f	-0.5635318
37	0x3e10e872	0.14151171
38	0xbf216a7c	-0.6305311
39	0xbe269f00	-0.16271591
40	0xbeb6d82a	-0.35711795
41	0xbf291fe9	-0.66064316
42	0x3e4bccb8	0.19902313
43	0xbd3ad959	-0.045617435
44	0xbf2aa4d6	-0.6665777
45	0xbecfe81c	-0.40606773
46	0xbf25a238	-0.6470065
47	0x3e0149d8	0.12625825
48	0x3d81c6f1	0.06336773
49	0x3f0eb07f	0.5573806
50	0x3eada0a8	0.33911633
51	0xbe4382aa	-0.19092813
52	0x3e55d5b7	0.20882307
53	0x3eedef86	0.46471804
54	0x3eaabb60	0.3334608
55	0xbe418ad5	-0.18900616
56	0xbf1bf086	-0.60913885
57	0xbec098c0	-0.3761654
58	0xbe668f6b	-0.22515647
59	0x3f0d6ca8	0.5524392
60	0xbe2e9997	-0.17050777
61	0xbd7a8a1e	-0.061166875
62	0xbf09b89f	-0.53797334
63	0x3e7de7c4	0.24795443
64	0xbf083e3d	-0.5321997
65	0xbe9a42aa	-0.30128986
66	0xbe8092dd	-0.25112048
67	0xbec64176	-0.38721818
68	0xbe635e09	-0.2220384
69	0x3f00d8ee	0.5033101
70	0xbdf2b981	-0.11851788
71	0xbe23d8b1	-0.1600063
72	0x3e83426e	0.2563662
73	0x3dcf44bb	0.10120531
74	0xbe90f7cc	-0.28314054
75	0x3f0f2e79	0.55930287
76	0x3e5db78c	0.21652049
77	0x3e571aff	0.21006392
78	0xbe36715a	-0.17816678
79	0x3b58f7c1	0.0033106657
80	0xbd7f91ee	-0.06239503
81	0xbda11013	-0.07864394
82	0xbc97c2eb	-0.018525561
83	0x3caabbd8	0.020841524
84	0x3e2989c4	0.1655646
85	0x3edf1a20	0.4357462
86	0xbebef5ae	-0.37296814
87	0xbd0afde7	-0.033933546
88	0xbe1b4033	-0.15161209
89	0xbf1909e3	-0.5978071
90	0xbdf1e58e	-0.11811362
91	0xbeca015b	-0.3945416
92	0x3eade031	0.33960107
93	0xbd818877	-0.06324857
94	0xbeca3970	-0.39496946
95	0xbe063e63	-0.13109736
96	0x3d4b1139	0.04957697
97	0x3f080b69	0.5314241
98	0x3e520162	0.2050834
99	0x3ee223d4	0.4416796
100	0xbe52d05b	-0.20587294
101	0x3e9d0fec	0.3067621
102	0xbee606fb	-0.449272
103	0xbef7e0a4	-0.48413575
104	0xbe7d9bdf	-0.24766491
105	0x3e81ecc0	0.25375938
106	0x3e4c6f93	0.19964437
107	0x3efefb6e	0.498012
108	0x3e6e4825	0.23269708
109	0xbebdcbf8	-0.37069678
110	0xbea9b7cf	-0.33148047
111	0x3ea14ee7	0.3150551
112	0x3e626ade	0.22111079
113	0xbea6a0c9	-0.32544544
114	0x3eb339fd	0.3500518
115	0x3c42919a	0.011875534
116	0x3e3d4dd3	0.18486719
117	0x3eb9f055	0.3631617
118	0x3e7f21ad	0.2491519
119	0xbeeffc20	-0.46872044
120	0x3f09ffb8	0.5390582
121	0x3e835dfa	0.25657636
122	0xbef36bd2	-0.47543198
123	0xbe4811ef	-0.19538091
124	0x3ea1f29c	0.3163041
125	0xbefc34fe	-0.4925918
126	0xbe806dea	-0.25083858
127	0x3d9c3dd7	0.076289825
128	0x3ef21343	0.4728032
129	0xbe8f9e3d	-0.28050414
130	0x3ed2a914	0.4114462
131	0x3e4e904a	0.2017223
132	0xbe85a46c	-0.26102006
133	0xbec10d83	-0.3770562
134	0xbc907182	-0.01763225
135	0xbeb450f8	-0.35218024
136	0x3ea0981a	0.31366044
137	0x3eb71b6e	0.35763115
138	0x3eb9b88d	0.36273614
139	0x3ec473f2	0.3836971
140	0x3ea5617f	0.32300946
141	0x3ead1731	0.33806756
142	0xbee8e36c	-0.4548601
143	0xbe0c91dc	-0.13727516
144	0x3ec6c812	0.38824517
145	0x3e7b5f2c	0.24548024
146	0x3ea763dd	0.32693377
147	0x3b440885	0.0029912305
148	0x3e5f6f15	0.21819718
149	0xbe460414	-0.19337493
150	0xbcb14a21	-0.021641793
151	0xbe9be256	-0.30446118
152	0x3e460b88	0.19340336
153	0xbe349a3c	-0.1763696
154	0xbe31605c	-0.17321914
155	0xbe9bac0a	-0.30404693
156	0x3e96a79c	0.2942475
157	0xbde183fb	-0.110115014
158	0xbe96adef	-0.29429576
159	0xbf048e15	-0.517793
160	0x3f243aee	0.6415242
161	0x3ebdb7b7	0.37054226
162	0x3ec2848b	0.37991747
163	0xbd80fbc0	-0.062980175
164	0x3f177aaf	0.59171575
165	0xbe3a9719	-0.18221702
166	0xbe9df069	-0.3084748
167	0xbefe3a7a	-0.4965399
168	0xbb8cf627	-0.0043018046
169	0xbeb0be87	-0.3452036
170	0xba9486ef	-0.0011331717
171	0xbec37bc0	-0.3818035
172	0x3e6995d2	0.22811058
173	0x3e99dcd2	0.30051285
174	0x3f021a09	0.50820976
175	0xbda49d77	-0.080378465
176	0x3e8f4f49	0.27990177
177	0x3e85ccd2	0.26132828
178	0x3eb5d779	0.35515955
179	0x3e9cdb9a	0.30636293
180	0xbeb40a03	-0.35163888
181	0x3ec3793c	0.38178432
182	0x3ea08380	0.31350327
183	0x3eacecd2	0.3377443
184	0x3eac3fcc	0.33642423
185	0x3d03769a	0.03209553
186	0x3d65ed34	0.056134418
187	0x3e6435cf	0.22286151
188	0x3d5fdb7b	0.054652672
189	0x3f068abb	0.52555436
190	0x3efbe71e	0.49199766
191	0xbedc0073	-0.42969093
192	0xbf23d3b3	-0.639949
193	0xbe5971d1	-0.21234824
194	0x3d9c3655	0.076275505
195	0xbdeca360	-0.11554599
196	0xbe285253	-0.16437654
197	0xbe86e642	-0.26347548
198	0xbee2725d	-0.44227877
199	0xbb016e7c	-0.0019749692
200	0xbf42e0a4	-0.76124024
201	0xbe937d45	-0.2880651
202	0x3e50d9a7	0.20395528
203	0x3da8f9a4	0.0825074
204	0xbf1e7875	-0.6190255
205	0xbe9e2131	-0.30884698
206	0x3cf9ecbd	0.030508393
207	0xbf0ca1f8	-0.54934645
208	0x3d49d5a4	0.04927601
209	0x3e8f6db3	0.2801338
210	0x3c9cff28	0.019164637
211	0xbdef6512	-0.116891995
212	0x3b1021ce	0.0021992805
213	0x3d618bec	0.05506508
214	0xbdb2d6f0	-0.08732402
215	0xbe92de7d	-0.2868537
216	0xbd449c18	-0.048000425
217	0x3e9416f5	0.28923765
218	0x3e873387	0.264065
219	0xbeb445da	-0.35209543
220	0x3effc521	0.49955085
221	0x3df679d9	0.12034959
222	0xbe97281d	-0.29522792
223	0xbe2505db	-0.16115515
224	0x3ed1d900	0.4098587
225	0xbd9eed17	-0.07760065
226	0xbd47095f	-0.04859292
227	0x3f0b2b80	0.5436325
228	0xbe916714	-0.28398955
229	0x3de5996b	0.11210903
230	0xbc055ce3	-0.008139822
231	0xbec315a9	-0.38102463
232	0x3f04f128	0.51930475
233	0xbe00ea05	-0.12589271
234	0xbb94b51f	-0.004538193
235	0xbddd56a2	-0.108075395
236	0xbec4c37c	-0.38430393
237	0x3ea9658b	0.33085284
238	0xbf3a5540	-0.7278633
239	0xbebc024e	-0.36720508
240	0xbe986164	-0.29761803
241	0x3dc756de	0.097333655
242	0x3e9c94e9	0.3058236
243	0xbe0f7f8b	-0.14013498
244	0xbf0c1add	-0.5472849
245	0x3e32db62	0.174665
246	0xbf0f8e3e	-0.5607642
247	0x3e2254e9	0.15852703
248	0x3e967222	0.2938395
249	0x3ed5800e	0.4169926
250	0x3e38cb49	0.18046297
251	0xbe3900cd	-0.18066712
252	0x3d1b30c8	0.03788832
253	0x3e469b80	0.19395256
254	0x3c830dbe	0.015997764
255	0xbf26786f	-0.6502752

rnn.bias_ih_l0 f4 [50]
0	0x3f0723af	0.52788824
1	0xbdaa9c2b	-0.08330568
2	0xbe1e33ce	-0.1544945
3	0x3ea40d64	0.32041466
4	0x3cc46e45	0.023978362
5	0x3dd64207	0.104618125
6	0xbe72979a	-0.23690644
7	0x3e458fb7	0.19293104
8	0x3e72b1d5	0.2370065
9	0x3e4ee79e	0.20205542
10	0x3d333368	0.043750197
11	0xbe40195f	-0.18759678
12	0xbea51314	-0.32241118
13	0x3e1e0a04	0.15433508
14	0xbed36357	-0.41286728
15	0xbe35c99c	-0.17752689
16	0xbd8caa8d	-0.068684675
17	0xbf287021	-0.65796095
18	0xbed1dbe1	-0.40988067
19	0x3f00b6a9	0.5027872
20	0xbecb3393	-0.39687786
21	0xbeebf01c	-0.46081626
22	0x3ef2ec3b	0.47445855
23	0x3e9aef7b	0.30260834
24	0xbdef611c	-0.11688444
25	0x3ed86b36	0.42269295
26	0xbe05544b	-0.13020436
27	0x3ae37c58	0.0017355783
28	0xbe787f9b	-0.24267428
29	0xbe62252f	-0.22084497
30	0xbe94c3fe	-0.2905578
31	0x3e2d5bc6	0.1692954
32	0xbe2cd1c2	-0.16876891
33	0xbe10fe91	-0.1415961
34	0xbd568706	-0.052374862
35	0xbe89d7fe	-0.269226
36	0xbd913ee3	-0.07092073
37	0xbe1cf1fd	-0.15326686
38	0x3e021945	0.12704952
39	0xbe810087	-0.25195715
40	0xbdd6cd55	-0.10488383
41	0xbdd1a33a	-0.10236211
42	0x3ec734c5	0.38907447
43	0x3dd21612	0.10258116
44	0x3cdfd698	0.027324006
45	0x3df274a2	0.11838652
46	0x3d156cb6	0.036480628
47	0x3a461cdf	0.0007557403
48	0x3d00803b	0.03137229
49	0xbe39f93b	-0.1816148

rnn.bias_hh_l0 f4 [50]
0	0x3f0c2825	0.54748756
1	0x3d2ac3d3	0.04169066
2	0xbe06861f	-0.131371
3	0x3e181c80	0.14854622
4	0xbd1a627e	-0.037691586
5	0x3e33c7d5	0.17556699
6	0xbf01c7f8	-0.50695753
7	0x3e24791a	0.16061822
8	0x3db313aa	0.08743985
9	0x3d4df83b	0.05028556
10	0x3df04194	0.11731258
11	0xbc3f313f	-0.011669456
12	0xbe8ba846	-0.2727682
13	0x3e01cdb0	0.1267612
14	0xbef44f2f	-0.47716662
15	0xbe663309	-0.22480406
16	0x3d1e949e	0.03871595
17	0xbf4010fc	-0.75025916
18	0xbe74ab86	-0.23893556
19	0x3f148488	0.58014727
20	0xbe9d9ab6	-0.30782098
21	0xbedfa804	-0.43682873
22	0x3f06daab	0.5267741
23	0x3ecab283	0.3958932
24	0xbb4c17e7	-0.0031142177
25	0x3f2c9217	0.67410415
26	0xbe1f2d8e	-0.15544721
27	0xbd4797bb	-0.048728686
28	0xbe6d725e	-0.23188159
29	0xbe1c170b	-0.15243165
30	0xbe45a32d	-0.19300528
31	0x3e834c88	0.25644326
32	0xbe2dd5a6	-0.16976032
33	0xbe8da85c	-0.2766751
34	0xbdc37d44	-0.09545377
35	0xbe860284	-0.26173794
36	0xbd577fc1	-0.05261207
37	0xbe641621	-0.22274067
38	0x3d483195	0.04887541
39	0xbe88978a	-0.26678115
40	0xbea4e24c	-0.322039
41	0xbe29de9c	-0.16588825
42	0x3eca5e3e	0.39525026
43	0x3db98b9a	0.0905983
44	0x3d903b89	0.070426054
45	0x3e97baff	0.29634854
46	0x3c924bdd	0.01785844
47	0x3dba15c6	0.09086184
48	0xbe23a1d3	-0.159797
49	0xbb2ef830	-0.0026698224

rnn.weight_ih_l1 f4 [50, 50]
0	0x3d49ccce	0.049267583
1	0x3e86a509	0.26297787
2	0xbf1dc5b3	-0.6162979
3	0xbcd0b0af	-0.025474874
4	0x3d16ffa1	0.03686488
5	0x3f2f013f	0.68361276
6	0x3f068447	0.5254559
7	0x3eb47a3c	0.35249507
8	0x3eb051ac	0.3443731
9	0xbeeeb49e	-0.46622175
10	0x3e6537c8	0.2238456
11	0x3ef1265d	0.4709958
12	0x3f00bd06	0.50288427
13	0x3e1c3526	0.1525465
14	0x3f13e45c	0.57770324
15	0x3e20a2b6	0.1568707
16	0x3e234fd1	0.15948416
17	0xbe29c831	-0.16580273
18	0xbe08242a	-0.13295045
19	0x3ed0d9b6	0.407911
20	0xbecbc1f8	-0.39796424
21	0xbe6e652f	-0.23280786
22	0x3e75de8b	0.24010675
23	0x3db96787	0.090529494
24	0xbecf6440	-0.40506172
25	0xbe656d80	-0.22405052
26	0xbe1bf1e8	-0.15228999
27	0xbe345dfa	-0.17613974
28	0xbe21163b	-0.15731137
29	0xbed72ef0	-0.42027998
30	0x3d17436f	0.036929544
31	0x3c81d555	0.015848795
32	0xbdd91037	-0.10598796
33	0xbe011244	-0.12604624
34	0xbd7fc3a4	-0.062442437
35	0x3ea3d235	0.31996313
36	0x3e282b7d	0.1642284
37	0xbe8a4b04	-0.27010357
38	0x3ec06138	0.37574172
39	0x3f4135c2	0.7547265
40	0x3e9a4ad6	0.3013522
41	0xbca702fe	-0.020387169
42	0xbec29ac7	-0.3800871
43	0x3edfe1d5	0.43726984
44	0x3efd489e	0.49469465
45	0x3e49fd6f	0.19725583
46	0x3e879ed9	0.2648838
47	0xbe0433bb	-0.12910359
48	0xbf2b11ed	-0.6682423
49	0xbd80d309	-0.06290252
50	0x3f5e4613	0.86825675
51	0xbed663a1	-0.41872886
52	0x3d90d191	0.070712216
53	0x3f3ad3d0	0.7297945
54	0x3e986155	0.29761758
55	0xbec48176	-0.3838002
56	0xbead630e	-0.33864635
57	0xbe453b85	-0.19260986
58	0xbecfc938	-0.40583205
59	0x3f06ea0e	0.5270089
60	0xbd5645c8	-0.052312642
61	0xbf48d692	-0.7845241
62	0xbf705e74	-0.93894124
63	0x3ebe048d	0.37112847
64	0xbf5d0e45	-0.863499
65	0x3eabc5cd	0.33549348
66	0x3dcfa6d3	0.10139241
67	0xbe2d8a29	-0.16947235
68	0xbe1cbd80	-0.15306664
69	0x3ef1a7fd	0.47198477
70	0xbebd28fb	-0.36945328
71	0xbe9c2f16	-0.30504674
72	0x3e47f598	0.1952728
73	0x3cebb513	0.028772866
74	0xbf003285	-0.50077087
75	0x3ec83ae2	0.39107424
76	0x3eed82d3	0.46388873
77	0x3eaa41e9	0.3325341
78	0xbeee7580	-0.4657402
79	0x3e899726	0.2687313
80	0xbead0ab3	-0.33797225
81	0xbf0f3ef2	-0.5595542
82	0x3ddd2f83	0.10800078
83	0x3e8b9eff	0.27269742
84	0xbe735cd5	-0.23765881
85	0x3ea67f2a	0.32518893
86	0xbe0ce4b4	-0.13759118
87	0xbdbab309	-0.091161795
88	0xbe6255a6	-0.22102985
89	0xbee59c06	-0.448456
90	0xbf259ab3	-0.6468918
91	0xbe4ad7f3	-0.1980894
92	0x3ec5c8cc	0.38629758
93	0x3e9cf70b	0.3065723
94	0xbea31035	-0.31848302
95	0xbe92600d	-0.28588906
96	0xbe8bc2d4	-0.2729708
97	0x3f00daa6	0.5033363
98	0xbed2797f	-0.4110832
99	0x3e3e3671	0.18575455
100	0xbd8f4b76	-0.06996815
101	0x3ebb8c9e	0.3663072
102	0xbe55a021	-0.20861866
103	0xbf0347de	-0.51281536
104	0x3e98c47b	0.29837403
105	0x3e82c18e	0.25538296
106	0x3ec8b40a	0.3919986
107	0x3d9559cf	0.0729252
108	0x3e0eee93	0.13958196
109	0xbe8c985b	-0.27459988
110	0x3e469995	0.19394524
111	0x3ed9afac	0.4251684
112	0x3f036c77	0.5133738
113	0xbeafe30c	-0.3435291
114	0x3ee35045	0.44397178
115	0x3dbd6267	0.092472844
116	0xbd7f42ef	-0.062319692
117	0xbdacd545	-0.084391154
118	0xbe1e0faa	-0.15435663
119	0x3d0f1a8b	0.034937423
120	0xbd24f2b6	-0.04027053
121	0x3e06ccab	0.13164012
122	0x3ea22bb9	0.31673983
123	0x3ca71cb5	0.02039943
124	0xbe4182e1	-0.18897583
125	0xbf29058a	-0.66024077
126	0x3d02eab8	0.031962126
127	0xbec4fd4b	-0.38474497
128	0x3ee2b1da	0.44276315
129	0xbe667adb	-0.22507803
130	0x3e6fbd60	0.23412085
131	0x3ebf49c4	0.37360966
132	0xbf1da532	-0.61580193
133	0xbee7ec64	-0.4529754
134	0x3ed1b807	0.40960714
135	0x3e871c56	0.26388806
136	0x3eb260ac	0.3483938
137	0xbe0ad6f1	-0.13558556
138	0x3ec4dea6	0.38451117
139	0x3e960b11	0.29305318
140	0x3ed6ee61	0.41978744
141	0xbe56d32c	-0.20978993
142	0xbef2b3b6	-0.47402734
143	0x3e2aae97	0.16668163
144	0x3ec7ad3a	0.3899935
145	0xbead7b26	-0.33883017
146	0x3f1d4110	0.614274
147	0xbe9ea26e	-0.309833
148	0xbe4ceb1e	-0.20011565
149	0xbefa84c6	-0.48929423
150	0xbea81f0b	-0.32836184
151	0x3e27c5b4	0.16384012
152	0x3c2a1f1c	0.010383394
153	0x3e83257b	0.25614533
154	0xbdd26736	-0.10273592
155	0xbec76621	-0.38945106
156	0xbe2a224a	-0.16614643
157	0xbf0cfe32	-0.5507537
158	0xbeb7cee5	-0.35900036
159	0x3e634d6c	0.22197503
160	0xbf09a20c	-0.5376289
161	0xbed9469c	-0.42436683
162	0xbe81db75	-0.25362745
163	0xbc2ed132	-0.010669993
164	0xbe7abff8	-0.24487293
165	0xbec57613	-0.38566646
166	0x3ebd0226	0.36915702
167	0x3ec867ca	0.39141685
168	0x3e8a2a8e	0.26985592
169	0xbdab67f6	-0.08369438
170	0x3eb289a7	0.34870645
171	0x3eceda28	0.40400815
172	0xbe57d641	-0.21077825
173	0xbea44fcc	-0.3209213
174	0x3d86296e	0.06550871
175	0x3e6bdf3e	0.23034379
176	0xbd36d27f	-0.04463434
177	0x3edc2a34	0.43000948
178	0x3c20bde4	0.009810898
179	0xbd94db18	-0.07268351
180	0xbd0e4ca8	-0.034741074
181	0xbee85323	-0.45375928
182	0xbdf173a1	-0.117896326
183	0x3e3d1621	0.18465473
184	0xbeb04bf8	-0.3443296
185	0xbdefccaa	-0.117089584
186	0xbdbcd2d2	-0.09219898
187	0x3e884a1c	0.2661904
188	0xbe6cb195	-0.23114617
189	0xbe6d850f	-0.23195289
190	0xbe49add4	-0.19695216
191	0x3c873f8d	0.016509796
192	0x3e17b695	0.14815743
193	0xbf04da3b	-0.51895493
194	0xbe936d65	-0.287944
195	0x3df54b8c	0.119773
196	0x3dc9e808	0.098587096
197	0x3ec918f6	0.39276856
198	0x3e9d2616	0.3069312
199	0x3eb934ef	0.36173198
200	0x3ba88e1a	0.005143893
201	0xbe847feb	-0.25878844
202	0xbe208892	-0.15677097
203	0xbe76e3b7	-0.24110304
204	0x3e195542	0.1497393
205	0x3e9e3dca	0.30906516
206	0x3e8b1217	0.2716224
207	0x3e7b8bf9	0.24565114
208	0xbd76672d	-0.06015699
209	0xbedfeeed	-0.43736973
210	0x3efd2ccf	0.4944825
211	0x3ea08e98	0.3135879
212	0x3f06dafb	0.5267789
213	0x3d05164a	0.03249196
214	0x3f1cfc52	0.6132251
215	0x3d727e72	0.05920262
216	0xbdc21a11	-0.09477628
217	0xbe109d7c	-0.14122576
218	0x3e5896e9	0.21151318
219	0xbf03e588	-0.5152211
220	0xbce3453d	-0.027742976
221	0x3d081b24	0.03322901
222	0xbdbeb81c	-0.0931246
223	0xbdbe5c5b	-0.09294959
224	0x3ea2c527	0.3179104
225	0xbe98cca5	-0.2984363
226	0xbe2f9cd0	-0.17149663
227	0xbf1f02e3	-0.6211378
228	0x3e807e54	0.2509638
229	0x3e7319d6	0.23740324
230	0xbba73895	-0.0051031807
231	0x3ecbd50b	0.39810976
232	0xbda9e606	-0.082958266
233	0xbe9c398c	-0.30512655
234	0x3e03208f	0.12805389
235	0xbec65039	-0.3873308
236	0x3e15c7f9	0.14627065
237	0xbb8012fb	-0.0039085126
238	0x3efe9765	0.4972488
239	0x3ea29794	0.3175627
240	0x3e562375	0.20911963
241	0x3e5f6ab1	0.21818043
242	0xbf0bfbf5	-0.5468133
243	0x3ea1a2f1	0.31569627
244	0x3eb3972d	0.35076275
245	0x3eab4c3d	0.33456603
246	0x3e74170b	0.23836915
247	0xbf133b2c	-0.57512164
248	0xbeed46e7	-0.46343157
249	0xbeb94ea4	-0.3619281
250	0x3f055a5b	0.52090997
251	0x3ec64e0a	0.38731414
252	0xbe9cfa85	-0.3065988
253	0x3e893cc0	0.2680416
254	0xbd780463	-0.06055106
255	0x3edebb40	0.43502235

rnn.weight_hh_l1 f4 [50, 50]
0	0xbee50a2d	-0.44734326
1	0x3ea8dd3d	0.3298129
2	0x3e071a38	0.13193595
3	0xbd239f72	-0.03994698
4	0xbcc038d7	-0.023464603
5	0xbef1e965	-0.47248378
6	0x3e382e87	0.17986499
7	0xbdbd156e	-0.09232603
8	0xbedecbeb	-0.43514952
9	0x3eb4d3e1	0.353179
10	0xbeb69dc7	-0.3566725
11	0xbf0452d3	-0.5168888
12	0x3eb17446	0.34659022
13	0xbed5d513	-0.41764125
14	0x3c9bb6b6	0.019008022
15	0x3ebc1746	0.36736506
16	0x3eae93ce	0.3409714
17	0x3d013687	0.031546142
18	0xbe0a232b	-0.13489978
19	0xbedefd63	-0.43552694
20	0x3dc35685	0.09537987
21	0xbf0ab809	-0.54187065
22	0x3ed4206a	0.4143098
23	0xbf2b70a4	-0.6696875
24	0xbf09a77b	-0.5377118
25	0x3ede5c80	0.43429947
26	0xbd8cc686	-0.06873803
27	0x3e55881b	0.20852701
28	0xbed8a98d	-0.42316857
29	0xbea75dd5	-0.32688776
30	0x3bc687af	0.006058655
31	0xbedf7d20	-0.4365015
32	0x3d3d7e33	0.04626293
33	0x3d9d5664	0.07682493
34	0xbecdb8b9	-0.40179995
35	0xbdb7181c	-0.089401454
36	0xbda40188	-0.080081046
37	0x3f337ab2	0.70109093
38	0xbdd64e20	-0.1046412
39	0xbee101a4	-0.43946564
40	0x3d281279	0.041033242
41	0x3eb18485	0.34671417
42	0xbf0d4124	-0.5517752
43	0xbea6a2de	-0.32546133
44	0x3ec728d7	0.38898346
45	0x3e3a61cf	0.18201374
46	0x3f40ae8d	0.75266343
47	0xbe2880f3	-0.1645544
48	0xbf1024db	-0.56306237
49	0xbf010b1d	-0.5040758
50	0xbe96a66a	-0.2942384
51	0xbf63bef7	-0.88963264
52	0x3f2408be	0.6407584
53	0x3f041e2c	0.5160854
54	0x3eaae541	0.33378032
55	0xbe7669db	-0.24063818
56	0x3d725abb	0.05916856
57	0x3de57901	0.1120472
58	0x3e99211f	0.29908082
59	0x3e811969	0.252147
60	0xbd5ddb1d	-0.05416404
61	0x3ee8d111	0.45472005
62	0x3e5ed55a	0.21761075
63	0x3ea8eb0b	0.32991824
64	0x3e8771a0	0.26453876
65	0x3ea509f5	0.3223416
66	0x3ead2bce	0.33822483
67	0x3e6e3abd	0.23264594
68	0xbedbccc0	-0.4292965
69	0xbedb8506	-0.42874926
70	0xbea5b787	-0.32366583
71	0xbe848d18	-0.25888896
72	0x39b32416	0.00034168427
73	0xbf1db1a0	-0.6159916
74	0x3e3b1996	0.18271479
75	0x3f1a9385	0.60381347
76	0xbd8adf34	-0.06780854
77	0xbe03e234	-0.12879258
78	0xbeb60d4c	-0.3555702
79	0xbe0b8638	-0.13625419
80	0xbe561e50	-0.20910001
81	0x3e37f663	0.17965083
82	0xbea90459	-0.3301113
83	0x3e6ac4fb	0.22926705
84	0xbf25b828	-0.64734125
85	0x3e6126d2	0.21987465
86	0x3e5693f1	0.20954873
87	0xbd2dbb13	-0.042414736
88	0xbe0defa1	-0.13860942
89	0x3dcbda38	0.09953731
90	0xbeadf394	-0.33974898
91	0xbea46e51	-0.32115415
92	0xbecfe904	-0.40607464
93	0xbdc13d5e	-0.09435533
94	0xbea7b1c7	-0.3275282
95	0xbeeb7f89	-0.4599574
96	0xbea02bd7	-0.31283447
97	0x3e4566b5	0.19277461
98	0x3e61641a	0.22010842
99	0xbde5939a	-0.112097934
100	0xbd21bcbe	-0.03948664
101	0xbc98c9c8	-0.018650904
102	0xbeb1de61	-0.34739974
103	0x3a954172	0.0011387302
104	0xbec7aef0	-0.39000654
105	0xbe07d83d	-0.13266082
106	0x3f177f49	0.59178597
107	0xbea03b58	-0.31295276
108	0xbe8f40ec	-0.2797922
109	0x3ea4b2f6	0.32167786
110	0xbec63cb3	-0.38718185
111	0xbe869427	-0.26284906
112	0x3e5725bf	0.21010493
113	0xbe4cd7d5	-0.20004208
114	0x3e7ec678	0.24880397
115	0x3f0413d5	0.5159276
116	0xbeb91438	-0.36148238
117	0x3de50d7b	0.11184212
118	0x3ea4e79d	0.32207957
119	0x3e64dc53	0.22349672
120	0x3e76e97b	0.24112503
121	0xbf180304	-0.593796
122	0xbdd2fa04	-0.10301593
123	0x3ed3594f	0.41279075
124	0xbe8ce5d4	-0.27519095
125	0x3cddfb92	0.027097497
126	0xbe5f1c9c	-0.21788257
127	0xbe81b45b	-0.25332913
128	0x3e8ec5b3	0.27885208
129	0xbe934b2b	-0.28768286
130	0x3f1ea28a	0.61966765
131	0xbec52401	-0.3850403
132	0xbe060237	-0.13086782
133	0xbee6d73a	-0.4508608
134	0x3ea10abd	0.31453505
135	0x3d69364b	0.056936543
136	0xbd7968ea	-0.06089107
137	0x3e73229a	0.23743668
138	0xbe8959c8	-0.2682631
139	0xbf08a105	-0.53370696
140	0xbc1a5bd2	-0.009421306
141	0x3f248f55	0.6428121
142	0xbcd381df	-0.025818763
143	0xbcbfc9fd	-0.023411745
144	0x3e1a7d3b	0.15086834
145	0x3e232907	0.1593362
146	0x3eb15b97	0.3464019
147	0x3c200d08	0.009768732
148	0xbe7c7978	-0.24655712
149	0xbf0fcb3c	-0.56169486
150	0x3e559baa	0.20860162
151	0xbeee00f9	-0.46485117
152	0xbd18936f	-0.03724998
153	0xbd3f8871	-0.04676098
154	0x3eaa93e1	0.33315948
155	0x3e63f80e	0.22262594
156	0xbe5107d4	-0.20413142
157	0x3ecafc76	0.39645737
158	0x3eea19f9	0.4572294
159	0xbc3956a0	-0.011312157
160	0x3e84bb51	0.2592416
161	0xbd901ac2	-0.07036354
162	0xbec38eaf	-0.38194796
163	0x3e905476	0.2818944
164	0x3b83acb5	0.004018391
165	0xbe2bd6aa	-0.16781107
166	0xbeef4666	-0.46733397
167	0xbe2b9e3b	-0.16759579
168	0xbe105f63	-0.14098887
169	0xbea7956f	-0.32731196
170	0xbeacf7d4	-0.33782828
171	0xbd4d5b09	-0.050135646
172	0xbe8863f7	-0.26638767
173	0xbdcec8bf	-0.10096883
174	0x3e884888	0.26617837
175	0xbf189ad9	-0.5961128
176	0x3e894336	0.2680909
177	0x3e52cfa1	0.20587017
178	0x3e21fec4	0.15819842
179	0x3ec9e233	0.3943039
180	0xbe6eb954	-0.23312885
181	0x3e80fef1	0.25194505
182	0x3e8bbad3	0.27290973
183	0x3ba19f95	0.0049323537
184	0xbd2bb6f5	-0.04192253
185	0xbeb194b6	-0.3468377
186	0x3ddf79fa	0.10911937
187	0xbe87b07d	-0.26501837
188	0x3ea9f822	0.33197123
189	0x3d51a3a4	0.05118145
190	0x3f447d17	0.7675337
191	0xbe74d79c	-0.23910373
192	0x3e771252	0.24128082
193	0x3e0233fd	0.12715144
194	0xbd496a75	-0.04917379
195	0xbe9dec4b	-0.3084434
196	0x3d7afe20	0.06127751
197	0x3d8a0d70	0.06740844
198	0x3e8f1fd8	0.27953982
199	0x3e99f2e5	0.30068126
200	0x3a978574	0.0011560158
201	0x3ef61b96	0.4806792
202	0x3db92a02	0.090412155
203	0x3eab4f12	0.33458763
204	0xbe979d90	-0.29612398
205	0x3dd121b4	0.102115065
206	0xbe85749e	-0.26065534
207	0xbe213e10	-0.15746331
208	0xbd53102f	-0.051529106
209	0x3d70c6ab	0.058783215
210	0xbec5e14d	-0.38648453
211	0x3d16ddbb	0.036832552
212	0x3eff5385	0.49868408
213	0xbd680022	-0.05664075
214	0xbe9b75fc	-0.30363452
215	0xbd458d95	-0.048230726
216	0xbd847a39	-0.064686246
217	0xbe8ffb94	-0.28121626
218	0x3d574935	0.05256005
219	0x3e905d8d	0.28196374
220	0x3c91f4af	0.01781687
221	0xbeca3e12	-0.3950048
222	0xbf107df4	-0.5644219
223	0xbdfa283e	-0.12214707
224	0xbeedb243	-0.46425065
225	0xbe9cc302	-0.3061753
226	0xbec7a835	-0.3899552
227	0xbe8d4a0d	-0.2759556
228	0x3e3a6837	0.18203817
229	0xbf07579d	-0.5286806
230	0x3e1f6cb4	0.1556881
231	0xbe1785a4	-0.14797074
232	0x3ec95265	0.39320675
233	0xbd8dcdd9	-0.06924028
234	0x3e4963ba	0.19666949
235	0xbe149ca7	-0.14512883
236	0x3df5d976	0.12004368
237	0xbf28a73d	-0.65880185
238	0x3d9d90ad	0.0769361
239	0xbedad089	-0.42737225
240	0x3f523388	0.8210988
241	0x3ebfe168	0.3747666
242	0x3ebe7f6c	0.3720659
243	0xbdab5520	-0.08365846
244	0x3e9d9f30	0.30785513
245	0x3e2389b4	0.15970498
246	0x3e9ae2bf	0.3025112
247	0x3e8eb721	0.2787409
248	0xbe941ae5	-0.2892677
249	0xbead2d24	-0.33823502
250	0xbe73add8	-0.23796785
251	0x3ee63d0b	0.44968447
252	0xbdb08f2b	-0.08621057
253	0x3e316278	0.17322719
254	0x3d557a30	0.05211848
255	0xbdb18d38	-0.086695135

rnn.bias_ih_l1 f4 [50]
0	0xbcb8aceb	-0.022543391
1	0x3e55cd3a	0.20879069
2	0x3d87fd13	0.06640067
3	0xbe2e7918	-0.17038381
4	0xbe127313	-0.1430171
5	0x3e37e094	0.17956764
6	0x3cbbcf23	0.022925919
7	0xbf165814	-0.58728147
8	0xbedd0cd4	-0.4317385
9	0xbe8427bd	-0.25811568
10	0x3e416fe1	0.18890335
11	0x3de5e832	0.11225928
12	0xbe1a9b30	-0.15098262
13	0x3da5e636	0.0810055
14	0x3e4d220d	0.2003252
15	0xbe9d7fdd	-0.30761614
16	0x3eea0fe3	0.45715246
17	0x3d924e5d	0.07143853
18	0x3d2287d5	0.03968032
19	0x3e8e3e12	0.2778173
20	0x3e33f5c5	0.17574222
21	0x3d1bc1ef	0.038026746
22	0xbe467b59	-0.19382991
23	0x3d56b1dd	0.052415717
24	0x3e49ce9f	0.19707726
25	0xbe6ba8f0	-0.23013663
26	0x3dd7d074	0.10537806
27	0x3db3d0b9	0.08780045
28	0xbe7384fd	-0.237812
29	0x3e78b6ac	0.24288434
30	0x3e9b133f	0.3028812
31	0x3dc26fb5	0.09493963
32	0x3e0cc97b	0.13748734
33	0xbe1f0921	-0.15530826
34	0xbeabb72f	-0.33538195
35	0x3ebe22e5	0.37135997
36	0x3dce7888	0.10081583
37	0x3e8186c3	0.25298128
38	0x3e021304	0.12702566
39	0x3e8cd326	0.27504843
40	0x3e49e3e5	0.19715841
41	0xbe8caa9f	-0.27473924
42	0xbe594ff2	-0.21221903
43	0xbdbab220	-0.09116006
44	0xbeb9c12e	-0.36280197
45	0xbe0faabe	-0.14029977
46	0x3d778613	0.060430598
47	0xbc16471b	-0.009172226
48	0xbe2c3e19	-0.16820563
49	0xbe316f58	-0.1732763

rnn.bias_hh_l1 f4 [50]
0	0x3e4b1070	0.19830489
1	0x3c268591	0.010163681
2	0xbe045279	-0.12922086
3	0xbeb6cc05	-0.3570253
4	0xbdabd6ce	-0.0839058
5	0x3ea640fa	0.32471448
6	0x3d6d7354	0.057971314
7	0xbf26b3e6	-0.65118253
8	0xbecb9c93	-0.39767894
9	0xbe636d8c	-0.22209758
10	0x3ec6d641	0.38835338
11	0xbce05846	-0.027385842
12	0xbde12c8e	-0.10994826
13	0x3e6afab3	0.22947197
14	0x3dcb578c	0.099288076
15	0xbe4c7e75	-0.19970115
16	0x3f1f3e90	0.6220484
17	0xbe1cc2c0	-0.15308666
18	0xbd8ac864	-0.06776503
19	0x3e260909	0.16214384
20	0x3e2708b5	0.16311915
21	0x3e7565b8	0.23964584
22	0xbd98675e	-0.07441591
23	0x3d46d121	0.048539285
24	0x3eb02bea	0.34408504
25	0xbe927105	-0.28601852
26	0x3e0b8b30	0.13627315
27	0x3df90062	0.12158276
28	0xbe3d92a9	-0.18512978
29	0x3e85e8b4	0.261541
30	0x3e650fb8	0.22369277
31	0xbd504d3d	-0.05085491
32	0x3cf0f786	0.029414903
33	0x3db51d8d	0.08843527
34	0xbe9063de	-0.28201193
35	0x3e73470c	0.23757571
36	0xbbfb521d	-0.007669701
37	0x3e6b464c	0.22976035
38	0x3e124da0	0.14287424
39	0x3e91a264	0.28444207
40	0x3e40be25	0.18822534
41	0xbe835dfe	-0.25657648
42	0x3ca07f9b	0.019592097
43	0xbe3836c6	-0.17989644
44	0xbeabddcb	-0.33567652
45	0xbe99ed36	-0.3006379
46	0xbde9a773	-0.114088915
47	0x3e21b180	0.15790367
48	0xbe208ec6	-0.15679464
49	0xbc8e0171	-0.017334672

fc.weight f4 [1, 50]
0	0xbe83e604	-0.25761425
1	0xbde2a346	-0.11066298
2	0x3e2c1119	0.16803397
3	0xbe854928	-0.26032376
4	0x3ddd8ad2	0.108174935
5	0xbe031a28	-0.12802947
6	0x3e661a2a	0.22470918
7	0x3d77dd27	0.06051364
8	0x3e5766fb	0.21035378
9	0xbe4e824b	-0.2016689
10	0xbe554d14	-0.20830184
11	0x3e4aef37	0.19817816
12	0x3e891958	0.26777148
13	0xbe530ae2	-0.2060962
14	0x3dffd969	0.124926396
15	0x3e906510	0.28202105
16	0x3c4c14a7	0.012456096
17	0x3e94659b	0.2898377
18	0xbe2bedad	-0.16789885
19	0xbe335b5d	-0.17515321
20	0x3e5b7cd3	0.21434335
21	0x3e13fe39	0.14452447
22	0x3e5bb539	0.2145585
23	0xbe578f70	-0.21050811
24	0xbe4dd189	-0.20099463
25	0x3e4fbd80	0.20287132
26	0x3e11de57	0.14244972
27	0x3e0deb36	0.13859257
28	0xbe0dd804	-0.13851935
29	0x3e2a11c6	0.16608343
30	0xbe9a7bc2	-0.30172545
31	0x3db00a91	0.085957654
32	0xbe66caee	-0.22538349
33	0x3e241b31	0.16025998
34	0xbd62e817	-0.05539712
35	0x3e26d278	0.16291225
36	0xbe569a78	-0.20957363
37	0x3e52e38c	0.20594615
38	0xbdf32411	-0.118721135
39	0x3e3395ed	0.17537661
40	0xbe054a01	-0.13016511
41	0xbd75b843	-0.05999018
42	0xbe44a431	-0.19203259
43	0xbbbfd50e	-0.0058542555
44	0xbdf4fee4	-0.11962679
45	0xbdd16951	-0.10225166
46	0xbe84a51e	-0.25907224
47	0xbe65b3ce	-0.22431871
48	0x3d84458e	0.06458579
49	0xbe29fe85	-0.16600998
