Networks/XRPBTC/askSeed2.pt (torch, 33123 bytes, 9 tensors)

rnn.weight_ih_l0 f4 [50, 1]
00000000: 1990 4abe 053f 63bf e421 a93f 403f ac3f
00000010: 7f67 31c0 6183 42bf 8c19 b13f 071e 7bbe
00000020: c970 19bc 6e27 d33f 631e 9140 0930 a5be
00000030: 1f99 7fc0 612a a23e 06e7 afbe e2b3 11bf
00000040: 8e9f 6b40 16c3 10bf 00ee 4cc0 db5f 7d3f
00000050: e182 29bf f7d7 cfbf b741 00bf 7def 8fbe
00000060: 5e0c cd3f 5779 33c0 71c6 6fbe 3303 3d3f
00000070: d517 6c3f 5028 4a3f 0f26 a5c0 30d6 583f
00000080: 9359 883f 3999 59bf 0dc3 8e3f 9e0f 3d3f
00000090: 6f78 25be 99b3 e73f 2922 fdbf 8c78 52bf
000000a0: e278 f43e c15b babf df15 31c0 4a8e 96c0
000000b0: bae6 45be 8dad c1bf 3ea3 c8bf 5a30 ad3f
000000c0: 4ffa 17bf 059f 053f
-0.19781531 -0.88768035 1.3213468 1.3456802 -2.771942 -0.7598172 1.3835921 -0.24523173
-0.009365269 1.6496408 4.5349593 -0.3226321 -3.9937208 0.31672958 -0.34355944 -0.56915104
3.6816134 -0.5654768 -3.2020264 0.9897439 -0.6621533 -1.6237782 -0.5010027 -0.28112403
1.6019399 -2.804281 -0.23415543 0.73833007 0.92223865 0.7896776 -5.160896 0.84701824
1.0652336 -0.84999424 1.1153275 0.73851955 -0.16159223 1.8101684 -1.977605 -0.8221519
0.47748476 -1.4559251 -2.76696 -4.7048693 -0.19326296 -1.5131088 -1.5674818 1.3530381
-0.59366316 0.5219577

rnn.weight_hh_l0 f4 [50, 50]
00000000: 34b7 a93e 47aa 343e 6f18 b33d 75f7 7b3d
00000010: a068 0cbe 4e24 663e f4cd debd 5c84 d23e
00000020: c232 9ebe 753f ed3c 412c 973b 1308 c23e
00000030: f930 c43e fb7b cd3d feaf 953e 54f0 4d3d
00000040: 83e9 f8bd 95c4 173f a4cd 673e c0ef a3bc
00000050: 4e48 06be 3157 683d 707f 64be c87b 90be
00000060: 5703 263e d115 6c3e 9dc1 75be 7e8a 16bf
00000070: 7064 41be 33a0 d0be a08b 16bd c7cd ccbe
00000080: 9630 ecbd 70c3 09be ba29 043e 1562 48be
00000090: 75a2 ce3e d2f4 c43d d25b 36be 7987 b9be
000000a0: ab0c 553e db70 0ebe 290a f8bc 3d44 45be
000000b0: f6de b3bc fa3f 33be b0df b139 2e36 793c
000000c0: 01e7 f53e 98c1 343d 11f4 663d 9109 8a3f
000000d0: 71fb fd3e f831 c13e 0733 80be 7556 cd3e
000000e0: a52c e9be 6551 ab3e 1933 c1be 80c3 363e
000000f0: 0f44 b6be 7555 c63e aa09 d3be 6e2d a7bd
00000100: 1122 c23e df00 373f c26e 0c3f 3eb1 2f3e
00000110: bfde c23e fded b23d f22a b2bd 577c dbbe
00000120: 6f46 8b3e 4ee9 b4bc 70fc 763e b890 a83e
00000130: c046 3abe 9a34 0bbe e027 22be 1c6d cabe
00000140: 9068 4e3e 7672 6abe cbdf 4dbf f417 09be
00000150: 70d5 e23e bc7e 743d 9dd4 cf3e d5cf 9b3e
00000160: 7a21 a93e 46c4 8ebf fa7c cb3e fd77 173c
00000170: 04c1 abbe c2f8 16bd 2fa9 e6be c5c5 c7be
00000180: 739d 6c3e 455c 863e bf6f d73e 3afc 99be
00000190: 6204 12bf fbe4 18bf 4f9c 91bf f62c b63e
000001a0: b4f9 b33e e913 abbe cc7c d63e 61ae 03bf
000001b0: 6d6d ba3e 3e13 35be d9f6 ad3f 20c0 b6be
000001c0: 6007 7fbf 1265 f4be 2a0b d6be e76c c23e
000001d0: 6724 fc3e fa07 1fbf e98a 5bbf b371 593f
000001e0: 96b5 173f c274 3f3e d8c6 193d 3185 843e
000001f0: d517 98be e743 d83e 605b b63e 1048 c43e
00000200: 3944 203f b94f e23e 9864 6dbf ec5a d33e
00000210: 0dac d93c 5100 50bf ff63 1d3d db1e cc3e
00000220: b739 f5be 6a93 a9be efb1 543f 3265 033e
00000230: 8b74 d23d 922f 89bf 3e0e f2be 7ae3 66be
00000240: 2b27 34bd 5ef7 133f dcf5 f93c 7159 c4be
00000250: 6517 33bf b132 f53e 7a56 c13e 34f6 dabc
00000260: 24de 183d 3863 6f3d 3f98 093d b879 f23e
00000270: eab2 f5be f77c 103f 028a 01bf 71a7 203f
00000280: 98b4 e63d 4c84 bc3e 6498 e5bc b374 883e
00000290: 7b7c ee3e 6d64 3e3f 6b6c 053e 4ab8 893e
000002a0: cbb7 e53e 5865 2fbe 2970 0dbf 3e70 12be
000002b0: 0033 fe3d d8f5 84be f79e 423e 7f30 a33e
000002c0: bf0a 12bf 0ec4 91be e7ae e1be 54e6 e1be
000002d0: 2459 533f 74cd bbbe 9553 cdbe caed 26bd
000002e0: 9cc5 4f3f e670 88be c47f e83e 1b7d 4c3f
000002f0: 57eb 63bd b60a b3bd cb68 be3e d6db 29be
00000300: 7779 5fbf d15f 0f3e a643 d9be e2c2 01bf
00000310: 6289 45be 3e3e 923e b71e 123f 21a0 c3be
00000320: 908d f7be faf4 6c3d a1a2 1f3b 93ed 6cbe
00000330: d237 5d3d 31bf cabe f834 fb3e 96a6 fdbe
00000340: e5ea 823e 9253 7f3c d6cc ec3e 4cc8 9bbe
00000350: f39e a83e a151 ffbd 0c49 a0bd ca98 5bbe
00000360: 0d9b eb3e ebfb 47be ff19 07bf 1248 bb3e
00000370: 4452 853e bbd4 493e 64de 7ebf a65a 143e
00000380: 6a4a ecbd a8d6 cbbe 49a6 aa3e 3923 513e
00000390: daef 003f ff2f 003f 9483 833e 93ae 9c3e
000003a0: 7788 0a3f 4536 90bf 4cb6 eabe 675c 0d3f
000003b0: 7ecb b7be a58f e93b f2a5 c3bd 7af2 b43e
000003c0: 06fd 22be 1c02 7ebe e5cc 8abe 5287 9bbc
000003d0: 4586 163f a53a cbbd 9dc8 363d 7d4a 5ebb
000003e0: 2270 fdbe 51a2 ab3e 13e3 983e 6344 2c3e
000003f0: 7795 623e 3361 b93e 8bb4 efbd d4ee 943e
0.33147585 0.1764308 0.08744895 0.06151529 -0.13711786 0.22474787 -0.10879126 0.41116607
-0.308981 0.028960923 0.00461343 0.37896785 0.38318613 0.10033413 0.29235834 0.050278023
-0.12153914 0.59284335 0.2263704 -0.020011783 -0.1311352 0.056723777 -0.22314239 -0.28219438
0.16212212 0.23055197 -0.23999639 -0.5880507 -0.1888597 -0.40747222 -0.03675425 -0.40000746
-0.115327045 -0.1345346 0.12906542 -0.19568665 0.4035832 0.09617008 -0.17808464 -0.3623617
0.20805614 -0.13910238 -0.030278282 -0.19264312 -0.021956902 -0.17504874 0.0003392673 0.015210671
0.48027804 0.044129938 0.056385104 1.078417 0.49605897 0.37733436 -0.2503893 0.40105024
-0.45541874 0.33460537 -0.37734297 0.17848015 -0.355988 0.38737074 -0.4121831 -0.08162962
0.37916616 0.71485704 0.54856503 0.17157456 0.38060567 0.08736799 -0.086995974 -0.428683
0.27202174 -0.022083905 0.24119735 0.32922912 -0.18191051 -0.13594285 -0.15835524 -0.3953637
0.20157075 -0.22895226 -0.80419606 -0.13388044 0.44303465 0.059691176 0.405919 0.30432
0.33033353 -1.1153648 0.39743787 0.009244916 -0.33545697 -0.036858328 -0.45050952 -0.39018074
0.23106937 0.2624227 0.42077443 -0.30075246 -0.5703794 -0.59724396 -1.1375827 0.35581177
0.35151446 -0.33413628 0.41892087 -0.51437956 0.3641161 -0.17683122 1.3590957 -0.35693455
-0.9962063 -0.4773336 -0.41805393 0.3797371 0.49246523 -0.62121546 -0.85758835 0.84939116
0.59261453 0.18696883 0.037543148 0.25882867 -0.29705682 0.42239305 0.3561659 0.3833623
0.626041 0.4420145 -0.9273162 0.41280305 0.026571298 -0.8125048 0.03842544 0.3986729
-0.47895595 -0.3312028 0.83084005 0.12831572 0.10276135 -1.0717642 -0.4727649 -0.22547713
-0.043982666 0.5779933 0.030512743 -0.38349488 -0.6995757 0.47890237 0.3776129 -0.026728727
0.037321225 0.05844423 0.03359246 0.4735849 -0.47988063 0.5644068 -0.5060121 0.62755495
0.11264914 0.36819685 -0.028026767 0.26651534 0.46579346 0.7437199 0.1302964 0.26898414
0.44866785 -0.17128503 -0.5524927 -0.1430063 0.12412071 -0.25968814 0.19005953 0.31872937
-0.5704765 -0.2846989 -0.44078752 -0.4412104 0.8255789 -0.36680186 -0.4010283 -0.040754117
0.811609 -0.26648635 0.45409977 0.79878396 -0.05564436 -0.08742277 0.37189326 -0.16587767
-0.87294716 0.14001395 -0.42434424 -0.5068799 -0.19290689 0.28563112 0.5707812 -0.38208106
-0.4835019 0.057850815 0.002435841 -0.23137502 0.054008313 -0.39598992 0.4906385 -0.49541157
0.25569835 0.01558389 0.46250027 -0.30426252 0.3293377 -0.12466741 -0.078264326 -0.21445003
0.46016732 -0.19529693 -0.5277404 0.36578423 0.26039326 0.19710056 -0.9955809 0.14487705
-0.11537631 -0.39812207 0.3332999 0.20423593 0.50365984 0.50073236 0.25686324 0.3060194
0.5411448 -1.1266562 -0.45842206 0.5521912 -0.3589744 0.0071277195 -0.09553136 0.35341245
-0.15916833 -0.24805492 -0.27109447 -0.018985424 0.5879863 -0.09923295 0.044624913 -0.003391891
-0.49499613 0.33522275 0.29860744 0.16822962 0.22127329 0.3620697 -0.11704358 0.2908846

rnn.bias_ih_l0 f4 [50]
00000000: 4400 55be 482a c83e c2cf 6dbe b2db 32bf
00000010: a9ac d83d 9c6d 36bf 8df7 a53e b41d 2abf
00000020: 168c f23e 7439 043f 2fb0 11bf 0b35 36bf
00000030: b648 f6be ec7c b13e 6d39 323f 45ae 01bf
00000040: 2cc0 cfbe f62e 68be 0d21 83bf 06a6 e53e
00000050: a68b 1dbf b803 14be d844 e2be 7382 8e3e
00000060: 0742 00bf 0732 0dbf 54da b43e 7382 fc3c
00000070: eea2 cabd c953 503f fe83 103f fbb0 b73e
00000080: 7834 2e3f bd4a 0dbc 90d7 0fbf b5bd 123e
00000090: 7cdd 84bf 7c7d 1f3e 42bb 5dbe 4105 5e3f
000000a0: c0ea 15bf 8bdc 79be 699f a7be e2ee 16bd
000000b0: 0e5e 803f 38c9 283f de4a 43be 5ce7 84be
000000c0: 0c7c 27bf 7ef9 b8bc
-0.20800883 0.39094758 -0.23223785 -0.6986648 0.10579807 -0.71261 0.3241543 -0.66451573
0.47372502 0.51650167 -0.5690946 -0.7117469 -0.4810235 0.3466562 0.69618875 -0.5065654
-0.40576303 -0.22674164 -1.0244461 0.44853228 -0.6154121 -0.14454544 -0.4419315 0.278339
-0.5010075 -0.5515446 0.3532282 0.030823922 -0.098943576 0.81377846 0.56451404 0.35877213
0.6804881 -0.008623776 -0.561883 0.1433018 -1.0380092 0.15575212 -0.21653464 0.86726767
-0.58561325 -0.24400537 -0.32738808 -0.03684891 1.0028703 0.65932035 -0.19071528 -0.25957763
-0.65423656 -0.022579905

rnn.bias_hh_l0 f4 [50]
00000000: 6686 a7be 0766 ff3e 408f f9bd fa4f 08bf
00000010: f975 f93d 9513 49bf 3f2d 013f 9e1c 02bf
00000020: df8c 733e 4b5a dd3e 581b 22bf f9ec 34bf
00000030: ce02 0dbf bccf e43e 6386 1b3f 3f27 0abf
00000040: 1a4d e9be 93d5 19be aefe 7fbf 77e5 ca3e
00000050: d11f 30bf 6b1a 383c ace1 9cbe f82f 943e
00000060: 239b f8be 1db4 a8be 9edd b03e fb21 b33d
00000070: c9c9 97bd ee16 243f 85be d73e 6f43 b93e
00000080: 54a8 453f 5b74 98b7 836c 1cbf a886 3a3e
00000090: 8672 69bf ada1 4b3e a306 b5be 3491 823f
000000a0: 2c91 3bbf 85c5 b3be fe6d bdbe 98a5 26bd
000000b0: 5dae 793f 9228 093f 5ef0 77bd 3b32 7ebe
000000c0: 4318 24bf caef 88bd
-0.32719725 0.49882528 -0.12185526 -0.53247035 0.121807046 -0.78545505 0.50459665 -0.50824916
0.23784207 0.4323295 -0.63322973 -0.7067409 -0.55082405 0.4468974 0.6075193 -0.53966135
-0.45566636 -0.15022878 -0.99997985 0.39628193 -0.6879855 0.011236767 -0.30640924 0.28942847
-0.4855586 -0.32949916 0.3454408 0.08746716 -0.07411534 0.6409749 0.42137542 0.3618426
0.77209973 -1.8173994e-05 -0.61103076 0.1821543 -0.91190374 0.19885893 -0.35356626 1.0200562
-0.7326839 -0.35111633 -0.3699798 -0.040685266 0.9753168 0.5357753 -0.060531966 -0.24823849
-0.6409952 -0.06686361

rnn.weight_ih_l1 f4 [50, 50]
00000000: ccac 07bc 6310 52be ff03 f83d a6b1 5dbd
00000010: 3689 383f 89f2 19be fbb0 5e3e 8bab 0dbe
00000020: 31ce a93d af8e 86bd 02d7 a7be 7a21 6fbd
00000030: edea 01bf 812f 03be 07a8 bebe 5452 823e
00000040: 3ec8 96bd 7819 14be 1913 eabe 0409 043e
00000050: 30cd 763d e9af 283e a237 d3bd fea3 1e3e
00000060: ac6e f03d 314d 82bc 1295 193e d22b 553e
00000070: dd42 b93e 2943 1d3e 82ff 773e d13d a33e
00000080: 44e6 833d 4df3 fabe 5708 c4be b5a6 133f
00000090: b9a2 85be cea1 31bd 740d 213e 29b1 123e
000000a0: 4d55 20be a1d8 a3be 7c83 dcbe 06cd 8dbe
000000b0: b044 bc3e 85b9 263d d791 873e eaec 5e3e
000000c0: 5413 cdbe 5db1 e8bb 210b 7cbe 8a22 3bbf
000000d0: 3c2f 943e a3f5 bebe cebc e2bd ead2 75be
000000e0: b22c 8b3e faee dbbe 2003 b73e ebe3 2dbe
000000f0: 5ea2 c13d 6174 25bf a76e 0a3e 3cc5 01bf
00000100: b82d 37bf 401b 1fbf b4fa d63c 1610 09bf
00000110: f07a 0bbd e8c4 af3d e8ec ed3e 9cbc a03e
00000120: de4b a1be e2d7 b13e ba5b 85be ae31 a3be
00000130: 05c1 7f3e 5fe2 133f dc92 513e 23e7 8f3e
00000140: e0df 263e 4296 ae3e fa25 253e bc74 1fbf
00000150: 9004 97bd 23a8 593e 3f10 0cbf 136c e1bd
00000160: cbe4 323f c860 803e cb1c ecbe 0b06 75bd
00000170: 9cd1 fbbe 4a4b c3be 86c0 ba3d 58df 0a3e
00000180: de10 df3e d3ee 043d e34f dbbe 07fc cc3e
00000190: 4643 9fbd 2663 82be 1dfc 90bd e52b 3bbc
000001a0: e066 ea3d e151 30be 07cb c93e b329 a1be
000001b0: 807b 293e dc70 8dbe 872c ed3e b0c4 163d
000001c0: f12f 133f a0b2 d1be d0ba dabd 74e6 c0bd
000001d0: 5bb8 0d3f a50c 83bd f70f cbbc ea27 a63c
000001e0: e591 9c3e fe9a fbbc d1e3 4a3e 82aa 883b
000001f0: a862 b2be 2324 543e 367c e33d dc45 ed3d
00000200: 267d b93c 5dd0 a93e 35a8 98be fa74 0a3e
00000210: ad01 b8bd 3d27 363e 10c2 5dbe e0cc 19bd
00000220: 9bb9 5ebe e730 083e ad03 ef3e 716e f2bc
00000230: 26b2 0d3e 5947 04be 6fdd 403f cb76 853e
00000240: 8d8d b5be 08b5 013e a89d 7a3e 507b 2ebe
00000250: 133d 9ebe 319d 663e 469b cb3e f959 1a3f
00000260: 2936 b0be 3498 533d b2d0 53bd 5347 923e
00000270: 141d 5fbe 8d5c a83e b3d6 babe 02a5 2b3f
00000280: 404b fbbf 30e9 243e 132c b53d 1416 4c3f
00000290: 4142 953e 4cdb e53c 849c a2bf 5785 893e
000002a0: 5538 cb39 5f22 80bd 32d2 44bf 03fa 04be
000002b0: ef38 8b3e 7673 a0be cf16 97bf 893a 5d3f
000002c0: 63ca 3abe adf1 b0bd 7fd3 a1bd e97c 93be
000002d0: 6d9d b93e 6050 65be 7144 cebd 83ab 423e
000002e0: d6b7 3ebe 6b7e 7a3d 17c7 5d3e 00b4 dc3e
000002f0: dec3 02bf fa86 bc3c 2599 993d 475e a23d
00000300: 6507 18bf 5054 7d3e ced4 1dbe 6240 d03d
00000310: b9ff 8cbe 3a16 713d 451f 5c3e 61bc 17be
00000320: a11d d3be 730b 6fbc 02c7 d9bd b3cd 43be
00000330: 43a1 e53d 9ab9 1bbd 20c0 a23d b1af bcbe
00000340: 0731 5f3f 96cc c6be 0015 813f 6ed3 a2be
00000350: e878 89be 7bb1 b7be d85f 2bbe 5cc7 d0bc
00000360: d189 9a3d 292b 87be 388b b3be 6361 eb3d
00000370: 4477 303e db40 753e 61c1 75be 6dbd 3d3f
00000380: b331 85be 0033 27bf 17bb a63e 013d 933e
00000390: 959e 033f c1f6 d23e b129 7bbd 995f d13e
000003a0: 610a 9b3e a64c 26be 4c4e a3be 7dfe 623e
000003b0: fd14 20bf f532 ddbe e200 a7bd d344 143e
000003c0: 22ce 97be 3be2 1abe 2bfd ba3e 21fd 42be
000003d0: 7125 b93e 59e6 ef3e 418d 383d db52 ebbe
000003e0: 4c7a 3abe f917 f83e 6bd9 a63e 8c0a 66bf
000003f0: da95 05bd 8c16 333e 4d89 62be 245b 9e3e
-0.008280944 -0.20514064 0.12110137 -0.054124497 0.7208437 -0.15033926 0.217472 -0.1383497
0.08291281 -0.065701835 -0.32781225 -0.058381535 -0.50749093 -0.1281109 -0.3723757 0.25453436
-0.07362412 -0.1446284 -0.45717695 0.12894064 0.060254276 0.16473354 -0.103133455 0.15492246
0.11739859 -0.015905948 0.14998272 0.20817497 0.36183825 0.15357651 0.24218562 0.318831
0.06440404 -0.4901375 -0.38287613 0.5767625 -0.2610071 -0.0433672 0.15727788 0.14325394
-0.1565754 -0.32001212 -0.43069065 -0.27695483 0.36771154 0.04070427 0.26478454 0.21770063
-0.4005381 -0.0071012215 -0.2461362 -0.7309958 0.28942287 -0.3729678 -0.11071168 -0.24006239
0.27182537 -0.42955762 0.35744572 -0.16981475 0.09454797 -0.64630705 0.13518773 -0.5069158
-0.71554136 -0.62150955 0.026242591 -0.5354017 -0.03405279 0.08582479 0.46469808 0.31393898
-0.31503195 0.34735018 -0.26046544 -0.3187384 0.24975975 0.5776729 0.20466179 0.2810603
0.16296339 0.34099013 0.16127768 -0.622875 -0.07373917 0.21255545 -0.5471229 -0.11006942
0.6988036 0.25073838 -0.46115717 -0.059820216 -0.49183357 -0.38143378 0.09118752 0.13561761
0.43567556 0.032454323 -0.42834386 0.40036032 -0.07776503 -0.2546627 -0.07079337 -0.0114240395
0.11445403 -0.17218734 0.3941271 -0.31477126 0.16551018 -0.27625167 0.46323034 0.03680867
0.5749503 -0.40956593 -0.10680163 -0.094189554 0.5535943 -0.06398896 -0.024787886 0.020282704
0.3058006 -0.030713554 0.19813468 0.0041707167 -0.34840894 0.2071691 0.11107676 0.1158559
0.022642683 0.3316678 -0.29815832 0.13521186 -0.08984695 0.17788406 -0.2165606 -0.0375489
-0.2175049 0.13299905 0.46682492 -0.029593678 0.1383749 -0.12917842 0.7533788 0.26067194
-0.35459557 0.12666714 0.24474204 -0.17039227 -0.3090597 0.22520901 0.39766902 0.6029354
-0.3441632 0.051658824 -0.0517127 0.2857004 -0.21788436 0.3288311 -0.36491928 0.67048657
-1.963234 0.16104579 0.08846297 0.7972119 0.2915211 0.02805867 -1.2704015 0.26859543
0.00038761148 -0.06256556 -0.7688323 -0.12985997 0.27191874 -0.3133809 -1.1803836 0.8641744
-0.18241267 -0.08639846 -0.07901668 -0.28806236 0.3625292 -0.22393942 -0.10071648 0.19010739
-0.18624815 0.061155718 0.21657978 0.4310608 -0.5108012 0.02301358 0.07499913 0.07928138
-0.59386283 0.24739194 -0.1541321 0.1016853 -0.2753885 0.058859088 0.21496303 -0.14817955
-0.41233543 -0.014590132 -0.10633661 -0.19121437 0.11212399 -0.0380188 0.07946801 -0.36852792
0.87184185 -0.38827962 1.0084534 -0.31801933 -0.26850057 -0.35877594 -0.1673578 -0.025485687
0.07545818 -0.26400116 -0.35067153 0.114931844 0.17232996 0.23950522 -0.2399955 0.74117166
-0.2601448 -0.65312195 0.32564613 0.2875748 0.5141385 0.41203883 -0.061319057 0.40893248
0.30281356 -0.16240177 -0.31895673 0.22167392 -0.62532026 -0.4320294 -0.08154465 0.1447938
-0.29649454 -0.15125363 0.36521277 -0.19041874 0.36161378 0.4685543 0.045056585 -0.4596165
-0.18210715 0.4845579 0.32587752 -0.89859843 -0.032613613 0.1748907 -0.22122689 0.3092891

rnn.weight_hh_l1 f4 [50, 50]
00000000: 0b6b 1a3e 5bc5 36be 3961 7d3e c159 cdbd
00000010: 5458 81bd 4034 8abe c574 093e d818 88bc
00000020: a51a a53e 130e 303e 189f 893c f1c2 23bd
00000030: e3a2 b3bd 6318 953e 92b0 95bd e9ae e33c
00000040: 7db3 163c f329 acbc 05dd 02bf 68f8 52be
00000050: 8e71 4fbc b221 35be 5cc5 62bc 0e0f 0a3e
00000060: 012a 233e 2ed1 88bd fdc3 443e c49f b33d
00000070: 216e 84be d266 e7bd b418 ac3d 67fa cb3d
00000080: 237f 4dbe 64d9 c8bd 9ecd 833e 6bad 853d
00000090: f882 123d 869b 613e 403d 293e 7da9 3abe
000000a0: bf86 febd 36af efbd 5af6 103e 46a3 76be
000000b0: c053 d73a 9ebd 0bbd 5707 2fbe e553 a03e
000000c0: b8b7 993d 2df3 c6bd 39b7 d83e e87b 583e
000000d0: cfcb d03e d69c f1be 7a7a a73e b820 adbe
000000e0: b64f 76bb 3f07 f6be 60be fb3e 87fd 1d3f
000000f0: 8669 79be eabe bcbe 3ff6 74be b432 b63e
00000100: 722f 94be e2c5 373f 9de1 0d3f be0b 023f
00000110: 2061 12bf a641 8ebe 651a 1d3f 1dfe ccbe
00000120: 59f6 debe c444 6a3d 2669 a73e 5260 c63e
00000130: 84d3 62be 0bd3 ae39 f971 473e 00e5 c2be
00000140: dec0 493e 15ff 0f3f 9e2b 573e 5279 e4be
00000150: 31d9 d53e d948 8fbe fe4d 833e bd2f 0c3f
00000160: 3aed 163e 9572 023e c4bb 29bf c30b 2fbf
00000170: 50f1 51be 2aac 36bf d267 98be 2aaf e3bd
00000180: 7d19 0ebe 6e1d 303f 8108 2bbf 0d24 f5be
00000190: 0511 993e 6ed2 233e 48f0 dfbe 967b 39be
000001a0: 8ee6 9a3e 0d44 08be f57a 413e 18c1 f2bd
000001b0: 03d7 023e 78ed 693e 8e31 39bd 3ba6 70bf
000001c0: 4e32 adbe f134 563e b308 0e3e 465c 083f
000001d0: 5c6b 433e 7914 863c db93 33be a7bb a3be
000001e0: 345d 973e 0fc6 81bd 2bd8 b5bd 7e54 de3d
000001f0: 8a25 5abc a2b8 fbbc b856 e1bb a1aa 143e
00000200: c800 afbe ad3c 80bd d880 94be 908c 093e
00000210: 2565 e63d 54cb 3abe c7e7 22be c1c3 963d
00000220: a248 563e 7d71 013d 5007 3c3d 7334 9fbd
00000230: bdec b1be 3063 6fbe 11cf 28be 210d ffbd
00000240: ba46 f4be 6f34 87be 25e2 86be febe ca3d
00000250: 119c 39be 92f8 7abe 919d fcbe 8bdf 23bf
00000260: a8ff d5be 5899 ba3e 6a93 c4be 55ab 193f
00000270: becc 7dbe 50af 043f a391 e8be a3c0 09bf
00000280: d284 ba3e a305 9d3e a836 2e3f 9505 78be
00000290: cac2 6a3e d8d6 14bf 95a8 d3be 6691 a9be
000002a0: e53c c83e 13ce f43e b9e5 f2be 85f1 c23e
000002b0: 6339 d1bb 81c3 583d cf70 c9be c450 f0be
000002c0: 207f ce3e 5d56 36bd e7ae 6e3d d8b2 ba3e
000002d0: a0a7 0f3d eac9 a3be 936d ccbe 8d40 d53e
000002e0: 407d d0be 5af0 283d 5505 49be d93a a7be
000002f0: 65a0 e2be 5fd1 24bd 500b e33e e92e 9a3e
00000300: 49a8 7d3e 8b58 c53e 7bdd 9a3e 2563 d83e
00000310: 6024 123d e4e7 9fbe 06a3 d53e 5df6 1e3f
00000320: cce0 a63e c84a c33e e4fd b73e a7e4 febe
00000330: 46b3 febd 80ee 77be 4396 d7be 6ea5 1abf
00000340: 2918 b73e fad6 093f 6fba b8bd baeb febd
00000350: 5c46 aabe 76cb b03e 415c 8e3d 9c4b b13e
00000360: c451 6d3d c130 c93d ca09 81be f272 d3be
00000370: 92b3 783e f69a c6be 8148 3ebe 6cb1 e13d
00000380: 64a8 043e 50a0 7a3e f275 adbe 3024 bb3e
00000390: 7806 f3be b9c2 2c3e c36d 9f3e 1c1c 8f3e
000003a0: 7c7c 933e 62ab 34be fb02 9d3e d0c6 233e
000003b0: 276a 603d d5d0 b53e a02a b03e 3386 203e
000003c0: 774e b5be 0ce6 c5bd f47f 443e 9377 84be
000003d0: e778 d7be 500c 17bf 6361 d0bd 2eae db3c
000003e0: c7b5 a0be e4e1 abbe ad58 e7be ba7a 7fbe
000003f0: 53e7 62bd 878e 89bd af33 cd3c 106b 8e3e
0.15079896 -0.17848723 0.24744119 -0.10026885 -0.063156754 -0.2699299 0.1342345 -0.016613409
0.3224689 0.17192869 0.016799495 -0.039980832 -0.087713026 0.29120168 -0.07309069 0.027793365
0.009198067 -0.021016097 -0.511185 -0.20602572 -0.012661351 -0.17688635 -0.013840999 0.13482305
0.15933992 -0.06680523 0.19215389 0.08770707 -0.25865272 -0.11298908 0.08403149 0.0995987
-0.2006803 -0.09807089 0.2574281 0.065272175 0.035769433 0.22031984 0.16527271 -0.18228717
-0.124280445 -0.11703341 0.14156476 -0.24085721 0.0016428158 -0.03411638 -0.17092644 0.31314006
0.07505745 -0.09714351 0.42327288 0.21141016 0.40780494 -0.4718997 0.3271063 -0.33814025
-0.0037584133 -0.48052403 0.49168682 0.6171498 -0.2435666 -0.36864406 -0.2392206 0.35585558
-0.28942448 0.7178632 0.55422384 0.5079917 -0.5717945 -0.2778446 0.613684 -0.40037623
-0.43547323 0.057194486 0.3269741 0.38745362 -0.22151 0.00033345105 0.19477071 -0.38065338
0.19702479 0.562486 0.21012732 -0.4462381 0.41767266 -0.27985266 0.2564544 0.5476034
0.14738932 0.12739022 -0.6630213 -0.6837732 -0.2050221 -0.7135645 -0.2976671 -0.11117394
-0.1387691 0.68794906 -0.6680985 -0.47879067 0.29895797 0.15998241 -0.43738008 -0.1811355
0.30254024 -0.1330721 0.1889456 -0.11853236 0.12777333 0.22844493 -0.045213275 -0.9400365
-0.33827442 0.20918633 0.13870506 0.532658 0.19083923 0.016367184 -0.17536871 -0.31979105
0.29563296 -0.06336605 -0.088791214 0.10855959 -0.013314614 -0.030727688 -0.0068767928 0.14518215
-0.34180284 -0.06261573 -0.2900455 0.13432527 0.112497605 -0.18241626 -0.15908729 0.07361556
0.20926145 0.03160237 0.04590541 -0.07773676 -0.3475093 -0.23377681 -0.1648524 -0.12453676
-0.4771021 -0.2640719 -0.2634441 0.0989971 -0.18125941 -0.24508885 -0.49338964 -0.64012975
-0.41796613 0.36445117 -0.38393718 0.60027057 -0.24785134 0.51830006 -0.45423612 -0.53809565
0.3642946 0.30668363 0.6805215 -0.2422088 0.22925869 -0.58140326 -0.41339555 -0.33118743
0.3910896 0.47813472 -0.4744089 0.3807489 -0.006385015 0.052920822 -0.3934388 -0.4693662
0.40331364 -0.044515956 0.05827227 0.36464572 0.03507197 -0.31989986 -0.39927348 0.4165081
-0.40720558 0.041244842 -0.1963094 -0.32662085 -0.44262996 -0.040238734 0.44344568 0.30113915
0.24771227 0.38544115 0.302471 0.4226314 0.03567922 -0.31231606 0.4172594 0.6209467
0.3259338 0.3814299 0.3593589 -0.49783823 -0.124365374 -0.24212074 -0.42106828 -0.60408676
0.3576062 0.53843653 -0.090199344 -0.12447305 -0.33256805 0.34530228 0.0695119 0.34627998
0.057939306 0.09823752 -0.2520278 -0.41298634 0.2428725 -0.387901 -0.18582346 0.11020169
0.12954861 0.24475217 -0.33879048 0.36551046 -0.47465873 0.16871156 0.3113843 0.27951133
0.28805912 -0.17643502 0.30666336 0.1599381 0.054788735 0.3551089 0.3440752 0.15676193
-0.35411426 -0.096630186 0.19189435 -0.25872478 -0.4208443 -0.5900316 -0.10174825 0.026816454
-0.31388685 -0.33570778 -0.45184842 -0.2494916 -0.05539639 -0.06716638 0.025049059 0.27816057

rnn.bias_ih_l1 f4 [50]
00000000: a682 563e 1c1b 953e 842e 1ebe c29b 18be
00000010: aa56 793e 9583 1cbf 0406 1fbe f9eb 03be
00000020: 29e3 e83d 2ae3 ea3e cb6e 41bf 1a6f c8bc
00000030: 5823 b0bd be85 cd3e 1d35 f9be 0eef b43e
00000040: a616 6fbe 2dd1 cf3d 1b7b b7be 9226 aabe
00000050: 2669 fd3d cda1 88be ad88 aa3d 81c5 b03e
00000060: 0450 e23e 8a79 2c3e 3ad0 b6bc ef4c 35be
00000070: 98b4 b43e f952 30be 281b cebb 419d 593e
00000080: 5410 63bc a00c c7be e1ad 68bd 9b45 a1be
00000090: 94a1 ce3e 28c9 063f c7fd 4dbe e6ac 1ebe
000000a0: ec7a 97be aea3 843e 6085 9cbe d4d0 99be
000000b0: 12fb 573d f7c1 743e fd78 9c3e 2b7c d5bd
000000c0: 59df f3bd 4220 f1bb
0.20948276 0.29122245 -0.15447432 -0.14903167 0.24349466 -0.6113828 -0.15529639 -0.12882985
0.11371452 0.45876437 -0.7555968 -0.02446704 -0.08600491 0.401411 -0.48673335 0.35338634
-0.23348483 0.10147319 -0.3583611 -0.33232552 0.12373571 -0.26685944 0.0832685 0.34525684
0.44201672 0.16843238 -0.022316087 -0.17705129 0.35294032 -0.17219152 -0.0062898584 0.21251394
-0.013858873 -0.3887682 -0.05680645 -0.31498417 0.4035765 0.5265069 -0.2011634 -0.15495643
-0.2958597 0.25906128 -0.30570507 -0.30042136 0.052729674 0.23902117 0.30561057 -0.10424074
-0.119078346 -0.0073585818

rnn.bias_hh_l1 f4 [50]
00000000: a953 8d3e 4044 713e 9fb6 32be cf23 a4be
00000010: 33f1 dd3d 3c13 18bf 986c d5bd a4d1 8cbc
00000020: 78ee 643e 8e90 e93e b519 28bf 91f6 42be
00000030: 9b09 c9bd ecb7 b93e f899 f0be 33a8 4f3e
00000040: e633 16be 0b6b a83d 6d0a aebe dcab 9abe
00000050: 78c2 433e 19b8 c43a 3a9e ae3c 7418 b43d
00000060: e0cd e63e 39b6 a73e d1de 4c3c 6c1e 91be
00000070: 27ef bc3e 946d fdbd e546 f63c 0571 2d3e
00000080: 9443 133e 3d35 91be cd9e f3bd ee0c bbbe
00000090: 9a1f bb3e e25a 083f d684 52be eaa8 97bd
000000a0: 6b14 01be 8b2c fa3d bd8c 9dbe d96e 72be
000000b0: 3e82 843d 31e5 7a3e 44ae bb3d d2b2 143e
000000c0: faf8 32be f8cd 523d
0.2760289 0.23561192 -0.17452477 -0.3205857 0.10837021 -0.5940435 -0.10421103 -0.017189808
0.22356594 0.456181 -0.65664226 -0.1903937 -0.09816285 0.36273134 -0.4699247 0.20279007
-0.14668235 0.08223542 -0.3399233 -0.30209243 0.19117153 0.0015008479 0.021315683 0.087937266
0.45078945 0.32756212 0.012504295 -0.28343523 0.3690121 -0.12374416 0.030063102 0.16937645
0.14381248 -0.2836093 -0.11895523 -0.36533302 0.36547548 0.53263676 -0.20558485 -0.07405265
-0.12605445 0.12215527 -0.30771437 -0.23675098 0.06470154 0.24501492 0.09164098 0.1452134
-0.1747779 0.05146596

fc.weight f4 [1, 50]
00000000: fe5d 7b3d 2d49 af3d 5327 153c a0ef d6be
00000010: f948 7ebd 0ad7 083e 7e0e 0dbd 4d5e c3bd
00000020: 26f5 643d e09d 3f3e dbda ac3e 2410 8abe
00000030: 2cd9 73bc e7db 6f3d 6cc7 4a3e 3cef d53d
00000040: 4a57 613d aecb f53c e144 00bd acce e5bd
00000050: 567a 9bbd a93f a73d 23ca c73c 7eb6 fabd
00000060: 7a34 773d 730b 68be 71b2 1a3e 0926 913d
00000070: c9bc 48be 25a7 6b3d fbbb fc3e 4700 98bd
00000080: 54d5 68be ac82 acbc 6a4b f5bd 97db 8ebe
00000090: fe60 933d a849 a93e 19d6 923c 1233 38bd
000000a0: 3a89 e73d fa06 573e e01e e93d 5bbf 40bd
000000b0: 6fe6 0abe e12f 2dbe 4d30 0ebe b444 a7be
000000c0: 1292 60bd 43b5 57bd
0.061368935 0.08558879 0.009103614 -0.41979694 -0.06208131 0.13363281 -0.03443765 -0.09539471
0.055897854 0.18712568 0.33760723 -0.2696544 -0.014883321 0.058559325 0.19802636 0.10446021
0.055014886 0.030004349 -0.031315688 -0.1122106 -0.07591693 0.08166439 0.024388378 -0.12241839
0.06035278 -0.22660618 0.15107132 0.07087333 -0.19603266 0.05753245 0.49362168 -0.07421928
-0.22737628 -0.021058403 -0.11977275 -0.2790191 0.07196234 0.33064008 0.017924355 -0.04497058
0.11305471 0.20998755 0.11382842 -0.04705749 -0.13564466 -0.16912796 -0.13885613 -0.32669604
-0.054826804 -0.0526631
