Networks/ANTBTC/askSeed2.pt (torch, 33123 bytes, 9 tensors)

rnn.weight_ih_l0 f4 [50, 1]
0	0x3ee199ad	0.44062558
1	0xbca8fead	-0.020629251
2	0xbfc1fcb1	-1.515524
3	0xbf253645	-0.64535934
4	0xbe401086	-0.18756303
5	0xbdac5bec	-0.0841597
6	0xbe85e9d2	-0.26154953
7	0x3f6bf8ee	0.9217671
8	0x3f546a38	0.82974577
9	0x3ea943f4	0.33059657
10	0xbfb8dffa	-1.4443352
11	0x3f12bb1f	0.57316774
12	0x3fb4ac1c	1.4115024
13	0x3db08d67	0.0862072
14	0x3fa45d8e	1.2841051
15	0xbf7e7130	-0.9939146
16	0xbccb784c	-0.024837635
17	0x3f9380a8	1.1523638
18	0x3d12d1ec	0.03584473
19	0x3ec1154b	0.37711558
20	0x40ae4a2d	5.4465547
21	0xbf1ed7b5	-0.6204789
22	0xbf4fa2f1	-0.81108004
23	0xbf9c5039	-1.2211982
24	0xbf489700	-0.7835541
25	0x3f2575b3	0.6463272
26	0x3f719eb8	0.9438281
27	0x3fc08c45	1.5042807
28	0x3f24b330	0.6433592
29	0x3efddd78	0.4958303
30	0xbf70ef9c	-0.94115615
31	0xbedd5cc3	-0.43234834
32	0x3e96054b	0.29300913
33	0xbf9f3238	-1.24372
34	0xbf619bb8	-0.8812823
35	0xbf1a8a0f	-0.6036691
36	0xbe845887	-0.2584879
37	0x3f9d000c	1.2265639
38	0xbf18d152	-0.596944
39	0xbef92db7	-0.4866769
40	0x3f3d4bc9	0.73943764
41	0x3fbac0af	1.4590052
42	0xbf5f0d5d	-0.87129766
43	0x3eb06261	0.34450057
44	0x3e954796	0.29156178
45	0xbedca197	-0.43092033
46	0xbd188297	-0.037233915
47	0x3f4fd2fd	0.8118132
48	0x3fa2742a	1.26917
49	0xbf5c0b78	-0.85955

rnn.weight_hh_l0 f4 [50, 50]
0	0xbf7c5cc2	-0.9857904
1	0x3e8f32a1	0.27968314
2	0xbde0129e	-0.10941051
3	0x3f2b5629	0.66928345
4	0xbf6a2f0d	-0.91478044
5	0xbea86275	-0.32887617
6	0xbd89b6fe	-0.06724356
7	0xbec1ba5e	-0.378375
8	0x3f51ec2e	0.82001007
9	0x3f60bcf2	0.8778831
10	0x3f2df826	0.6795677
11	0xbf80c392	-1.0059683
12	0x3f1ca605	0.61190826
13	0xbf27dfd4	-0.6557591
14	0x3f08d550	0.5345049
15	0xbf353b95	-0.7079404
16	0xbdc15981	-0.094409
17	0x3eec2bb8	0.46127105
18	0x3e722573	0.23647098
19	0x3efe52e2	0.4967261
20	0x3f7ffcc0	0.9999504
21	0xbf492058	-0.7856498
22	0xbf384d94	-0.71993375
23	0x3eabaf87	0.33532354
24	0x3f5ce13b	0.86281174
25	0xbeacdcec	-0.337623
26	0x3f7831fb	0.96951264
27	0x3f7a10e3	0.9768202
28	0x3e59b2d3	0.21259622
29	0x3e935eca	0.28783256
30	0x3eddcd8c	0.43320882
31	0xbf250da8	-0.6447396
32	0xbd4e0246	-0.050295137
33	0x3de54fe3	0.11196878
34	0xbe7de755	-0.24795277
35	0xbf734024	-0.95019746
36	0xbecc615a	-0.39918023
37	0xbe9b773c	-0.30364406
38	0xbf18b91e	-0.59657466
39	0x3e819ec3	0.25316438
40	0x3ee048bf	0.438055
41	0xbec65b9a	-0.3874176
42	0xbf795cf5	-0.97407466
43	0x3f67dda4	0.9057257
44	0x3ed47336	0.4149415
45	0xbf21e1ed	-0.6323536
46	0xbf51937c	-0.8186567
47	0xbe62a038	-0.22131431
48	0xbd9224bb	-0.07135912
49	0xbf350fd6	-0.7072729
50	0x3eae0f48	0.33996034
51	0xbf371a30	-0.71524334
52	0x3e76227c	0.24036592
53	0xbf217230	-0.6306486
54	0x3f2f3c98	0.68451834
55	0x3df3f533	0.119120024
56	0xbf2c3093	-0.6726162
57	0xbe4c500a	-0.19952407
58	0xbedc9c0a	-0.43087798
59	0xbf337478	-0.7009959
60	0xbd630c6c	-0.05543177
61	0x3f1538e8	0.5828996
62	0xbf2786e6	-0.65440214
63	0x3f404d6c	0.75118136
64	0xbf1e2b24	-0.6178458
65	0x3e83bc82	0.25729758
66	0x3f2f0df7	0.68380684
67	0xbc7f7751	-0.015592412
68	0xbd348509	-0.044072185
69	0xbe547504	-0.20747763
70	0xbeb09868	-0.34491277
71	0x3ef500a7	0.4785206
72	0x3f07cd2c	0.5304744
73	0xbdd49d40	-0.103815556
74	0xbebbe811	-0.3670049
75	0x3d295874	0.04134412
76	0xbee5ae84	-0.44859707
77	0xbeddac33	-0.4329544
78	0xbd6914de	-0.056904666
79	0x3e7d34fe	0.24727246
80	0xbdf376ba	-0.1188788
81	0x3ef027f1	0.46905473
82	0xbf36376a	-0.71178305
83	0x3ea01c5a	0.3127163
84	0x3f44ba09	0.7684637
85	0x3f33cd64	0.70235276
86	0x3f14ca6e	0.58121383
87	0x3d860c22	0.06545283
88	0x3f01aa5e	0.50650585
89	0x3ec5285c	0.38507354
90	0x3e878015	0.26464906
91	0xbe024f7d	-0.12725635
92	0x3f1b792a	0.60731757
93	0xbf0075a8	-0.5017953
94	0xbf594a3f	-0.84878916
95	0x3f690079	0.91016346
96	0x3ea164cf	0.31522223
97	0x3b2eace1	0.0026653337
98	0xbf01d7d6	-0.50719965
99	0x3f10273e	0.5630988
100	0xbe1e0cda	-0.1543459
101	0x3f31cd9b	0.69454354
102	0xbeab6f4e	-0.33483356
103	0x3f0848fa	0.53236353
104	0xbebcfdde	-0.36912435
105	0x3e438835	0.19094928
106	0x3f0b9e58	0.5453849
107	0x3f298483	0.6621782
108	0x3e20d4a4	0.15706116
109	0x3eb74bf6	0.3580014
110	0xbd82eeeb	-0.06393226
111	0xbed6486b	-0.41852126
112	0x3f286fbd	0.657955
113	0xbf1a4be1	-0.6027203
114	0x3e223acf	0.15842746
115	0x3e8c7198	0.27430415
116	0xbf34527f	-0.7043838
117	0xbf2e11b2	-0.6799575
118	0xbef3f8ff	-0.47650906
119	0xbecd294c	-0.4007057
120	0x3de17992	0.11009516
121	0xbf07df7c	-0.53075385
122	0xbf13ada0	-0.57686806
123	0xbc39fc6f	-0.011351689
124	0x3d74812d	0.059693504
125	0x3dfe9e76	0.12432568
126	0x3e1d13e5	0.1533962
127	0x3ec02041	0.37524608
128	0xbf110d0f	-0.5666055
129	0xbf14e5b9	-0.5816303
130	0xbec977bd	-0.39349166
131	0xbec28e9a	-0.3799942
132	0x3ecc2c0e	0.3987736
133	0xbe9ada68	-0.30244756
134	0xbee9b930	-0.456491
135	0xbefd5f92	-0.49486977
136	0xbf3ccbfa	-0.73748744
137	0x3e8d5de4	0.27610695
138	0xbee5cd31	-0.4488311
139	0xbebd4a5c	-0.36970794
140	0xbef3b5b3	-0.47599563
141	0xbc979b45	-0.018506655
142	0xbf39d4c8	-0.72590303
143	0x3ebcb886	0.3685953
144	0x3f2f768b	0.6854026
145	0xbf3dc3c8	-0.74126863
146	0x3e1caabc	0.15299505
147	0x3ed4ffdc	0.41601455
148	0x3f164eb3	0.58713835
149	0xbf2abc4a	-0.66693556
150	0x3f0b9d19	0.54536587
151	0xbe958c88	-0.2920878
152	0x3e159a3e	0.1460962
153	0xbf3945a0	-0.72371864
154	0x3f257db3	0.64644927
155	0x3ef5b91d	0.47992793
156	0xbdd5c39d	-0.10437701
157	0x3e2e8769	0.17043842
158	0xbf518c95	-0.81855136
159	0xbf4530a6	-0.77027357
160	0xbec77db5	-0.38963094
161	0x3f184ba5	0.59490424
162	0xbf3e6733	-0.7437622
163	0x3f175f1d	0.59129506
164	0xbed39fd6	-0.41332883
165	0x3edda77e	0.4329185
166	0x3e91cbd3	0.28475818
167	0xbf06d989	-0.5267568
168	0xbe8f65b5	-0.28007284
169	0xbeb178b3	-0.346624
170	0xbf3f423e	-0.7471045
171	0x3f181709	0.5941015
172	0x3f438ebf	0.7638969
173	0xbeadc593	-0.339398
174	0xbf1a39df	-0.60244554
175	0x3ee3f376	0.44521683
176	0xbf592708	-0.8482518
177	0xbf43fc6c	-0.7655704
178	0xbecbf545	-0.39835563
179	0xbf008013	-0.50195426
180	0xbf0488f8	-0.517715
181	0x3eecfdc4	0.46287358
182	0xbef2ebf2	-0.47445637
183	0x3e6107f9	0.21975698
184	0x3e4efd4a	0.2021381
185	0x3f41423f	0.7549171
186	0x3ea45080	0.32092667
187	0x3e9cef58	0.30651355
188	0x3f0ed2ae	0.5579022
189	0x3e587936	0.21139988
190	0xbe9617b7	-0.29314968
191	0x3ea11fca	0.31469566
192	0x3ef4ff9d	0.47851267
193	0xbf2106ae	-0.6290082
194	0xbf147253	-0.57986945
195	0x3f12cce4	0.5734389
196	0x3eb8ca0b	0.36091647
197	0xbe2cc044	-0.16870219
198	0xbe8532f5	-0.2601544
199	0x3f2776bd	0.65415555
200	0xbf4057e4	-0.7513411
201	0x3e58a973	0.2115839
202	0xbecef8f2	-0.40424305
203	0x3f44e1cd	0.76907045
204	0xbf6cb30a	-0.9246069
205	0xbe9c16fe	-0.30486292
206	0x3e9fc4ae	0.31204742
207	0x3d6838a3	0.056694638
208	0x3f4340cc	0.7627075
209	0x3f06db87	0.5267872
210	0x3f061bee	0.5238637
211	0xbf31ed59	-0.6950279
212	0x3f2acfcd	0.6672333
213	0xbf2c913e	-0.6740912
214	0x3efbd07d	0.491825
215	0xbede2d77	-0.43394062
216	0xbec0ce23	-0.3765727
217	0x3ea90b8d	0.33016625
218	0x3e566c19	0.20939673
219	0x3eadadbb	0.33921608
220	0x3ee9353b	0.45548424
221	0xbf4288fc	-0.7599027
222	0xbf2c87c4	-0.6739466
223	0x3f05d891	0.5228358
224	0x3f0eb86a	0.55750144
225	0xbec1f07a	-0.37878782
226	0x3f0d55ea	0.5520922
227	0x3eee4610	0.46537828
228	0x3dbf530a	0.0934201
229	0x3ecb24f8	0.39676642
230	0x3e442ab8	0.19156921
231	0xbf3fae36	-0.748752
232	0x3e8bdbb3	0.27316055
233	0xbe908f81	-0.28234485
234	0xbe9e8f17	-0.30968544
235	0xbf496fda	-0.78686297
236	0xbebbd2d7	-0.36684296
237	0xbedce0d4	-0.4314028
238	0xbf31583b	-0.69275254
239	0xbe2a90f2	-0.16656855
240	0x3ed2b860	0.41156292
241	0xbec5fdfd	-0.3867034
242	0xbf09461e	-0.53622615
243	0x3f369f06	0.713364
244	0x3eadb2b8	0.33925414
245	0xbf240d7a	-0.64083064
246	0xbeddf621	-0.43351844
247	0x3c40028e	0.011719359
248	0x3e1a57ce	0.15072557
249	0xbf6d02b6	-0.9258226
250	0xbe7f98cd	-0.24960633
251	0xbf56e8b1	-0.8394881
252	0x3f2d7940	0.6776314
253	0x3e80b0b6	0.2513482
254	0x3ed17027	0.40905878
255	0xbf2e71da	-0.68142474

rnn.bias_ih_l0 f4 [50]
0	0x3f1f5228	0.62234735
1	0xbf51f72d	-0.82017785
2	0x3e8b226e	0.27174705
3	0xbf34bfb9	-0.70605046
4	0x3f32de5c	0.69870543
5	0x3d88f246	0.06686835
6	0xbf23c689	-0.63974816
7	0x3e066a3b	0.13126461
8	0xbede6269	-0.43434456
9	0xbe9660d9	-0.29370764
10	0xbc9bd043	-0.019020205
11	0x3f3cbb8e	0.73723686
12	0xbf17cd43	-0.5929758
13	0x3f3b0cdc	0.73066497
14	0xbf400877	-0.75012916
15	0x3f210cbd	0.6291006
16	0x3e1274ae	0.14302322
17	0xbe94450e	-0.28958935
18	0x3f20e464	0.62848496
19	0x3d72d6dd	0.05928694
20	0x3f766311	0.96244913
21	0x3efee5fa	0.49784833
22	0x3f09bbdb	0.5380227
23	0xbe7ef8c2	-0.24899581
24	0xbe5d7684	-0.21627241
25	0x3f942e22	1.1576579
26	0xbde24520	-0.11048341
27	0xbf27b93d	-0.65517026
28	0x3e76b9da	0.24094334
29	0x3dc6dbba	0.09709878
30	0x3e325801	0.17416383
31	0x3f20d954	0.62831616
32	0xbe343572	-0.17598513
33	0x3c3ca2a1	0.011513383
34	0x3f2471a9	0.6423593
35	0x3f297156	0.6618856
36	0x3f627bd7	0.88470215
37	0x3d229143	0.039689314
38	0x3f5719f5	0.8402398
39	0x3c7eadea	0.015544394
40	0xbee06b10	-0.43831682
41	0x3e865ccd	0.26242676
42	0x3f3b0779	0.7305828
43	0xbf220a73	-0.63297194
44	0xbf647142	-0.8923532
45	0x3f33521e	0.70047176
46	0x3f28dd82	0.65962994
47	0xbe6fe79c	-0.23428196
48	0x3e870e0a	0.26377898
49	0x3f202416	0.6255506

rnn.bias_hh_l0 f4 [50]
0	0x3f00c387	0.5029835
1	0xbf3af190	-0.73024845
2	0x3edd590a	0.43231994
3	0xbf5d4873	-0.86438674
4	0x3f17f903	0.59364337
5	0x3e7a2caf	0.24431108
6	0xbf192252	-0.59817994
7	0x3e5166a6	0.20449314
8	0xbed4b7a0	-0.41546345
9	0xbeb3a7ed	-0.35089055
10	0xbddbd546	-0.10734038
11	0x3f30b869	0.6903139
12	0xbf1d41e9	-0.61428696
13	0x3f53bf69	0.82713944
14	0xbf0e5ce8	-0.55610514
15	0x3ef80ae5	0.48445812
16	0x3e05c9bf	0.13065241
17	0xbeb519a8	-0.35371137
18	0x3ef59ca0	0.47971058
19	0x3d292e5a	0.04130397
20	0x3f940ee9	1.156705
21	0x3f15523d	0.5832861
22	0x3f0a8c82	0.5412065
23	0xbe48fff4	-0.19628888
24	0xbe129801	-0.14315797
25	0x3fa1538d	1.2603623
26	0xbe04313d	-0.12909408
27	0xbf38a625	-0.72128516
28	0x3ec7b340	0.39003944
29	0xbe060d29	-0.13090958
30	0x3e419e1b	0.18907969
31	0x3f050851	0.51965815
32	0x3dc67503	0.09690287
33	0xbe4635ff	-0.19356535
34	0x3f218a0b	0.6310126
35	0x3f2b865d	0.670019
36	0x3f4cf009	0.80053765
37	0xbce0eb58	-0.02745597
38	0x3f374ef9	0.7160488
39	0x3daa7502	0.08323099
40	0xbe9b607e	-0.30347055
41	0x3e2f2fab	0.17108028
42	0x3f2e789b	0.6815278
43	0xbf08e455	-0.5347341
44	0xbf6939df	-0.9110393
45	0x3f0e1ce3	0.5551283
46	0x3f2420be	0.6411246
47	0xbede1c2c	-0.43380868
48	0x3c66457c	0.014054652
49	0x3f2aadc6	0.6667141

rnn.weight_ih_l1 f4 [50, 50]
0	0x3e1dfc2c	0.15428227
1	0x3e0b2d7c	0.1359157
2	0xbef4d1d9	-0.4781635
3	0xbe7b26e8	-0.2452656
4	0xbe897326	-0.26845664
5	0xbec1f603	-0.37883005
6	0xbe348e03	-0.17632298
7	0x3ef83fdc	0.4848622
8	0x3f1f848a	0.62311614
9	0x3ea925fa	0.33036786
10	0xbf1dad77	-0.6159281
11	0xbd24b786	-0.040214084
12	0x3ede8613	0.43461666
13	0xbe37d093	-0.17950659
14	0x3ec51b79	0.38497522
15	0xbeee1a5f	-0.46504495
16	0xbe6d602c	-0.23181218
17	0x3e4215f9	0.18953694
18	0x3c969f3a	0.018386472
19	0x3ec1ba89	0.37837628
20	0x3ee6f083	0.4510537
21	0xbf0bf827	-0.54675525
22	0xbed26f22	-0.41100413
23	0xbeb10757	-0.34575912
24	0xbcfcc330	-0.030854791
25	0xbf24faa9	-0.6444498
26	0x3f0b5f65	0.54442436
27	0x3e911637	0.2833726
28	0x3d269982	0.04067374
29	0xbe6ca39e	-0.2310929
30	0xbee1940c	-0.44058263
31	0xbe997051	-0.29968503
32	0x3ec66ca8	0.38754773
33	0xbea9064e	-0.33012623
34	0xbf025c80	-0.50922394
35	0xbea11f49	-0.3146918
36	0xbdf3dd49	-0.11907441
37	0x3dc189b2	0.094500914
38	0xbeb6e834	-0.35724032
39	0xbe6bb511	-0.2301829
40	0x3ce06919	0.027393864
41	0x3defdc0a	0.11711891
42	0xbe15e1ac	-0.14636868
43	0x3e44d876	0.19223198
44	0xbcdffdea	-0.027342755
45	0xbe80281a	-0.25030595
46	0xbdf827bc	-0.12116954
47	0x3ed5283a	0.41632253
48	0x3ec883f1	0.39163163
49	0xbeb00d43	-0.34385118
50	0x3e98aa2e	0.29817337
51	0xbebedd32	-0.37278134
52	0x3f725802	0.9466554
53	0xbeeeaff9	-0.4661863
54	0x3f525604	0.821625
55	0x3e956e3f	0.29185674
56	0xbe0e70a8	-0.13910162
57	0x3b82b480	0.0039888024
58	0xbef6b5b8	-0.48185515
59	0xbf4f7f7d	-0.81053907
60	0xbe4ddbc4	-0.20103365
61	0x3edd36aa	0.43205768
62	0xbf6bfad6	-0.9217962
63	0x3f284a7a	0.6573864
64	0xbf253065	-0.6452697
65	0x3ebc3f21	0.36766914
66	0x3eca700b	0.39538607
67	0xbe8fbe91	-0.28075078
68	0xbd956e88	-0.07296473
69	0xbe576b7b	-0.21037094
70	0xbecbbf9d	-0.39794627
71	0x3f70f691	0.9412623
72	0x3f363de6	0.711882
73	0xbd051f7d	-0.032500733
74	0xbe0bfe37	-0.13671194
75	0xbc8029b3	-0.015644884
76	0xbf583d7a	-0.84468806
77	0xbefc7b24	-0.493127
78	0xbed59b48	-0.41720033
79	0xbe6f3b0b	-0.23362367
80	0x3e6b8d59	0.23003139
81	0x3f07adc4	0.5299952
82	0xbf2aedd9	-0.66769177
83	0x3f114c6a	0.56757224
84	0x3f95d919	1.1706878
85	0x3f25eaa8	0.6481118
86	0x3e4d1db5	0.20030864
87	0xbca233d0	-0.019800097
88	0x3f64b33e	0.89336
89	0x3f00b173	0.50270766
90	0xbf0e3eed	-0.5556477
91	0xbe93207f	-0.2873573
92	0x3eb45141	0.35218242
93	0xbf3ca21a	-0.7368485
94	0xbe4bd4e6	-0.19905433
95	0x3f147f69	0.5800691
96	0x3e61c607	0.22048198
97	0xbef76723	-0.48320875
98	0x3e8e3445	0.27774253
99	0x3f4d4164	0.80177903
100	0xbed16579	-0.4089773
101	0x3e006a97	0.12540661
102	0x3f0d8e04	0.55294824
103	0x3eded673	0.43522987
104	0xbe0d5242	-0.1380091
105	0xbe92112a	-0.2852872
106	0xbe3240f8	-0.17407596
107	0x3ccfbc0a	0.025358219
108	0x3e5800da	0.21094075
109	0x3e0ec05e	0.1394057
110	0x3f20d755	0.6282857
111	0xbda04dad	-0.078273155
112	0x3dc5c14f	0.09656011
113	0x3d9b7a45	0.075916804
114	0xbd87567b	-0.06608292
115	0xbe2ca46d	-0.16859598
116	0x3c37b094	0.011211533
117	0x3e3f4558	0.18678796
118	0x3f0fd7a3	0.5618841
119	0x3ea039a7	0.31293985
120	0x4010480c	2.2543974
121	0x3ec77ca9	0.38962296
122	0x3e35e63f	0.17763613
123	0x3ef80e17	0.4844825
124	0x3ef98257	0.48732254
125	0xbe21bc2c	-0.15794438
126	0x3e886d66	0.26645964
127	0x3e07f251	0.1327603
128	0x3ea3e375	0.32009473
129	0x3f344868	0.70422983
130	0x3f062736	0.5240358
131	0xbb0e7d62	-0.0021742214
132	0xbcaabab8	-0.020840988
133	0x3f29e511	0.6636515
134	0x3e792e46	0.24334058
135	0x3e83673e	0.25664705
136	0xbe90e819	-0.28302076
137	0xbf127b63	-0.57219523
138	0x3e9f35bb	0.3109568
139	0xbcc1e4a3	-0.023668593
140	0x3d5cea18	0.053934187
141	0xbf07a35a	-0.5298363
142	0xbe33d792	-0.17562702
143	0x3d2af24f	0.04173499
144	0xbd931033	-0.07180824
145	0x3dda0820	0.10646081
146	0xbf1a7b53	-0.6034443
147	0xbeb51ff9	-0.35375956
148	0x3e325978	0.17416942
149	0xbe94f469	-0.2909272
150	0xbe9a1551	-0.30094388
151	0x3cb5f396	0.022210877
152	0x3db52230	0.088444114
153	0x3edfa911	0.43683675
154	0x3d0541f9	0.03253362
155	0xbf3a44d7	-0.7276129
156	0x3cfe8ca5	0.031072924
157	0x3b080ca7	0.0020759495
158	0x3e23b526	0.15987071
159	0x3de23ce5	0.11046771
160	0x3f866728	1.0500231
161	0xbe95d14c	-0.29261243
162	0x3c1e2cdc	0.00965425
163	0xbe1b3c10	-0.15159631
164	0xbe0ee96c	-0.13956231
165	0xbebafae6	-0.36519545
166	0x3e271067	0.16314851
167	0x3f06b28a	0.5261618
168	0x3f57f2b3	0.84354705
169	0x3f20c5e0	0.62801933
170	0x3ea39075	0.3194615
171	0xbd872a35	-0.06599847
172	0xbe217de7	-0.15770684
173	0x3f7a58fc	0.9779203
174	0x3f199768	0.5999665
175	0xbef98ec8	-0.48741746
176	0x3e57eacd	0.21085663
177	0x3de9abed	0.11409745
178	0x3f1b3493	0.60627097
179	0x3f8206af	1.015829
180	0x3f62337a	0.88359797
181	0xbec8e7cb	-0.39239344
182	0xbe32cb9b	-0.17460482
183	0xbce5c623	-0.02804858
184	0x3eb3616a	0.3503526
185	0xbdabe47d	-0.0839319
186	0xbe820760	-0.25396252
187	0xbf5ad47e	-0.8548049
188	0x3c23f3c1	0.010006846
189	0x3e06e20d	0.13172169
190	0x3ebc05c1	0.3672314
191	0xbf2d7477	-0.67755836
192	0xbe664d84	-0.22490507
193	0x3e71f0dc	0.23627037
194	0xbc79995f	-0.01523432
195	0x3e1e577b	0.15463059
196	0xbedea5ac	-0.43485773
197	0xbf9d4cad	-1.2289025
198	0xbda171e7	-0.07883053
199	0xbe72f2df	-0.2372546
200	0xbd20aebc	-0.03922914
201	0x3e077548	0.13228333
202	0xbdfb8d99	-0.12282867
203	0x3e858d2c	0.26084268
204	0xbeca4d91	-0.39512303
205	0xbe3775f3	-0.17916088
206	0xbebe99f2	-0.37226826
207	0x3efbaa16	0.49153203
208	0x3e5268c2	0.20547774
209	0x3ebbe033	0.36694488
210	0xbf095e6a	-0.5365969
211	0xbdb5a9c7	-0.08870273
212	0x3ef4e5a1	0.47831443
213	0xbe129f04	-0.14318472
214	0x3e20d2ba	0.15705386
215	0xbf0e4717	-0.55577224
216	0xbd4af18f	-0.049546774
217	0x3eda504d	0.4263939
218	0xbe22f031	-0.15911938
219	0x3eb20b5f	0.347743
220	0x3e8fdab1	0.28096536
221	0xbe954564	-0.29154503
222	0xbf041c22	-0.5160543
223	0xbd9a3e9d	-0.07531474
224	0xbc0d5fd3	-0.008628803
225	0xbe336daf	-0.1752231
226	0x3ea2f396	0.31826466
227	0x3eef4ee2	0.4673987
228	0x3e587e3b	0.21141903
229	0x3db5d2e6	0.08878116
230	0xbdf2190f	-0.11821186
231	0xbf0c294f	-0.5475053
232	0x3e229b81	0.15879633
233	0xbd8cb257	-0.06869953
234	0xbe81f919	-0.2538536
235	0xbe29267d	-0.16518588
236	0x3c9d2942	0.019184712
237	0x3e5318fc	0.20615
238	0xbd5aeae5	-0.05344667
239	0xbe1c2469	-0.15248264
240	0x3ebd834f	0.37014243
241	0x3e8f0df6	0.2794034
242	0xbec7938c	-0.38979757
243	0x3e80b94b	0.25141367
244	0xbe3c616c	-0.18396538
245	0xbe5b988d	-0.21444912
246	0xbdb0301a	-0.08602925
247	0x3dc5e194	0.09662166
248	0x3e956a4a	0.29182655
249	0xbee7765a	-0.45207483
250	0x3ed33c12	0.41256768
251	0xbed90e80	-0.42393875
252	0xbe5fc0f2	-0.21850947
253	0xbf2b0019	-0.66797024
254	0xbdfe5eac	-0.12420401
255	0xbf0490cd	-0.5178345

rnn.weight_hh_l1 f4 [50, 50]
0	0x3ec7e317	0.39040443
1	0x3e4cd754	0.20004016
2	0x3e98be2d	0.29832593
3	0x3d24666b	0.040136736
4	0xbde3d401	-0.11124421
5	0x3f03570a	0.51304686
6	0xbe968dd1	-0.29405072
7	0xbc306550	-0.010766342
8	0xbdee3b5a	-0.11632414
9	0xbf147e6f	-0.5800542
10	0xbe9f7809	-0.31146267
11	0x3e06eb97	0.13175808
12	0xbd0aae54	-0.03385766
13	0xbea0e36a	-0.31423503
14	0xbe28bb74	-0.16477758
15	0x3da09e59	0.078427024
16	0x3f740558	0.95320654
17	0x3ed02cae	0.40659088
18	0xbe88b2be	-0.2669887
19	0x3ed111b2	0.40833813
20	0x3e60a6c9	0.21938623
21	0xbe4c95a3	-0.19978957
22	0xbdcfed09	-0.10152633
23	0xbd11e557	-0.035619106
24	0x3e51c050	0.20483518
25	0xbe224f07	-0.15850459
26	0x3ecb6ffc	0.39733875
27	0xbe0acda7	-0.13555013
28	0x3c8c4306	0.017121803
29	0x3cdb600a	0.026779193
30	0x3e82ea89	0.2556956
31	0xbeab5aec	-0.33467805
32	0x3c8b1fb6	0.016982894
33	0x3d4bfc08	0.049800903
34	0x3e105bc5	0.14097507
35	0xbe5fa851	-0.21841551
36	0x3cd78fe3	0.026313728
37	0xbe75357b	-0.23946182
38	0x3e444aaf	0.19169115
39	0x3e2a3d6c	0.16624993
40	0xbe628d0c	-0.22124118
41	0xbe12b499	-0.14326705
42	0x3dd53d24	0.10412052
43	0x3e576647	0.2103511
44	0x3ceafb0a	0.028684158
45	0x3e7e2469	0.24818577
46	0xbe35264a	-0.17690387
47	0xbf0030f3	-0.5007469
48	0x3e6ce7f4	0.23135358
49	0xbdc961b5	-0.09833089
50	0x3ec82be2	0.3909598
51	0xbee1bf91	-0.44091466
52	0xbedba718	-0.4290092
53	0xbdecef85	-0.11569122
54	0x3d59c494	0.053165987
55	0x3ef5be7f	0.479969
56	0x3f152fc8	0.58276033
57	0xbeb20ac5	-0.34773842
58	0xbf400655	-0.7500966
59	0xbe99ca32	-0.30037075
60	0x3e9064a3	0.2820178
61	0xbf3f3caa	-0.7470194
62	0x3eb40357	0.35158798
63	0x3db690f4	0.08914366
64	0xbf1290fd	-0.57252485
65	0xbe5f9a99	-0.21836318
66	0x3ed78430	0.4209304
67	0x3e009d4a	0.12560001
68	0x3efb7099	0.49109343
69	0xbe5fc8fc	-0.21854013
70	0xbf38a05e	-0.721197
71	0xbede6783	-0.43438348
72	0xbe0978f2	-0.13425043
73	0xbe04e949	-0.12979616
74	0xbee53873	-0.4476963
75	0x3f55c24d	0.83499604
76	0x3cc42440	0.023943067
77	0xbdf459e6	-0.11931209
78	0xbeb7f661	-0.3593016
79	0xbecf5082	-0.4049111
80	0xbeb649e4	-0.3560325
81	0x3eef54c1	0.4674435
82	0x3e4d8133	0.20068817
83	0x3eaedac4	0.3415128
84	0xbee2afd5	-0.44274774
85	0xbf0b82c9	-0.5449644
86	0xbecc3458	-0.39883685
87	0xbea54af3	-0.32283744
88	0x3f13e78c	0.5777519
89	0xbf3489b5	-0.70522624
90	0xbe652817	-0.22378574
91	0x3e952f5d	0.29137698
92	0x3eb2be9b	0.34911045
93	0x3e9ab438	0.3021562
94	0x3eb11ead	0.34593716
95	0xbe69425a	-0.22779217
96	0xbed87552	-0.42277008
97	0xbe0c0cb2	-0.13676718
98	0xbf1f4d5a	-0.62227404
99	0x3e5fc49e	0.21852347
100	0x3d114eb7	0.03547546
101	0x3e5f218e	0.21790144
102	0x400ad116	2.1690116
103	0x3f058dc8	0.52169466
104	0xbf0b80bb	-0.544933
105	0x3f19f846	0.6014446
106	0x3edfa70e	0.4368214
107	0xbe9c075a	-0.3047436
108	0xbe59b261	-0.21259452
109	0xbe6c0214	-0.23047668
110	0xbebae900	-0.3650589
111	0xbe307572	-0.17232302
112	0x3e7e19b5	0.24814494
113	0xbe2161d8	-0.1575998
114	0xbe1ce051	-0.15319945
115	0xbe85abf9	-0.26107767
116	0x3e05ab86	0.13053712
117	0x3eebe830	0.46075583
118	0x3e2f8300	0.17139816
119	0x3ee8c86c	0.4546541
120	0xbeda5eaf	-0.42650363
121	0xbe487995	-0.1957763
122	0x3ef4943f	0.47769353
123	0x3d073de0	0.033017993
124	0x3f0a9006	0.5412601
125	0x3ebddbd3	0.37081775
126	0xbed5dd20	-0.41770267
127	0xbec65e8e	-0.38744015
128	0xbe40d691	-0.1883185
129	0xbeeca605	-0.46220413
130	0x3ed9dbb6	0.4255044
131	0xbe9f73ca	-0.31143028
132	0x3edcbd99	0.43113402
133	0x3f111409	0.56671196
134	0xbeecf1f7	-0.46278355
135	0xbf000f8e	-0.50023735
136	0xbed121b7	-0.40846035
137	0xbd443629	-0.047903214
138	0x3e8b8fa0	0.27258015
139	0x3f37a477	0.7173533
140	0x3e14f7d3	0.14547662
141	0x3ee006da	0.43755227
142	0x3f00dd5f	0.50337785
143	0x3eb3a3de	0.35085958
144	0x3ea59987	0.32343695
145	0xbf075785	-0.5286792
146	0xbe820586	-0.2539484
147	0xbd28498a	-0.041085757
148	0xbed0ff04	-0.4081956
149	0xbef53d18	-0.47898173
150	0xbced93b9	-0.029001104
151	0xbe06fce6	-0.1318241
152	0xbe288030	-0.1645515
153	0x3d672931	0.056435768
154	0x3d9b9dc9	0.075984545
155	0xbf0e9843	-0.5570108
156	0x3ea0418d	0.3130001
157	0x3e2cd1b7	0.16876875
158	0xbea2e425	-0.31814685
159	0x3eaa8b8b	0.33309588
160	0xbedc8da9	-0.43076828
161	0xbd457db9	-0.0482156
162	0x3e6a3c0e	0.22874472
163	0x3ebbd483	0.3668557
164	0xbe9c0b5c	-0.30477417
165	0xbd907855	-0.070542015
166	0xbf05a1b2	-0.5219985
167	0xbe475b15	-0.19468339
168	0xbbd58d12	-0.006517061
169	0x3e488d81	0.1958523
170	0xbd52d0a1	-0.051468495
171	0xbe247bcb	-0.16062848
172	0xbe821b18	-0.25411296
173	0xbef05be9	-0.46945122
174	0x3ebf0e11	0.3731542
175	0x3ec11e73	0.37718543
176	0xbe483e6f	-0.19555067
177	0x3d54e1db	0.051973205
178	0xbdc70e37	-0.09719508
179	0x3e3dbf9b	0.18530123
180	0x3f03bd2c	0.5146053
181	0xbe25f81a	-0.16207924
182	0x3e7a0b1d	0.24418302
183	0x3f05e6da	0.52305377
184	0x3e4c5a76	0.19956383
185	0xbeb26dda	-0.34849435
186	0xbe2182f4	-0.15772611
187	0xbe25f85e	-0.16208026
188	0xbddc3f98	-0.10754317
189	0x3e8c4fa1	0.27404502
190	0x3ef054f5	0.46939817
191	0xbe821458	-0.25406146
192	0xbec87b8b	-0.39156756
193	0xbedb8dde	-0.42881674
194	0x3f9a8a23	1.2073406
195	0xbf5c35fa	-0.8601986
196	0xbe59357c	-0.21211809
197	0x3dbc216e	0.09186064
198	0x3de91e78	0.113827646
199	0x3e82f12d	0.25574628
200	0x3de3bf66	0.11120491
201	0x3ef10127	0.47071192
202	0x3cd6b955	0.02621142
203	0xbd088c93	-0.033337187
204	0xbe8f618d	-0.28004113
205	0x3e3aacfb	0.1823005
206	0xbe866520	-0.26249027
207	0x3e4e78d4	0.2016328
208	0x3e379887	0.17929278
209	0xbd240440	-0.040043116
210	0xbdef6310	-0.116888165
211	0x3dbb52d5	0.09146658
212	0x3d8da50d	0.069162466
213	0x3e8985bf	0.26859853
214	0x3d26145c	0.04054676
215	0x3e4341f1	0.19068123
216	0x3e7bb542	0.24580863
217	0x3d1a0f91	0.0376125
218	0xbe43dc5b	-0.19127028
219	0x3f073229	0.52810913
220	0x3e0ebe23	0.13939719
221	0x3cbf0402	0.02331734
222	0x3e9cb3f4	0.30606043
223	0x3e8a33f4	0.26992762
224	0x3e5fc035	0.21850665
225	0xbe9796f6	-0.29607362
226	0x3ed2efca	0.4119857
227	0xbded2c6c	-0.115807384
228	0xbe40ff17	-0.18847309
229	0xbeb7866a	-0.35844737
230	0xbda47448	-0.080299914
231	0xbe5e226b	-0.21692817
232	0xbdfc1afd	-0.12309835
233	0xbebcdd7f	-0.36887738
234	0xbe03b326	-0.12861308
235	0x3d62b081	0.05534411
236	0x3ddbf0c4	0.10739282
237	0x3e0bd2ca	0.13654628
238	0x3ea19f20	0.31566715
239	0xbd61279f	-0.054969426
240	0x3c7f3682	0.0155769605
241	0xbe2c0e5f	-0.16802357
242	0x3d9e24cb	0.077218615
243	0xbe1d3861	-0.15353538
244	0xbdb780e8	-0.08960134
245	0x3f010a69	0.5040651
246	0xbd4bdaa9	-0.049769077
247	0x3d29c564	0.041448012
248	0x3e83042b	0.25589117
249	0xbe1e4e20	-0.1545949
250	0x3f065f79	0.5248943
251	0xbe9b6efc	-0.30358112
252	0x3c753aa8	0.014967598
253	0xbeba28b4	-0.3635918
254	0xbe815499	-0.25259855
255	0x3ea5942a	0.32339603

rnn.bias_ih_l1 f4 [50]
0	0x3e7f4c16	0.24931368
1	0xbdf79e38	-0.12090725
2	0xbeef91cc	-0.46790922
3	0xbeb9f47e	-0.36319345
4	0xbe0f56e7	-0.13997994
5	0xbe061292	-0.13093022
6	0x3b2d447e	0.002643853
7	0x3e34347f	0.1759815
8	0x3d9faca0	0.077965975
9	0xbbc85634	-0.006113792
10	0x3e800c8e	0.25009578
11	0x3e81a033	0.25317535
12	0xbd7e02b6	-0.062014304
13	0x3d518483	0.051151764
14	0xbe4d9d9a	-0.20079651
15	0xbdbfc5b2	-0.09363879
16	0x3de19c96	0.110161945
17	0x3e5011c6	0.2031928
18	0x3e671ff4	0.22570783
19	0xbeac0e28	-0.3360455
20	0x3e16883c	0.14700407
21	0xbe6d64ea	-0.23183027
22	0xbe861fbe	-0.26196092
23	0xbef38e0f	-0.4756932
24	0xbddb2db2	-0.10702075
25	0xbd90839d	-0.07056353
26	0x3e950121	0.29102424
27	0xbd17e33a	-0.037081935
28	0x3c2b4de4	0.010455582
29	0x3e3ef018	0.18646276
30	0x3dbcc0d5	0.09216467
31	0x3e3f786d	0.18698283
32	0xbea94cd8	-0.3306644
33	0x3d47ab45	0.04874732
34	0xbd96db00	-0.0736599
35	0x3e801bd9	0.25021246
36	0x3e52c2f1	0.20582177
37	0x3e9b6018	0.3034675
38	0x3eac064d	0.33598557
39	0xbe82259a	-0.25419313
40	0xbec78845	-0.38971153
41	0xbe9280c0	-0.28613853
42	0xbe76d645	-0.24105175
43	0x3ee272e4	0.4422828
44	0x3e7b4392	0.24537495
45	0xbd6f7eac	-0.058470413
46	0xbea72906	-0.32648486
47	0xbe34ed9c	-0.17668766
48	0xbe029761	-0.12753059
49	0x3e24eede	0.16106746

rnn.bias_hh_l1 f4 [50]
0	0x3e450157	0.19238792
1	0xbcd74a0b	-0.026280424
2	0xbe569394	-0.20954734
3	0xbe2705b5	-0.16310771
4	0xbe14296d	-0.14468928
5	0x3dbcf4b6	0.092263624
6	0xbe51085a	-0.20413342
7	0x3e3dbc53	0.18528871
8	0x3dd11c77	0.10210507
9	0xbd275f16	-0.040862165
10	0x3e8a0560	0.26957226
11	0x3dd8f4e5	0.10593585
12	0x3d3e7012	0.046493597
13	0xbcef0f89	-0.029182212
14	0xbe998401	-0.29983523
15	0x3d758b26	0.059947155
16	0x3e6cf322	0.23139623
17	0x3e14027c	0.14454073
18	0x3e7e26cd	0.24819489
19	0xbecb601d	-0.39721766
20	0x3e818a4c	0.25300825
21	0xbed468e3	-0.41486272
22	0xbead9eb0	-0.3391013
23	0xbeb8038f	-0.35940215
24	0xbd81c63a	-0.06336637
25	0xbe19e5ed	-0.15029116
26	0x3e749c15	0.23887666
27	0x3dcca61c	0.0999262
28	0xbcc8313f	-0.024437545
29	0x3e871c54	0.263888
30	0x3dba4c6d	0.09096608
31	0x3e381b00	0.1797905
32	0xbebd42f6	-0.3696515
33	0x3db54154	0.08850351
34	0xbe8d3b77	-0.2758443
35	0x3e658bb7	0.22416578
36	0x3e6b67e2	0.22988847
37	0x3e9f3abd	0.310995
38	0x3eefe672	0.46855503
39	0xbd94c615	-0.07264344
40	0xbe51df36	-0.20495304
41	0xbe5b3810	-0.21408105
42	0xbe46fbae	-0.19431946
43	0x3ec2bb3c	0.38033473
44	0x3e0847e8	0.1330868
45	0x3d914d40	0.070948124
46	0xbe70e4c5	-0.23524769
47	0xba9a3ce2	-0.0011767412
48	0xbd83a9bc	-0.06428859
49	0x3e25c1b2	0.1618717

fc.weight f4 [1, 50]
0	0xbddf8b56	-0.10915248
1	0xbe1f9ad2	-0.15586403
2	0x3f0be113	0.5464031
3	0xbe47cab5	-0.1951092
4	0x3da2bd87	0.07946306
5	0x3d143329	0.036181603
6	0xbe6044d3	-0.21901254
7	0x3de6e6a7	0.11274462
8	0xbdf94455	-0.121712364
9	0x3d02260f	0.031774577
10	0xbdc1d25b	-0.0946395
11	0xbc625b10	-0.013815656
12	0x3d915c2a	0.07097657
13	0xbdb157a4	-0.08659294
14	0x3da8a87a	0.08235259
15	0xbcf07356	-0.029351871
16	0x3d5ecace	0.05439263
17	0x3d689e53	0.056791615
18	0xbe5426ef	-0.20717977
19	0x3dd5acf0	0.10433376
20	0xbd78a0db	-0.06070028
21	0xbd7ea2dd	-0.062167037
22	0x3cd4d2ca	0.025979418
23	0xbdcb411c	-0.09924528
24	0x3dd2400e	0.10266124
25	0x3d6e153b	0.058125716
26	0xbdbaef49	-0.09127671
27	0x3e4d6773	0.20058994
28	0xbd8cc472	-0.068734065
29	0x3b5aa209	0.003336074
30	0x3e2fd323	0.17170386
31	0x3e116d3c	0.14201826
32	0x3d17f444	0.037098184
33	0x3e0d7b3a	0.13816538
34	0x3da0e3c8	0.07855946
35	0xbd597028	-0.053085476
36	0x3ddb29f7	0.107013635
37	0x3cf89ad2	0.030347262
38	0x3d739928	0.059472233
39	0x3d8c220c	0.068424314
40	0xbe2b85c6	-0.1675025
41	0xbd7ba715	-0.06143864
42	0x3db2ed5a	0.087366775
43	0x3c9a16aa	0.018809635
44	0xbc4aecfb	-0.012385602
45	0xbe28882f	-0.164582
46	0x3e7de8bd	0.24795814
47	0x3a40e7df	0.000735877
48	0xbd01aa5b	-0.031656604
49	0xbcd2ecee	-0.025747743
