Networks/XLM-EUR/Seed3.pt (torch, 24291 bytes, 14 tensors)

rnn.weight_ih_l0 f4 [32, 5]
0	0x3f2da244	0.6782572
1	0x3f4da562	0.8033048
2	0x3f375c46	0.71625173
3	0x3eba51a2	0.36390406
4	0xbcb9f8b2	-0.022701595
5	0xbe9d6b80	-0.30746078
6	0xbcc473a0	-0.023980916
7	0xbd773425	-0.060352463
8	0x3e8adfd3	0.2712389
9	0x3d16ed10	0.036847174
10	0xbf5356b4	-0.82554173
11	0xbf420979	-0.75795704
12	0xbf4fa1f1	-0.8110648
13	0xbeebedd1	-0.46079877
14	0xbd24b225	-0.040208954
15	0x3ede9872	0.43475682
16	0x3f188b13	0.5958721
17	0x3f359bf9	0.7094112
18	0xbd3977e9	-0.04528037
19	0x3e053b0c	0.13010806
20	0x3f2cfbcc	0.6757171
21	0x3f179d2e	0.5922421
22	0x3f243321	0.64140517
23	0xbe34c011	-0.17651393
24	0xbdc6dc1f	-0.097099535
25	0x3f2c481a	0.6729752
26	0x3ed1d10e	0.4097981
27	0x3f1118f1	0.5667868
28	0xbe456090	-0.19275117
29	0xbe553d3b	-0.20824139
30	0x3e459111	0.1929362
31	0x3d389e5b	0.045072895
32	0x3e070dc6	0.13188848
33	0x3e95f4bc	0.2928828
34	0x3ee3bbd9	0.44479254
35	0x3dfc1dc8	0.12310368
36	0x3e873c3e	0.2641315
37	0x3e3fd154	0.18732196
38	0x3c830b7b	0.015996685
39	0xbe302d8a	-0.17204872
40	0xbec79a9a	-0.3898514
41	0xbe98b213	-0.2982336
42	0xbe935318	-0.28774333
43	0xbe2d305d	-0.1691298
44	0xbe717aec	-0.23582047
45	0xbe2941ff	-0.16529082
46	0xbe872ca6	-0.26401252
47	0xbdf5b647	-0.11997657
48	0xbe51c548	-0.20485413
49	0xbee3a0bb	-0.44458565
50	0xbd9b8d46	-0.07595305
51	0xbeae5a9e	-0.3405351
52	0xbe80bc04	-0.25143445
53	0x3c40dba4	0.011771116
54	0x3e620d40	0.22075367
55	0x3ecfdfc0	0.40600395
56	0x3e915ba2	0.28390223
57	0x3e38c063	0.1804214
58	0x3e9092f9	0.2823713
59	0x3e63f989	0.22263159
60	0xbe9c860f	-0.3057103
61	0xbec004ab	-0.3750356
62	0xbeb28a1c	-0.34870994
63	0xbe642186	-0.22278413
64	0xbd3ba362	-0.04581011
65	0xbec22969	-0.37922218
66	0xbed852ae	-0.4225058
67	0xbee93d77	-0.45554706
68	0x3e0e1576	0.13875374
69	0x3e45680a	0.19277969
70	0x3e21c9cc	0.15799636
71	0x3ed6a17f	0.41920087
72	0x3e0ff648	0.14058793
73	0xbeff5449	-0.49868992
74	0xbf0968f8	-0.53675795
75	0x3f1aefdd	0.6052225
76	0x3ec208fd	0.37897483
77	0x3f10d47e	0.5657424
78	0x3e66ef3f	0.22552203
79	0x3d04c09a	0.03241024
80	0x3e37e3cf	0.17957996
81	0x3e525d0a	0.20543304
82	0x3e8f254c	0.27958143
83	0x3e9880a5	0.29785648
84	0x3e87b646	0.2650625
85	0xbf42c613	-0.7608349
86	0xbf2c4997	-0.6729979
87	0xbf464718	-0.7745223
88	0xbf1a3fc6	-0.6025356
89	0x3d93434b	0.071905695
90	0x3ec834a7	0.3910267
91	0x3ee7c009	0.452637
92	0x3efcdd0e	0.493874
93	0x3db9b9ec	0.09068665
94	0x3da9a80e	0.08284007
95	0xbebb4deb	-0.36582884
96	0xbf0c9df9	-0.5492855
97	0xbef61221	-0.48060706
98	0xbde9225e	-0.11383508
99	0xbde007b8	-0.10938972
100	0xbf3ad548	-0.7298169
101	0xbf55b9bf	-0.8348655
102	0xbf652fda	-0.8952614
103	0xbe44b198	-0.19208372
104	0x3da0c52a	0.07850106
105	0x3ef6d4e6	0.48209304
106	0x3e947798	0.28997493
107	0x3eef37ca	0.4672225
108	0x3ee06a28	0.4383099
109	0x3e85f98a	0.26166946
110	0xbe94fe75	-0.29100385
111	0xbe90b300	-0.28261566
112	0xbebb67a8	-0.3660252
113	0x3f04669b	0.51719064
114	0x3ee017ab	0.43768057
115	0xbe9445d2	-0.2895952
116	0xbe169938	-0.14706886
117	0xbed33b9a	-0.4125641
118	0xbd9ae536	-0.0756325
119	0xbdb2496c	-0.0870541
120	0x3e9460ef	0.28980204
121	0x3e147411	0.14497401
122	0x3da2fe7d	0.07958696
123	0x3e900661	0.28129867
124	0x3e6e607e	0.23278996
125	0x3ef00143	0.46875963
126	0x3f00bee0	0.5029125
127	0x3ef5d717	0.48015663
128	0xbd9eea16	-0.07759492
129	0xbe4543e8	-0.19264185
130	0x3ed38f03	0.41320047
131	0x3ebcdbe4	0.36886513
132	0x3f14b841	0.5809365
133	0x3d1e1165	0.038590807
134	0x3eb20526	0.34769553
135	0x3eac196f	0.33613154
136	0x3f0d0dcf	0.55099195
137	0x3edfc37a	0.43703824
138	0xbd8b9ac3	-0.06816628
139	0x3e31b874	0.1735552
140	0x3eb4803a	0.3525408
141	0x3e9cc566	0.30619353
142	0x3e388dd5	0.18022855
143	0x3f14d611	0.5813914
144	0x3eae50fb	0.34046158
145	0xbf10e4eb	-0.565993
146	0xbeed1bf4	-0.4631039
147	0xbf2fd00d	-0.68676835
148	0xbe4fd704	-0.20296866
149	0xbd08b641	-0.033376936
150	0x3dbc7268	0.09201509
151	0x3dd58928	0.10426551
152	0x3e32f340	0.17475605
153	0x3e77888a	0.2417318
154	0x3d2de762	0.042456992
155	0x3f839f52	1.0282996
156	0x3f4044cb	0.7510497
157	0x3f84b3b8	1.0367346
158	0x3eacc0ce	0.33740848
159	0xbc9ce96b	-0.019154271

rnn.weight_hh_l0 f4 [32, 32]
0	0x3f761c57	0.96136993
1	0x3eaec8ce	0.34137577
2	0xbe598a0e	-0.2124407
3	0xbeedc9d7	-0.46443054
4	0xbe75a72e	-0.23989555
5	0x3dbd01ad	0.09228835
6	0xbdb26e7a	-0.08712478
7	0xbd6f39eb	-0.058404844
8	0x3e356c57	0.1771711
9	0xbf140ca8	-0.5783181
10	0x3eccfec4	0.4003812
11	0x3dce6ca0	0.10079312
12	0xbf650e5a	-0.89475024
13	0x3e2c1f61	0.16808845
14	0xbe98cf9d	-0.29845896
15	0x3d41c97c	0.04731129
16	0x3f1034a9	0.56330353
17	0xbeb0895c	-0.34479797
18	0x3e3e0420	0.18556261
19	0x3e13f2d2	0.14448097
20	0xbeae8a58	-0.34089923
21	0x3f15aaa6	0.58463514
22	0x3dc27168	0.09494287
23	0x3e1ec6eb	0.15505569
24	0x3eff7324	0.49892533
25	0x3e1e3f58	0.15453851
26	0xbdfbdb37	-0.12297671
27	0xbf3bb216	-0.7331861
28	0xbd6047a9	-0.05475584
29	0xbf127feb	-0.5722644
30	0x3f10f5f9	0.56625324
31	0x3ecf5e97	0.40501854
32	0x3da9f76e	0.082991466
33	0x3f0401b0	0.51565075
34	0xbe16ddf5	-0.14733107
35	0xbce62016	-0.028091472
36	0xbe84bdf9	-0.25926188
37	0x3eb46ad0	0.3523774
38	0xbed64d82	-0.4185601
39	0xbee30c13	-0.4434515
40	0x3eeeda2a	0.4665082
41	0xbf3df04e	-0.741948
42	0xbcbbcfe4	-0.022926278
43	0xbe8238cf	-0.25433967
44	0xbef8488d	-0.48492852
45	0xbddf0c1e	-0.10890983
46	0x3d068366	0.032840155
47	0xbdd87712	-0.10569586
48	0x3edbc5c2	0.42924315
49	0xbf0ff377	-0.5623087
50	0x3c4949f9	0.012285703
51	0xbdee3d8e	-0.116328344
52	0x3de5e796	0.11225812
53	0x3f2fd9e0	0.68691826
54	0x3c12a686	0.008950835
55	0x3d2cdd65	0.042203326
56	0x3f85abfc	1.044311
57	0x3e316a00	0.17325592
58	0xbeb0c40b	-0.3452457
59	0xbeb7a7d1	-0.3587022
60	0xbdccd5d6	-0.100017235
61	0x3da35958	0.07976025
62	0x3f534700	0.8253021
63	0x3e9ad492	0.30240303
64	0xbf25ccbb	-0.6476552
65	0xbee4bb97	-0.4467437
66	0x3f427221	0.75955397
67	0xbb2c1576	-0.002625791
68	0xbe2b11ef	-0.1670606
69	0xbe9c16e6	-0.3048622
70	0x3ea652f1	0.32485154
71	0x3cf89557	0.030344648
72	0xbdcb60b4	-0.09930554
73	0x3eb0d045	0.34533897
74	0x3e3344dc	0.17506737
75	0xbe300c38	-0.17192161
76	0x3ea92bb1	0.33041146
77	0x3e9a91f9	0.30189493
78	0x3ec70898	0.38873744
79	0xbc0ac2ad	-0.008469266
80	0xbe5e4707	-0.21706782
81	0x3f1a3465	0.602362
82	0xbf1080bc	-0.56446433
83	0x3ef0858d	0.4697689
84	0x3e6f4cac	0.23369092
85	0xbf10bc18	-0.5653701
86	0x3c75a191	0.014992134
87	0x3e8f311d	0.27967158
88	0xbe9263c7	-0.2859175
89	0xbea7c696	-0.32768697
90	0x3e5c2c40	0.21501255
91	0x3e8aec1f	0.2713327
92	0xbcb73d74	-0.02236817
93	0x3f668f13	0.90062064
94	0xbec71bb8	-0.38888335
95	0xbf016853	-0.5054981
96	0x3eb2c24e	0.34913868
97	0xbec1292a	-0.37726718
98	0x3e0b9278	0.13630092
99	0x3e4887d2	0.19583061
100	0x3e69d9d0	0.22836995
101	0xbed9ccc5	-0.4253904
102	0x3ec29699	0.38005522
103	0x3f0add1d	0.5424364
104	0xbf5c227e	-0.8599013
105	0x3eb316bc	0.34978282
106	0xbed2dc6e	-0.411838
107	0x3f34c6f5	0.70616084
108	0x3eda820a	0.42677337
109	0x3e969a53	0.29414615
110	0xbeaabe9e	-0.33348554
111	0x3f8379d4	1.0271554
112	0xbeb494bb	-0.35269722
113	0xbdc2a8c0	-0.09504843
114	0x3f11e052	0.5698291
115	0xbe29a6e2	-0.16567567
116	0x3ed46a9c	0.41487586
117	0x3d99a5de	0.0750234
118	0xbe837a43	-0.25679216
119	0xbf5bf1f0	-0.8591604
120	0xbec57207	-0.38563558
121	0xbe5df0af	-0.21673845
122	0x3f296cf5	0.6618188
123	0x3ea8a577	0.3293874
124	0x3f598c35	0.84979564
125	0xbecbde3c	-0.3981799
126	0xbea033e6	-0.31289595
127	0xbe763df6	-0.24047074
128	0x3f43fdca	0.76559126
129	0x3ea73b55	0.32662454
130	0xbf0cc363	-0.54985636
131	0x3e29a7a4	0.16567856
132	0x3ecf189e	0.4044847
133	0x3ed3199f	0.41230485
134	0xbd348a2e	-0.04407709
135	0x3eba2628	0.36357236
136	0xbe809186	-0.25111026
137	0xbe803aff	-0.2504501
138	0xbeb84811	-0.35992482
139	0x3ed26786	0.41094607
140	0xbe853687	-0.26018164
141	0xbe756b85	-0.23966797
142	0xbf4e62c4	-0.80619454
143	0xbe56777c	-0.20944017
144	0x3e39a649	0.18129839
145	0xbeec6c1d	-0.46176234
146	0x3f76d9f1	0.964263
147	0xbf2311e8	-0.636992
148	0xbec8fa11	-0.39253286
149	0x3e6c9076	0.23101982
150	0xbf2fee54	-0.68723035
151	0xbf24e928	-0.6441827
152	0x3cd420a1	0.025894465
153	0x3e1cb646	0.15303907
154	0xbe70969d	-0.23494954
155	0x3f0d6297	0.5522856
156	0xbd4b68de	-0.049660556
157	0xbf389db8	-0.7211566
158	0x3e371733	0.17879944
159	0x3df3db96	0.11907117
160	0x3f7c6f8e	0.9860772
161	0x3d1df814	0.038566664
162	0xbedef1c0	-0.43543816
163	0xbca311df	-0.019905983
164	0x3e2685dd	0.16262002
165	0x3ef36451	0.47537473
166	0xbbf63877	-0.0075140554
167	0x3d21fdfb	0.039548855
168	0x3d99297c	0.07478616
169	0xbe767a87	-0.24070178
170	0x3cc5721b	0.024102261
171	0x3d91dc5d	0.07122109
172	0xbefd28ee	-0.4944529
173	0xbf260b9e	-0.64861476
174	0xbee8f5e9	-0.45500115
175	0xbea6ee1f	-0.32603547
176	0x3e498d16	0.19682726
177	0xbee57293	-0.44813976
178	0x3f8d3580	1.1031952
179	0xbf6b11b2	-0.91823876
180	0xbe055531	-0.13020779
181	0x3e9c0cb9	0.30478457
182	0xbf078e87	-0.52951854
183	0xbe9241fe	-0.28565973
184	0x3e0599b6	0.13046917
185	0x3e598f18	0.21245992
186	0xbe802c0d	-0.25033608
187	0x3e369135	0.1782883
188	0xbe853b42	-0.26021773
189	0xbf817728	-1.0114489
190	0x3ee6b5bc	0.45060527
191	0x3ea229c4	0.3167249
192	0x3ec16ea7	0.37779734
193	0xbf20a648	-0.62753725
194	0xbe5e43ff	-0.21705626
195	0x3da61cfd	0.08110998
196	0x3f194747	0.59874386
197	0x3e610f85	0.21978576
198	0x3e8fff3a	0.2812441
199	0x3f4e0409	0.8047491
200	0xbec89dc0	-0.39182854
201	0xba0ceea5	-0.0005376137
202	0xbef32527	-0.47489282
203	0x3e4d4142	0.20044425
204	0xb9b34dc2	-0.00034199475
205	0xbe8517c2	-0.25994688
206	0xbeafd58c	-0.3434261
207	0x3f00f623	0.50375575
208	0x3e41fdba	0.18944445
209	0xbe31dd49	-0.1736957
210	0x3eacc9b8	0.3374765
211	0xbed077d7	-0.4071643
212	0xbf12e104	-0.57374597
213	0xbe22e584	-0.15907866
214	0xbe9e0e67	-0.30870363
215	0xbec38807	-0.38189718
216	0x3c700270	0.014649019
217	0x3ef67e21	0.48143104
218	0x3f031a5c	0.51212096
219	0x3f4a86b9	0.7911182
220	0x3ed869b4	0.42268145
221	0xbf2bf0de	-0.6716441
222	0xbd96530f	-0.07340061
223	0xbece54b4	-0.40298998
224	0x3f31d7c4	0.6946986
225	0xbb340432	-0.002746832
226	0xbf27cb15	-0.65544254
227	0x3ee66e95	0.45006242
228	0x3ed2ab14	0.41146147
229	0x3f1c5fca	0.6108366
230	0xbbfac943	-0.007653387
231	0x3eed556b	0.4635423
232	0xbeaa68c5	-0.33283058
233	0xbf0a5bcb	-0.54046315
234	0xbe984a99	-0.29744413
235	0x3d7b3d5e	0.06133782
236	0xbf756571	-0.9585791
237	0xbf09e850	-0.53870106
238	0xbe85b0ec	-0.26111543
239	0x3ecbef2b	0.39830908
240	0x3f04ca02	0.5187074
241	0xbf32a585	-0.6978381
242	0x3f1f260c	0.6216743
243	0xbf0ca286	-0.5493549
244	0xbecc9647	-0.39958403
245	0x3f125bab	0.57171124
246	0xbf51af26	-0.8190788
247	0xbef0fe26	-0.470689
248	0x3e83c4d5	0.25736108
249	0x3e94e14e	0.29078144
250	0x3db60e26	0.08889417
251	0x3f28e3e9	0.65972763
252	0xbcdde01e	-0.027084406
253	0xbf2c85bc	-0.6739156
254	0x3e17c506	0.14821252
255	0x3d867ee6	0.06567173

rnn.bias_ih_l0 f4 [32]
0	0xbd4fd5f1	-0.05074114
1	0xbbedb55d	-0.007254286
2	0x3dc2fe21	0.095211275
3	0xbddd153a	-0.10795064
4	0x3c8a628a	0.01689269
5	0x3f064fed	0.5246571
6	0xbeda5a3d	-0.4264697
7	0x3d74a746	0.059729837
8	0x3e5d93ac	0.21638364
9	0x3ea53b85	0.32271972
10	0x3cd269cf	0.02568522
11	0xbdd629c7	-0.10457187
12	0xbdf4083b	-0.11915632
13	0xbe948cdd	-0.2901372
14	0x3f00d1ee	0.5032033
15	0xbe0672fa	-0.13129798
16	0xbe5971f2	-0.21234873
17	0x3e6aa9a6	0.22916278
18	0x3e4134c6	0.18867788
19	0xbdfb390a	-0.12266739
20	0x3def28a9	0.11677677
21	0xbe2135d5	-0.15743192
22	0xbf239f8b	-0.6391532
23	0xbe9354bb	-0.28775582
24	0xbde230cd	-0.11044464
25	0x3e01ffd9	0.12695254
26	0xbe87859d	-0.26469126
27	0x3e847e30	0.25877523
28	0xbecf0236	-0.40431374
29	0xbd0fb66d	-0.035086084
30	0xbe8a8f0c	-0.2706226
31	0xbe908ac6	-0.28230876

rnn.bias_hh_l0 f4 [32]
0	0xbe0aff86	-0.13574037
1	0xbe135fda	-0.14392033
2	0x3e5ae96e	0.21378109
3	0x3d6d796c	0.057977125
4	0xbcc968e2	-0.024586145
5	0x3ea27eca	0.31737357
6	0xbf03b0e1	-0.5144177
7	0xbe0d4f41	-0.13799764
8	0x3dff844b	0.12476405
9	0x3e871dcd	0.26389924
10	0xbe22e45f	-0.15907429
11	0xbea26e7c	-0.31724918
12	0x3e348cac	0.17631787
13	0xbe88839b	-0.26662907
14	0x3ed87c67	0.4228241
15	0xbe7ec215	-0.24878724
16	0xbe528ab0	-0.20560718
17	0x3e894240	0.26808357
18	0x3dcb671a	0.099317744
19	0x3cd50138	0.026001558
20	0x3df1e61d	0.11811469
21	0xbe9b2e4a	-0.30308753
22	0xbed21db6	-0.41038293
23	0xbdc16d7f	-0.09444713
24	0x3d91fb22	0.07127978
25	0x3e82fcf0	0.255836
26	0xbe057f6e	-0.13036892
27	0x3dc22ebb	0.094815694
28	0xbe9b5375	-0.3033711
29	0xbcb1ca99	-0.021703051
30	0xbcb9eee8	-0.022696927
31	0x3d376ec5	0.044783372

rnn.weight_ih_l1 f4 [32, 32]
0	0xbf030c62	-0.5119077
1	0x3e90e63a	0.2830065
2	0x3f12d989	0.5736318
3	0x3e54c7d7	0.20779358
4	0xbe874888	-0.26422524
5	0xbe5efc33	-0.21775894
6	0xbdc0ed6a	-0.09420283
7	0xbf32b9c9	-0.69814736
8	0x3e9d9b45	0.30782524
9	0x3e363a40	0.17795658
10	0x3f20b1cb	0.6277129
11	0xbe29acd3	-0.16569833
12	0xbe703a6c	-0.23459786
13	0x3ce984d5	0.028505722
14	0x3e263086	0.16229448
15	0xbe9669fc	-0.29377735
16	0xbe6d1b5c	-0.23154968
17	0x3d6f6930	0.058449924
18	0xbf208ef1	-0.6271811
19	0x3e932774	0.28741038
20	0x3eeabd9e	0.4584779
21	0x3db16d3f	0.08663415
22	0x3ef275a6	0.47355384
23	0x3f49ea3a	0.78873026
24	0xbd707d63	-0.058713328
25	0xbf0071da	-0.50173724
26	0xbf4346a1	-0.76279646
27	0xbf1494ed	-0.5803974
28	0xbe8d3b95	-0.2758452
29	0x3f0733cc	0.5281341
30	0x3e40a8c0	0.18814373
31	0x3e69ca16	0.22830996
32	0x3dc5a912	0.09651388
33	0xbba04ac8	-0.004891727
34	0xbec90700	-0.39263153
35	0x3f60a225	0.8774741
36	0x3e1e0924	0.15433174
37	0x3e3aa275	0.18226035
38	0xbe95d241	-0.29261974
39	0x3e6f13e1	0.23347427
40	0xbee5f4ea	-0.44913417
41	0xbd42f458	-0.047596306
42	0x3d8efc01	0.0698166
43	0x3e9be90a	0.30451232
44	0x3e39cf7e	0.18145558
45	0xbe8355b7	-0.25651333
46	0x3dbb9ee5	0.09161166
47	0x3ce18133	0.027527427
48	0xbdb1535c	-0.08658478
49	0xbeaa0a50	-0.33210993
50	0x3dd9d069	0.10635454
51	0xbe6e618d	-0.232794
52	0xbfabeb2a	-1.3431141
53	0xbd4fb60d	-0.050710727
54	0x3ddf6040	0.1090703
55	0xbdf7fc8f	-0.121087186
56	0x3d4b36b3	0.049612712
57	0x3e769495	0.24080117
58	0x3d7777cd	0.060416985
59	0x3e3242c5	0.17408283
60	0xbdf08c43	-0.11745503
61	0xbe054abf	-0.13016795
62	0xbeac9d13	-0.33713588
63	0xbde0c198	-0.10974425
64	0xbe123219	-0.14276923
65	0xbe5e26ba	-0.2169446
66	0x3f840039	1.0312568
67	0xbf2387a5	-0.6387885
68	0xbe3d87c4	-0.18508822
69	0xbee52c1d	-0.44760218
70	0x3d678c4b	0.05653028
71	0xbe390309	-0.18067564
72	0x3e8635cb	0.26212916
73	0xbe5246ae	-0.20534775
74	0x3d02c03b	0.031921607
75	0xbe7c4c5b	-0.24638502
76	0x3e24d8d9	0.16098346
77	0x3ec221d9	0.3791645
78	0x3e440bf3	0.19145183
79	0xbcf8db33	-0.03037796
80	0xbe01f5a2	-0.12691358
81	0x3e36deea	0.17858472
82	0xbf02dc78	-0.5111766
83	0x3e956677	0.29179737
84	0x3ec8c764	0.39214623
85	0x3e42468a	0.18972221
86	0x3e0d9b13	0.13828687
87	0x3e548e77	0.20757471
88	0xbccf2225	-0.025284836
89	0xbe9c812f	-0.3056731
90	0x3e02fdcc	0.12792128
91	0xbf409f81	-0.75243384
92	0xbd0099f9	-0.03139684
93	0x3eba7bc3	0.36422548
94	0x3e0d6dc2	0.138114
95	0x3bb7f99c	0.0056144726
96	0x3eafc39a	0.3432892
97	0xbda3a951	-0.07991279
98	0x3ef04a9a	0.46931916
99	0xbf067112	-0.5251628
100	0xbec5283f	-0.38507268
101	0xbe11708c	-0.1420309
102	0x3d0370a3	0.03208984
103	0x3cc9b44c	0.024622105
104	0xbcb0edbe	-0.02159774
105	0x3f060c18	0.52362204
106	0xbb324cfe	-0.0027206535
107	0x3e0cfc1b	0.13768046
108	0x3cd2b606	0.025721561
109	0x3e9369d4	0.28791678
110	0x3d129a13	0.035791468
111	0x3e1181f0	0.14209723
112	0xbcbc2ac2	-0.022969607
113	0x3ca8ba11	0.020596536
114	0xbe8eea9f	-0.27913377
115	0x3eb267ed	0.34844914
116	0x3f0c9040	0.5490761
117	0xbe80445b	-0.2505215
118	0xbd9ee3f8	-0.07758325
119	0x3dd906d3	0.10597005
120	0x3dd74e75	0.10513011
121	0x3c9758e5	0.018475005
122	0xbcf2c826	-0.029636454
123	0xbf4c701b	-0.7985856
124	0x3e9aaf2b	0.30211768
125	0x3c4690ad	0.012119454
126	0x3e8ef5f3	0.2792202
127	0xbc83e66d	-0.016101087
128	0x3f88192b	1.0632681
129	0x3d06e28e	0.032930903
130	0xbe80428c	-0.2505077
131	0xbdea4a75	-0.11439983
132	0x3e3804f9	0.17970647
133	0x3d975418	0.073890865
134	0x3eb955e5	0.36198345
135	0x3f183f85	0.59471923
136	0xbf421257	-0.75809234
137	0xbd48399c	-0.048883066
138	0xbf351945	-0.70741683
139	0x3eac3008	0.33630395
140	0x3d8e8b03	0.06960108
141	0xbe9d123c	-0.30677974
142	0xbe61319f	-0.21991585
143	0x3f3d943f	0.7405433
144	0xbe0d6a55	-0.13810094
145	0xbee710eb	-0.45130095
146	0x3f25cb3d	0.6476324
147	0xbdbbf928	-0.09178382
148	0x3d45e6dc	0.048315868
149	0x3e1b8a2a	0.15189424
150	0xbf5a1506	-0.8518833
151	0xbf79b114	-0.97535825
152	0x3e182b92	0.14860371
153	0x3e189732	0.14901426
154	0x3f1ad621	0.60482985
155	0xbdc468a5	-0.09590272
156	0x3f13e67a	0.57773554
157	0xbf4a1429	-0.7893701
158	0x3deb443d	0.11487625
159	0xbdf57c4a	-0.11986597
160	0xbf0b368d	-0.5438011
161	0x3dfc9060	0.12332225
162	0x3dbfbfa9	0.09362728
163	0x3e25efc3	0.16204743
164	0xbf1af87d	-0.60535413
165	0x3e408d75	0.18803962
166	0xbddfccf7	-0.10927766
167	0xbeaf381e	-0.34222502
168	0x3e09c6e0	0.13454771
169	0x3e271bed	0.16319247
170	0x3c997f72	0.018737528
171	0xbe060f04	-0.13091666
172	0xbd45badf	-0.048273917
173	0x3e58198a	0.21103492
174	0x3e8a8444	0.27054036
175	0xbf0a2aef	-0.5397176
176	0x3e8739cb	0.2641128
177	0xbc714bcc	-0.014727544
178	0xbeafad90	-0.34312105
179	0x3e99bd2a	0.30027133
180	0x3e86c6cc	0.26323545
181	0x3e43eaff	0.19132613
182	0x3ea1c697	0.31596825
183	0xbb99e71d	-0.0046967403
184	0xbd1e4de9	-0.03864852
185	0xbd85d306	-0.0653439
186	0xbeb916a7	-0.36150095
187	0xbeaeb4f9	-0.34122446
188	0xbebc7ef4	-0.36815608
189	0x3f4170ca	0.7556273
190	0xbd86c2ff	-0.06580161
191	0x3d231a75	0.039820153
192	0xbf2f31cb	-0.68435353
193	0x3e918709	0.28423336
194	0xbcce1205	-0.025155077
195	0xbf2a876f	-0.66612905
196	0xbe335266	-0.17511901
197	0x3d49e6dc	0.04929243
198	0xbb369979	-0.0027862473
199	0xbe1a6dad	-0.150809
200	0x3eb398c3	0.35077485
201	0xbe2df736	-0.16988835
202	0x3e92cc6c	0.28671587
203	0xbec3b320	-0.382226
204	0x3cff11c5	0.031136403
205	0x3dbc3714	0.09190193
206	0xbb3004e3	-0.0026858381
207	0xbe4fadae	-0.20281097
208	0x3e1a9858	0.15097177
209	0xbda67b88	-0.081290305
210	0xbf5fd159	-0.87428814
211	0x3f35814f	0.70900434
212	0xbd904279	-0.07043929
213	0xbe7150e4	-0.23566014
214	0x3ee4c4c7	0.4468138
215	0x3f04d549	0.5188795
216	0x3e4699af	0.19394563
217	0xbe8c2c44	-0.27377522
218	0xbed6531f	-0.4186029
219	0xbe415c26	-0.18882808
220	0xbbafbb0e	-0.005362875
221	0x3f86f69b	1.0544008
222	0x3e9a348e	0.3011822
223	0x3d6e51cd	0.05818348
224	0xbeacba5d	-0.33735934
225	0xbe79cd24	-0.24394661
226	0x3ec80389	0.39065197
227	0xbecac4ee	-0.3960337
228	0xbeedac26	-0.464204
229	0xbf15ffee	-0.5859364
230	0xbe0ee24b	-0.13953511
231	0xbe5d43e9	-0.21607937
232	0x3ed6eb5d	0.41976443
233	0x396d8388	0.0002265108
234	0x3ecba244	0.39772236
235	0xbe2f8a93	-0.17142706
236	0x3dd4555a	0.10367842
237	0x3ec5e07b	0.38647828
238	0x3d270c26	0.04078307
239	0xbe31330a	-0.17304626
240	0xbe7d14e7	-0.24715005
241	0x3e6e2358	0.2325567
242	0xbea2caf4	-0.31795466
243	0x3f05b7c7	0.52233547
244	0x3f1f85e1	0.6231366
245	0x3e0bdb0c	0.13657779
246	0x3cfb677f	0.030689
247	0x3eb7909f	0.35852525
248	0xbe83ab17	-0.2571647
249	0xbeaf0ebe	-0.34190935
250	0xbea2e21c	-0.31813133
251	0xbf9e80c3	-1.2383045
252	0xbe062ddd	-0.13103433
253	0x3ee50eec	0.44737947
254	0xbe2297cc	-0.15878218
255	0xbb706254	-0.0036679702

rnn.weight_hh_l1 f4 [32, 32]
0	0x3dd1c348	0.10242325
1	0xbf0e68ec	-0.5562885
2	0x3f23377a	0.63756526
3	0x3f5fcb2f	0.8741941
4	0x3e95a09f	0.29224107
5	0xbd4aa12d	-0.049470115
6	0xbe5bba0e	-0.21457693
7	0x3f8a95fc	1.0827022
8	0xbed1110d	-0.4083332
9	0xbcc4edde	-0.024039205
10	0xbe6adc84	-0.22935683
11	0x3d940acf	0.07228624
12	0xbcc4f3f4	-0.024042107
13	0xbed13ad8	-0.40865207
14	0xbe007c30	-0.12547374
15	0xbec180d5	-0.37793604
16	0xbe22d229	-0.15900482
17	0xbe5f503d	-0.21807952
18	0x3dfa8168	0.122317135
19	0xbdf48ebe	-0.119412884
20	0x3f4bbe95	0.7958768
21	0xbea85462	-0.3287688
22	0x3ecfb8c3	0.4057065
23	0xba5b7f63	-0.0008373169
24	0x3e91c924	0.2847377
25	0x3e2e12c4	0.16999346
26	0xbe1a18eb	-0.15048568
27	0xbe11b22e	-0.14228126
28	0xbf0254c4	-0.5091059
29	0xbd0006dd	-0.031256545
30	0x3edfeebc	0.43736827
31	0xbe6b8c63	-0.23002772
32	0x3da51108	0.08059889
33	0x3e1f6b5d	0.155683
34	0xbf0a26ba	-0.5396534
35	0x3eca97c8	0.39568925
36	0x3f3fdf5c	0.74950194
37	0xbf0b95c2	-0.5452539
38	0xbf027b2e	-0.5096921
39	0x3e95a62c	0.29228342
40	0xbf24bbdc	-0.6434915
41	0x3e82583e	0.25457948
42	0xbe019293	-0.1265357
43	0xbed91d00	-0.42404938
44	0x3f08a84e	0.5338181
45	0xbc0148ac	-0.0078908615
46	0x3ee8f993	0.4550291
47	0xbef69116	-0.48157567
48	0xbf47aa91	-0.7799464
49	0xbefbcd9d	-0.49180308
50	0x3f0d59f6	0.55215394
51	0xbe295eac	-0.1654002
52	0x3e96fae3	0.29488286
53	0xbf36a348	-0.713429
54	0xbdb049dc	-0.086078376
55	0xbf403e8e	-0.7509545
56	0x3e8b4b27	0.27205774
57	0x3f58cd7c	0.84688544
58	0xbeae924b	-0.34095988
59	0x3f181ed2	0.5942203
60	0xbd80e2f7	-0.0629329
61	0xbf3bb305	-0.7332004
62	0xbc611718	-0.013738416
63	0xbf076e8d	-0.5290306
64	0xba87a1c9	-0.0010347898
65	0x3e562d01	0.20915605
66	0x3e8f1cd8	0.27951694
67	0xbebd1c2b	-0.36935553
68	0xbef5964a	-0.47966224
69	0x3e8b4ad8	0.2720554
70	0x3e38481d	0.17996259
71	0xbea5db64	-0.32393944
72	0x3e746272	0.23865679
73	0xbe46fde0	-0.19432783
74	0xbc84bbfb	-0.016202917
75	0xbdcfc45d	-0.10144875
76	0xbe44104a	-0.19146839
77	0xbe8ea867	-0.27862856
78	0x3decc98f	0.11561882
79	0x3e91b640	0.28459358
80	0x3cd84512	0.026400123
81	0x3e5134ac	0.20430249
82	0xbc8dc1ce	-0.017304327
83	0xbe0b6ac6	-0.1361495
84	0x3dbf4d57	0.09340923
85	0xbe1cc8c8	-0.15310967
86	0xbd60a03a	-0.054840304
87	0x3e3858ae	0.18002579
88	0x3c92448d	0.017854953
89	0xbe227b75	-0.15867408
90	0x3e693fab	0.22778194
91	0xbe877f0d	-0.2646412
92	0x3d2bce62	0.04194487
93	0x3ed4d365	0.4156753
94	0xbe3237e9	-0.1740414
95	0xbcec5b53	-0.02885214
96	0xbe31cf95	-0.17364343
97	0xbf3a3cf1	-0.7274924
98	0x3f2bd1ee	0.671172
99	0x3d831e36	0.06402247
100	0xbe6fa365	-0.23402174
101	0x3e9213fe	0.28530878
102	0x3e068d55	0.13139851
103	0x3e812bfc	0.2522887
104	0xbe1a7a83	-0.15085797
105	0xbd97b8b0	-0.07408273
106	0x3e83e290	0.2575879
107	0xbe01f05c	-0.12689346
108	0x3ec8a8ad	0.3919119
109	0xbf3e94cf	-0.74445814
110	0xbdd9a3ca	-0.106269434
111	0xbd81560c	-0.0631524
112	0x3cff1273	0.031136727
113	0x3e54bf7d	0.20776172
114	0x3e3a21c4	0.18176943
115	0xbd5e96b1	-0.05434293
116	0xbeb06047	-0.34448454
117	0x3e14a6b8	0.14516723
118	0xbd852c5e	-0.06502603
119	0x3e5dd59c	0.21663517
120	0x3d6c122f	0.05763453
121	0xbe8c8fff	-0.2745361
122	0xbe53bde5	-0.20677908
123	0x3d28dbc8	0.041225225
124	0xbd472282	-0.048616894
125	0x3df4d33a	0.11954351
126	0x3e00f4e4	0.12593418
127	0xbde68b62	-0.11257054
128	0xbf3dada2	-0.7409307
129	0xbeb5fe6d	-0.35545674
130	0x3ec0954d	0.37613907
131	0x3e83d764	0.25750268
132	0xbf641fa8	-0.89110804
133	0x3e0c66de	0.13711116
134	0x3e5fb44b	0.2184612
135	0xbd914d2d	-0.07094798
136	0x3cdd634a	0.027024884
137	0xba598bd3	-0.00082987285
138	0x3f3b28aa	0.73108923
139	0xbead5ce4	-0.33859932
140	0x3ea9937a	0.33120328
141	0xbebe9402	-0.37222296
142	0x3df144ed	0.11780725
143	0xbe60d487	-0.21956073
144	0xbd1f576f	-0.038901743
145	0x3ee9ba27	0.45649835
146	0x3d97b114	0.07406822
147	0x3d5af1a7	0.053453114
148	0xbee0b8d8	-0.43891025
149	0x3eb08df6	0.34483308
150	0xbe4f8645	-0.20266064
151	0xbcf496df	-0.029857097
152	0xbdfdd317	-0.12393778
153	0xbe604ef7	-0.21905123
154	0xbe80bf80	-0.25146103
155	0x3e8aa3a2	0.27077967
156	0x3d916760	0.07099795
157	0xbed194e7	-0.40933916
158	0x3eab02bf	0.33400533
159	0xbd96bb21	-0.07359911
160	0x3e06a347	0.13148223
161	0xbd25a952	-0.04044468
162	0x3e3e457c	0.18581194
163	0x3ed40d28	0.41416287
164	0x3e77358f	0.24141525
165	0xbf619a56	-0.8812612
166	0xbe947f85	-0.2900354
167	0x3e69a2e0	0.22816038
168	0x3e0fc4b2	0.14039877
169	0xbe60c2a0	-0.21949244
170	0xbea746f8	-0.32671332
171	0x3e4981ee	0.1967847
172	0x3ea0353b	0.31290612
173	0xbe755132	-0.23956755
174	0xbe271c96	-0.16319498
175	0xbdf8771b	-0.121320926
176	0xbdd14b4b	-0.10219439
177	0xbdba1e29	-0.09087784
178	0x3dedb59a	0.116069034
179	0x3e95a219	0.29225233
180	0x3ec55a99	0.38545683
181	0x3d83bc4f	0.064324014
182	0x3cfe9f78	0.0310819
183	0x3e62dec8	0.22155297
184	0x3e52af25	0.20574625
185	0x3d7f86ee	0.06238454
186	0x3e03d80a	0.12875381
187	0x3dc7cf72	0.09756364
188	0xbe4f7077	-0.20257746
189	0xbe2f87cc	-0.17141646
190	0x3d4a36bc	0.049368605
191	0x3e43ca41	0.19120122
192	0x3e9f14d5	0.3107058
193	0x3ecca90a	0.39972717
194	0xbedeb2b9	-0.4349573
195	0xbe87b7ea	-0.26507503
196	0xbd0c3ad3	-0.034235787
197	0x3e0795ba	0.1324071
198	0xbe2b67db	-0.16738836
199	0xbf1089ed	-0.5646046
200	0x3e1eac0d	0.1549532
201	0xbe6833f3	-0.22676067
202	0xbd2a9579	-0.041646454
203	0x3ea2d230	0.31800985
204	0xbe40ec7d	-0.18840213
205	0x3e916162	0.2839461
206	0x3cb3875f	0.021915136
207	0x3eba7a2a	0.3642133
208	0x3d605c59	0.05477557
209	0x3e89475f	0.26812264
210	0xbe225913	-0.15854292
211	0x3dc79d31	0.09746779
212	0x3e8b3684	0.2719003
213	0x3f04a98d	0.51821214
214	0xbc816b00	-0.015798092
215	0x3ec5c603	0.38627633
216	0x3e7e53a3	0.24836592
217	0xbe8e28bd	-0.27765456
218	0x3e3cf08b	0.18451135
219	0xbe6f4342	-0.233655
220	0x3e78b1da	0.24286595
221	0x3e4c20f6	0.19934449
222	0xbe89e55b	-0.26932797
223	0x3e1fc8e2	0.15603974
224	0xbe80f03e	-0.2518329
225	0xbf4df30f	-0.80449003
226	0x3e8401d6	0.2578265
227	0x3f2d37be	0.6766318
228	0xbef02280	-0.4690132
229	0x3dbe4ab4	0.09291592
230	0x3f4f189e	0.8089694
231	0xc026c795	-2.6059315
232	0x3dbc76ca	0.09202345
233	0xbea86b54	-0.32894385
234	0x3e9b9d97	0.3039367
235	0xbeb901c6	-0.36134166
236	0xbf031b4a	-0.51213515
237	0xbf554663	-0.83310527
238	0x3ded91c8	0.11600071
239	0xbaa8c9e3	-0.001287755
240	0x3e93cf84	0.2886926
241	0x3e604054	0.21899539
242	0xbe6b4bd6	-0.22978148
243	0xbd154856	-0.036445938
244	0xbedb1789	-0.42791393
245	0x3ea2e446	0.31814784
246	0x3efc74d8	0.49307895
247	0x3e8d0983	0.2754632
248	0x3ee1a537	0.4407136
249	0xbe12f5de	-0.14351603
250	0xbe22af4e	-0.15887186
251	0xbee979e7	-0.45600817
252	0xbeeae769	-0.45879677
253	0x3f015fd2	0.50536835
254	0x3e97539e	0.29555982
255	0x3e476843	0.19473366

rnn.bias_ih_l1 f4 [32]
0	0x3eae24b4	0.34012377
1	0x3e913f63	0.28368673
2	0x3d84a1b8	0.06476158
3	0x3dd146dd	0.10218594
4	0xbd5bfc51	-0.053707425
5	0x3e46bf58	0.1940893
6	0xbe500725	-0.20315225
7	0x3d5db654	0.05412896
8	0x3e04ec73	0.12980823
9	0xbe0023e3	-0.1251369
10	0xbec519e5	-0.38496318
11	0x3e9eda88	0.310261
12	0x3ce2527d	0.027627224
13	0x3cabaeb0	0.02095732
14	0xbe618c31	-0.22026135
15	0xbe9f43cc	-0.31106412
16	0x3e27f6e9	0.16402782
17	0x3cb93bba	0.022611488
18	0xbec9aa9a	-0.3938797
19	0x3ec20436	0.37893838
20	0x3e683047	0.22674666
21	0xbc826b26	-0.015920233
22	0xbe57f88c	-0.21090907
23	0x3da0760e	0.07835017
24	0x3d824436	0.063606665
25	0x3d25a876	0.04044386
26	0x3eaa2d4d	0.33237687
27	0x3b4b742f	0.0031044593
28	0xbd659465	-0.056049723
29	0xbdde771e	-0.108625636
30	0xbdcfe49f	-0.10151028
31	0x3ed14884	0.40875638

rnn.bias_hh_l1 f4 [32]
0	0x3e0c7b10	0.1371882
1	0x3e5cb794	0.21554404
2	0xbe0ceb15	-0.13761552
3	0x3dfbc586	0.12293534
4	0xbaa0078d	-0.0012209282
5	0x3ada9220	0.0016675629
6	0xbea51324	-0.32241166
7	0x3d2d2645	0.042272825
8	0x3e1c7816	0.15280184
9	0xbe0c046f	-0.13673566
10	0xbe39894a	-0.18118778
11	0x3ed4f7dd	0.41595355
12	0xbe8820b1	-0.26587442
13	0xbe5a4f8b	-0.21319406
14	0xbe7e4eaa	-0.24834695
15	0xbeb372f8	-0.35048652
16	0x3ea4cd78	0.3218801
17	0x3dfb0a46	0.12257819
18	0xbe8f6de4	-0.28013527
19	0x3ea2703a	0.31726247
20	0x3e73d986	0.23813447
21	0xbdb268d8	-0.087114036
22	0xbe90703c	-0.28210628
23	0xbc31fcf1	-0.010863529
24	0x3dcc1c4d	0.099663354
25	0xbd1cc2fb	-0.038271885
26	0x3e8764a3	0.26443967
27	0xbe1321c9	-0.14368357
28	0x3d15e5fe	0.03659629
29	0xbc1fc1a2	-0.0097507555
30	0xbded5b98	-0.11589736
31	0x3e22e5b3	0.15907936

rnn.weight_ih_l2 f4 [32, 32]
0	0x3e305ade	0.17222163
1	0x3e48f4d8	0.1962465
2	0xbc8381ac	-0.016053043
3	0xbd2d94ca	-0.042378224
4	0xbe19be7a	-0.15014067
5	0x3d912e8f	0.070889585
6	0xbe2b8103	-0.16748433
7	0xbd1919a9	-0.037377987
8	0xbe56e410	-0.20985436
9	0xbdb8ae82	-0.0901766
10	0xbe234aa2	-0.15946439
11	0xbb132001	-0.0022449496
12	0xbefd73e4	-0.4950248
13	0xbe25738b	-0.16157357
14	0xbe899241	-0.26869395
15	0x3d53acad	0.05167835
16	0x3ce0ff5e	0.027465519
17	0xbd7dda41	-0.06197572
18	0xbd9cebe8	-0.07662183
19	0x3e1502ad	0.14551802
20	0xbe324b14	-0.17411453
21	0xbe5465d1	-0.20741965
22	0x3e199df7	0.15001665
23	0x3dca5d85	0.09881119
24	0xbdeb869e	-0.115002856
25	0xbd9f0887	-0.07765298
26	0x3d86d39e	0.065833315
27	0xbe73976d	-0.23788233
28	0x3dcfb6df	0.10142302
29	0xbe26d55f	-0.16292332
30	0xbdaf6f87	-0.08566194
31	0x3e3cf3c6	0.18452367
32	0x3d974bd9	0.07387514
33	0xbebffe13	-0.3749853
34	0x3d6fd7e8	0.058555514
35	0x3e1db76d	0.15402003
36	0xbe18b44c	-0.14912528
37	0xbc936b8b	-0.017995616
38	0x3dda9857	0.10673588
39	0x3e89f961	0.26948074
40	0x3dee0518	0.11622065
41	0x3e3c07f2	0.18362406
42	0x3eb1bf90	0.34716463
43	0xbec0a418	-0.37625194
44	0x3e51a6ec	0.20473832
45	0xbda05257	-0.07828205
46	0x3e417e6a	0.1889588
47	0xbdbc525a	-0.09195395
48	0xbe2f0727	-0.17092572
49	0xbe6cd55e	-0.23128268
50	0x3ea6d768	0.32586217
51	0xbce3246f	-0.027727334
52	0xbecf7240	-0.40516853
53	0xbe2124aa	-0.15736642
54	0x3d9aa2fd	0.07550619
55	0xbdc1f50a	-0.094705656
56	0xbdbf96d3	-0.09354939
57	0x3e61a16a	0.22034231
58	0xbe348b1e	-0.17631194
59	0x3e756b75	0.23966773
60	0xbd4f55d3	-0.050618958
61	0xbe890a99	-0.26765898
62	0x3ebb9321	0.36635688
63	0xbe86091f	-0.26178834
64	0xbc9c0afb	-0.019048205
65	0x3baf318e	0.0053464836
66	0xbed33763	-0.41253194
67	0xbe1476d5	-0.14498456
68	0x3e265dff	0.16246794
69	0xbdbce84c	-0.092239946
70	0xbcba7da8	-0.022764996
71	0xbe955483	-0.2916604
72	0x3d674516	0.05646237
73	0xbe20be07	-0.1569749
74	0x3d9c5110	0.07632649
75	0xbdb24d59	-0.08706159
76	0x3a90d8c1	0.0011050926
77	0xbdf8d165	-0.12149314
78	0xbe80bfb7	-0.25146267
79	0x3d117350	0.03551036
80	0xbe227d62	-0.15868142
81	0x3da28d43	0.079371
82	0x3d812b60	0.06307101
83	0x3df59a37	0.11992305
84	0xbe390cc6	-0.18071279
85	0xbe831e56	-0.25609082
86	0xbdc64534	-0.09681168
87	0x3d8394ed	0.0642489
88	0xbd44cf8b	-0.04804949
89	0x3c91fab4	0.01781974
90	0x3c923eaf	0.017852155
91	0x3b1616c6	0.0022901758
92	0x3e2e8196	0.1704162
93	0xbd9aa528	-0.07551032
94	0xbecc9e89	-0.39964703
95	0x3dd46fc3	0.10372879
96	0x3e02f009	0.12786879
97	0xbddf587b	-0.10905548
98	0xbd85cba3	-0.06532981
99	0xbdf96264	-0.1217697
100	0xbde2b03b	-0.110687695
101	0x3dd6913b	0.10476919
102	0xbde6ee00	-0.11275864
103	0xbe0ef1c6	-0.13959417
104	0xbd688c6a	-0.056774534
105	0xbe39cbf8	-0.18144214
106	0xbdd1d69e	-0.10246013
107	0x3e10c331	0.1413696
108	0x3ebdcebf	0.37071797
109	0x3cc8b331	0.024499508
110	0xbe4d7c62	-0.2006698
111	0xbe505297	-0.20344006
112	0xbd3ae861	-0.04563177
113	0xbe83f68f	-0.25774047
114	0x3d6ddaa7	0.05806985
115	0x3e68010f	0.22656654
116	0x3e0d187f	0.13778876
117	0xbe5b903d	-0.21441741
118	0xbe8a6e25	-0.2703716
119	0x3c857233	0.016289806
120	0xbe11f0fd	-0.14252086
121	0xbe1f2d47	-0.15544616
122	0xbde63a3a	-0.112415746
123	0x3e30cd93	0.1726592
124	0xbda563ea	-0.08075698
125	0xbdcd4b0b	-0.10024079
126	0xbca74a48	-0.020421162
127	0x3e5a3481	0.21309091
128	0x3e4e7ffd	0.20166011
129	0x3e256e6e	0.16155407
130	0xbd9458fa	-0.072435334
131	0xbce7af56	-0.028281849
132	0xbe0c76d4	-0.13717204
133	0xbe02caeb	-0.1277272
134	0xbd79ed73	-0.061017465
135	0xbe89bddf	-0.26902673
136	0x3d3b047f	0.045658585
137	0xbdd25fc2	-0.102721706
138	0xbcac2070	-0.021011561
139	0xbd42d53d	-0.04756664
140	0xbd5dde29	-0.054166947
141	0x3c230ff2	0.009952532
142	0x3d2572c2	0.040392645
143	0xbc5c2cf2	-0.01343845
144	0x3dfaed10	0.12252247
145	0xbe00e444	-0.12587076
146	0x3e62a1b7	0.22132002
147	0x3dd9cfd5	0.10635344
148	0x3cfb1eb6	0.030654293
149	0xbea965c3	-0.3308545
150	0xbe082714	-0.13296157
151	0xbc5b2b8e	-0.013377083
152	0xbdb33787	-0.087508254
153	0x3d529b39	0.051417563
154	0x3de96279	0.11395735
155	0xbd9e09df	-0.077167265
156	0x3d5fafbf	0.054610964
157	0xbde4eb88	-0.111777365
158	0xbe26bef5	-0.16283782
159	0xbdfd2b55	-0.123617806
160	0xbd1012b4	-0.035174087
161	0xbb04b63e	-0.0020250226
162	0x3c8265f5	0.015917758
163	0xbdf5dfdb	-0.12005588
164	0xbe355d6b	-0.17711417
165	0x3e1132ee	0.14179584
166	0x3e9e99ee	0.30976814
167	0xbd453022	-0.048141606
168	0xbe065bfc	-0.13121027
169	0x3c55c531	0.013047502
170	0x3dc48c59	0.09597082
171	0x3dfab52f	0.12241589
172	0xbd608034	-0.054809764
173	0x3e851bc9	0.2599776
174	0x3ea8df5c	0.3298291
175	0xbb0f3a57	-0.0021854842
176	0x3d91d7c6	0.07121234
177	0x3d61199a	0.054956056
178	0x3cdd92c2	0.027047519
179	0xbeab210d	-0.33423653
180	0xbde8679a	-0.113478854
181	0x3e8d6649	0.276171
182	0xbd4ec805	-0.050483722
183	0x3e67c585	0.22633941
184	0x3e739d0f	0.23790382
185	0xbe0e1d2b	-0.13878314
186	0xbd956689	-0.07294948
187	0x3d836cd5	0.064172424
188	0x3e49df64	0.19714123
189	0x3e060e8a	0.13091484
190	0xbdc84a66	-0.097798154
191	0xbdef3f11	-0.11681951
192	0xbd999ee5	-0.0750101
193	0xbf89b305	-1.0757757
194	0x3e872df4	0.26402247
195	0x3ea5d061	0.32385543
196	0xbdd76ad5	-0.105184235
197	0x3e24b70c	0.16085452
198	0x3e32da05	0.1746598
199	0x3f2b6b18	0.6696029
200	0x3e1f269c	0.15542072
201	0x3e42b95e	0.19016024
202	0x3d0f359a	0.034963228
203	0xbe1b2dc1	-0.15154172
204	0x3d19d6fa	0.037558533
205	0x3c974355	0.018464724
206	0xbd9bde97	-0.07610815
207	0xbe66650c	-0.22499484
208	0x3db1a8e0	0.086747885
209	0x3deb78d2	0.11497654
210	0x3d8a6247	0.06757026
211	0x3dbcd74f	0.09220754
212	0x3e3d713e	0.1850023
213	0x3df8fd8d	0.12157736
214	0x3e4e045e	0.20118853
215	0x3de6a7d2	0.11262478
216	0x3e4745ee	0.1946027
217	0xbd4a2765	-0.049353976
218	0xbe008f92	-0.12554768
219	0xbd45eb9e	-0.048320405
220	0xbd368f2a	-0.044570126
221	0xbda4b96e	-0.080431804
222	0x3ea2caea	0.31795436
223	0xbdd9104c	-0.105988115
224	0xbdc97a52	-0.09837784
225	0x3e080594	0.13283378
226	0x3ec61a22	0.38691813
227	0xbea8b7b8	-0.32952666
228	0xbe86895e	-0.26276678
229	0xbf2b4086	-0.6689533
230	0x3e86a0a1	0.26294425
231	0xbd12aa6b	-0.035807054
232	0x3ec43442	0.3832112
233	0xbe361708	-0.17782223
234	0xbe5f3f8b	-0.21801583
235	0x3ec654d4	0.38736594
236	0xbf0eb593	-0.5574581
237	0x3e55132b	0.20808093
238	0xbe603b78	-0.21897686
239	0x3e684e73	0.22686176
240	0x3f03c409	0.51471
241	0x3f330974	0.699363
242	0xbeda4fc5	-0.42638984
243	0x3f3ae642	0.73007596
244	0x3e8c0c68	0.27353215
245	0x3ddca8ba	0.107743695
246	0xbf049c96	-0.5180143
247	0x3efe0616	0.49614018
248	0xbf05c2a5	-0.5225013
249	0xbf1139e3	-0.56728953
250	0x3ea28588	0.317425
251	0xbf17aaed	-0.5924519
252	0x3e894050	0.2680688
253	0x3f700db0	0.93770885
254	0x3e80e1b7	0.25172207
255	0x3f24092c	0.64076495

rnn.weight_hh_l2 f4 [32, 32]
0	0x3e2c1b43	0.16807275
1	0xbe1962f1	-0.1497915
2	0x3ecfa895	0.40558305
3	0x3e37935e	0.1792731
4	0x3eb15b7a	0.34640104
5	0xbd0e12c9	-0.034685884
6	0x3c2448d8	0.010027133
7	0xbe74267b	-0.23842804
8	0xbe783f14	-0.24242812
9	0xbe950a91	-0.29109624
10	0xbc26f33b	-0.010189827
11	0x3e312df7	0.1730269
12	0xbd9d8ad4	-0.07692495
13	0x3de0f3c3	0.10983994
14	0x3e6de60f	0.23232292
15	0x3e99779d	0.2997407
16	0x3ea8fac1	0.3300381
17	0xbe9f9f13	-0.31176051
18	0xbe912325	-0.28347126
19	0xbe4011b7	-0.18756758
20	0x3e65e641	0.22451116
21	0xbe5b72ed	-0.2143056
22	0x3eb08c69	0.34482124
23	0xbdc01ad2	-0.093801156
24	0x3cb94724	0.02261693
25	0xbddc02e2	-0.10742737
26	0xbc3b59a8	-0.01143495
27	0x3c1c7e5d	0.009551612
28	0x3dc2967d	0.095013596
29	0x3e8415a2	0.25797755
30	0xbe451955	-0.19247945
31	0x3e00525c	0.12531418
32	0xbe2a5d1a	-0.16637078
33	0x3e10062b	0.14064853
34	0x3dc5fa12	0.09666838
35	0xbd70efaf	-0.05882233
36	0xbe0d62bd	-0.13807197
37	0x3da66907	0.08125501
38	0x3dda4df2	0.10659398
39	0xbeca6b08	-0.39534783
40	0xbe869959	-0.2628887
41	0xbc74078b	-0.0148943765
42	0xbc722eda	-0.014781678
43	0x3d6c02d0	0.05761987
44	0xbdc1cb90	-0.094626546
45	0xbe62e27b	-0.22156708
46	0xbdc16906	-0.0944386
47	0x3db81a8a	0.08989437
48	0x3e136abd	0.14396186
49	0xbe89062c	-0.2676252
50	0xbe039ad8	-0.12852037
51	0xbd31ab18	-0.04337606
52	0xbd8d14a0	-0.068886995
53	0xbdd505dd	-0.10401509
54	0xbe0ed611	-0.13948847
55	0xbe831b64	-0.25606835
56	0xbe427aa0	-0.1899209
57	0x3e2e8cfe	0.17045972
58	0x3cf180be	0.029480334
59	0xbd11692a	-0.035500683
60	0x3e51781c	0.20455974
61	0x3dea0109	0.11425979
62	0x3e5288f8	0.20560062
63	0x3ddb12eb	0.10696968
64	0x3ee730d5	0.45154443
65	0x3e2e9b2f	0.17051385
66	0x3ef0025d	0.46876803
67	0x3e7d8f8a	0.24761787
68	0x3ed10e0a	0.40831023
69	0x3c067243	0.008205953
70	0xbda074c9	-0.07834775
71	0xbe391844	-0.18075663
72	0xbe19a15c	-0.1500296
73	0xbe6e8c1c	-0.23295635
74	0x3e7f28ec	0.24917954
75	0xbc49552b	-0.012288372
76	0x3e441517	0.1914867
77	0x3e384540	0.17995167
78	0x3efb095c	0.49030578
79	0x3e57bcb7	0.21068083
80	0x3db427ed	0.08796678
81	0xbe965749	-0.29363468
82	0xbeb14b2e	-0.3462767
83	0xbe32c0b4	-0.17456323
84	0x3dea993c	0.114550084
85	0xbe72993f	-0.23691271
86	0x3ec8fea8	0.39256787
87	0xbddf81b5	-0.109134115
88	0x3e1428c0	0.1446867
89	0x3cee3ed9	0.029082702
90	0x3e142918	0.14468801
91	0x3e89cb4b	0.26912913
92	0x3d783933	0.060601424
93	0xbc17cd5c	-0.00926527
94	0xbe700e36	-0.23442921
95	0x3ce69c2f	0.028150646
96	0x3df1794a	0.11790712
97	0xbddf35d5	-0.108989395
98	0x3d879dad	0.06621871
99	0x3e065690	0.13118958
100	0x3e98ecf3	0.29868278
101	0xbe96dd3a	-0.29465657
102	0xbdb95aa8	-0.090504944
103	0xbe809cd2	-0.25119644
104	0xbe8ee587	-0.2790949
105	0xbe6842a4	-0.22681671
106	0x3ea2a747	0.31768247
107	0x3e9177c1	0.28411677
108	0xbe030bf5	-0.1279753
109	0x3e2fde9b	0.17174761
110	0x3e25c3ad	0.16187926
111	0x3e6b8341	0.22999288
112	0x3efe073c	0.49614894
113	0xbe95d14a	-0.29261237
114	0xbca39f2a	-0.019973356
115	0xbe666690	-0.22500062
116	0x3ef73a58	0.482867
117	0xbe6bc6fb	-0.23025124
118	0x3e6e5dfd	0.23278041
119	0xbd904130	-0.070436835
120	0xbdf48376	-0.11939137
121	0xbeb018c3	-0.34393892
122	0xbdf6e55c	-0.120554656
123	0x3e5e0cfc	0.2168464
124	0xbd0d234e	-0.034457497
125	0x3ec1a888	0.37823892
126	0xbe12de13	-0.14342527
127	0xbd8403a0	-0.06446004
128	0x3e071cf7	0.13194643
129	0xbd91c458	-0.07117528
130	0x3eb306fd	0.3496627
131	0x3e3e280e	0.18569967
132	0x3e8b44d6	0.27200955
133	0xbe5de939	-0.21670999
134	0xbd95e14c	-0.073183626
135	0xbe91b203	-0.28456125
136	0xbd337246	-0.04381015
137	0xbeb89f54	-0.36059058
138	0xbcf926cc	-0.030414008
139	0x3eaf9885	0.3429605
140	0xbd28f62b	-0.04125039
141	0x3bb997bc	0.00566384
142	0x3e676114	0.22595626
143	0x3e4785cf	0.19484638
144	0x3e2564cc	0.16151732
145	0xbe0a80aa	-0.13525644
146	0xbe24f28c	-0.1610815
147	0x3dbea458	0.0930869
148	0x3e886b1e	0.26644224
149	0xbea503d0	-0.3222947
150	0x3d490311	0.04907519
151	0xbccb52e3	-0.024819797
152	0x3dd69daa	0.10479291
153	0xbe0482ff	-0.12940596
154	0x3e33770f	0.17525886
155	0x3dabca7b	0.083882295
156	0xbd863d3b	-0.065546475
157	0x3dfef2eb	0.12448677
158	0xbe98057f	-0.29691693
159	0x3e40cac4	0.18827349
160	0xbe3e49c6	-0.1858283
161	0xbdfb2e92	-0.12264742
162	0xbee9fffe	-0.4570312
163	0xbe22c522	-0.15895513
164	0xbe972182	-0.29517752
165	0x3ec56020	0.385499
166	0xbd375599	-0.044759367
167	0xbe105a25	-0.14096887
168	0x3e98f7a4	0.29876435
169	0x3edea5b3	0.43485793
170	0xbe868586	-0.26273745
171	0xbe6432fd	-0.22285075
172	0xbe1195b4	-0.14217263
173	0xbeeb9c53	-0.46017703
174	0xbda42d07	-0.08016401
175	0xbe749edd	-0.23888727
176	0xbefffdcb	-0.49998316
177	0x3e6785aa	0.22609583
178	0x3e6e1d06	0.23253259
179	0x3ee19b92	0.44064003
180	0xbe96d401	-0.2945862
181	0x3e340690	0.17580628
182	0xbe04c40a	-0.12965408
183	0x3eac285b	0.3362454
184	0xbe0aed04	-0.13566977
185	0xbc840842	-0.016117219
186	0xbe41f68e	-0.1894171
187	0xbee9e6b5	-0.45683828
188	0xbca74b91	-0.020421775
189	0xbc8e229c	-0.017350487
190	0x3eae9e2b	0.34105048
191	0xbd43eb34	-0.04783173
192	0x3e8717aa	0.26385242
193	0x3e796fee	0.24359104
194	0x3eaadb5a	0.33370477
195	0x3f1145cc	0.56747127
196	0x3e90ef89	0.2830775
197	0xbec9d9d9	-0.39424017
198	0xbe91376b	-0.28362593
199	0x3c9abd2d	0.018889034
200	0xbec4ed6c	-0.3846239
201	0xbe39abf2	-0.18131998
202	0x3ed5b955	0.4174296
203	0x3e4cad98	0.19988096
204	0x3e22cfdf	0.15899609
205	0xbd6c693a	-0.05771754
206	0x3e89859f	0.26859757
207	0x3ea4d1e8	0.32191396
208	0x3ed4e7a4	0.41582978
209	0xbea8c7d5	-0.3296496
210	0xbe93c06a	-0.28857738
211	0xbec211ca	-0.37904197
212	0x3eb39b6a	0.3507951
213	0xbe7b524d	-0.24543114
214	0x3e8cf457	0.27530167
215	0xbeea8dd8	-0.45811343
216	0x3e1515e6	0.14559135
217	0xbb60b567	-0.0034287812
218	0x3dff2712	0.12458624
219	0xbc1f77c3	-0.009733143
220	0xbe0c1b70	-0.13682342
221	0x3e50bd3a	0.20384684
222	0xbec549d0	-0.38532877
223	0x3e874e01	0.264267
224	0xbe1169a0	-0.14200449
225	0xbe7b3207	-0.24530803
226	0x3de6758d	0.1125289
227	0x3eba9fb2	0.36449963
228	0xbdd841ea	-0.10559447
229	0x3e8c5284	0.27406704
230	0xbe402145	-0.18762691
231	0xbe84ed78	-0.25962424
232	0x3ea69fb8	0.3254373
233	0xbd94b34b	-0.0726076
234	0xbedda556	-0.43290204
235	0xbe0284a7	-0.12745915
236	0x3de1bcce	0.1102234
237	0x3f0e4ce9	0.55586106
238	0xbe507c82	-0.20359996
239	0xbdf3cf81	-0.119048126
240	0xbdd0f280	-0.10202503
241	0x3e14358e	0.14473554
242	0xbe0c0515	-0.13673814
243	0x3d98c2b3	0.07459011
244	0xbe850615	-0.25981203
245	0x3d86e192	0.06585993
246	0x3ebe0b4c	0.37117994
247	0xbdf78112	-0.12085165
248	0x3ee46f14	0.44615996
249	0x3f44f305	0.7693332
250	0xbe6306db	-0.22170584
251	0x3eaf44a3	0.34232053
252	0xbecfd98c	-0.40595663
253	0x3e2436dc	0.16036552
254	0xbca36352	-0.01994482
255	0x3dd455b2	0.103679076

rnn.bias_ih_l2 f4 [32]
0	0x3e1d18cc	0.1534149
1	0xbe0062a8	-0.12537634
2	0x3e96cb1c	0.29451835
3	0x3d795f96	0.060882173
4	0x3d57bad3	0.052668404
5	0xbeb9f47c	-0.3631934
6	0x3ebc9e2c	0.36839426
7	0xbd28a557	-0.041173305
8	0xbcae7537	-0.021296127
9	0xbe4dd195	-0.2009948
10	0x3debab81	0.11507321
11	0x3e2d8fa2	0.16949323
12	0x3d37916f	0.04481643
13	0x3e7ab63f	0.24483584
14	0x3e8c3744	0.27385914
15	0x3e7ed1e4	0.24884754
16	0x3e8014bc	0.2501582
17	0x3d91be22	0.07116343
18	0xbf8659bc	-1.0496135
19	0xbe96e579	-0.2947195
20	0x3dd03f83	0.10168364
21	0xbe27c1c8	-0.16382515
22	0x3e99a877	0.3001134
23	0xbe078405	-0.13233955
24	0x3e2dda2b	0.16977756
25	0xbcce3cdf	-0.02517551
26	0xbdec2aba	-0.11531587
27	0x3edc465c	0.4302243
28	0xbdd8842c	-0.10572085
29	0xbd760cda	-0.06007085
30	0xbd8428cd	-0.06453095
31	0xbf292a58	-0.66080236

rnn.bias_hh_l2 f4 [32]
0	0x3d8791ad	0.06619582
1	0x3dd733aa	0.10507901
2	0xbc3ff0a2	-0.011715086
3	0x3cae5370	0.02128002
4	0x3e06b9ee	0.13156864
5	0xbeaca97a	-0.3372305
6	0x3d3235f1	0.043508474
7	0xbd734ab4	-0.059397414
8	0xbcd4a05c	-0.025955372
9	0xbdd8fd91	-0.10595239
10	0x3e1870d4	0.1488679
11	0x3e90baf8	0.28267646
12	0xbe5dfdbf	-0.21678828
13	0x3e84c0d0	0.25928354
14	0x3ea8d243	0.32972917
15	0x3ed4185f	0.41424844
16	0x3d367459	0.04454455
17	0xbd088024	-0.03332533
18	0xbf97e54a	-1.1866848
19	0xbd8fb4b0	-0.07016885
20	0x3dd94ff4	0.10610953
21	0xbea0d718	-0.31414104
22	0x3e0c7b65	0.13718946
23	0xbe90a328	-0.28249478
24	0xbdc36b38	-0.09541935
25	0x3da6b6de	0.08140348
26	0xbce15215	-0.02750496
27	0x3e963494	0.2933699
28	0xbdf4eafa	-0.11958881
29	0xbe4e1fd9	-0.20129336
30	0xbe66b248	-0.22528946
31	0xbf120e9a	-0.5705353

fc.weight f4 [2, 32]
0	0x3ca4303d	0.020042533
1	0x3d87a0f9	0.066225
2	0x3d62a92d	0.05533712
3	0x3d60fe76	0.054930173
4	0x3c325959	0.01088556
5	0xbb1e353b	-0.0024140615
6	0xbc9469ee	-0.018116917
7	0xbd8bb820	-0.068222284
8	0x3c2a4e8c	0.010394704
9	0x3d8355b0	0.06412828
10	0x3da71d81	0.08159924
11	0xbd561942	-0.05227018
12	0xbdedd4c1	-0.11612845
13	0xbd511423	-0.051044594
14	0x3e181a6a	0.14853826
15	0xbda5e1ae	-0.080996856
16	0xbda431bb	-0.08017298
17	0xbd966326	-0.0734313
18	0xbd4c361e	-0.049856298
19	0xbd54e6ee	-0.051978044
20	0xbd8e11ef	-0.06937014
21	0xbcf8dbe2	-0.030378286
22	0xbdc29e55	-0.09502856
23	0xbc55f5f8	-0.013059132
24	0x3e41a8f6	0.1891211
25	0x3d3f8968	0.0467619
26	0x3ceb8d7c	0.028753988
27	0xbd9262a0	-0.071477175
28	0x3e0dc514	0.1384471
29	0xbc2bee16	-0.010493776
30	0xbe09c09b	-0.1345238
31	0x3d4cb54f	0.049977597
32	0xbccfd05c	-0.025367908
33	0x3d78bca4	0.060726777
34	0x3b62ef43	0.0034627474
35	0x3d370835	0.04468556
36	0xbcb50059	-0.022094892
37	0xb9ea7e07	-0.00044725856
38	0x3c4cb33e	0.012493907
39	0xbd08d404	-0.03340532
40	0x39e0c30f	0.0004286994
41	0xbab27d2b	-0.0013617625
42	0xbcbe1936	-0.02320538
43	0x3decdbdb	0.115653716
44	0xbe043e75	-0.1291445
45	0xba3f0535	-0.00072868477
46	0x3cf75ba8	0.030195072
47	0x3d0b8961	0.03406656
48	0xbd40361f	-0.046926614
49	0xbdb87109	-0.09005935
50	0xbdaddec7	-0.08489757
51	0xbdbeccbe	-0.09316395
52	0xbd93a837	-0.07209819
53	0x3be3cb4a	0.006951724
54	0xbdb3f262	-0.08786465
55	0xbd407890	-0.046989977
56	0x3e33512b	0.17511432
57	0x3a9bfd8a	0.0011901122
58	0xbb23db5c	-0.0025002575
59	0xbd879c90	-0.06621659
60	0x3e073623	0.13204245
61	0xbc14aa9a	-0.009073878
62	0x3daac153	0.08337655
63	0x3cee0fb3	0.02906022

fc.bias f4 [2]
0	0x3e8010d5	0.25012842
1	0x3e0e34b6	0.13887295
