Networks/LQTY-EUR/askSeed2.pt (torch, 33123 bytes, 9 tensors)

rnn.weight_ih_l0 f4 [50, 1]
00000000: ca50 9f3e 31cc 253f 6a39 94c0 a200 92c0
00000010: 35d3 e23e 5ff4 40c0 306c eabf 57f2 6c3f
00000020: 0b32 8bbf 22c2 1dbf 5be3 48bf 282b 4840
00000030: d302 bcbe e3a7 9abd f41c 6540 e336 c8bf
00000040: dc7d 9e3f 7a87 733f b885 26bf 90f2 cfbf
00000050: 125c 4bbf b440 08bf cc22 19be d0b9 b2bf
00000060: 9a8f 2dbe 34b1 f3be de29 0f3e c2a1 25bd
00000070: 93ec 2b3f 010c 4cbf 922b 5040 488e c4bd
00000080: e843 dfbf 5980 5e3f 8203 0b40 ca5c 443f
00000090: d6a0 d83f aff9 b9bd fb62 3f3f f33e 0d3f
000000a0: ac3a b93e 982b 9e3e 87f0 a33f 1edd 263f
000000b0: 7825 af3f 21d1 12bf 044e 85bc 1214 f33e
000000c0: e9ba b2bf dae0 8b3f
0.31116325 0.64764696 -4.6320086 -4.5625772 0.44301763 -3.0149152 -1.8314266 0.9255728
-1.0874647 -0.6162435 -0.78471917 3.127634 -0.36720905 -0.07551553 3.5798922 -1.564175
1.2382159 0.95128596 -0.6504779 -1.6245899 -0.79437363 -0.5322373 -0.1495468 -1.3962955
-0.16949311 -0.47596133 0.13980815 -0.040437467 0.6715786 -0.79705817 3.2526593 -0.095974505
-1.7442598 0.86914593 2.172089 0.76704085 1.6924083 -0.090808265 0.7476041 0.5517418
0.36177576 0.30892634 1.2807778 0.6518115 1.368331 -0.57350355 -0.016272552 0.4747625
-1.396329 1.0927994

rnn.weight_hh_l0 f4 [50, 50]
00000000: 813a c03d 7324 ab3e fdd0 f13c 9693 63be
00000010: d90f 81be 591a 75bd 3420 1b3d 1210 c3bc
00000020: eaab 32be ed95 283c c631 bfbc 5f8e 8f3e
00000030: e357 f0be 7cdb 4dbf 199e eb3e 227f 48be
00000040: 57bb 693d 685c dd3e cd8b 4abd 7aa3 94bc
00000050: b559 52bc 15f8 5dbe 10f6 953e ded8 713e
00000060: 50af ddbd e7fb c2be 58f4 743e f413 283d
00000070: 6280 353e ed1e 85be daa2 64be 3691 f7bd
00000080: ae60 8f3e d208 0abd 5980 8abc 89ab 293e
00000090: d358 2abe 769c e6be 7bbc 873e 9168 073f
000000a0: e305 99bc 01fe 4a3c 7a74 bf3e ccd8 14be
000000b0: b650 43be c97a 373e e8f9 a5be ac8e 073e
000000c0: cfd3 e8be bfcf 1ebe a3d6 13bf 0e9b e0be
000000d0: 66b7 103f aeae 723d a9c1 83be ce10 083f
000000e0: 7217 f83e 10d2 2a3f 05c3 f23d dbed d63e
000000f0: a124 b13e 873a 1b3e 4e51 4b3a aedb fcbd
00000100: 8514 4fbe 9b9d 143e f274 2ebf 494d 183e
00000110: 9141 703e 243b fc3e e3fa 343f 453c 153f
00000120: 3b80 17bf b3a0 c9bc ec99 1bbf aa0e 8bbe
00000130: 7198 21be b1af cb3e f567 05bf 068a b03d
00000140: 571c af3e 1044 c83d 2a37 f33d 30f0 8cbe
00000150: 28c1 783e 1768 87bd fa64 2cbf 7502 193f
00000160: a8ea 553e 546e e2bd 86cc de3d ab17 43bf
00000170: fc3a 4dbd c815 21bf 9081 3abf 8026 aa3e
00000180: 9e48 6cbe d9c5 b7bd 2d63 94bd 86f2 4bbc
00000190: 90f3 7ebe 835f f7be 8cf4 2c3e ae9a 793f
000001a0: 62c7 283f 02bd 8ebc 4fcb e23d 6c65 933d
000001b0: 83c7 b03c 601f 3c3e 082b aabe 7f20 003d
000001c0: befd 1f3e 393e 883e 338e 37c0 6992 59be
000001d0: a6fc dbbe 3b6e 81bd da16 d43d 54c8 0b3e
000001e0: a383 203e a5b5 3e3e a4b7 29be fab5 90be
000001f0: 8e7b 1dbe 7b2f cc3d 8fec d1be 3fbb 3dbb
00000200: d122 2bbf 54da 233e d41e 883e dfdf ee3d
00000210: 7d6b 41be f435 ec3e 7540 88be abf3 8abd
00000220: ee68 b0be 5eeb 703e 18f7 a9be e959 f4bd
00000230: c35f 46bd 901b a23d 7a19 d3be 24e6 a9be
00000240: fe9e 6abe fcb6 a6be a668 d23d ceb9 833d
00000250: 067f 463f 8776 a53e 5b13 e5bd 03a6 033f
00000260: 310c de3c 9f8b a8be 0bc6 abbe 8e5b 4a3f
00000270: 084c 51be 4943 3bbe de08 16bf 1d82 edbd
00000280: c08f 1b3f b6f1 e0bf 6d48 4ebf bd87 b8be
00000290: 17a5 5cbd ce07 04bf 84f2 623d faba a83e
000002a0: 3d4c 18be f65a 383c ef25 65be e2ae f23b
000002b0: 4faa 72bd 9d78 1b3e 0ae4 a73e bfe3 f5bd
000002c0: b318 2d3f 4108 bcbd 1213 44be 8c07 1dbf
000002d0: f726 cabe 8088 c5be fc4c 1b3f 246a dc3e
000002e0: df51 c93d 46e1 a53e f565 6c3d b13a 563e
000002f0: f1c4 bc3e 7744 b23e 7c95 9c3d 4914 223e
00000300: e84c d03e f185 813e 8e22 b1bd cda7 d8bd
00000310: 6db4 4abe 22ce e13e 41ad 873e 4117 7e3e
00000320: 5820 093f 4c3f 3e3e 0a08 98be 8eb4 75bd
00000330: 4946 393d 6995 6dbf 0987 c4be 428e 05bf
00000340: 380e 23bd f258 3bbe 4904 a2be dc1d 6d3c
00000350: 8f7b 693d d784 073d 6a97 c5bd 8b3e c53d
00000360: e498 283f 0d43 65be 60e4 9bbe 15b4 2dbf
00000370: 8912 8ebe 281d d5bd 4413 d73e 8439 533b
00000380: 1095 c23e 47a0 123e a5ef 013f bbba a3be
00000390: 118c e73f e4f6 0cbe ea40 083c 6203 ef3d
000003a0: 8f86 ce3d 8c2a 5bbd f929 ebbd dbb2 68be
000003b0: 6f10 0b3f 8213 ccbe e317 f43c 12b1 5fbc
000003c0: f15c 85be 29bf 1f3f eaac ae3d fffa 883e
000003d0: ff7f ee3e 740b 38be bdf9 4f3e 5802 923c
000003e0: a13d 17bd deea ff3e 9d78 6cbe 1f4e 89bd
000003f0: 103c 503f c0af f53e 4a59 d1bc a618 1abe
0.09386159 0.33426246 0.029518599 -0.22224268 -0.25207403 -0.05983958 0.03787251 -0.023811374
-0.17448393 0.010289651 -0.023339164 0.28038308 -0.46942052 -0.8041303 0.46019056 -0.19579747
0.057063427 0.43234563 -0.04944973 -0.018144358 -0.012838771 -0.21676667 0.29289293 0.23617885
-0.10824454 -0.3808281 0.23921335 0.041034654 0.17724755 -0.26000157 -0.22327748 -0.12088244
0.28003448 -0.033699818 -0.016906904 0.16569342 -0.16635446 -0.45041245 0.26510987 0.5289393
-0.018679565 0.012389661 0.37393552 -0.14535826 -0.19073758 0.17917933 -0.32417226 0.13238019
-0.45474097 -0.15508936 -0.57749385 -0.43868297 0.56529844 0.05924862 -0.25733688 0.5315064
0.48455387 0.6672678 0.11853603 0.41978344 0.34598258 0.15159045 0.0007755951 -0.12346588
-0.20222671 0.14513247 -0.68147194 0.14873232 0.23462512 0.4926387 0.7069532 0.5829509
-0.5918004 -0.02461276 -0.6078174 -0.27159625 -0.15780808 0.3978248 -0.5211175 0.08620076
0.3420131 0.09778607 0.11875756 -0.27527 0.24292433 -0.066116504 -0.6734158 0.59769374
0.20890296 -0.110562 0.108788535 -0.7620799 -0.05010508 -0.6292386 -0.72853947 0.33232498
-0.23074576 -0.08973283 -0.07245479 -0.012447959 -0.24897599 -0.48315057 0.16890162 0.9750165
0.65929234 -0.01742411 0.11073934 0.07197079 0.02157951 0.18371344 -0.33235955 0.03128099
0.15624139 0.26609972 -2.8680542 -0.21247257 -0.42966193 -0.06319853 0.10355921 0.13650638
0.15675215 0.1862398 -0.1657396 -0.28263837 -0.15379164 0.09969994 -0.41000792 -0.0028950719
-0.6685 0.16001254 0.2658602 0.11663794 -0.1888866 0.46134913 -0.26611677 -0.06784757
-0.34455055 0.23527285 -0.3319633 -0.119312115 -0.04843117 0.079154134 -0.41230375 -0.33183396
-0.22912213 -0.3256148 0.10273866 0.06431924 0.7753757 0.32316992 -0.111853324 0.5142519
0.027105423 -0.32919022 -0.33549532 0.7904595 -0.2043916 -0.18287386 -0.5860728 -0.11597083
0.6076622 -1.7573764 -0.8057926 -0.3604106 -0.05386838 -0.5157441 0.055407062 0.32955152
-0.14872833 0.0112521555 -0.22377752 0.0074061016 -0.05924445 0.15182729 0.32791167 -0.1200633
0.67615813 -0.09181262 -0.191479 -0.6133964 -0.39482853 -0.38580704 0.60664344 0.4304973
0.09830069 0.32398432 0.05771442 0.20920826 0.36869004 0.3481786 0.076456994 0.1582805
0.40683675 0.25297502 -0.08649169 -0.105788805 -0.1979539 0.4410258 0.2649937 0.24813558
0.5356498 0.18578833 -0.29693633 -0.059986643 0.045233045 -0.92806107 -0.38384274 -0.52170193
-0.039808482 -0.18295649 -0.31643894 0.014472451 0.0570026 0.03308567 -0.096480206 0.0963107
0.6585829 -0.22388859 -0.30447674 -0.6785291 -0.27748516 -0.10405952 0.42006886 0.0032230327
0.3800435 0.14318953 0.50756294 -0.31978402 1.808962 -0.13766056 0.008316258 0.11670567
0.10084259 -0.053507373 -0.11482615 -0.22724478 0.5432195 -0.39858633 0.029796546 -0.013653057
-0.2604747 0.6240106 0.085290745 0.26753995 0.46582028 -0.17973119 0.20310111 0.017823383
-0.03692401 0.49983877 -0.23092885 -0.067043535 0.8134165 0.4798565 -0.025555272 -0.15048465

rnn.bias_ih_l0 f4 [50]
00000000: 6ed9 98be 8d1a 0dbe dd84 8f3e b2f7 fe3e
00000010: da37 c53d 18ad 8e3f f892 923e bb9f 313f
00000020: 4942 1b3e fda3 463d 7ce4 343d b6a9 753e
00000030: b5bd db3e 5fc4 623e ba22 ffbe 6116 c03e
00000040: f21e acbe 85a7 75bd 3f36 cd3d 0844 c43e
00000050: cce5 763e 35de 9dbd 3708 21be 854f b0be
00000060: 5a63 41bd c5c1 423e 914d 72bd a540 8d3c
00000070: 5046 603e 2003 913e 48c9 033f 81ef 493e
00000080: 4698 9f3e dde2 73be 2883 0fbe 9dc5 633e
00000090: 733b bebe 9549 763e b3e6 01be a607 3bbe
000000a0: 05ba babe 5e6a 14be ac0e 96be a60e 0dbc
000000b0: 4a30 33be 61fd 053e a93d 0f3e 6f59 083e
000000c0: 5607 2b3f d330 bfbd
-0.29853386 -0.1377966 0.28031054 0.49798352 0.096297935 1.1146574 0.28627753 0.69384354
0.15162005 0.048496235 0.044163212 0.23990521 0.42918172 0.22145222 -0.49831182 0.37517074
-0.3361736 -0.059974212 0.10020112 0.38333154 0.24111098 -0.07708398 -0.1572579 -0.3443567
-0.04721389 0.1901923 -0.059156004 0.017242739 0.21901822 0.28322697 0.51479006 0.1972027
0.31170863 -0.2381701 -0.14014876 0.22243352 -0.3715473 0.24051507 -0.12685661 -0.18264636
-0.36470047 -0.14493701 -0.2930807 -0.0086094495 -0.1749889 0.13084938 0.13988365 0.13315366
0.6680807 -0.09335484

rnn.bias_hh_l0 f4 [50]
00000000: 2176 95be 81bb 98bd b0a9 493e f9b7 e73e
00000010: 47c1 be3d 2778 933f 04f0 933e 1bf1 ff3e
00000020: 94a2 923e 8f9f 8b3e 6b05 dbbd 44e3 a33e
00000030: e793 c53e 00ad e13e 1f91 12bf 3b84 2b3e
00000040: 137a f9bd e4bc 97bd 53ac 5c3e d0b3 d53e
00000050: 1439 623e 630c 853a 766c 543d 6638 ebbe
00000060: 3418 52be 7d00 553e 9e0c efbc 23b9 04be
00000070: 9e72 b23e 8143 d93c dbf1 c53e 3471 753d
00000080: b0f3 363e 07e8 f2bd d1de f3bd aa83 793e
00000090: 5708 f8be 72f3 793d b873 ddbd b313 29be
000000a0: 0977 4abe ed1a 023d ef64 0fbf 5424 2abe
000000b0: 54be 39be ab2e 663e 997e c03d c780 9bbd
000000c0: 0d1c 153f 3f45 5fbe
-0.29191688 -0.074576385 0.19693637 0.45257547 0.093142085 1.1521043 0.28894055 0.49988636
0.28639662 0.2727017 -0.10694393 0.32009327 0.38589403 0.440773 -0.5725269 0.1674966
-0.12181487 -0.07409075 0.21550111 0.4173875 0.22092086 0.0010150786 0.05186125 -0.45941466
-0.20517045 0.20800968 -0.029180821 -0.12961249 0.3485307 0.026521446 0.38661084 0.059922412
0.17866397 -0.11860662 -0.11907733 0.24366632 -0.48443863 0.061023183 -0.10813087 -0.16511421
-0.19771971 0.03176396 -0.5601339 -0.1661542 -0.1813901 0.2247874 0.093991466 -0.07592922
0.5824593 -0.21803759

rnn.weight_ih_l1 f4 [50, 50]
00000000: 2af6 7b3e 6053 ac3c e6fc 74c0 6308 3c3e
00000010: 3fa5 6d3e 2858 80be 9efb 1dbf e8b2 74be
00000020: f690 0dbe e8ab b6be 537a 8abd 191f 0d40
00000030: be82 b63c d667 1cbe 7189 93be bce6 82bc
00000040: c2de 063e ea95 b6bd bc2c 87be 6a49 b4bf
00000050: 81ac a4be 0309 c5be f820 ae3e 0314 04be
00000060: 6d93 683e b5b5 e93d 5fef a93d cba5 6bbe
00000070: 9345 633f 8c04 a0be d889 8c40 da3f f5b9
00000080: 2a5e 4b3e 3a6d 803e df0e b5be d773 4f3d
00000090: 388b f23e 60b3 70be ae24 17bc 73f7 703d
000000a0: b570 7d3d 69d6 5a3e 7d26 e43d 2df3 433e
000000b0: e818 9b3e d7dc 1ebe 5a11 00be d0d5 2d3e
000000c0: 1068 a6bc e7b7 90be 328a 993e 38df 00bd
000000d0: e363 0cbe a286 c43e 0bfc 913c acf7 72be
000000e0: cdb1 d6be 8d07 80be 3d0b 253e 0227 843c
000000f0: 298a 9fbd e1ef 6cbf ef28 cdbc bd0b 67bd
00000100: 048a d5be 287f 47bd 614b 433e b759 1bbc
00000110: ce54 1f3d cf11 32be a7b4 31be eea5 21be
00000120: 1703 8c3e 89ac 0a3e b439 993e 1c0d 4abd
00000130: 65cf 44be c967 97be 4976 603d a8f1 1f3d
00000140: 585c 5fbf b053 2ebe 97ef 743e 6b60 9fbd
00000150: ceb7 e4bd 0ad3 0d3e 0d80 f03d 194b 74be
00000160: 3da3 7cbc 6dae 11bd 733b c03d 2420 563e
00000170: d9db a4bd 429d 313e 1c3c ed3d aa93 6b3c
00000180: d068 24bd 5173 a03d 1045 033f 3458 bebf
00000190: 0017 eabd ea12 6e3e c0ad 44bd 7cdd 5bbe
000001a0: 61fd 07be e39b 49bd d378 d0bd b97f 193e
000001b0: cf81 163d adac afbd 3e90 8e3e 7f3c cdbd
000001c0: 05af 5cbe 7c96 cfbe 5c9d 463f dfa8 0dbe
000001d0: 7a78 4e3d a5cd 8d3e eb71 55bd 2d65 513d
000001e0: 9f2d 203e d3bd 9fbe 3f0d 4abc bb5a 9f3c
000001f0: abc1 0fbe c3a7 dcbe e6f1 89bc 2cf5 0c3c
00000200: 4b3f 92bd 0a47 82be d583 0fbe 6578 79be
00000210: b64f 9abc 1fae d6be c0bd 4c3e 71d3 783e
00000220: 9e36 b2bd f21c 91bd a728 3b3e 9125 9e3e
00000230: d69b fe3e 1599 283e 4139 043f e422 2fbe
00000240: ec2a d0bc b2d7 823e d155 85be a720 bd3d
00000250: 0871 9fbe e387 ddbe bc30 0abf f898 bc3e
00000260: 1d11 f23e fb9f 9cbf 6824 86be 7983 b6be
00000270: 47b1 a43e 0b9d 053f 84fc f5bd 3441 213e
00000280: f6d0 4c3e 16d9 1e3e acf1 86be b910 03be
00000290: 251c 233f 78eb a33d 6e17 91be 8dcd 4cbc
000002a0: 46f3 ae3e 9135 ce3e a208 ac3e 5944 cc3e
000002b0: 9f2e 17bf 9255 813d 6936 f1be 7d79 98be
000002c0: 956b bdbe f114 dc3e 2d28 c83e bf5b 50bd
000002d0: 9148 bd3e b67c 52bd fb0b 353e 19ff 10be
000002e0: bd07 4c3e 93d1 0b3d f9e5 8bbe 3027 ff3e
000002f0: ed3c cc3d 92cb 1b3e 7df7 683e 73f1 ffbe
00000300: cca0 273e 751c dbbe 6e21 f5be aa84 bc3c
00000310: 8fea 80be 1e4b 2fbd 220c 7bbe 1f98 d63e
00000320: 318f a73d 7770 243f 26a9 b43e 1ef5 1abe
00000330: 4373 07bf f5c8 1e3e bc00 d73d 079c 39be
00000340: 272d acbe 8bba 26be 5f9a c33e 169f f4be
00000350: ddde 26bf 5388 1fbf b13c 2d3d 2171 1ebe
00000360: 0722 2d3d 0066 5e3f b27f 4cbe b949 2ebe
00000370: 63dc 273b a4f9 42be 9d21 013e 136b 073f
00000380: ec77 343e d1f9 1abf e110 193e 1dce ca3a
00000390: f3e5 c2be a6cb 2dbf ed8e 27bf b076 59be
000003a0: fe12 ca3e bb0f 6cbe d987 e13a 7f9f 6d3e
000003b0: c5c3 5e3e f993 07be 03e4 e93e e62d 173f
000003c0: 59eb 313e aa21 8c3e cc4e da3e 001f c5bd
000003d0: 5645 c93d 105b a83e 7fdc eebe d731 cd3e
000003e0: 4931 643e 4f51 19bf 087f adbe 6a68 1abf
000003f0: d869 433e 618c b93d a356 153f ba27 89bc
0.24605623 0.02103585 -3.8279357 0.18362574 0.23207568 -0.25067258 -0.6171206 -0.23896372
-0.1382483 -0.3567803 -0.06761613 2.205023 0.02227914 -0.15273985 -0.28815797 -0.015979163
0.13170913 -0.089153126 -0.26401317 -1.4084904 -0.3216286 -0.38483438 0.34009528 -0.12898259
0.22712488 0.11411611 0.082976095 -0.23012464 0.88778037 -0.3125347 4.3918266 -0.00046777615
0.1986014 0.25083333 -0.35362908 0.050647583 0.4737184 -0.23505926 -0.009225054 0.058829736
0.061875064 0.21370853 0.111401536 0.19135733 0.3029244 -0.15513931 -0.12506619 0.16976094
-0.020313293 -0.28265306 0.29988247 -0.031462878 -0.13709979 0.38383967 0.017820379 -0.23727292
-0.41932526 -0.2500576 0.16117568 0.016131882 -0.07790024 -0.92553526 -0.025043933 -0.05640768
-0.4170686 -0.04870525 0.19071724 -0.009481839 0.038899235 -0.17389606 -0.1735407 -0.15785953
0.27346107 0.1354238 0.29926836 -0.04932891 -0.1921974 -0.2957137 0.054800306 0.03904882
-0.8725028 -0.17024112 0.23919521 -0.07782062 -0.111678705 0.13850036 0.11743174 -0.23856772
-0.015419778 -0.035566736 0.09386339 0.20910698 -0.08049745 0.17345145 0.115837306 0.014378468
-0.04013902 0.07834495 0.51277256 -1.4870667 -0.11430168 0.23249403 -0.048017263 -0.21471208
-0.1328025 -0.04922093 -0.101792954 0.14990129 0.03674489 -0.08577857 0.27844423 -0.10021304
-0.2155114 -0.40544498 0.7758386 -0.1383395 0.050407864 0.27695957 -0.052110594 0.05112188
0.15642403 -0.31199512 -0.01233226 0.019452443 -0.14038722 -0.43096742 -0.016838979 0.008603375
-0.071409784 -0.25444824 -0.14015134 -0.24362333 -0.018836837 -0.4192972 0.19994259 0.24299408
-0.08701824 -0.07085599 0.18277226 0.30888036 0.49728268 0.16464646 0.5164986 -0.17103153
-0.025411092 0.25555187 -0.26042035 0.092347436 -0.31140924 -0.43267736 -0.5398061 0.36835456
0.4727868 -1.2236322 -0.2619965 -0.3564718 0.32166502 0.52192754 -0.12011054 0.1574753
0.20001587 0.15512499 -0.26356256 -0.12799348 0.6371482 0.080038965 -0.28338188 -0.012500179
0.34169978 0.40275243 0.33600336 0.39895895 -0.59055513 0.06315149 -0.47111824 -0.29780188
-0.3699614 0.42984727 0.39093152 -0.050868746 0.36969426 -0.051388465 0.17680351 -0.14159812
0.19924827 0.034135412 -0.27323893 0.49834585 0.09972558 0.15214375 0.2275066 -0.499889
0.16369933 -0.42795148 -0.47877067 0.023012478 -0.25178954 -0.042796247 -0.24516347 0.41912934
0.081816085 0.6423411 0.352853 -0.15132567 -0.5291025 0.15506347 0.10498187 -0.18125926
-0.33628199 -0.16282098 0.38203713 -0.47777623 -0.6518381 -0.6231739 0.042294208 -0.15472843
0.04226878 0.8687439 -0.19970587 -0.1702031 0.0025613538 -0.19040543 0.12610479 0.5289776
0.17623872 -0.6053744 0.14947845 0.0015472803 -0.38066062 -0.6788887 -0.6545246 -0.21236682
0.39467615 -0.23052876 0.0017206623 0.23205374 0.21754368 -0.13240041 0.45681772 0.5905441
0.17374934 0.27369434 0.42638242 -0.096250534 0.09827678 0.32881975 -0.466526 0.40077087
0.22284426 -0.5988969 -0.3388598 -0.60315573 0.19083345 0.09059978 0.5833532 -0.016742576

rnn.weight_hh_l1 f4 [50, 50]
00000000: 90bb 3bbe c391 a13d 0e3e ed3e 8156 7ab9
00000010: 5e27 e83e 76ef 3fbe a392 04be fff1 25be
00000020: a70c 3c3e 0a18 1cbe a8ae 1ebe 2b8b e13b
00000030: bab1 0abe 942b f73d fa89 483e 112f 79be
00000040: 43a1 143e bfe8 91bd 24a7 283f daaf 653d
00000050: bc70 c43e 1599 a6be 51e5 b3bd 1ea2 c73d
00000060: 93d1 1ebe e9c8 bf3c 85d9 adbd 9e2d 0bbe
00000070: b34a 943d 0b30 7b3e 2a2d 39be eb20 993d
00000080: 498f d9bc dd40 c83d 3a26 30be 5508 d73d
00000090: 77e2 553e 90ec 633e eafe 57be 5f8c 66be
000000a0: 2ece 943f 598b 5e3e 33d8 263e 9d48 e13d
000000b0: 8f51 4abf 90dd 5e3e f50e bbbe e28c 98be
000000c0: a6e0 eebc 2c05 1dbd 3737 0abd 9240 35be
000000d0: 3a83 093e 4ee2 da3d e7b8 533e b407 1d3e
000000e0: 74ed 633d ec44 68be 767c a03e 4c93 1d3e
000000f0: 049c 11be 241a 4d3c 06f8 3abe 15e4 2f3e
00000100: 1d4d 3abe 5167 3ebe 33e2 77bd 95a4 57bc
00000110: 5510 323e aca8 52bd f727 9c3e e2d8 a73d
00000120: 54a6 f5bd a4eb a63d cb37 133c 3b4e 483d
00000130: 493f 8c3e 3965 00bf f244 9e3e eb7f b13e
00000140: 58bf 083d f2a2 143d 5281 58be 0b23 b83b
00000150: 1248 85be a9e8 143e 3b46 ad3d 93e5 833e
00000160: e441 d43d 1e67 16be 203f a33d 64a7 66bb
00000170: aa9b 5b3d 1dca c83d c18b 07bd 58e1 cd3d
00000180: 5cc7 f4bd f942 d0bd 41e5 453e 84e7 813d
00000190: 9d1a 4ebf 1909 89be 4b82 29be d522 8c3e
000001a0: 767c 6a3d d6dd b63c ac94 b63d 1785 823c
000001b0: c8d8 66be 8c0f ba3d 9703 a5be 4178 cb3e
000001c0: c146 e23d 209e 983d 3bc7 05bd 13d6 783d
000001d0: 1678 5ebd fa54 013e 799f 39be 9f87 223d
000001e0: 85d1 3abe b324 89be 8391 b4be 14c5 883e
000001f0: cf04 c93d 512d 34bd 8501 193d 5718 993e
00000200: 221d 7f3c b994 393d 9452 b83e a751 973d
00000210: bac2 e33d 10eb 5ebe 692d 0b3e ee12 b43d
00000220: 92aa 403e c072 85be ef93 413e 5e73 3e3d
00000230: afe6 5f3d a771 44be d3c5 76be b252 a23e
00000240: 9b6b d43b 27cd 763e ca5e 5ebe b3dc 113d
00000250: 6cec 7d3d 683c a73e 784e 09be 9fe5 61be
00000260: a90e 1abf 29cb 633e 4393 f0be 7d3d 203e
00000270: a2ea 39be de46 f13e 67b3 f2be 1ac0 f43e
00000280: cde3 bb3e fbad 9f3d 47c8 b93d b6ab c33d
00000290: 701e 81be 34a0 0b3f 42d7 b8bd 8008 bd3e
000002a0: 03ae 89be 2738 15bf 7e1f e6be aa24 913d
000002b0: b8cd 9f3d 6dde fabd 4be2 8b3d af7a 03bf
000002c0: 8fca eabe baf8 7b3e ba52 02bf 2d08 57bf
000002d0: 5ad6 763d 7e19 123d 25cc 623e c11a 0ebe
000002e0: 7aaa c23e 82a1 8a3e 739e 963d 7619 56be
000002f0: 9013 263e 8e63 b33e 0555 f5bb 441a 01be
00000300: 8a42 54bd a77a 1bbf b1de f13e f498 33be
00000310: 4ec3 e43e a229 033f 696d 5d3e 731d 3dbe
00000320: bbdb fdbe d210 abbe 57cd 933e 9e88 9c3e
00000330: 29af 373e 0f4c 5dbe 7c49 ffbd 2ee3 7ebb
00000340: 7e34 483d b516 7b3d 82f6 cfbd f0f5 703e
00000350: d4d7 fa3b a3cd 48be 848b 823d cafe 48be
00000360: 5ed2 0a3e ba47 413e b214 eabe 4409 4f3e
00000370: be4f 11be 6d32 37be e13c 13be d092 6a3e
00000380: c3d3 543d a1ef b73c 44f0 e63d ca8c 883d
00000390: 231e 123e ebee 8cbd e425 19bd 4581 43bd
000003a0: 42e7 993e 4202 afbe 5829 913c 778b acbc
000003b0: 1ebe 64be 7753 52be 9d70 ac3e cb62 a23e
000003c0: f137 c73c 2851 343e 3d48 98be d8f2 673d
000003d0: 7ce6 8dbe b2e9 3f3e ab84 9ebe 92d6 e9bd
000003e0: b302 1d3e b602 b63e b653 fe3e 1ca7 ff3e
000003f0: e7c5 babe d4e7 1abf 5117 8bbe 123c 89bd
-0.18333268 0.0788913 0.46336406 -0.00023874083 0.45342535 -0.18743691 -0.12946562 -0.16205595
0.18364201 -0.15243545 -0.15496314 0.006883045 -0.1354436 0.12068859 0.19583884 -0.2433436
0.14514641 -0.07124471 0.65880036 0.05607591 0.3836726 -0.32538667 -0.08783973 0.09747718
-0.15509634 0.023411231 -0.08488754 -0.1359162 0.0724081 0.24530046 -0.18083635 0.07476982
-0.026557581 0.09777997 -0.17202082 0.10499636 0.2088717 0.2225821 -0.21093336 -0.22514485
1.1625421 0.21732844 0.16293411 0.11000178 -0.790307 0.21764207 -0.3653485 -0.29794985
-0.029159855 -0.03833501 -0.033744063 -0.17700413 0.13428965 0.106876954 0.20676003 0.1533497
0.055646375 -0.22682542 0.31344956 0.1538822 -0.14219671 0.012518439 -0.18258676 0.1717685
-0.18193479 -0.185941 -0.060518455 -0.013161798 0.17389043 -0.05143039 0.3049924 0.08195664
-0.11994615 0.08150414 0.00898547 0.04890273 0.27392033 -0.50154454 0.30911976 0.34667906
0.033385605 0.03628821 -0.21143082 0.005619412 -0.26031548 0.14541878 0.08460661 0.2576109
0.1036413 -0.14687774 0.079710245 -0.0035194987 0.05361525 0.09804175 -0.033092264 0.100527465
-0.11952087 -0.10169024 0.19325735 0.06342986 -0.8050936 -0.26764753 -0.16553609 0.27370325
0.0572476 0.022322576 0.08915076 0.015932603 -0.22543633 0.090849966 -0.322293 0.39740184
0.110486515 0.07452035 -0.032660704 0.060751032 -0.05431374 0.12630072 -0.1812724 0.03968012
-0.18243988 -0.26785812 -0.35267267 0.2671286 0.0981537 -0.04398853 0.037354965 0.29901382
0.015570911 0.04530785 0.36000502 0.07388621 0.111211255 -0.21769357 0.13591541 0.08792673
0.18815067 -0.2606411 0.18904088 0.04649674 0.054663356 -0.1918398 -0.24098901 0.31703717
0.006482554 0.24101697 -0.21715847 0.035610866 0.061993048 0.32663274 -0.1340884 -0.2206025
-0.6017862 0.22245468 -0.46987352 0.15648456 -0.18155912 0.4712438 -0.47402498 0.47802812
0.36697236 0.07796856 0.09071403 0.09554236 -0.25218534 0.54541326 -0.09025432 0.36920547
-0.26890573 -0.58288807 -0.44945902 0.07087071 0.078029096 -0.122494556 0.06830271 -0.51359075
-0.45857665 0.246066 -0.5090748 -0.8399685 0.060263015 0.035668842 0.22148187 -0.13877393
0.38020688 0.27076346 0.073544405 -0.2090815 0.162184 0.35036892 -0.0074869418 -0.12607676
-0.05182127 -0.6073403 0.47240213 -0.17538816 0.44680256 0.512354 0.21623768 -0.18468265
-0.49581704 -0.3341127 0.288676 0.3057298 0.17937912 -0.21611045 -0.12465188 -0.0038892734
0.048878185 0.061300952 -0.101544395 0.23531318 0.0076551232 -0.19609694 0.06374267 -0.19628444
0.13556811 0.18875018 -0.45718914 0.20218378 -0.14190575 -0.1789033 -0.14378692 0.22907567
0.051959764 0.022453131 0.11276296 0.066674784 0.14269309 -0.068815075 -0.03738965 -0.047730703
0.30059248 -0.3418141 0.01771991 -0.021062596 -0.22338149 -0.20539652 0.33679667 0.31715998
0.024318667 0.17609084 -0.29742613 0.05662808 -0.27714908 0.18741491 -0.30960593 -0.11417879
0.15333061 0.35548943 0.4967324 0.49932182 -0.36479113 -0.6050999 -0.27166227 -0.06700911

rnn.bias_ih_l1 f4 [50]
00000000: 5e0e 63bd 9a03 b03e 69dd 763a 9daf d4be
00000010: 5439 0c3d 45b1 d0bd 53db a33e d864 6ebe
00000020: f4de babd a5cc b23e f737 96be ee2e acbe
00000030: f5d7 1dbc a462 40bd 065b fabd 3109 1cbe
00000040: bded 48bf 4039 62be daf7 6fbd c549 9b3f
00000050: 7ed8 f2be a4e6 d13c f706 6fbe 9020 b6be
00000060: 1d6b 5b3e 1654 a4bd c714 aa3e 506d d9bc
00000070: 06f4 c2be be8e a63d 8714 b53e 2aed 203f
00000080: abd4 debd 27c3 ea3e 2a1c fabe bf0b 3ebe
00000090: cae7 0fbe 3e70 e73e 07ac d0bd 971a f7be
000000a0: f52c be3e 0e4f 0e3d 5266 bd3e 2f44 4a3f
000000b0: 87d6 203f 0c43 d7be 613c 85be df44 2f3f
000000c0: b6b8 2a3e edc4 4f3e
-0.055433623 0.34377748 0.0009417148 -0.41540232 0.03423436 -0.101900615 0.3200327 -0.23280656
-0.09124556 0.34921756 -0.29339573 -0.33629555 -0.009634008 -0.04696907 -0.122243926 -0.15237881
-0.7848776 -0.22092152 -0.05858598 1.2131888 -0.47430795 0.025622673 -0.233425 -0.35571718
0.21427579 -0.080238506 0.33218977 -0.026541382 -0.380768 0.08132695 0.35367224 0.62861884
-0.10880407 0.45852014 -0.48849612 -0.18559168 -0.14053264 0.45202821 -0.101890616 -0.48262474
0.37143674 0.03474336 0.36992127 0.7901029 0.6282734 -0.4204334 -0.26022628 0.68464464
0.16672024 0.20289965

rnn.bias_hh_l1 f4 [50]
00000000: 30e5 80bd dd80 9c3e bd34 8f3c 6b12 f6be
00000010: 5081 a5bc 9bc6 88be d7fb cb3e cc3e 20be
00000020: 1a7d 40be 18f2 0e3e b5c7 debd f523 67be
00000030: def2 ef3c 133c 6c3d d3c6 4cbe efcf a3bd
00000040: 54f9 2cbf 6945 8fbe 03ca 55bd 0617 973f
00000050: a246 f4be 1fa7 033e 86ce 32be 2b47 fbbe
00000060: fc41 a43d a505 e2bc a1cd 023e 2230 47bd
00000070: 87ff c9be cf55 083e bd0f 003f 08d8 253f
00000080: 1a3a 00be 8713 9c3e b285 e5be 9253 01be
00000090: cfd9 cabd c205 123f a688 41be 164a b6be
000000a0: 080a b03e 441a 0c3d 5eb3 1f3e 2462 2f3f
000000b0: e90b 243f a937 0cbf 7bae 1fbe a2db 253f
000000c0: 5b4a 243e af2e 893e
-0.06293714 0.30567065 0.017481202 -0.48060927 -0.020203263 -0.26714024 0.39840576 -0.15648955
-0.18797722 0.13959539 -0.10877935 -0.2257231 0.029290613 0.05767448 -0.1999772 -0.079986446
-0.67567945 -0.27982643 -0.052194607 1.1803901 -0.4771014 0.1285672 -0.17461595 -0.49077734
0.08020398 -0.027590582 0.12773754 -0.048629887 -0.39452764 0.13313983 0.50024015 0.6478276
-0.12522164 0.30483648 -0.44828564 -0.12629536 -0.09904825 0.57040036 -0.18899783 -0.35603398
0.34382653 0.034204736 0.15595767 0.68509126 0.64080673 -0.5477243 -0.15593903 0.6478826
0.1604399 0.2679343

fc.weight f4 [1, 50]
00000000: 6a6c 18be 1525 16bf 678f 1cbb 1c8b 963b
00000010: 2c2d db3c 9c45 1c3d 9c60 93bc b0f4 4c3d
00000020: af65 c53c 39d6 2abd 8e1d 0cba d9a0 47be
00000030: 827a 83bd f3e7 65bd 8d3b 91bc 03ed 1e3d
00000040: 09cb 3dbd 68e8 69bc db72 e03e 8594 cbbd
00000050: ce71 043e f975 903c ef36 f53c 8ceb b3bc
00000060: 9523 63bd 8fa3 63bd 1ec5 24bd b918 89bc
00000070: 3c43 81bd df75 f0bb 1a26 e3bc 11ac 2e3e
00000080: 10aa b63b 7c02 3fbd a880 963d 0f40 e7bc
00000090: d185 35bc 1c4f 763d 1be4 c2bd 1021 8ebc
000000a0: 8636 93bd e12f 31bd db24 023c 1b22 08bd
000000b0: 59d6 6dbd e411 09bd 0e8d 8b3c 05b4 243c
000000c0: bb4a a73b 2daf 55bc
-0.14885107 -0.5865033 -0.0023889185 0.00459422 0.026754938 0.038152322 -0.017990403 0.05003804
0.024096338 -0.041708205 -0.000534498 -0.19494952 -0.06419851 -0.056129407 -0.017728591 0.03880025
-0.046336208 -0.014276601 0.43837628 -0.09940437 0.12934038 0.017634379 0.029933421 -0.021962903
-0.055453856 -0.055575904 -0.040227048 -0.016735421 -0.06311652 -0.00733827 -0.02772813 0.17057826
0.0055744722 -0.04663323 0.07348758 -0.028228788 -0.011079268 0.06013404 -0.09516164 -0.01734975
-0.07188134 -0.04325855 0.007943357 -0.03323565 -0.058065746 -0.033464327 0.017035034 0.010052686
0.005105344 -0.013042253
