Networks/USDT-EUR/askSeed0.pt (torch, 33123 bytes, 9 tensors)

rnn.weight_ih_l0 f4 [50, 1]
1.3168947 -0.14787193 -0.06870413 0.21296693 0.36001158 0.2991945 -0.24282032 -0.12728895
2.1132758 -0.86490995 1.108532 -0.5649525 -0.43574652 0.57765394 -1.8508873 2.4341528
0.033238105 -5.035056 -1.0899631 0.40375862 -0.36985233 0.07949801 -0.15717627 11.114397
-1.030098 -1.1680481 -0.9504464 -0.37444273 -7.9601116 1.2718557 0.51037145 -0.06681548
-1.3876055 -0.059782844 0.0070332177 -0.4247625 -0.19537233 8.182166 0.3347267 0.34152177
0.24990454 2.3589332 0.9061644 2.0608938 0.15818422 -0.08267733 1.0185382 0.58536
3.60875 0.13190484
00000000: 0190 a83f bd6b 17be c0b4 8cbd 0114 5a3e
00000010: 7053 b83e 0630 993e e4a5 78be 0958 02be
00000020: e93f 0740 bd6a 5dbf 60e4 8d3f baa0 10bf
00000030: 2b1a dfbe 21e1 133f e0e9 ecbf 29c9 1b40
00000040: ae24 083d 2e1f a1c0 e983 8bbf 73b9 ce3e
00000050: 495d bdbe dacf a23d d1f2 20be 92d4 3141
00000060: 40da 83bf 9a82 95bf 7550 73bf f5b6 bfbe
00000070: 3cb9 fec0 2bcc a23f b4a7 023f 8ed6 88bd
00000080: 0f9d b1bf dbde 74bd e876 e63b 787a d9be
00000090: af0f 48be 27ea 0241 4c61 ab3e f1db ae3e
000000a0: fae6 7f3e c3f8 1640 64fa 673f afe5 0340
000000b0: 0bfb 213e bb52 a9bd 765f 823f 27da 153f
000000c0: c3f5 6640 1012 073e

rnn.weight_hh_l0 f4 [50, 50]
0.13021451 -0.46027327 -0.11146305 0.76885164 0.503107 -0.13643749 0.091418475 -0.6439067
-0.06714866 0.0738529 -0.14980802 -0.45113492 -0.52566606 -0.22639237 -0.07378512 0.17322211
-0.47801575 0.3935647 -0.63792396 0.6915616 0.46045947 -0.40399367 -0.035478186 0.07740547
-0.11779911 0.13386361 0.3846534 0.10539403 0.18392706 0.16259609 0.31774768 0.45837447
0.061421953 -0.05692229 0.54259723 -0.84353215 -0.069197446 -0.38054854 -0.2587992 0.5613529
0.5170342 -0.15818785 0.06647644 0.39325613 0.4004045 0.09364049 -0.17937258 0.197444
-0.30542988 0.42828828 -0.31893703 0.38699463 0.013455738 -0.17239626 -0.33729315 0.23905803
9.039776e-05 0.33544856 -0.048769105 0.38530758 0.3373091 0.17730355 0.35973337 0.041417763
0.33248416 -0.010265026 0.16873519 -0.13043801 0.48106587 -0.274534 -0.44167912 0.035501268
0.0053662388 -0.16852826 0.29076993 0.115866765 -0.020198552 -0.07379127 -0.2798508 -0.17117454
-0.51397514 -0.2857977 0.036319707 -0.15783985 -0.23148511 0.36931497 0.3002864 0.3052926
0.33957842 -0.24004835 -0.41416472 -0.16076036 -0.04712396 -0.10165618 -0.13652866 -0.014070215
0.09372848 -0.23594885 0.2355779 -0.122018054 0.30042553 -0.27147794 0.79146224 0.29911995
0.08062408 -0.42950958 0.74438727 -0.17368162 -0.5195972 -0.82878244 -0.15466052 -0.73133475
-0.34529993 -0.35818145 -0.28571975 0.68948823 -0.4345569 0.44590634 -0.18689376 0.16140673
0.34103414 -1.5434065 -0.1298157 -0.02828392 -0.7337958 -0.6311638 0.1485265 1.1816776
-0.0016108839 -1.117623 0.048839863 0.31410158 -0.7161547 0.4842046 0.4192586 -0.525297
-1.1168344 -0.24848853 0.5579541 0.55130196 0.3419131 -0.9660848 0.45272368 0.3558
0.215175 1.1167268 0.31439486 -0.49296102 -0.39857766 0.7405527 0.38456383 -0.26155484
-0.08165914 0.47466883 0.3610276 -0.038115356 0.27035967 -0.47489598 -0.05720101 -0.40538388
-0.1558243 -0.34507722 -0.49938625 -0.09333042 -0.32055154 -0.22220427 -0.40869132 0.09065218
-0.7098911 0.1858021 0.35285118 -0.10733198 0.04342543 -0.09865414 0.0097085 -0.06987833
0.33670783 0.032574985 0.24367262 0.080494225 0.36328745 0.58139926 0.2238717 0.16263865
0.2383764 -0.33484468 -0.039953146 -0.15020923 -0.11874716 0.28088582 0.44026893 0.024266234
0.12007126 0.37564573 0.19550307 0.042348005 -0.067647375 -0.02942902 -0.15171918 0.1395024
0.28976828 -0.16054973 0.06881574 0.26519546 0.44093904 -0.110177174 0.29074308 -0.34242707
-0.027761027 -0.3891449 -0.26413894 -0.09812847 -0.40037555 -0.057816256 -0.26173386 -0.14775197
-0.2298527 0.33895734 -0.4711938 0.19845645 0.36251482 -0.069843106 -0.24712192 0.34218124
-0.109751716 -0.053682476 0.22269891 0.11263172 0.28489754 -0.009250867 0.26416165 0.38260558
0.017180365 -0.02001496 0.32670406 -0.43750766 -0.17095092 -0.33070996 -0.05839156 0.20587592
0.44537315 0.15791002 0.23324865 0.18334939 0.06078242 0.13061713 -0.010122432 -0.01500314
-0.2715202 0.0066941823 -0.5984003 0.12591691 0.07581656 -0.4611644 -0.21101019 0.12131611
00000000: f456 053e f0a8 ebbe bd46 e4bd 76d3 443f
00000010: 9fcb 003f 45b6 0bbe 9c39 bb3d 12d7 24bf
00000020: 3d85 89bd 3040 973d 4667 19be 28fb e6be
00000030: 0d92 06bf 67d3 67be a71c 97bd 2361 313e
00000040: 7bbe f4be 5081 c93e fc4e 23bf 2e0a 313f
00000050: 58c1 eb3e 42d8 cebe 9351 11bd c286 9e3d
00000060: a940 f1bd 8b13 093e 4af1 c43e d3d8 d73d
00000070: 6057 3c3e 977f 263e d3af a23e 0fb0 ea3e
00000080: 9695 7b3d 5927 69bd a7e7 0a3f b9f1 57bf
00000090: 64b7 8dbd 42d7 c2be 5481 84be d3b4 0f3f
000000a0: 5a5c 043f fffb 21be cd24 883d de58 c93e
000000b0: d201 cd3e 96c6 bf3d 72ad 37be c32e 4a3e
000000c0: 4e61 9cbe 9a48 db3e b74b a3be 2924 c63e
000000d0: 7575 5c3c a588 30be b0b1 acbe a1cb 743e
000000e0: ee93 bd38 eabf ab3e 1dc2 47bd 0947 c53e
000000f0: c7b3 ac3e 108f 353e f92e b83e aca5 293d
00000100: 5d3b aa3e a42e 28bc ebc8 2c3e 8b91 05be
00000110: 444e f63e b88f 8cbe c423 e2be c769 113d
00000120: 46d7 af3b ac92 2cbe ccdf 943e 8e4b ed3d
00000130: 6f77 a5bc e11f 97bd 9b48 8fbe 6148 2fbe
00000140: e093 03bf 1354 92be f9c3 143d c5a0 21be
00000150: 6f0a 6dbe da16 bd3e 24bf 993e 504f 9c3e
00000160: 39dd ad3e 3ccf 75be 660d d4be 5d9e 24be
00000170: 0e05 41bd 1e31 d0bd 2bce 0bbe c286 66bc
00000180: b8f4 bf3d 939c 71be 553b 713e 9ae4 f9bd
00000190: 60d1 993e 28ff 8abe 459d 4a3f 4026 993e
000001a0: 3d1e a53d aee8 dbbe 2a90 3e3f 98d9 31be
000001b0: 5204 05bf 162b 54bf 545f 1ebe c138 3bbf
000001c0: 27cb b0be 8f63 b7be dc49 92be 4d82 303f
000001d0: 3e7e debe d64d e43e 1461 3fbe ce47 253e
000001e0: 079c ae3e 588e c5bf 68ee 04be aeb3 e7bc
000001f0: 0bda 3bbf f393 21bf 5517 183e 3641 973f
00000200: 4b24 d3ba 450e 8fbf 4f0c 483d ecd1 a03e
00000210: ea55 37bf aae9 f73e 10a9 d63e dd79 06bf
00000220: 6ef4 8ebf c773 7ebe 14d6 0e3f 2022 0d3f
00000230: 3c0f af3e 5551 77bf 66cb e73e 6b2b b63e
00000240: d656 5c3e e7f0 8e3f 5df8 a03e 6365 fcbe
00000250: 5f12 ccbe dd94 3d3f 8de5 c43e 84ea 85be
00000260: e83c a7bd cb07 f33e 9cd8 b83e d91e 1cbd
00000270: 956c 8a3e 9125 f3be 9b4b 6abd 7a8e cfbe
00000280: 6890 1fbe f6ad b0be 8eaf ffbe 0524 bfbd
00000290: 551f a4be 8489 63be fd3f d1be daa7 b93d
000002a0: 6cbb 35bf e842 3e3e e9a8 b43e ded0 dbbd
000002b0: ddde 313d 2f0b cabd 6610 1f3c 5f1c 8fbd
000002c0: f864 ac3e 596d 053d 5185 793e 28da a43d
000002d0: d000 ba3e 95d6 143f 9f3e 653e bf8a 263e
000002e0: f118 743e c370 abbe e9a5 23bd 73d0 19be
000002f0: b631 f3bd 44d0 8f3e ee6a e13e fbc9 c63c
00000300: ece7 f53d a354 c03e f531 483e 1a75 2d3d
00000310: b58a 8abd 2115 f1bc 465c 1bbe b8d9 0e3e
00000320: 825c 943e 2667 24be 44ef 8c3d b3c7 873e
00000330: c3c2 e13e 92a4 e1bd 47dc 943e 9a52 afbe
00000340: 186b e3bc 003e c7be 383d 87be 94f7 c8bd
00000350: 06fe ccbe bdd0 6cbd fb01 86be 4b4c 17be
00000360: 825e 6bbe d18b ad3e 5040 f1be 2b38 4b3e
00000370: 8b9b b93e e709 8fbd 870d 7dbe 6132 af3e
00000380: 82c5 e0bd 28e2 5bbd 2f0b 643e 76ab e63d
00000390: 17de 913e f390 17bc 3240 873e e1e4 c33e
000003a0: d6bd 8c3c 6af6 a3bc c145 a73e 0101 e0be
000003b0: c20d 2fbe d152 a9be fd2b 6fbd 23d1 523e
000003c0: f307 e43e 2ab3 213e bcd8 6e3e f1bf 3b3e
000003d0: fdf6 783d 7fc0 053e 8fd8 25bc bbcf 75bc
000003e0: b204 8bbe df5a db3b c330 19bf 5df0 003e
000003f0: b645 9b3d be1d ecbe 0e13 58be 9574 f83d

rnn.bias_ih_l0 f4 [50]
0.7249141 1.9323659 -0.5212508 -1.8158588 -1.7194709 1.9524175 -1.4380994 1.6191468
0.5830955 1.1022788 -0.94865125 1.3088483 1.9463042 1.8305116 -0.85570955 -1.2756565
1.5265195 0.3757045 -0.9732545 -1.8458438 -0.3374408 1.0297227 0.25465447 -0.5831076
0.91164976 -1.7721393 -1.5099174 -0.42296803 -0.4147884 -0.048545226 -1.1849134 -1.786237
-0.9267395 -1.7320789 -1.6930336 1.5117412 1.3693098 0.50335073 0.78216755 -0.99607825
-2.1151376 0.86270815 -0.10587433 0.8543942 -0.3319689 -1.2045739 0.8821779 -0.5611554
1.1244928 -0.8079146
00000000: f893 393f c457 f73f b170 05bf 106e e8bf
00000010: 9f17 dcbf d1e8 f93f a413 b8bf 3440 cf3f
00000020: bf45 153f 7917 8d3f cfda 72bf 5788 a73f
00000030: 7f20 f93f 344e ea3f c80f 5bbf b648 a3bf
00000040: fe64 c33f 575c c03e 3527 79bf 9c44 ecbf
00000050: 0ac5 acbe f4cd 833f 1262 823e 8a46 15bf
00000060: e161 693f 76d5 e2bf f944 c1bf 448f d8be
00000070: 255f d4be 5cd7 46bd 3eab 97bf 6aa3 e4bf
00000080: cd3e 6dbf c3b4 ddbf 53b5 d8bf bc80 c13f
00000090: 8b45 af3f 98db 003f 223c 483f fcfe 7ebf
000000a0: 6a5e 07c0 71da 5c3f a4d4 d8bd 94b9 5a3f
000000b0: d4f7 a9be 7a2f 9abf 69d6 613f e1a7 0fbf
000000c0: 61ef 8f3f 7ed3 4ebf

rnn.bias_hh_l0 f4 [50]
0.6749527 1.7985109 -0.5932539 -1.7080699 -1.8140401 2.0893283 -1.3967446 1.5266057
0.70260465 1.1775787 -0.8511065 1.3810263 1.8123475 1.8376973 -0.8514983 -1.4207507
1.5175931 0.5795197 -0.73966086 -1.8213263 -0.3035901 1.0911864 0.44546273 -0.6344501
0.8509338 -1.6331822 -1.6549014 -0.63900757 -0.4302609 -0.20349158 -1.2063183 -1.7154175
-1.0986722 -1.6133955 -1.869417 1.6429182 1.3641093 0.58613056 0.7397314 -1.1305091
-2.0469682 0.75964427 0.01686835 0.77524567 -0.51077265 -1.2890017 1.0538675 -0.6835512
1.2685835 -0.87401974
00000000: b3c9 2c3f 9b35 e63f 7ddf 17bf 09a2 dabf
00000010: 7732 e8bf 8eb7 0540 87c8 b2bf d167 c33f
00000020: e6dd 333f e6ba 963f 1ee2 59bf 78c5 b03f
00000030: 01fb e73f aa39 eb3f cbfb 59bf 29db b5bf
00000040: 7e40 c23f 675b 143f 6a5a 3dbf 3821 e9bf
00000050: 2970 9bbe ffab 8b3f b113 e43e 526b 22bf
00000060: ccd6 593f 1d0c d1bf cfd3 d3bf 0096 23bf
00000070: 284b dcbe 1960 50be a368 9abf cd92 dbbf
00000080: 4aa1 8cbf be83 cebf 0e49 efbf 254b d23f
00000090: 229b ae3f a70c 163f 095f 3d3f 86b4 90bf
000000a0: 8701 03c0 0c78 423f 7e2f 8a3c 8076 463f
000000b0: ffc1 02bf 02fe a4bf 21e5 863f 36fd 2ebf
000000c0: f260 a23f c2bf 5fbf

rnn.weight_ih_l1 f4 [50, 50]
-0.06702159 -0.021637313 -0.01624761 -0.2382443 -0.2848474 0.08466004 -0.074872114 0.14205474
-0.2558673 0.4298748 -0.30254927 0.41210246 0.12527646 -0.35723966 0.08805346 -0.7898464
-0.0032051173 0.74544454 0.4192456 0.039736785 0.21534589 0.48519504 0.97513026 -0.22533016
0.29376772 -0.14500569 -0.35370144 0.018386308 0.28071845 0.1967896 -0.2527244 -0.07128829
-0.012917907 0.03967963 -0.22775206 0.33911657 0.5421799 -1.0877266 -0.0735255 0.16764855
-0.5151093 -0.22784883 -3.3583722 0.13563593 0.24654172 -0.18853879 0.015231096 -0.29686472
-0.20705931 -0.42897543 -0.25196064 0.41190824 0.006255966 -0.062140882 -0.19379236 0.12379717
-0.059047885 0.005890934 -0.009813955 0.16426408 0.09583101 0.28853375 0.06006759 0.015372797
0.19382054 -0.047022976 0.2191595 -0.10011356 0.19999968 -0.2573241 -0.09301816 -0.000726015
-0.15202792 0.06356409 0.084046274 0.0028594802 -0.017529286 0.16150594 0.05251402 0.06320562
-0.27017233 -0.18158706 0.20611629 -0.11153795 0.026517842 -0.015688023 0.32003647 0.1278577
-0.072742455 0.10064447 -0.26114655 0.043694198 -0.100284316 -0.14196771 0.14339761 -0.10242068
-0.031298123 -0.12308857 0.000754142 -0.25774857 0.28077888 -0.10138997 0.32019323 0.024121394
0.21451968 -0.2518917 0.06327243 0.025193144 -0.18300994 -0.31967035 0.00453874 0.004208
-0.14153858 -0.079911135 -0.26374617 0.25513572 -0.20846853 -0.009608307 0.059003614 0.1888291
0.018730812 -0.3048249 -0.07613313 0.115801655 -0.15421997 -0.13976522 -0.020056661 0.16795109
0.074869834 -0.13320117 0.21117206 -0.13382533 -0.14184901 0.03817738 0.13514566 -0.25766668
-0.28131118 -0.085005954 0.19850796 0.0855094 0.1422329 0.0065141562 0.09486122 0.06322932
0.009241863 0.1334819 0.0015026078 -0.104518965 -0.20919819 0.1380363 0.3251207 -0.063496366
0.17911331 0.3310521 0.08937999 -0.16767608 0.24876416 -0.24607389 -0.12748538 -0.35252523
-0.41693005 -0.17913312 -0.27326828 -0.041701198 -0.2114008 0.010395377 -0.41777292 0.2228011
-0.29969567 0.050715994 0.27104735 -0.20138618 0.019695414 0.22437666 -0.010292759 -0.05945861
0.10042428 0.21374519 0.027168682 -0.03461901 0.12584206 0.2930031 -0.17243102 0.1717384
0.30611035 -0.14709073 -0.21947472 -0.22959155 -0.101948015 0.5085407 0.32724172 -0.17162146
0.09997221 0.20469867 0.16857925 0.24567424 -0.060913973 0.0548878 0.029099084 0.053008508
0.10830263 0.0022761908 0.009710194 -0.046593737 -0.10952714 0.21619304 0.012137976 0.009904624
-0.117135905 0.062203787 -0.14237635 0.10438879 0.14880116 -0.05023357 0.19162963 -0.6220308
0.011997346 0.20591176 0.23827545 -0.30906326 0.009899971 0.3663614 0.11628036 -0.2522223
0.07151165 -0.21674465 -0.0054519926 0.12647352 0.12318866 0.28897217 -0.12585862 0.16762355
1.0698004 -0.22499545 0.16869117 0.13414828 0.10956206 -0.1280682 -0.610335 0.0093228
-0.32177454 -0.49269414 -3.2436957 0.097154476 -0.0048797107 -0.21803927 0.18833071 0.46670902
0.19212787 -0.031402115 0.227692 -0.1581825 0.27532014 0.3484269 0.18455411 -0.4005192
00000000: 9e42 89bd bc40 b1bc b519 85bc 50f6 73be
00000010: 85d7 91be 3e62 ad3d 8d56 99bd cc76 113e
00000020: 0a01 83be 8d18 dc3e bde7 9abe 18ff d23e
00000030: 7948 003e 1ee8 b6be 5f55 b43d 6033 4abf
00000040: f20c 52bb 74d5 3e3f 5ca7 d63e 0ac3 223d
00000050: a283 5c3e 7c6b f83e 23a2 793f f3bc 66be
00000060: b968 963e 5f7c 14be 5b18 b5be e29e 963c
00000070: 54ba 8f3e 3783 493e 1865 81be 98ff 91bd
00000080: a1a5 53bc 1c87 223d d637 69be b0a0 ad3e
00000090: 4dcc 0a3f a03a 8bbf 8a94 96bd 10ac 2b3e
000000a0: 34de 03bf 3451 69be 92ef 56c0 25e4 0a3e
000000b0: 6f75 7c3e 5010 41be d98b 793c a7fe 97be
000000c0: 5b07 54be aba2 dbbe fc00 81be a3e5 d23e
000000d0: d9fe cc3b 7087 7ebd 8171 46be 5f89 fd3d
000000e0: 32dc 71bd bc08 c13b b6ca 20bc d834 283e
000000f0: 0c43 c43d b2ba 933e 6f09 763d 2fde 7b3c
00000100: e478 463e 2a9b 40bd 596b 603e 5708 cdbd
00000110: b7cc 4c3e fcbf 83be 4e80 bebd 0b52 3eba
00000120: 35ad 1bbe e42d 823d 7420 ac3d 1e66 3b3b
00000130: 9499 8fbc d061 253e f118 573d f371 813d
00000140: 0754 8abe f5f1 39be 2610 533e 026e e4bd
00000150: f23b d93c 2b84 80bc d2db a33e 21ed 023e
00000160: fff9 94bd b01e ce3d 00b5 85be b0f8 323d
00000170: dd61 cdbd fc5f 11be d3d6 123e efc1 d1bd
00000180: 7632 00bd dc15 fcbd 9db1 453a 9ff7 83be
00000190: 40c2 8f3e 8ba5 cfbd 5ef0 a33e 3b9a c53c
000001a0: 0cab 5b3e f3f7 80be fa94 813d da61 ce3c
000001b0: f566 3bbe d5ab a3be b6b9 943b 43e3 893b
000001c0: 7def 10be 73a8 a3bd bd09 87be 26a1 823e
000001d0: c678 55be 296c 1dbc c6ad 713d 6a5c 413e
000001e0: 5c71 993c 0212 9cbe b0eb 9bbd 6b29 ed3d
000001f0: d7eb 1dbe 9d1e 0fbe de4d a4bc 5ffb 2b3e
00000200: 5b55 993d e365 08be 7d3d 583e 8209 09be
00000210: de40 11be e25f 1c3d a063 0a3e e3ec 83be
00000220: 0508 90be 9a17 aebd ac45 4b3e 8d1f af3d
00000230: 80a5 113e b474 d53b 9946 c23d 607e 813d
00000240: 2f6b 173c 7baf 083e 27f3 c43a 0a0e d6bd
00000250: 0d38 56be 6359 0d3e 3876 a63e 620a 82bd
00000260: 7b69 373e a97f a93e db0c b73d 47b3 2bbe
00000270: 08bc 7e3e cbfa 7bbe 878b 02be 307e b4be
00000280: db77 d5be ac6e 37be d2e9 8bbe e0ce 2abd
00000290: 7479 58be 5f51 2a3c 55e6 d5be f925 643e
000002a0: b671 99be 93bb 4f3d b8c6 8a3e 2e38 4ebe
000002b0: 4758 a13c ffc2 653e f6a2 28bc df8a 73bd
000002c0: 3fab cd3d 05e0 5a3e db90 de3c aacc 0dbd
000002d0: bedc 003e 8104 963e c291 30be 31dc 2f3e
000002e0: 7fba 9c3e f49e 16be fbbd 60be 0c1a 6bbe
000002f0: 1fca d0bd b92f 023f 3a8c a73e 89bd 2fbe
00000300: 3bbe cc3d 879c 513e 0aa0 2c3e 0792 7b3e
00000310: ee80 79bd 08d2 603d 3461 ee3c 731f 593d
00000320: c5cd dd3d 252c 153b 8117 1f3c 13d9 3ebd
00000330: c44f e0bd b561 5d3e 5cde 463c 0147 223c
00000340: f3e4 efbd 66c9 7e3d 1bcb 11be cac9 d53d
00000350: 555f 183e b7c1 4dbd 8f3a 443e 693d 1fbf
00000360: 8490 443c 88da 523e 7bfe 733e 8a3d 9ebe
00000370: 7d33 223c b993 bb3e 6624 ee3d 4823 81be
00000380: b374 923d 4ff2 5dbe a1a6 b2bb 4682 013e
00000390: 564a fc3d 29f4 933e 15e1 00be 82a5 2b3e
000003a0: 38ef 883f 3565 66be 61bd 2c3e 2b5e 093e
000003b0: 1362 e03d 4f24 03be ea3e 1cbf a8be 183c
000003c0: a2bf a4be 6842 fcbe b698 4fc0 edf8 c63d
000003d0: fbe5 9fbb b045 5fbe c4d9 403e 7cf4 ee3e
000003e0: 2bbd 443e 819f 00bd 1728 693e 98fa 21be
000003f0: c3f6 8c3e 0365 b23e c1fb 3c3e da10 cdbe

rnn.weight_hh_l1 f4 [50, 50]
0.5089048 0.33191416 -0.07372556 -0.17165361 -1.6081344 0.045702204 -0.17837806 0.1298713
0.33823583 0.0489152 -0.06945193 0.2606104 -0.07756508 0.028853703 0.1749167 -0.12314374
-0.20156865 -0.3253466 -0.15120032 0.1406232 0.039588418 0.009448158 0.058500756 0.1737128
-0.18532786 0.24429762 0.19264263 0.08040031 0.03174084 0.23528709 -0.0021781593 0.102921486
-0.013810033 0.028508747 0.22664666 0.02189872 0.034917552 -0.14753932 -0.0983098 0.15277176
-0.07137541 -0.07606728 0.39461002 -0.07167679 0.19400564 0.03951842 0.05019302 -0.07435365
0.0334837 0.3502419 -0.047763564 -0.17300692 -0.336289 -0.0035791618 0.1571288 -0.11444239
0.27577305 -0.2157467 0.17894311 0.15162097 -0.10934581 0.31129834 -0.05748591 0.3088135
-0.29089445 0.27821946 -0.2007292 0.068109974 -0.2166345 -0.3275589 0.026801756 -0.01726885
0.2693247 0.04860654 -0.16314311 0.13181703 -0.3860213 -0.06620486 -0.22551304 -0.07445789
-0.28126487 0.17037192 0.11039004 -0.05292484 -0.0015841074 0.21861704 -0.17965043 -0.13062018
0.099997245 0.16229571 0.09914704 0.08560984 -0.033881262 0.32608014 -0.2922714 -0.18638116
0.13027732 -0.073862836 -0.22974734 0.11324194 0.047330055 0.10042034 -0.2307477 0.23674524
0.009987239 -0.02571262 -0.25128514 0.22649026 -0.16670002 -0.2255049 0.20487152 -0.17042692
0.28549743 -0.22669037 0.32038882 -0.1897147 0.09593239 -0.08463173 0.40891266 0.20590644
0.10704384 -0.24717098 -0.40858883 -0.25029805 -0.07632843 -0.3959443 0.14507994 0.15194075
-0.09731541 -0.29735523 0.18549941 -0.49244338 -0.27061504 0.002326455 -0.01124623 -0.1027764
0.21551923 0.25803044 0.064375594 -0.20220701 -0.04258385 -0.4026052 0.095129184 -0.40773475
0.33861783 0.19174497 0.41442993 0.1886043 0.30202547 -0.14986622 0.13578445 0.039821442
-0.07024225 -0.10120645 0.047473248 0.2286397 0.097125515 0.08277915 -0.066308886 -0.14142404
0.050217323 -0.080656156 0.05877728 0.15131369 -0.05481627 -0.05503889 0.04004661 0.19140457
0.12706667 0.03344886 0.19924265 -0.014149302 0.0047694533 -0.023064097 -0.22839612 -0.20883071
-0.07421482 0.12615123 -0.12047157 -0.22595842 0.15392949 -0.20049165 -0.15481484 -0.053657588
0.06265925 0.04829648 0.15036432 0.028899003 -0.1344432 0.005775363 -0.25326267 -0.058659084
0.2845949 -0.17329504 -0.060520466 0.068973586 0.15554143 0.037024837 0.10121021 -0.009551524
1.090644 0.31755134 -0.28991172 -0.23759711 1.553529 -0.092500165 0.42720413 -0.09141534
0.37228638 0.10766673 -0.037629243 0.21599218 -0.35926768 0.38139242 -0.42318588 0.24689396
-0.30856946 0.36207432 -0.16286802 -0.2145974 -0.09459798 0.04081675 0.044086635 0.19382447
-0.4148551 0.35542035 0.3170876 -0.039993 -0.16130096 -0.23706743 -0.04570521 0.21933979
0.20685223 0.010731231 -0.39921066 0.27786717 -0.16708878 -0.36098003 -0.07942065 0.2754166
-0.29519954 0.19143066 0.3472954 0.25566718 -0.22986095 -0.5754099 -0.24581677 -0.28357756
-0.30490723 -0.04605566 -0.5726345 -0.029728478 0.059914865 0.23347896 -0.27884716 0.24374178
00000000: 9647 023f a7f0 a93e 6dfd 96bd f7c5 2fbe
00000010: 59d7 cdbf 3c32 3b3d bda8 36be fbfc 043e
00000020: 3f2d ad3e 4e5b 483d d03c 8ebd ba6e 853e
00000030: 71da 9ebd 9a5e ec3c 5d1d 333e c932 fcbd
00000040: 0368 4ebe d493 a6be 42d4 1abe 87ff 0f3e
00000050: 7727 223d 72cc 1a3c 7d9e 6f3d c5e1 313e
00000060: 96c6 3dbe 2829 7a3e 1c44 453e eba8 a43d
00000070: af02 023d 19ef 703e 73bf 0ebb 80c8 d23d
00000080: 7a43 62bc 2d8b e93c 1016 683e f264 b33c
00000090: b505 0f3d 8c14 17be a656 c9bd 3370 1c3e
000000a0: 452d 92bd 29c9 9bbd 530a ca3e 48cb 92bd
000000b0: 6aa9 463e 11de 213d 3297 4d3d ba46 98bd
000000c0: 3426 093d e852 b33e baa3 43bd ba28 31be
000000d0: 122e acbe 5f90 6abb 5fe6 203e c660 eabd
000000e0: 2032 8d3e b4ec 5cbe dd3c 373e 8742 1b3e
000000f0: b2f0 dfbd 7f62 9f3e 5876 6bbd ce1c 9e3e
00000100: 1ef0 94be c872 8e3e f58b 4dbe 3e7d 8b3d
00000110: 6fd5 5dbe cdb5 a7be 5b8f db3c 6777 8dbc
00000120: ede4 893e a717 473d fd0e 27be 0bfb 063e
00000130: 95a4 c5be 6a96 87bd e4ec 66be 617d 98bd
00000140: f301 90be fa75 2e3e 2c14 e23d b8c7 58bd
00000150: d3a1 cfba 25dd 5f3e 48f6 37be 4cc1 05be
00000160: 5bcb cc3d d930 263e 9a0d cb3d 3654 af3d
00000170: 14c7 0abd faf3 a63e 99a4 95be b4da 3ebe
00000180: 6b67 053e 6645 97bd e342 6bbe 64eb e73d
00000190: 29dd 413d 2ea9 cd3d 2049 6cbe 586d 723e
000001a0: 84a1 233c 46a3 d2bc 72a8 80be 10ed 673e
000001b0: 69b3 2abe c2ea 66be d7c9 513e 6584 2ebe
000001c0: b82c 923e 8521 68be 010a a43e 9244 42be
000001d0: 3378 c43d 6753 adbd 005d d13e 23d9 523e
000001e0: cd39 db3d 641a 7dbe 8e32 d1be 1127 80be
000001f0: 1452 9cbd 36b9 cabe d68f 143e 5b96 1b3e
00000200: 4d4d c7bd f23e 98be 8ff3 3d3e 8a21 fcbe
00000210: 0e8e 8abe 7077 183b 1c42 38bc 6f7c d2bd
00000220: 13b1 5c3e 911c 843e 5ad7 833d 5b0f 4fbe
00000230: 676c 2ebd 4522 cebe 17d3 c23d 9cc2 d0be
00000240: 515f ad3e cb58 443e 2930 d43e 7c21 413e
00000250: 15a3 9a3e 8876 19be 140b 0b3e cf1b 233d
00000260: 2bdb 8fbd 5445 cfbd 4f73 423d 8720 6a3e
00000270: bee9 c63d 1d88 a93d f4cc 87bd 77d1 10be
00000280: aeb0 4d3d 0e2f a5bd 72c0 703d faf1 1a3e
00000290: 0687 60bd 7670 61bd ea07 243d 8fff 433e
000002a0: c41d 023e ac01 093d 4406 4c3e 79d2 67bc
000002b0: 1349 9c3b ebf0 bcbc ace0 69be b8d7 55be
000002c0: f1fd 97bd ca2d 013e ccb9 f6bd a561 67be
000002d0: b19f 1d3e af4d 4dbe c887 1ebe 0fc8 5bbd
000002e0: 7e53 803d 88d2 453d 1bf9 193e 9abd ec3c
000002f0: 7aab 09be 423f bd3b a5ab 81be 8244 70bd
00000300: 6cb6 913e 4174 31be 4fe4 77bd 0642 8d3d
00000310: 4146 1f3e 5ba7 173d 4c47 cf3d ff7d 1cbc
00000320: 399a 8b3f 1796 a23e 4f6f 94be a84c 73be
00000330: 0ada c63f ba70 bdbd 80ba da3e f737 bbbd
00000340: 529c be3e 6080 dc3d 1f21 1abd 0e2d 5d3e
00000350: eff1 b7be de45 c33e d2ab d8be c5d1 7c3e
00000360: d1fc 9dbe ce61 b93e e0c6 26be 6cbf 5bbe
00000370: 96bc c1bd 772f 273d 3094 343d ec79 463e
00000380: e367 d4be a8f9 b53e 4e59 a23e b3cf 23bd
00000390: 142c 25be cec1 72be 6335 3bbd 9c9a 603e
000003a0: 12d1 533e 0cd2 2f3c 5765 ccbe 9b44 8e3e
000003b0: 5219 2bbe 60d2 b8be 4ba7 a2bd 6803 8d3e
000003c0: 6524 97be 6606 443e b4d0 b13e cfe6 823e
000003d0: ab60 6bbe 104e 13bf 64b7 7bbe 1431 91be
000003e0: cd1c 9cbe dca4 3cbd 2d98 12bf 2389 f3bc
000003f0: 4a69 753d 1c15 6f3e 0ec5 8ebe 7297 793e

rnn.bias_ih_l1 f4 [50]
0.4928075 -0.021764364 0.00052121095 -0.09669056 0.1476406 -0.12752251 -0.02419544 0.049235266
0.23231165 0.10115718 -0.16090646 0.11631791 -0.07541691 0.16352023 -0.036856353 0.26943707
-0.2442376 0.20297538 0.02504351 0.00621396 -0.1173995 0.28044367 0.19964664 -0.067947015
-0.26063508 0.17420721 0.041587 -0.064349 -0.1825509 0.17827445 -0.06273084 0.109502345
-0.07929854 -0.5151296 0.0056945183 0.006774084 0.25817946 -0.14409225 0.32045627 0.039189406
0.26025814 0.021032594 -0.14894518 -0.07672585 -0.06387541 -0.2414978 -0.27239704 0.0011502529
0.10050618 0.8602752
00000000: 4451 fc3e 2e4b b2bc e0a1 083a b305 c6bd
00000010: 192f 173e 4395 02be 8435 c6bc ebaa 493d
00000020: 1be3 6d3e 7f2b cf3d aac4 24be 1638 ee3d
00000030: 2e74 9abd d971 273e b0f6 16bd a8f3 893e
00000040: 6c19 7abe c7d8 4f3e 0c28 cd3c 799e cb3b
00000050: 266f f0bd 5096 8f3e 2b70 4c3e ce27 8bbd
00000060: f671 85be 6063 323e 2157 2a3d 69c9 83bd
00000070: a0ee 3abe 948d 363e 0779 80bd c442 e03d
00000080: 4667 a2bd 89df 03bf 1599 ba3b 23f9 dd3b
00000090: 1930 843e eb8c 13be d812 a43e 1285 203d
000000a0: 8e40 853e 8c4c ac3c 1685 18be 7122 9dbd
000000b0: 1cd1 82bd 334b 77be a077 8bbe 15c4 963a
000000c0: 2fd6 cd3d ff3a 5c3f

rnn.bias_hh_l1 f4 [50]
0.40534905 0.18565094 -0.016895978 -0.029809803 -0.042631958 -0.20677277 -0.011713957 0.07333585
0.17720224 -0.0763262 -0.17494772 0.19649626 -0.09900093 0.1412963 -0.2263681 0.0172095
-0.1854078 0.04799082 -0.097343184 0.048565924 -0.098554075 0.18169776 0.1735889 0.13528828
-0.26136386 0.17015365 -0.1312159 -0.07500606 -0.1932864 0.418338 -0.14116976 -0.106488936
-0.027194742 -0.54146385 0.016151223 0.061183117 0.10291114 -0.22498144 0.42790395 -0.05061029
0.13827421 0.12750007 -0.011943934 -0.0065877694 -0.22729838 -0.10556381 -0.25516513 0.00984967
0.2693018 0.73890615
00000000: e989 cf3e 481b 3e3e 6f69 8abc b033 f4bc
00000010: d99e 2ebd 3ebc 53be e6eb 3fbc 1b31 963d
00000020: 8174 353e e950 9cbd 7f25 33be 5136 493e
00000030: 00c1 cabd faaf 103e 0acd 67be f0fa 8c3c
00000040: 8bdb 3dbe 0692 443d dd5b c7bd 10ed 463d
00000050: b8d6 c9bd fa0e 3a3e 4ac1 313e 0389 0a3e
00000060: 7cd1 85be c23c 2e3e 765d 06be c79c 99bd
00000070: dfec 45be 6630 d63e ce8e 10be df16 dabd
00000080: 82c7 debc 609d 0abf 924f 843c 269b 7a3d
00000090: 13c3 d23d 8961 66be 3a16 db3e bc4c 4fbd
000000a0: c197 0d3e 618f 023e 7db0 43bc 37de d7bb
000000b0: e8c0 68be d731 d8bd 01a5 82be 8360 213c
000000c0: ede1 893e f428 3d3f

fc.weight f4 [1, 50]
-0.77544063 0.012894607 0.005106051 0.050692715 -0.30961347 -0.011440517 -0.009785053 -0.06514404
-0.117549345 0.008149819 -0.05994083 0.026889037 -0.04568832 -0.022004647 0.00019670288 -0.008197377
-0.029680377 -0.0054585054 -0.010602648 -0.01076711 0.041758772 0.04159768 0.07031318 -0.035079878
-0.028070252 -0.015865514 -0.008655594 -0.058417734 0.0062547685 0.16435564 -0.094341084 0.047258224
0.004484066 0.072175734 0.18630667 -0.0069689807 0.0035075976 -0.0675294 0.17276393 -0.010638878
-0.04411288 -0.050849788 -0.09541182 -0.032214165 -0.008516996 0.011464634 -0.038075462 0.008781589
-0.07317539 0.039562132
00000000: 4783 46bf e743 533c a950 a73b 2aa3 4f3d
00000010: a885 9ebe 0271 3bbc 7d51 20bc 3d6a 85bd
00000020: b6bd f0bd d286 053c 8484 75bd 6646 dc3c
00000030: ad23 3bbd 1743 b4bc 0742 4e39 4b4e 06bc
00000040: 4324 f3bc 43dd b2bb bbb6 2dbc 8868 30bc
00000050: 3f0b 2b3d 5462 2a3d 5b00 903d ebaf 0fbd
00000060: 96f3 e5bc 65f8 81bc 31d0 0dbc 6f47 6fbd
00000070: cdf4 cc3b d84c 283e e635 c1bd d791 413d
00000080: 12ef 923b dfd0 933d 2dc7 3e3e 0c5c e4bb
00000090: b9df 653b db4c 8abd 07e9 303e b04e 2ebc
000000a0: b5af 34bd de47 50bd 4667 c3bd 00f3 03bd
000000b0: df8a 0bbc 29d6 3b3c 04f5 1bbd a7e0 0f3c
000000c0: fbdc 95bd e70b 223d
