Networks/NCT-EUR/bidSeed3.pt (torch, 33123 bytes, 9 tensors)

rnn.weight_ih_l0 f4 [50, 1]
0	0xbcc19391	-0.023629935
1	0x3e4bfff5	0.19921859
2	0xbf1ad931	-0.6048766
3	0x3dc66899	0.09687919
4	0x3d4f9abe	0.050684683
5	0xbf519455	-0.8186696
6	0xbfd3fd91	-1.6561757
7	0xbdd791a6	-0.10525827
8	0xbd3c8888	-0.046028644
9	0xbe177a5e	-0.14792773
10	0x3d8397a1	0.06425405
11	0xbde87b56	-0.113516495
12	0x3e0333b8	0.12812698
13	0x3bce2047	0.006290469
14	0xbf8f8234	-1.121161
15	0xbe831ad3	-0.25606403
16	0xbd2d63ee	-0.04233163
17	0xbe84ea8e	-0.259602
18	0x3ef7de26	0.48411673
19	0xbfb0c7a4	-1.3810925
20	0xbfb94bf3	-1.4476303
21	0x3d108b8c	0.035289332
22	0xbd2bee37	-0.041975226
23	0x3ae92a7b	0.001778915
24	0xbf408c43	-0.7521402
25	0xbdcab4c2	-0.09897758
26	0xbe01debd	-0.12682624
27	0xbe08f6fa	-0.13375464
28	0xbd119848	-0.035545617
29	0x3d552dc4	0.0520456
30	0xbff3cce1	-1.9046899
31	0x3e158907	0.14603053
32	0xbc5d4c3a	-0.013506943
33	0xbecb6b21	-0.3973017
34	0x3e2ef423	0.17085318
35	0x3d877826	0.06614713
36	0x3d795531	0.06087226
37	0x3fdc42ce	1.7207887
38	0xbe2d31dc	-0.16913551
39	0xbe9bdff4	-0.304443
40	0x3dadefca	0.08493002
41	0xbe20bcca	-0.15697017
42	0x3de9e467	0.114205174
43	0xbdbb59f6	-0.09148018
44	0x3fc3902b	1.5278372
45	0xbe2bdb31	-0.16782834
46	0x3d3eb237	0.046556678
47	0x3dc96f3a	0.09835668
48	0xbe287a85	-0.16452987
49	0x3d01060f	0.03149992

rnn.weight_hh_l0 f4 [50, 50]
0	0x3de771fd	0.113010384
1	0x3e80ebd3	0.2517992
2	0xbccacd65	-0.024756143
3	0x3e883129	0.26600006
4	0xbcbc2ee9	-0.022971587
5	0x3e1e7775	0.15475257
6	0x3e0669ac	0.13126248
7	0xbd18efc0	-0.03733802
8	0xba66bf94	-0.0008802351
9	0xbd6de372	-0.058078237
10	0x3d9cd5ad	0.07657943
11	0x3ea2b73a	0.31780416
12	0x3dddba28	0.10826522
13	0xbe77d2dc	-0.2420153
14	0xbe220ede	-0.15825984
15	0xbe406da5	-0.18791826
16	0x3d2a597f	0.041589256
17	0xbe6b8c28	-0.23002684
18	0xbd8f95ba	-0.0701098
19	0xbd25df49	-0.040496144
20	0x3c5fabae	0.0136517715
21	0x3dec37c7	0.11534076
22	0xbda3d500	-0.07999611
23	0xbe2d5e9a	-0.16930619
24	0xbe0d0fe8	-0.13775599
25	0xbe3b2aab	-0.18277995
26	0x3ece9554	0.40348303
27	0x3c8dfe29	0.017333107
28	0x3e99b8a7	0.3002369
29	0x3eb5d66e	0.3551516
30	0x3d1547ff	0.036445614
31	0x3c27e919	0.010248446
32	0xbe9562d5	-0.29176965
33	0xbc4869ee	-0.012232287
34	0x3e8b0639	0.27153185
35	0x3e95cd31	0.2925811
36	0x3e8334d1	0.25626233
37	0xbd25f03e	-0.040512316
38	0xbea06f36	-0.31334847
39	0xbdaf0102	-0.08545114
40	0x3e854d5b	0.2603558
41	0xbe02ce21	-0.12773944
42	0xbc818234	-0.015809156
43	0x3e53a579	0.20668592
44	0x3dc61190	0.096713185
45	0xbda85d44	-0.08220914
46	0xbe13348a	-0.14375511
47	0x3dcfefd6	0.10153167
48	0xbddb75c2	-0.1071582
49	0x3e0d4098	0.13794172
50	0x3e96b717	0.2943656
51	0x3e0d422c	0.13794774
52	0x3c377e01	0.011199475
53	0x3e57e6da	0.21084157
54	0xbd68ee0a	-0.056867637
55	0x3d9d6bf3	0.07686605
56	0x3e16dea6	0.14733371
57	0xbd0dff8e	-0.034667544
58	0xbe874c6e	-0.264255
59	0xbd83a761	-0.06428409
60	0x3e29d973	0.16586857
61	0x3e2b6ad4	0.1673997
62	0x3e9d54b9	0.307287
63	0xbe0dc964	-0.13846356
64	0xbcc5974b	-0.024119994
65	0xbe3cf034	-0.18451005
66	0xbe2e2aef	-0.17008565
67	0xbeaad439	-0.33365038
68	0xbc79b0b5	-0.015239884
69	0xbd6a93b2	-0.05726976
70	0x3cdf57cd	0.027263546
71	0x3de0ab58	0.10970181
72	0xbe472fe7	-0.19451867
73	0xbe5ee0e3	-0.21765475
74	0xbe6e2b7b	-0.23258774
75	0xbe810c22	-0.2520457
76	0x3d8eb701	0.06968499
77	0xbc600159	-0.013672196
78	0x3eaf6a0f	0.34260604
79	0x3e784566	0.24245223
80	0xbd706f92	-0.05870015
81	0x3c0ff288	0.008785851
82	0xbd8cf74f	-0.06883108
83	0xbe49ddfb	-0.19713585
84	0x3e4ebd8e	0.20189497
85	0x3ed28fe0	0.41125393
86	0x3e856ca2	0.26059443
87	0x3e742bc6	0.23844823
88	0xbe4d0d14	-0.2002452
89	0x3dab059c	0.08350679
90	0x3e03ccff	0.12871169
91	0xbd972fbc	-0.073821515
92	0xbd5dc233	-0.05414028
93	0x3e57e906	0.21084985
94	0x3dbb0306	0.09131436
95	0xbe7d183f	-0.2471628
96	0xbc3ddb17	-0.01158788
97	0x3e8e3c71	0.27780488
98	0xbe00efb8	-0.12591445
99	0x3e996dcd	0.29966584
100	0xbeb6d931	-0.3571258
101	0xbea674b2	-0.32510906
102	0x3ea3b26f	0.31972072
103	0xbeda43c4	-0.42629826
104	0x3ea9b7ae	0.3314795
105	0xbedc7522	-0.43058115
106	0x3f08c16b	0.5342013
107	0xbe1bc658	-0.15212381
108	0x3e44b194	0.19208366
109	0x3e709716	0.23495135
110	0xbe7724db	-0.24135153
111	0xbeae0f51	-0.3399606
112	0xbe2c4863	-0.16824488
113	0xbc5ce3ba	-0.013482029
114	0x3ea5b06a	0.32361156
115	0x3e4df3ff	0.20112608
116	0x3ead0430	0.33792257
117	0x3e855144	0.26038563
118	0xbee34fcc	-0.44396818
119	0xbef34189	-0.47510937
120	0x3ed1c497	0.409703
121	0xbde64db3	-0.11245289
122	0x3ea949f6	0.3306424
123	0x3e8277ea	0.25482112
124	0x3ed5770c	0.41692388
125	0x3d138774	0.03601785
126	0xbe7076d8	-0.23482835
127	0x3ef8fa77	0.4862859
128	0xbeaee9f9	-0.34162882
129	0xbdb187ad	-0.08668456
130	0x3f022612	0.5083934
131	0x3e9530ff	0.29138944
132	0x3ea6a5cf	0.32548377
133	0x3e288c84	0.16459852
134	0xbe641dea	-0.22277036
135	0xbe8d4ae1	-0.2759619
136	0xbe810e2c	-0.25206125
137	0xbeabfdd0	-0.3359208
138	0x3f1772ab	0.59159344
139	0x3ef1cbdd	0.47225848
140	0xbeb7abe6	-0.35873336
141	0xbea5ea57	-0.3240535
142	0xbe6ec15d	-0.2331595
143	0xbe2e09dd	-0.1699595
144	0xbec52659	-0.3850582
145	0x3e7f7cb6	0.24949917
146	0x3e858f32	0.26085812
147	0xbe47fbe1	-0.19529678
148	0x3ef9bd26	0.4877712
149	0xbe44dd83	-0.19225125
150	0x3e4b80ad	0.19873305
151	0x3ee0a8d2	0.438788
152	0x3dfa6771	0.12226761
153	0x3e4b41d0	0.19849324
154	0xbe08d132	-0.13361052
155	0x3e1a2f48	0.15057099
156	0x3e24f041	0.16107275
157	0x3ca0afe1	0.019615116
158	0xbe83ece6	-0.25766677
159	0x3c36fd79	0.011168831
160	0x3e4a4eb8	0.19756591
161	0x3eb391a5	0.35072055
162	0x3e167b8c	0.14695567
163	0xbdda9b97	-0.10674208
164	0x3d02a281	0.031893257
165	0x3d0d4d0c	0.034497306
166	0xbe0ff9cb	-0.14060132
167	0xbe841adf	-0.2580175
168	0xbe3183d8	-0.1733545
169	0x3bf243e1	0.0073933457
170	0xbe4f6ff5	-0.20257552
171	0x3e37dcfb	0.17955391
172	0xbd24ebfb	-0.04026411
173	0xbd86ee34	-0.065884024
174	0xba60ec38	-0.0008580121
175	0xbe64b700	-0.22335434
176	0x3e63d6b1	0.22249867
177	0x3c08f4a6	0.00835911
178	0x3ea14628	0.31498837
179	0x3e8ad9f4	0.2711941
180	0xbda8963d	-0.08231781
181	0xbcce40c5	-0.025177369
182	0xbe769b61	-0.2408271
183	0x3d3df9ed	0.046380926
184	0x3e77e50a	0.24208465
185	0x3eae3a4d	0.34028855
186	0x3e421aee	0.18955585
187	0x3e2f13cb	0.17097394
188	0xbeb73764	-0.35784447
189	0x3de42acc	0.11140975
190	0x3c4f053d	0.012635526
191	0x3d9e0e1c	0.07717535
192	0xbc42d31f	-0.0118911555
193	0x3eaffaf7	0.34371158
194	0x3dc63887	0.096787505
195	0xbc99c145	-0.018768916
196	0xbe9a8174	-0.3017689
197	0x3e3b9bb9	0.18321122
198	0xbe9207ee	-0.28521675
199	0x3e5b38a9	0.21408333
200	0xbe82ffd6	-0.25585812
201	0xbe9d23fd	-0.3069152
202	0xbd61cc69	-0.05512658
203	0xbeaf64a9	-0.34256485
204	0xbe5a70fe	-0.21332166
205	0xbe41474c	-0.18874854
206	0x3d459f47	0.0482476
207	0xbcb9f117	-0.022697968
208	0x3e975149	0.29554203
209	0x3e722a64	0.23648983
210	0xbe1b8922	-0.15189031
211	0xbdc49c2f	-0.09600102
212	0xbe9bc5de	-0.30424398
213	0x3e9ac823	0.30230817
214	0x3b81bc64	0.0039592255
215	0x3e266593	0.16249685
216	0x3da9573c	0.08268592
217	0x3e92c621	0.28666785
218	0xbd0bb36b	-0.034106653
219	0x3e08e200	0.13367462
220	0x3ca46745	0.020068774
221	0xbd4ab568	-0.04948941
222	0x3d7ccfac	0.06172149
223	0x3b8e6c7a	0.0043464275
224	0x3df281bb	0.118411504
225	0x3ddb5446	0.10709433
226	0xbd3f7436	-0.046741687
227	0x3c77dac9	0.015127846
228	0xbe3aa9fe	-0.1822891
229	0xbea1d6cc	-0.3160919
230	0x3db64392	0.08899607
231	0xbd9a87b1	-0.07545412
232	0x3d9df5f2	0.07712926
233	0x3c9dcd2e	0.019262876
234	0xbe524a6d	-0.20536204
235	0xbe86ac29	-0.26303223
236	0xbd7909d9	-0.060800407
237	0x3c3389f1	0.010958181
238	0x3e84d38d	0.2594265
239	0x3e3f7821	0.1869817
240	0xbe7957b7	-0.24349867
241	0x3de22fdf	0.11044287
242	0xbddc35e2	-0.10752465
243	0xbe0ca429	-0.13734497
244	0xbdd613af	-0.10452973
245	0x3e60d664	0.21956784
246	0x3e86414a	0.26221687
247	0xbf03a193	-0.5141842
248	0x3de41ea2	0.11138655
249	0xbeab5709	-0.3346484
250	0x3e9ecf57	0.31017563
251	0x3e48ceb8	0.19610107
252	0x3eae4088	0.34033608
253	0xbcb33888	-0.021877542
254	0xbe816c9f	-0.25278184
255	0x3f588f1f	0.84593385

rnn.bias_ih_l0 f4 [50]
0	0xbe92b600	-0.2865448
1	0xbb9a87ee	-0.004715911
2	0x3eb2ab4f	0.34896323
3	0xbcb7f94a	-0.022457737
4	0x3e489862	0.1958938
5	0x3d418e0e	0.047254615
6	0xbe75e5ad	-0.24013396
7	0xbe171839	-0.14755334
8	0x3db64fca	0.08901937
9	0xbc4ca061	-0.012489409
10	0xbdc3b12a	-0.09555276
11	0xbd8750c7	-0.06607204
12	0xbe1c7d58	-0.1528219
13	0x3ddcc7f7	0.10780328
14	0xbed48b55	-0.41512552
15	0xbd40223f	-0.04690766
16	0x3e80fe3b	0.25193962
17	0x3d55daea	0.052210726
18	0x3ea155c1	0.31510738
19	0xbe4699c1	-0.1939459
20	0x3e5a0f09	0.21294798
21	0xbe33380e	-0.17501852
22	0x3e01ac03	0.12663274
23	0x3d30c369	0.043155108
24	0x3dbe4ccb	0.09291991
25	0x3e0b5f45	0.13610561
26	0xbe3eff06	-0.18651971
27	0x3e946909	0.28986385
28	0xbd96f9d2	-0.07371868
29	0xbe6af959	-0.22946681
30	0x3e2f4636	0.17116627
31	0x3de10127	0.10986548
32	0x3e1f9270	0.15583205
33	0x3eab5b9c	0.3346833
34	0xbe14dc86	-0.14537248
35	0xbe3d3356	-0.18476614
36	0xbd663935	-0.0562069
37	0xbe4ffcbd	-0.20311256
38	0xbda84d95	-0.082179226
39	0x3dfc6135	0.12323228
40	0x3ca632a1	0.020287814
41	0xbe4a6e7b	-0.19768707
42	0xbe6f824d	-0.2338955
43	0xbe867c91	-0.26266912
44	0xbe65dd5c	-0.22447723
45	0xbc410ae7	-0.0117823845
46	0x3e09e4b6	0.13466153
47	0xbde153ed	-0.11002336
48	0x3e78e040	0.24304295
49	0xbe13ef30	-0.14446712

rnn.bias_hh_l0 f4 [50]
0	0xbe5b95db	-0.21443884
1	0xbdc2577b	-0.09489342
2	0x3e15e71e	0.14638945
3	0xbe3036cb	-0.17208402
4	0x3e0f66c8	0.14004052
5	0x3cbb166c	0.02283784
6	0xbe7cf1f3	-0.24701671
7	0xbea15482	-0.31509787
8	0x3e9bcc62	0.3042937
9	0x3db6070c	0.08888063
10	0xbdd6329f	-0.10458874
11	0xbe2f7844	-0.17135721
12	0xbe94b330	-0.2904296
13	0x3e8f1dd9	0.2795246
14	0xbeea9483	-0.4581643
15	0x3cac83c5	0.021058926
16	0xbb5829e8	-0.0032983962
17	0xbd933749	-0.07188279
18	0x3ed91914	0.42401946
19	0xbe81da2f	-0.25361773
20	0x3e7b7eec	0.24560136
21	0xbe78a607	-0.24282084
22	0x3e8329e6	0.25617903
23	0x3e30bc93	0.17259435
24	0x3d72b33e	0.05925297
25	0x3cfa25c9	0.030535595
26	0xbe8657c6	-0.2623884
27	0x3ea7a1f8	0.3274076
28	0xbe7f669b	-0.24941485
29	0xbe2dd756	-0.16976675
30	0x3e719969	0.23593678
31	0x3eaa69b8	0.33283782
32	0x3e061b07	0.13096248
33	0x3eafe688	0.3435557
34	0xbd4e3ef5	-0.05035301
35	0xbe5e7859	-0.21725596
36	0x3d1931a6	0.037400864
37	0xbe2b1937	-0.16708837
38	0x3d7db1b9	0.061937068
39	0x3e54262f	0.20717691
40	0xbdd6ac3d	-0.104820706
41	0xbe3a841d	-0.1821446
42	0xbdd4a675	-0.10383312
43	0xbe474bfd	-0.19462581
44	0x3bac2c0a	0.0052542733
45	0x3cbe9c73	0.02326796
46	0x3e5c2cbc	0.2150144
47	0xbe5887fb	-0.21145622
48	0x3dfcef06	0.123502776
49	0xbe69419d	-0.22778936

rnn.weight_ih_l1 f4 [50, 50]
0	0xbe36ee0f	-0.1786425
1	0xbe30f792	-0.1728194
2	0xbd6abb05	-0.057307262
3	0xbe50609c	-0.20349354
4	0x3e353b81	0.1769848
5	0xbe0d5a4c	-0.13803977
6	0xbd302b15	-0.043009836
7	0xbdf2389c	-0.11827204
8	0x3e156d80	0.14592552
9	0x3dd7d3cd	0.10538445
10	0xbdcff294	-0.1015369
11	0xbd9a9ff1	-0.07550038
12	0xbd88db46	-0.06682448
13	0x3e82979f	0.25506303
14	0x3dec34b7	0.11533492
15	0x3e904cd1	0.28183606
16	0x3d8617ee	0.06547533
17	0x3e1fc263	0.15601496
18	0x3d9cb126	0.07650976
19	0x3d857cca	0.06517942
20	0xbe4087a7	-0.18801747
21	0xbe63ab06	-0.22233209
22	0x3cab9a99	0.020947741
23	0x3ea0dda3	0.31419095
24	0x3d4c8340	0.049929857
25	0x3ea5640d	0.32302895
26	0xbe03abaa	-0.12858453
27	0xbdbe776a	-0.0930012
28	0xbe09a60b	-0.13442247
29	0xbde2ae08	-0.1106835
30	0xbd23b94d	-0.03997164
31	0x3d4270e0	0.047470927
32	0x3e910d8d	0.2833065
33	0x3c2ef55b	0.0106786145
34	0xbdc1f63d	-0.09470794
35	0xbdd337f7	-0.10313409
36	0xbd969cac	-0.073541015
37	0xbdcce038	-0.10003704
38	0x3e074c30	0.13212657
39	0xbde17634	-0.110088736
40	0xbe5fb4eb	-0.21846358
41	0x3d89d1c2	0.06729461
42	0xbe73c8e4	-0.23807102
43	0xbe42606a	-0.18982092
44	0xbe22ce2c	-0.15898961
45	0x3ea1bf85	0.3159143
46	0x3ebeb96b	0.37250838
47	0xbe060602	-0.1308823
48	0x3ec87411	0.39151052
49	0xbe8679ae	-0.2626471
50	0xbdca7d09	-0.0988713
51	0xbe5edfa3	-0.21764998
52	0x3cbefe63	0.02331466
53	0xbe800ccf	-0.25009772
54	0x3e5fa6b5	0.21840937
55	0x3e212dc1	0.1574011
56	0xbd705eba	-0.05868409
57	0xbe49af8a	-0.19695869
58	0xbbe9a296	-0.0071299775
59	0x3da549c7	0.080707125
60	0xbdc4a629	-0.09602005
61	0x3c886cff	0.016653536
62	0xbd661e71	-0.056181375
63	0xbcdb843c	-0.026796453
64	0x3ea2ae80	0.31773758
65	0x3e813ed9	0.2524326
66	0x3d2bee74	0.041975453
67	0x3e6d1ffc	0.23156732
68	0xbb9fd988	-0.0048782267
69	0xbe4a7339	-0.19770516
70	0xbe5c8327	-0.21534406
71	0xbdb61ffa	-0.08892818
72	0x3d5836c3	0.0527866
73	0x3dae0b86	0.08498292
74	0xbd369f55	-0.044585545
75	0x3e9268f6	0.28595704
76	0xbd7dbba0	-0.06194651
77	0xbdd02582	-0.10163404
78	0xbe3da52f	-0.18520044
79	0xbddfff80	-0.10937405
80	0x3dd0b89e	0.10191463
81	0x3e76081b	0.2402653
82	0x3e636903	0.22208028
83	0xbcb20cdf	-0.021734653
84	0xbeb12bb7	-0.34603664
85	0xbbd6eb1e	-0.00655879
86	0xbe1c771c	-0.15279812
87	0xbd3f12b1	-0.046648685
88	0x3de362e9	0.1110285
89	0xbdf0051f	-0.11719727
90	0xbd51c1b9	-0.05121014
91	0xbda6959e	-0.08134006
92	0xbcd584b1	-0.026064249
93	0xbdcf0170	-0.10107696
94	0x3d0acb27	0.033885147
95	0x3e316094	0.17321998
96	0x3d80ce5d	0.06289361
97	0xbeb2e4c1	-0.3494015
98	0x3dcfe9f4	0.10152045
99	0xbe8cf3f1	-0.27529863
100	0x3e2f1f77	0.17101847
101	0x3c354d44	0.011065785
102	0x3d21fef6	0.03954979
103	0x3e5263ce	0.20545885
104	0xbe0b728d	-0.13617916
105	0xbd79a08b	-0.06094412
106	0x3e23d423	0.15998892
107	0x3d22a9e5	0.039712805
108	0xbd1493b4	-0.036273673
109	0x3d2c3726	0.04204478
110	0x3e0c7286	0.13715562
111	0x3e289186	0.16461763
112	0x3e3ea71c	0.18618435
113	0xbdf5f406	-0.120094344
114	0xbcf53959	-0.029934572
115	0xbdd4ed1a	-0.10396786
116	0xbe6bf6f0	-0.23043418
117	0xbe07ab98	-0.13249052
118	0xbdb714a2	-0.08939482
119	0x3d7a0b0e	0.0610457
120	0x3dab3498	0.08359641
121	0x3dfdc1cc	0.123904794
122	0xbe481c01	-0.19541933
123	0xbd8acb1e	-0.06777023
124	0xbe1f1ae4	-0.15537602
125	0xbe42a9fc	-0.19010156
126	0x3bbb6e7d	0.0057199583
127	0x3d7330c9	0.059372697
128	0x3e7d0ae6	0.24711189
129	0x3db97b44	0.09056714
130	0x3d299f42	0.041411646
131	0xbdc23cd2	-0.09484257
132	0xbe0f1751	-0.13973738
133	0xbe21e262	-0.15809014
134	0x3e83648f	0.25662658
135	0x3e14df14	0.14538223
136	0x3e1e6244	0.15467173
137	0xbd69c92f	-0.05707663
138	0xbea7d7d4	-0.3278185
139	0x3d940298	0.07227057
140	0x3e213e78	0.15746486
141	0xbd4b55f9	-0.049642537
142	0x3dc8afd1	0.09799159
143	0x3e1a5cf2	0.15074518
144	0x3d1cde9f	0.038298246
145	0xbe660461	-0.22462608
146	0xbde4a597	-0.11164396
147	0xbc94ab2c	-0.018148027
148	0xbd4e9277	-0.05043265
149	0x3ec43062	0.38318163
150	0x3e33bf0c	0.17553347
151	0x3e2a5ea2	0.16637662
152	0x3d330e37	0.04371473
153	0xbb36ee2d	-0.002791296
154	0xbd196413	-0.037448954
155	0xbdee9449	-0.11649377
156	0xbddeff98	-0.108885944
157	0x3e1be00e	0.15222189
158	0xbdf14f0f	-0.11782657
159	0xbdb58c4a	-0.08864649
160	0x3ca89e79	0.020583378
161	0x3dc8958a	0.09794147
162	0x3e119da4	0.14220291
163	0x3dca5183	0.098788284
164	0x3d27674e	0.040870003
165	0xbdeb7629	-0.11497147
166	0xbe991795	-0.29900804
167	0x3baa0b14	0.005189309
168	0xbe6c37b3	-0.23068123
169	0x3cebb774	0.028774
170	0x3d0fc51b	0.035100084
171	0x3de6be73	0.11266794
172	0xbe5fc16c	-0.21851128
173	0xbe8d31a1	-0.27576926
174	0xbda3e629	-0.08002884
175	0xbc9b73b5	-0.018976072
176	0x3e414172	0.18872622
177	0x3de191fb	0.11014172
178	0xbc6c66bb	-0.01442879
179	0x3e028eaf	0.12749742
180	0xbe11da7e	-0.14243504
181	0xbd05bad3	-0.032648873
182	0xbe2b5b9b	-0.16734163
183	0xbbe7b944	-0.007071646
184	0x3e3ec9b3	0.1863163
185	0x3e2ee728	0.17080367
186	0x3e8e20a5	0.2775928
187	0xbded09d0	-0.11574137
188	0xbe37bcd7	-0.1794313
189	0x3e0d890f	0.13821815
190	0x3e3425ca	0.1759254
191	0x3e38e253	0.18055086
192	0x3e4631ad	0.19354887
193	0x3e0d55ca	0.13802257
194	0x3e1e9438	0.15486228
195	0xbe23f1d6	-0.16010222
196	0xbdb71f03	-0.08941462
197	0x3d92b330	0.071630836
198	0xbe158401	-0.14601137
199	0x3d932a2e	0.071857795
200	0xbe9b7827	-0.30365106
201	0xbdc4fe67	-0.09618836
202	0x3ea4adba	0.32163793
203	0xbe80830f	-0.2509999
204	0x3df249e9	0.118305035
205	0xbe155cf7	-0.14586245
206	0x3f38f0a4	0.7224219
207	0xbe8bd5e8	-0.27311635
208	0x3e404b97	0.18778835
209	0x3e1dea83	0.1542149
210	0xbe8e929c	-0.2784623
211	0xbe635169	-0.22199024
212	0xbe5b836e	-0.21436855
213	0x3da20073	0.07910242
214	0x3ee05c24	0.43820298
215	0xbe1736b9	-0.14766969
216	0x3da4331c	0.08017561
217	0x3e332c1e	0.17497298
218	0xbf133ebd	-0.57517606
219	0x3ec8b5f5	0.39201322
220	0x3f18bc91	0.5966273
221	0xbd28c8a2	-0.041206963
222	0x3e246749	0.16055025
223	0x3d2218ed	0.039574552
224	0xbccedca2	-0.02525169
225	0x3dc5fc35	0.09667245
226	0xbe632c1a	-0.22184792
227	0x3ef09299	0.46986845
228	0xbe826fea	-0.2547601
229	0xbe642a7a	-0.22281829
230	0xbc29e633	-0.010369825
231	0x3e7ce02f	0.24694894
232	0x3e72cdc0	0.237113
233	0x3e4f5172	0.20245913
234	0xbe5e1bf5	-0.21690352
235	0xbe42c633	-0.1902092
236	0xbdd4f686	-0.10398583
237	0xbe9ac24c	-0.30226362
238	0x3e55e15b	0.20886748
239	0x3f22838b	0.6348197
240	0xbe4a2cf0	-0.19743705
241	0x3d0e4b3e	0.034739725
242	0xbd664e24	-0.056226864
243	0xbe02a340	-0.12757587
244	0xbe1408cf	-0.14456485
245	0x3e065e36	0.13121876
246	0x3e6911d6	0.2276071
247	0xbdb97c91	-0.09056962
248	0x3d14b981	0.036309723
249	0xbec1377f	-0.37737653
250	0x3c068653	0.008210736
251	0xbd2fd192	-0.04292447
252	0xbcfde820	-0.030994475
253	0xbea8f716	-0.33001012
254	0xbc3a3607	-0.01136542
255	0x3dc8877c	0.097914666

rnn.weight_hh_l1 f4 [50, 50]
0	0xbe674a0c	-0.2258684
1	0x3ded0db1	0.11574877
2	0xbca7a3b3	-0.0204638
3	0x3d501b8a	0.050807513
4	0xbdc22f71	-0.09481705
5	0x3e26ef37	0.1630219
6	0x3b952a92	0.004552194
7	0x3e306d64	0.17229229
8	0x3d9b687e	0.0758829
9	0xbe5b04f1	-0.21388604
10	0xbd70cdd3	-0.05879004
11	0x3e6e29ec	0.2325818
12	0xbdf87e4c	-0.12133464
13	0x3e2902bb	0.16504948
14	0x3d86cb1b	0.06581708
15	0xbdc2ff5f	-0.095213644
16	0x3e1a9187	0.15094577
17	0x3ddf8ea2	0.10915877
18	0x3e2f6c10	0.17131066
19	0x3db324c1	0.087472446
20	0xbd6fd127	-0.058549073
21	0x3e04a478	0.12953365
22	0x3dca25c0	0.098704815
23	0x3d80925c	0.06277916
24	0x3e2fe3ab	0.17176692
25	0xbb9230fb	-0.0044614053
26	0x3e934c6c	0.28769243
27	0xbd0a06b9	-0.033697817
28	0xbc60cf78	-0.013721339
29	0x3e884ca9	0.26620987
30	0x3daf923b	0.08572813
31	0x3da7db56	0.08196132
32	0x3d98c4f4	0.07459441
33	0xbc4b7d55	-0.012420018
34	0x3e0f9b3a	0.14024058
35	0xbd9a4dbc	-0.07534358
36	0x3e16bfe8	0.14721644
37	0x3e1fd0b6	0.1560696
38	0xbe86088f	-0.26178405
39	0x3ecf0a28	0.40437436
40	0xbd9d74e2	-0.07688309
41	0xbe7be2d6	-0.2459825
42	0xbd8e6a9d	-0.069539286
43	0x3d778026	0.060424946
44	0xbc27a4f6	-0.010232201
45	0x3c4002be	0.011719404
46	0xbe6a2a7b	-0.22867768
47	0xbe3d50f3	-0.18487911
48	0x3d80d262	0.06290127
49	0xbe170e05	-0.14751442
50	0x3d94d923	0.07267978
51	0xbedb43ef	-0.42825267
52	0xbe20c338	-0.1569947
53	0xbd397a58	-0.04528269
54	0xbdace066	-0.08441238
55	0xbd764a76	-0.060129605
56	0xbdf98428	-0.1218341
57	0x3e6e27d9	0.23257388
58	0x3db30c15	0.08742539
59	0xbc122df2	-0.008922087
60	0x3eb6134d	0.355616
61	0x3d8069f1	0.06270207
62	0xbe07e2bd	-0.13270088
63	0xbc68b0d1	-0.014202313
64	0x3d6c48ce	0.05768662
65	0xbeaf7706	-0.34270495
66	0x3e865b45	0.26241508
67	0x3ea3c0b3	0.31982955
68	0x3e679f2a	0.2261931
69	0x3e35b7fb	0.17745964
70	0x3da08154	0.078371674
71	0x3d3dac45	0.046306867
72	0x3d96fbfc	0.07372281
73	0x3e8c5536	0.2740876
74	0x3e4072e9	0.18793835
75	0xbd6acf25	-0.057326455
76	0x3ed5566a	0.4166749
77	0x3e2bfc61	0.16795494
78	0xbdda618d	-0.106631376
79	0xbda73876	-0.08165066
80	0x3da68ed3	0.0813271
81	0x3c94dfa9	0.018173056
82	0xbece0d19	-0.40244368
83	0x3e26f8a2	0.16305783
84	0x3dc4f0c3	0.09616234
85	0x3db92f2b	0.090422
86	0x3e76f3b6	0.24116406
87	0x3e691a87	0.22764026
88	0x3dad7ab1	0.08470667
89	0xbe0e45ae	-0.13893768
90	0xbce19d22	-0.027540747
91	0xbeb2143e	-0.3478107
92	0xbdffd56d	-0.124918796
93	0x3c81d8de	0.01585048
94	0x3e5453f8	0.20735157
95	0x3e83e2f4	0.2575909
96	0x3c110302	0.008850815
97	0x3eb8de4c	0.361071
98	0xbd876457	-0.06610935
99	0xbd347125	-0.044053216
100	0xbe50a760	-0.20376348
101	0x3ca62ba2	0.020284478
102	0xbe0ccf86	-0.13751039
103	0x3e072e0e	0.13201162
104	0x3e214d61	0.15752174
105	0xbe08e420	-0.13368273
106	0xbd28fae8	-0.041254908
107	0xbddf7090	-0.109101415
108	0xbdcd038c	-0.10010442
109	0x3d8ac624	0.067760736
110	0x3d53ac4a	0.05167798
111	0xbecc9db1	-0.3996406
112	0x3e0492c7	0.12946616
113	0xbe7d059d	-0.24709173
114	0xbca22d5d	-0.019797022
115	0x3e807909	0.25092342
116	0xbea7df24	-0.3278743
117	0xbe5975c9	-0.21236338
118	0xbea62a28	-0.32454038
119	0xbe78992d	-0.24277182
120	0xbda9efda	-0.08297701
121	0xbe0b9c4d	-0.13633843
122	0xbe6e4c5c	-0.23271316
123	0xbe166790	-0.14687943
124	0xbec03636	-0.3754136
125	0xbe20d7cb	-0.15707318
126	0x3b88641c	0.0041623246
127	0xbed8e4fb	-0.42362198
128	0x3e50a8db	0.20376913
129	0xbc143ce6	-0.009047722
130	0x3d87f930	0.066393256
131	0xbe803aba	-0.25044805
132	0xbc17505e	-0.00923547
133	0xbe9ce5cf	-0.3064408
134	0xbe60fe00	-0.21971893
135	0xbe0183bc	-0.12647909
136	0xbc7fb318	-0.015606664
137	0xbe728a42	-0.23685554
138	0xbe520a4e	-0.20511743
139	0x3e64b6f2	0.22335413
140	0x3e08b83e	0.13351533
141	0x3e694050	0.2277844
142	0x3d2d2bbe	0.042278044
143	0x3d362f47	0.04447868
144	0xbe83d6ed	-0.25749913
145	0xbc2da0c8	-0.010597415
146	0x3c9218a7	0.01783402
147	0xbe017789	-0.12643255
148	0x3dec7370	0.115454555
149	0x3e57fa34	0.21091539
150	0xbe8f95a1	-0.28043845
151	0xbe3c8a78	-0.18412197
152	0x3e2f3974	0.1711176
153	0xbecf1e56	-0.40452832
154	0xbe71841d	-0.23585553
155	0xbddbf579	-0.107401796
156	0x3e91e66a	0.28496104
157	0xbea613d9	-0.32437018
158	0x3e899e1c	0.2687844
159	0x3cf09963	0.029370015
160	0xbeb0ebd3	-0.3455492
161	0x3e822ff0	0.25427198
162	0x3e353c3c	0.17698759
163	0xbecbf19e	-0.39832777
164	0x3d9baf79	0.07601828
165	0x3eca3cd1	0.39499524
166	0xbe8aca9b	-0.271077
167	0xbe9bb904	-0.30414593
168	0xbeb7874a	-0.35845405
169	0xbdabfdc2	-0.0839801
170	0x3eb11829	0.34588745
171	0xbe3ceaa7	-0.18448888
172	0xbeb25fd9	-0.3483875
173	0xbe8cc677	-0.27495167
174	0xbe3c3e33	-0.18383102
175	0xbc5e9386	-0.013584977
176	0xbee5cbc1	-0.44882014
177	0xbe226c7c	-0.15861696
178	0x3e351fd9	0.1768793
179	0x3e951d78	0.29124045
180	0xbe813e79	-0.25242975
181	0x3e685445	0.22688396
182	0x3d59b909	0.05315498
183	0xbe21a3ab	-0.1578509
184	0xbe43a4d3	-0.19105844
185	0xbd5cc605	-0.053899784
186	0xbe7c88a6	-0.24661502
187	0xbe824af6	-0.25447816
188	0xbdc45266	-0.09586029
189	0xbe00fcd7	-0.12596451
190	0x3e1fffd4	0.15624934
191	0x3dfc887b	0.12330719
192	0xbd036933	-0.032082748
193	0xbe0ed0b7	-0.13946806
194	0xbea83a78	-0.32857108
195	0x3e174122	0.1477094
196	0x3eb43b81	0.35201648
197	0xbe4c46a8	-0.19948828
198	0xbd2254d7	-0.03963169
199	0x3ded43b2	0.115851775
200	0x3eebc880	0.46051407
201	0x3ebbcc2d	0.3667921
202	0xbeccdde1	-0.4001303
203	0xbdc1565c	-0.094403
204	0x3d9ac619	0.075573154
205	0x3e97379b	0.2953461
206	0xbe83182b	-0.25604376
207	0x3e0bbb68	0.13645709
208	0x3e8c2459	0.2737148
209	0xbe990a18	-0.29890513
210	0x3d8f74f1	0.07004727
211	0x3eec2df4	0.4612881
212	0xbe95f5d5	-0.29289117
213	0x3e78a0e5	0.24280126
214	0x3ea0cd99	0.3140686
215	0xbeb08e33	-0.3448349
216	0x3e847c12	0.25875908
217	0x3e91194a	0.28339607
218	0x3e70912e	0.23492882
219	0x3eb84605	0.3599092
220	0x3e49f322	0.19721654
221	0xbd56badf	-0.052424308
222	0x3e8d4dd3	0.27598438
223	0x3e87bb1d	0.26509944
224	0x3eb708ca	0.35748893
225	0x3e740a97	0.23832165
226	0x3e966af7	0.29378483
227	0x3d593cef	0.053036626
228	0xbe8c12e8	-0.27358174
229	0x3e47c6f5	0.1950949
230	0x3e0ee70f	0.1395533
231	0x3ead20fe	0.33814234
232	0xbe2c20e4	-0.16809422
233	0x3e474af5	0.19462188
234	0xbc8de84e	-0.017322686
235	0x3e06493a	0.13113871
236	0x3ebc9d40	0.36838722
237	0x3e936d32	0.28794247
238	0x3f132b67	0.574881
239	0x3e6b2e91	0.22966982
240	0x3e751c45	0.23936565
241	0xbeb82fdb	-0.3597401
242	0x3f008b2e	0.5021237
243	0xbe033518	-0.12813222
244	0x3e64b21d	0.2233357
245	0x3daf903f	0.08572435
246	0xbd97c6a8	-0.074109375
247	0x3e600e61	0.21880485
248	0x3e044199	0.12915649
249	0xbed3c33d	-0.41359892
250	0x3d6a2a20	0.05716908
251	0x3ed5e352	0.41774994
252	0xbdcb5cf5	-0.099298395
253	0xbe829882	-0.2550698
254	0x3c8d24a5	0.017229388
255	0xbe6b9d5f	-0.23009251

rnn.bias_ih_l1 f4 [50]
0	0x3cd284ab	0.025698027
1	0x3df569c5	0.119830646
2	0xbe07597c	-0.1321773
3	0xbe81a716	-0.2532279
4	0x3e78a4a3	0.24281554
5	0x3eaab89d	0.33343974
6	0xbe438b08	-0.19096005
7	0x3e4ed2ac	0.20197552
8	0x3d5cd69e	0.053915612
9	0xbd8e805b	-0.069580756
10	0x3d104408	0.03522113
11	0x3d768561	0.060185794
12	0xbd490c98	-0.049084276
13	0x3e436c4e	0.19084284
14	0x3e0c025f	0.1367278
15	0xbdec53af	-0.11539399
16	0x3ead88db	0.33893475
17	0x3e402a29	0.18766083
18	0x3dbb5161	0.09146381
19	0xbbdbfcb1	-0.006713473
20	0x3e8d9111	0.2764974
21	0xbdfce7dc	-0.12348911
22	0x3ec727eb	0.38897642
23	0x3e0a0963	0.13480143
24	0xb9a950a2	-0.00032294268
25	0x3e7f3274	0.2492159
26	0xbdc2acca	-0.09505613
27	0x3e23b6b9	0.15987672
28	0xbe0b85a3	-0.13625197
29	0xbb22dde8	-0.0024851505
30	0xbd9a13f5	-0.07523338
31	0x3eb972ac	0.362203
32	0xbdd571f4	-0.104221255
33	0x3dc92e24	0.09823254
34	0xbd743866	-0.0596241
35	0x3e79932c	0.24372548
36	0xbd33026b	-0.043703478
37	0x3d9969b7	0.07490867
38	0x3e8c64ca	0.27420646
39	0xbd57b507	-0.052662876
40	0xbd129f61	-0.035796527
41	0xbe71c85a	-0.23611584
42	0x3d7ffff7	0.062499966
43	0x3e36e391	0.17860247
44	0x3e4a5aff	0.19761275
45	0x3dc2013e	0.09472893
46	0x3d0df39e	0.03465616
47	0x3e81c265	0.25343624
48	0x3e033519	0.12813224
49	0xbea4cd7e	-0.32188028

rnn.bias_hh_l1 f4 [50]
0	0x3e6a4820	0.22879076
1	0x3cb9c6b1	0.022677751
2	0x3c129d38	0.008948617
3	0xbd707d1c	-0.058713064
4	0x3ec90ca9	0.3926747
5	0x3ea5d9ff	0.3239288
6	0xbd8bec02	-0.06832124
7	0x3ee8ac5b	0.45443997
8	0x3e9a2805	0.30108657
9	0xbd92e1c0	-0.07171965
10	0x3dcc137a	0.09964652
11	0x3c51ba29	0.012800732
12	0xbd13ca94	-0.036081865
13	0x3dda4795	0.106581844
14	0xbd0abb66	-0.033870123
15	0x3d9e437a	0.07727714
16	0x3e5ab126	0.2135664
17	0x3e062d11	0.13103129
18	0x3e051cce	0.1299927
19	0x3d7e8d18	0.062146276
20	0x3e52e97e	0.20596883
21	0xbc4b1521	-0.012395174
22	0x3ea76f6f	0.32702205
23	0x3e10f792	0.1415694
24	0xbc0c3ee1	-0.008559913
25	0x3e7ab180	0.24481773
26	0xbd0cbfcf	-0.03436261
27	0x3ea9ea17	0.3318641
28	0xbe01e590	-0.12685227
29	0xbda0ee85	-0.07857994
30	0x3d7bdd7c	0.06149052
31	0x3efc8dd2	0.4932695
32	0xbeaf79a5	-0.34272495
33	0x3e9072ac	0.28212488
34	0x3b5aee1f	0.0033406091
35	0x3e8cf213	0.27528438
36	0x3e183257	0.14862953
37	0x3d821ade	0.06352781
38	0x3e153b09	0.14573301
39	0xbd99942e	-0.07498966
40	0x3e60915e	0.21930453
41	0xbe55f59d	-0.20894475
42	0x3df5ff59	0.12011594
43	0x3d596d74	0.0530829
44	0x3e359399	0.17732085
45	0x3ea4841d	0.32132044
46	0xbd8f05b8	-0.06983513
47	0x3e398fa7	0.18121205
48	0x3d904703	0.070447944
49	0xbe5e0e2e	-0.21685097

fc.weight f4 [1, 50]
0	0x3d44fe4d	0.048094083
1	0x3d7bb7e8	0.061454684
2	0xbd536bb7	-0.051616397
3	0xbd3f8bd8	-0.046764225
4	0xbcb08f8d	-0.021552825
5	0xbdc43a29	-0.09581406
6	0x3c5283b3	0.012848782
7	0xbc8636f3	-0.016383624
8	0xbcd24444	-0.025667317
9	0x3d11c760	0.03559053
10	0x3d5ed218	0.05439958
11	0x3dbabbb5	0.091178335
12	0x3cce731d	0.025201375
13	0xbbd8c6cd	-0.006615496
14	0xbc0b33e9	-0.008496263
15	0xbd20dd56	-0.039273582
16	0x3c67dda1	0.014151962
17	0x3de97e14	0.114010006
18	0x3d139fe5	0.03604116
19	0x3d321610	0.04347807
20	0x3cc112f7	0.023568613
21	0x3d6d4c69	0.0579342
22	0x3b0495ac	0.0020230813
23	0xbd97d918	-0.07414454
24	0xbcbed8ff	-0.023296831
25	0x3bfe5036	0.0077610267
26	0xbd361ef3	-0.04446311
27	0xbc946b6e	-0.018117633
28	0x3c866f06	0.016410362
29	0x3d6658b6	0.056236945
30	0xbc85c662	-0.016329948
31	0xbd9e43eb	-0.07727798
32	0x3dc72cf6	0.097253725
33	0xbdb18166	-0.08667259
34	0x3dfbaaa0	0.122884035
35	0xbdb9b829	-0.09068329
36	0x3da465bc	0.08027217
37	0xbd3cab06	-0.04606154
38	0xbdcb57c4	-0.09928849
39	0xbdf96939	-0.12178273
40	0x3c9574d9	0.018244194
41	0x3db361f2	0.08758916
42	0x3b174714	0.0023083137
43	0xbd0b9704	-0.034079567
44	0xbcf2dec3	-0.029647237
45	0x3d96dfe1	0.0736692
46	0x3bc6d014	0.0060672853
47	0x3c61305b	0.013744439
48	0xbc595c54	-0.013266642
49	0x3c3f5611	0.011678235
