Networks/ETHBTC/askSeed1.pt (torch, 33123 bytes, 9 tensors)

rnn.weight_ih_l0 f4 [50, 1]
00000000: dd19 44bd 5319 c6be 01ce ac3e 85ad ed3d
00000010: 90be afbd a480 653e 79de 663d 50ae 2fbf
00000020: 1865 693f 5527 8c40 ee9e 43bf 0c56 463e
00000030: b0ff ccbe 5d83 86be 55dd 97bd c66b 5bbf
00000040: 5401 c0be 961c 87bd 6c16 85bf 5a12 babf
00000050: a8dd 88bf ca97 893e 0de4 1f3f 915d 003f
00000060: cf33 693e 5678 cb3d 979f 57bd 7f14 3c3f
00000070: 78fd fb3f 6d38 f8be a795 893e 40e6 743e
00000080: 077c 14bf a73e 02be d030 debf e800 20bf
00000090: f711 d03f c989 4abd 0c58 c2be e03b 34bf
000000a0: ee95 863e a76b 513e 9549 683d 0c11 38bf
000000b0: 650a 8d3d 17e7 713f 79d5 cc3f c88a d4bd
000000c0: e546 b1bf a01d 313e
-0.047876228 -0.38691196 0.33750919 0.11605362 -0.08581269 0.22412354 0.05636451 -0.68625355
0.9116988 4.3798013 -0.7641438 0.19368762 -0.40038824 -0.26272097 -0.074152626 -0.85711324
-0.37501013 -0.06597249 -1.0397468 -1.453685 -1.0692644 0.26873618 0.6245735 0.5014277
0.2277367 0.09935062 -0.05264243 0.73468775 1.9686728 -0.4848055 0.26871988 0.23915958
-0.5800175 -0.12719212 -1.7358646 -0.6250138 1.6255482 -0.04944781 -0.379578 -0.7040386
0.26286262 0.20451222 0.0567108 -0.7190101 0.06886748 0.9449324 1.6002647 -0.10378033
-1.384976 0.17296457

rnn.weight_hh_l0 f4 [50, 50]
00000000: 626a 8b3e 428d 183e 8686 8bbe 1069 833e
00000010: e97a f9be 9872 0abe 188a 163e 5422 45be
00000020: d0dd e33d 45e9 c6be 1dda 30be 1ad8 e43d
00000030: 9471 19be ce21 383f 2dcc db3b 01a0 4fbe
00000040: 9900 8d3e d721 bfbe 0a0e 15be fe3d 41bd
00000050: dcbf b0bd b6e2 773b 518e 03bf 858e 533e
00000060: f659 4dbf a69a 16bf 6022 30be 598f c93d
00000070: 83a8 9d3e 91ee 9b3e 7ebd 23be 84ee 37be
00000080: 3ca6 ba3e b473 813f 553d 30bd 49e2 96bd
00000090: d7b2 28bd d113 a43d 8528 0c3f 1cc7 a1be
000000a0: 593f 4cbf 0ee8 f23d 2930 6b3e ba6c 1c3e
000000b0: 662e 0cbf c23a a43e 228f 3e3d d795 a63d
000000c0: 1978 03bf a916 e1bb f3f7 003f c0e8 843d
000000d0: f33f 14bf 0cc1 963e 9fcd f53e 8fe2 e1be
000000e0: c122 e93e 4b2c 3bbf e81f a63e dbc9 bbbe
000000f0: 63be 27bf 093a 17be db11 38bf 7f88 01be
00000100: 58b0 063f 9134 5abe 4a98 b33e 32ac f7be
00000110: f65c 91bd b7a1 67be ec26 0fbf 352e 003f
00000120: 5165 743e 5564 a03c b587 823d f394 243e
00000130: 782f 2ebf bcc8 a33d d55c 793c b444 b6be
00000140: c764 943e f816 b53b 3f2f 23bf 189b a8bc
00000150: 6fb4 b03c f79e f53d af31 46be 8867 343d
00000160: 2da5 f8bd 59a6 14bf e3f7 4b3d 3d8c 933e
00000170: f122 bc3e 71e3 f2be 9f65 be3e 681d d23e
00000180: 17d5 023e 4a9e e83e 2638 46bf 701c b9be
00000190: 4008 17be 9b0a 85be 7fe1 da3d b176 babd
000001a0: be42 053f 90f8 ad3d a3ae c23b 3838 9f3c
000001b0: f9dc 6f36 0187 be3e 3204 5fbd 254d 82be
000001c0: db41 fbbc 5366 0fbf a4d1 c43e a165 ca3e
000001d0: e703 94be de36 3a3e 1ac4 e63d 1853 733e
000001e0: 16f4 ac3d f635 a43d 43bd 183e 91bb 4ebd
000001f0: 390b 223f 7a4f 083f 5578 64be ee27 e93d
00000200: f230 5ebe e97b 5ebe 51bf 6f3e d44f e33d
00000210: aebf aebe 3703 44bf 40cf 943d d527 01be
00000220: 55f6 023d d613 bbbd 0a3a d0be 88b1 853d
00000230: 6ccb 363f 72d7 4fbe 271f 89be f66e 9fbe
00000240: fcd6 173f aa9e 28be 9543 b13d d63f 70bd
00000250: 9e4a d33e 39be 7bbe 0d28 8a3f 5c18 be3c
00000260: 5294 98bf 5f07 1e3e f8ea b23c b23e 65bf
00000270: 0f80 213e ba03 8ebc d08f c83e e94e 66bf
00000280: 3d2c e0bd 4ffa 94bc 6deb 6dbe 309c f33d
00000290: 24bd 243e cf41 cd3e 7da0 893f 5cfe 59bf
000002a0: a0b0 823c c7d7 2c3e 14e7 41be 75ee 4c3e
000002b0: 80a7 5ebe f0d5 8f3e b248 9dbe 1a97 4dbe
000002c0: 1c5d 0ebd be51 5d3e c9aa 54be 5b0c 8a3e
000002d0: cd99 07be aa2d 1bbe 8c17 30be bd19 5a3e
000002e0: 8d52 41bf c13d ce3d 031f 7f3e 9480 71be
000002f0: bc06 ca3e c7ec 273c 153f 99be 8783 593f
00000300: f3a8 bdbb 88e7 00be 907a 263e 352c b23e
00000310: ecfb 25bd 17bc a13e 5379 f0bd 505a c2bc
00000320: 62f8 393d 462d 8b3c 4ff8 123e 68e5 773d
00000330: fb24 1a3f 3286 63bb 1a34 1f3f 1f00 69be
00000340: b7df ca3d f12b d73d 0c27 48bf 7b0c 87bd
00000350: d7a4 f7be 0685 68be 4f20 133f 97ab 31be
00000360: 33aa 613c 31cb 023e 4354 1abf 815c c6be
00000370: c1bb a1be d1ac 3e3f cdf0 e43d 7d38 c93e
00000380: 8b12 093b e482 283e 27db 15bf 4d90 0a3d
00000390: 35ba e8be e637 9cbe 0070 473e 89d8 0c3e
000003a0: 183a 03bf 68ff 4fbe 2bbe 1b3e 1ad1 55be
000003b0: f5cf 353e 7d4b 4abe b5ed 4cbe a2c9 a3bd
000003c0: 4fb8 123e 1cdb 5fbe 518b 993e e8fc d5be
000003d0: 339d de3e c9a3 19be ba4a 1f3e ade9 d53e
000003e0: 9069 ad3d e8fb 22bf 43e1 a5be 41c4 b6be
000003f0: bffb c33e 3e84 ea3d f56d ed3e b254 193e
0.272296 0.14897636 -0.2725107 0.25666094 -0.48726586 -0.13520277 0.14701116 -0.19251376
0.11126292 -0.38849846 -0.17270704 0.111740306 -0.14984733 0.7192658 0.0067076893 -0.2027588
0.27539518 -0.37330505 -0.14556137 -0.04717826 -0.08630344 0.003782434 -0.5138903 0.20659836
-0.80215394 -0.58829725 -0.17200613 0.098417945 0.30792627 0.3045545 -0.15990254 -0.1796208
0.36454952 1.0113435 -0.04302724 -0.07367379 -0.04118618 0.08011592 0.5474933 -0.3159722
-0.7978416 0.11860667 0.2296759 0.15275851 -0.547583 0.3207608 0.04652322 0.081340484
-0.5135513 -0.0068691564 0.5037834 0.06489706 -0.5791008 0.29444158 0.4800844 -0.44118163
0.45534328 -0.7311446 0.32446218 -0.3667744 -0.6552488 -0.14768232 -0.71902245 -0.12649725
0.5261283 -0.21309115 0.35077125 -0.48373562 -0.07097809 -0.22620283 -0.55918765 0.50070506
0.23866774 0.019579092 0.0637354 0.16072445 -0.6804118 0.079972714 0.015219887 -0.3559929
0.28983137 0.0055264197 -0.63743967 -0.020581767 0.021570412 0.11993211 -0.1935489 0.044044048
-0.1214088 -0.58066326 0.04979695 0.2881793 0.36745408 -0.4743915 0.37186906 0.4103806
0.127766 0.45433265 -0.77429426 -0.3615451 -0.14749241 -0.25984654 0.10687541 -0.0910467
0.52054965 0.08494675 0.0059412285 0.019435987 3.5742398e-06 0.37212375 -0.05444736 -0.25449482
-0.03067105 -0.5601551 0.38441193 0.39530662 -0.28909227 0.18184993 0.11267872 0.23762167
0.08444993 0.08018105 0.14915948 -0.050471846 0.63298374 0.5324627 -0.22311528 0.11384569
-0.21698359 -0.21726955 0.23412825 0.110992104 -0.34130615 -0.76567405 0.07266092 -0.12612851
0.0319732 -0.09134643 -0.4066928 0.06528002 0.7140415 -0.2029703 -0.2678158 -0.31139344
0.59312415 -0.16466776 0.086554684 -0.05865463 0.41267866 -0.24584283 1.0793473 0.023204975
-1.1920264 0.154325 0.021840557 -0.8954879 0.15771507 -0.017335761 0.3917222 -0.8996416
-0.10945938 -0.018185763 -0.23234339 0.11895025 0.16087776 0.4008927 1.0752102 -0.85153747
0.015953362 0.16879188 -0.18935806 0.20012839 -0.21743584 0.2809291 -0.30719525 -0.20077172
-0.034756765 0.21613213 -0.20768274 0.2696255 -0.13242264 -0.15154138 -0.17196482 0.21298881
-0.7551659 0.100703724 0.24914174 -0.23584205 0.39458263 0.010249323 -0.2993094 0.8496632
-0.0057879626 -0.12588322 0.16257691 0.34799352 -0.040523455 0.31588814 -0.11741891 -0.023724705
0.045402892 0.016989361 0.14352535 0.060521513 0.6021268 -0.0034717438 0.62188876 -0.22753952
0.099059515 0.10506428 -0.7818458 -0.06594177 -0.4836795 -0.22706994 0.57471174 -0.17350613
0.013773489 0.12772824 -0.60284823 -0.3874245 -0.31588557 0.74482447 0.111787416 0.3930091
0.0020915593 0.16456181 -0.58537525 0.033829022 -0.45454565 -0.30511397 0.19476318 0.13754477
-0.5126052 -0.20312274 0.15209262 -0.20880547 0.1775511 -0.19755359 -0.20012553 -0.07997443
0.1432812 -0.21860927 0.29989102 -0.41794515 0.43479308 -0.15003885 0.1555585 0.41779843
0.084674 -0.6366563 -0.32398424 -0.35696605 0.38278005 0.114510044 0.46372953 0.14973715

rnn.bias_ih_l0 f4 [50]
00000000: 6750 093f eb7c a33e d55a 09bf 492a cf3e
00000010: 7675 743e a849 73bc 3b0b e33e 7b14 86be
00000020: 94e9 f13e 3571 91be 4541 b8be 526b 69be
00000030: 5ddf f7be f765 ba3c c2f8 273e 2aa3 5dbe
00000040: e7a6 853e ca67 27be 22a8 0abf fca8 56be
00000050: ddf5 cabe a326 8e3d f548 f13d 4636 aa3e
00000060: 459e 11bd b6cc 0abe e128 a2be f2b5 fabd
00000070: 64a3 d83d 0527 6fbe 0505 eb3d 5200 9d3e
00000080: a471 01bf 823e cb3d 080a 9fbd 04f1 903e
00000090: 40d2 953d dc16 663e 381b 05be a8bd a1be
000000a0: 0b5d b0be 4df1 42be e3dc 613e a4ed 08be
000000b0: a459 873e 60c5 b23e eea9 7c3e 99a2 de3e
000000c0: 743e 12be afc8 dabe
0.5363831 0.31931242 -0.53654224 0.4046195 0.23872933 -0.014849104 0.44344506 -0.261875
0.47248518 -0.28406683 -0.35987297 -0.22794846 -0.484126 0.022753699 0.16403487 -0.21644273
0.261039 -0.16348186 -0.541628 -0.209629 -0.39640704 0.06940963 0.117814936 0.33244532
-0.03555133 -0.13554654 -0.31671813 -0.122417346 0.10578039 -0.23354729 0.11475567 0.30664307
-0.50564027 0.09924032 -0.07765585 0.2830888 0.07315493 0.22469658 -0.12998664 -0.3159001
-0.34445986 -0.19037361 0.22056918 -0.13371903 0.26435578 0.3491621 0.24674198 0.43483427
-0.14281636 -0.42731234

rnn.bias_hh_l0 f4 [50]
00000000: 63ae d93e d2aa c83e 71db d9be db72 543e
00000010: 0921 5a3e 3a1f 66bb 37ea cc3e 711c 8bbe
00000020: 534d 023f 95d8 2abe 0cea bdbe 54cf dabd
00000030: 44c6 eebe 5508 f13c b07e c23e db31 c3bd
00000040: e998 483e f9f7 55be 7ce4 dcbe 9a90 50be
00000050: 0c94 cfbe 2dea 9d3e b957 043e 4ad5 053f
00000060: 3a93 1bbe 34de c2bd 440f 02bf e99f a4be
00000070: a870 ffbb bfaf 9cbe dea3 883e bb93 643e
00000080: 1c48 04bf 5475 ad3e a531 f03d 62dc 263e
00000090: 6f81 f8bc 259d a73e 9f89 20be f79a f7be
000000a0: 73b1 6dbe 1fac babe f469 f73d faf5 c7be
000000b0: aaed e73e d1e5 a73e 1872 a23e 0c17 013f
000000c0: a2e2 56bd f0ba cabe
0.4251586 0.39192826 -0.42550233 0.20746939 0.21301664 -0.0035113827 0.40022442 -0.27170137
0.5089924 -0.16684182 -0.37092626 -0.10684076 -0.4663564 0.029422918 0.3798728 -0.095309936
0.1958958 -0.20895375 -0.4314307 -0.20367661 -0.40542638 0.30842724 0.12924089 0.5227858
-0.15192881 -0.09515038 -0.50804543 -0.32153252 -0.007795412 -0.30602834 0.2668752 0.2232198
-0.5167253 0.33878577 0.11728219 0.16295007 -0.030335156 0.3273708 -0.15677498 -0.48360416
-0.23212223 -0.36459443 0.12080756 -0.39054853 0.4529851 0.32792524 0.31727672 0.5042579
-0.052462228 -0.39595747

rnn.weight_ih_l1 f4 [50, 50]
00000000: 54cc 86be c16d 873e abb7 593e 61d6 1cbe
00000010: fdf8 a13e 1733 2f3e 3682 693e 7c24 13be
00000020: c0f2 b13c 8e45 a33e fa8c a7be 6ed6 053e
00000030: 6b8e bfbe 5b91 06bf 1619 8d3e d101 06bf
00000040: c2e8 4bbe 445c 0e3e 972f 4cbf 3273 a2bd
00000050: 2772 27bf 8c54 dd3e bef7 fa3e 4e67 b63d
00000060: 1968 9b3e 3c48 063f b396 8fbe 85b1 e2bd
00000070: f739 92be c68b 09bf ad87 8dbc 762e c83e
00000080: 373f 9cbe 6da4 26bf f845 153e 1d0b 7d3e
00000090: ace2 56bd 7715 d63e b91f bbbe 2d68 f4bb
000000a0: fd0d ea3e a5aa 3abe ac8e af3d 8b01 99be
000000b0: 5dd1 003f 9661 a6be c58d 60bd ff8a ca3e
000000c0: b27c d7bd 1a7f c8be 4494 953d 2071 a4be
000000d0: 17b4 94be bbae d93d 01a6 0dbe 5c88 42be
000000e0: 89e8 9ebe a603 e83e dcbc 783e 0861 2dbe
000000f0: f89c 923d a0d7 c93d 16c7 fa3d e7e3 c13e
00000100: 2667 c7be 60ce 443e 2b5c 5b3e 3530 99be
00000110: 15dc 203e ed0a 9d3d 2b7b cdbd fc52 00bf
00000120: 5ef4 32be 7b86 493e 4f44 39be d128 35be
00000130: 10ee a13e e31c a23e 94ab 733e e1d8 cf3e
00000140: 9e7c b0be 7d9d 95be ce0d 6e3e 477d 9c3e
00000150: 5d83 0dbf 85e7 73be ca9a 0c3f 77d5 dbbd
00000160: fce5 5f3e e632 5a3e 0723 c9be 315b 873e
00000170: f74a c43d bbb1 293e f5f6 a1be 67d4 5a3d
00000180: 62f6 97be 4c5f d1be e81d 153e 2e5c 463e
00000190: ba7a a53e df8d bbbd 86a5 44be 9b07 fe3d
000001a0: 59bf f5be 4a37 9cbc afc5 01bf 223e 843e
000001b0: f0fd 243e 93ad 51be 9745 1d3f e8a9 4d3d
000001c0: f149 fe3e f894 e53e 8242 19bf 6211 943e
000001d0: c8c1 3d3e e1cf 8fbe 4469 263e 2b0a 8fbd
000001e0: 4aa4 b53e 7540 15bf f18b a7be 56fd 29bd
000001f0: 2eef ccbe ae20 6fbe 61f0 3f3e a16d b63e
00000200: dd87 503e 933d 0d3e e903 51be ba31 f9be
00000210: f060 953e 73dd af3e e20a 1ebe f4af bf3b
00000220: e233 3d3e 3f0e ad3c 3eef 023f d164 13be
00000230: 4bcf efbe 0314 1e3e 5826 e7bc 9744 cf3e
00000240: da89 65be 3c86 923d 966c 393c 2d8d e5be
00000250: 03d8 963e 8c79 073f 57a9 283e c5ea 533e
00000260: 3e30 2cbe ba6f 523e d6dd 363e 8710 ecbd
00000270: 5c3e b53d cb55 4e3e 2953 e73d abb4 053d
00000280: 784a 043e 349d 9a3e 6d84 33bd cc54 ab3d
00000290: 84f6 e93d 8fda 6c3e f578 973d b03b a2bd
000002a0: 2ff0 e53e b6ed 7d3b 48ff fe3e 4bbf 203e
000002b0: 3cbe a6bd 3456 42bf 46d5 9bbd 163b 333e
000002c0: dcb8 eabd fb88 9bbe 66bf 8a3e c1ad 25be
000002d0: b604 77be 1058 2c3d dd6f 263e 9161 dbbb
000002e0: c23e 543f 80c2 583e dd6f ebbe d8b6 49be
000002f0: e0dd 063d 9c34 4c3e 193e 943e 3484 35be
00000300: 87c7 a03e 6b1a 8b3e 17d1 33bd 4d60 183e
00000310: cb36 51be f2cc 0d3e f522 553e baf5 95be
00000320: 7c08 b03e 6abf 573e 2d30 9abe 280c c13e
00000330: 8eb9 a8be 985a 33be 0f74 2c3e 2db9 b1bc
00000340: 258e d73e 0438 8cbe 9b91 863e 264a 0b3d
00000350: da9b 61be 4b21 243e 007e 723e 91b9 a93d
00000360: 7ff6 5a3e b7b9 5cbe 160b 2b3e c8c2 b6ba
00000370: 5ee4 57be 88e4 143e a2bc 0dbf a5ef 62be
00000380: 3627 90be faa9 be3d 46fc fdbd fce4 71be
00000390: 7234 463e ebdf 60be f2e2 6fbe 6b17 033e
000003a0: 8ea1 313c 4803 ad3e 2681 d13e 355d e03e
000003b0: f7f6 95be c072 cc3e f16b cd3e 7a9b cebe
000003c0: a37b b8be f1f9 973e 0090 403e cf06 f33e
000003d0: e8ce 46be 07ae a93e c9e8 d8be fe7d a23e
000003e0: a291 32be dee0 42be a827 293e ff36 873e
000003f0: d628 96be b966 893e 0508 2fbe 0faa 3bbe
-0.26327765 0.26450923 0.2126147 -0.15316154 0.31635275 0.17109333 0.22803578 -0.14369386
0.021722198 0.31889004 -0.32724744 0.1307008 -0.37413344 -0.52565545 0.27558202 -0.5234652
-0.19913009 0.13902384 -0.79760116 -0.07932128 -0.6540856 0.43228567 0.49017137 0.089064226
0.30352858 0.5245397 -0.28044662 -0.110690154 -0.2855985 -0.537289 -0.01727661 0.39097947
-0.3051698 -0.65094644 0.14577472 0.2471127 -0.052462265 0.4181325 -0.3654764 -0.007458708
0.45713797 -0.18229158 0.085721344 -0.2988399 0.50319463 -0.32496327 -0.054822702 0.3955917
-0.105218306 -0.3915947 0.0730367 -0.32117558 -0.29043648 0.1062903 -0.13832857 -0.1899733
-0.31036785 0.45315284 0.24290794 -0.16931546 0.07158846 0.0985558 0.12245004 0.37869188
-0.38945884 0.19219351 0.21421878 -0.29919592 0.15708955 0.076680996 -0.10033258 -0.50126624
-0.17476031 0.19680206 -0.18092464 -0.17691351 0.3162694 0.31662664 0.2379592 0.40595153
-0.34470075 -0.29221717 0.23247454 0.3056433 -0.5527857 -0.23818786 0.5492369 -0.107340746
0.21865076 0.21308479 -0.39284536 0.2643676 0.09584611 0.16571705 -0.31633726 0.05342522
-0.29680163 -0.40893018 0.1456219 0.19371101 0.32320195 -0.09157919 -0.19203767 0.124037944
-0.4799755 -0.019069333 -0.50692266 0.25828654 0.16112494 -0.2047637 0.6143431 0.050210863
0.49665788 0.44840217 -0.5986711 0.28919512 0.18530953 -0.28088287 0.16251093 -0.06984361
0.35476905 -0.5830148 -0.32723954 -0.041501366 -0.4002623 -0.2335231 0.18744041 0.35630515
0.20364328 0.1379302 -0.20411648 -0.4867075 0.2917552 0.3434864 -0.15433839 0.0058498327
0.18476823 0.021124957 0.51146305 -0.14393927 -0.4683784 0.15437321 -0.028216526 0.40482017
-0.22415867 0.071545094 0.011317393 -0.4483427 0.2946168 0.5291984 0.16470848 0.20695026
-0.16815278 0.20550433 0.17858061 -0.1152659 0.08849785 0.20149915 0.112951584 0.032643
0.12919033 0.3019806 -0.043827463 0.08365783 0.11423972 0.23130248 0.073961176 -0.07921541
0.44909808 0.0038746423 0.4980414 0.15697972 -0.08141753 -0.75912786 -0.07609038 0.17503008
-0.114610404 -0.30377945 0.2709915 -0.16179563 -0.24122891 0.04207617 0.1625361 -0.0066949804
0.8290826 0.21167946 -0.45983782 -0.19698656 0.03292644 0.19941944 0.28953627 -0.17726213
0.31402227 0.27168593 -0.043900575 0.14880486 -0.20431058 0.13847712 0.20814116 -0.29289037
0.34381473 0.21069112 -0.3011488 0.37704587 -0.32954067 -0.17515028 0.16841148 -0.021694744
0.42100635 -0.27386487 0.26282963 0.03400626 -0.22032109 0.16028325 0.23680878 0.08287347
0.21383093 -0.2155522 0.16703448 -0.0013943547 -0.21083209 0.14540303 -0.55365956 -0.2216173
-0.28154916 0.09309764 -0.12401633 -0.23622507 0.19355944 -0.21960418 -0.23426417 0.12801902
0.01084174 0.33791566 0.40918845 0.4382111 -0.29289982 0.39931297 0.40121415 -0.40352994
-0.36031827 0.29682878 0.18804932 0.47466132 -0.19414866 0.33140585 -0.423651 0.3173675
-0.17438367 -0.19031093 0.16519034 0.26409146 -0.2932803 0.26836184 -0.17092903 -0.18326591

rnn.weight_hh_l1 f4 [50, 50]
00000000: eee4 073e 718e 66be 0df2 88be 5d9c bebd
00000010: 0a45 d6be db6b 913c bc32 a4be 2764 5e3e
00000020: 63a6 e3bb 4246 30be a7e2 b6bd c2b0 1abd
00000030: abbe 973d ef1b 213e 788c f5bd 0938 a8bd
00000040: c32b 74bd 919a b1bd da47 813e c4e0 7cbe
00000050: 4278 0bbd 6c07 80bd bc8b 9abe 3b52 ee3c
00000060: 4bb9 d63d 8068 06be c63d 86be 0190 66bd
00000070: 55f9 fc3d ddca e73e 26b3 86be 6f59 06be
00000080: 4eb5 a23e 69a6 d3be dbc4 a73e 8539 ba3e
00000090: 2f48 153e f2d1 a9bc 986a c7ba bbd5 b93e
000000a0: 1015 a43d df75 1a3e 52df f1bc 9555 ad3e
000000b0: 4447 a0bd 6952 08be 8a41 093e 47f1 733d
000000c0: a2dd 60be e16f 4d3e 8861 a7bd e426 f03d
000000d0: b133 493e fe89 3abe 1338 133e 6ab5 fdbd
000000e0: 31a2 efbd a09e 42bd cbd1 abbd 7552 453e
000000f0: 244d 64be 8568 553e beb6 133d 8c42 9ebd
00000100: 161f 90be c851 01bd e7e3 ef3e 9aec afbe
00000110: 4aad 863e 73ac 85be 4acd 94be 3168 72bc
00000120: c1ba 823c b54e 8cbd 94d5 e03b b9b3 c23d
00000130: c9e2 393a 638c 9f3c 9094 18be 3fa7 8f3d
00000140: 1f66 c4bd fbe9 be3d a93d 86be 14d0 8cbd
00000150: 0f7b 2fbe 7ccc a13e 21a8 2dbb 630d 723c
00000160: 65f0 44bd 959e 41bd c1f5 e3be 78e6 0dbe
00000170: c274 2ebd 2481 723e fc90 843d 9c54 43be
00000180: 42e8 4cbc d0f6 313e ccac a83d 30c9 e7bd
00000190: 0be6 d7be 4bde 2dbe dcaa ae3e 7089 6e3e
000001a0: be86 dc3e bf3d efbd 3e1a 543e 7835 a73d
000001b0: da7d 833e 08c7 82bd e004 26be 3424 333f
000001c0: 7a16 853d 2325 923e 5378 2ebe 550a 59be
000001d0: c968 6b3e dc4f 923e 4a6a 9fbd 7b75 de3e
000001e0: 8e74 d0bd cb94 de3e f543 0f3e 4525 8fbd
000001f0: 87cd 1f3d 2535 1fbe 8dae 023e 5671 ab3d
00000200: 955b 23bf 186d 2abf 724d 963e e6f6 a1be
00000210: 427b e3be 1fc4 e53e c73e 4fbe 53fb 07bf
00000220: 4065 d23b 291a 503e a734 2d3e 29c6 b4be
00000230: 67bd d73e 8cc9 cabe 1012 803e 9dcd 043e
00000240: 6f5a ef3e baee c73b 52e9 a13e 1e6f fabe
00000250: db47 023d 5358 e1be 7bb3 51be 333c 7abe
00000260: f80a 653e 5d88 a3bd 13eb d93d 7fd1 a23d
00000270: 0f66 c23e a2fb e4be bca4 033e b9b0 a5be
00000280: 1ecb 5abf 9df9 af3e f264 ccbe 13e7 003f
00000290: 2e85 96be d070 09be 9553 7c3d 3410 d5bc
000002a0: 9ba7 40bf 12cc 01bd 8c8c a33e 75ae 233e
000002b0: e075 863e 38e1 7cbe 5777 5cbe c514 6dbe
000002c0: 3ca7 e23e ee31 ee3e 5894 d7be 3679 a8be
000002d0: 8d9c 3e3e 3218 9bbd a8c8 e5bd e1c2 1e3e
000002e0: b399 14bf d479 59be 923b b93e 39ae 87be
000002f0: 9aca f43e fa32 b3be 343b 0fbe 25ad 9abe
00000300: 0c44 bb3e 434d bc3e aeb6 fb3e 8aa5 383f
00000310: 01d5 443f 5c70 ddbe 4238 9bbd 76ec 4bbe
00000320: 3199 7cbe 0f82 ebbc 9813 103e 563d 4bbe
00000330: 1296 1b3f def6 78be a048 dc3d 4e5d 4cbe
00000340: 0f57 35be 7656 0a3c b117 91bd b193 81bc
00000350: 115d 18bd bfd6 ad3c ef65 233e d40c 8d3e
00000360: 20cc 093f 2c46 ac3b d183 65be 446a c53d
00000370: d57c 77be cd79 173f 698e 24bd 6f99 20be
00000380: 4e01 f03d c8a2 ca3d 4421 083f 991c 003e
00000390: e46f 0bbf 7894 2fbe 44af 813e 0669 bdbe
000003a0: b942 0abf a826 f43e ee3f cdbe 1c76 82be
000003b0: 448b b33e 2464 603d 2a26 693e 3d1b fbbe
000003c0: 00dd c6bc 9e6e e7be 3025 903e 0bb7 ff3d
000003d0: 37b0 d63e f9c6 273e fe1f 5e3e 8ec3 7bbd
000003e0: 4820 02be 8be9 87be 0c25 b6be 1898 1fbe
000003f0: 6a29 18be abf2 b23e 3a42 083d 150a d03d
0.13270923 -0.22515275 -0.2674717 -0.09307168 -0.41849548 0.017751625 -0.32069957 0.21717893
-0.006947325 -0.17214301 -0.08929949 -0.037766226 0.07409414 0.15733312 -0.11989683 -0.08213813
-0.059612047 -0.08672059 0.2525013 -0.24695116 -0.034050234 -0.062514156 -0.30184734 0.029091945
0.104845606 -0.13125801 -0.26219004 -0.056289677 0.12352244 0.4527196 -0.26308554 -0.13120054
0.3177895 -0.41337898 0.32767376 0.3637201 0.14578317 -0.020729993 -0.0015214263 0.36295876
0.0801183 0.15084027 -0.029525433 0.33854356 -0.07826093 -0.13312687 0.13403907 0.059556272
-0.21959546 0.2006221 -0.081728995 0.11726168 0.19648625 -0.18216702 0.1437686 -0.123881176
-0.117008574 -0.047514558 -0.08389624 0.19269736 -0.22295052 0.20840652 0.03606295 -0.077275366
-0.28148717 -0.031572133 0.46853563 -0.343602 0.26304084 -0.2610813 -0.29062873 -0.014795349
0.015958192 -0.0685095 0.006861398 0.095069356 0.00070909836 0.019476121 -0.14900422 0.070143215
-0.095897906 0.09321972 -0.26218918 -0.06875625 -0.17136787 0.31601322 -0.0026497918 0.014773699
-0.04808082 -0.047270376 -0.44523433 -0.13857448 -0.042591818 0.23682076 0.06472966 -0.19075245
-0.012506546 0.17379308 0.082360834 -0.1131767 -0.42167696 -0.1697933 0.3411473 0.23294616
0.4307155 -0.11681699 0.20713136 0.08164495 0.25681955 -0.063856184 -0.16212797 0.69977117
0.06498428 0.28543958 -0.17038088 -0.21195348 0.22989191 0.28576553 -0.07783945 0.43449005
-0.10178481 0.43472895 0.13990767 -0.069895305 0.039014366 -0.15547617 0.12761898 0.083712265
-0.6381162 -0.66572714 0.2935596 -0.3163368 -0.44429976 0.4487619 -0.20238791 -0.53117865
0.0064207613 0.2032248 0.16914617 -0.35307434 0.4213669 -0.39606893 0.2501378 0.1296906
0.46748683 0.0061014565 0.31623322 -0.489129 0.031806808 -0.440127 -0.20478623 -0.24437027
0.22367465 -0.079849936 0.1064054 0.079501145 0.3796849 -0.4472323 0.1285581 -0.3236139
-0.8546618 0.34370127 -0.39920765 0.5035259 -0.29398483 -0.13421941 0.061603148 -0.026008703
-0.75255746 -0.031688757 0.31943166 0.15984519 0.26261806 -0.24695289 -0.215299 -0.23152454
0.44268215 0.46522468 -0.42105365 -0.32904977 0.18614407 -0.07572974 -0.11219913 0.15504028
-0.58047026 -0.2123788 0.3617826 -0.2650011 0.47810823 -0.3499983 -0.13987428 -0.30210224
0.36575353 0.36777696 0.4916281 0.7212759 0.7688752 -0.43249786 -0.0757909 -0.19914421
-0.24667813 -0.02874854 0.14069974 -0.19847617 0.60775864 -0.24312922 0.107560396 -0.19957468
-0.17708991 0.008443465 -0.07084597 -0.015817495 -0.03719813 0.021220563 0.15956853 0.2754885
0.53827095 0.0052573886 -0.22413565 0.09639409 -0.24168713 0.5917023 -0.040174875 -0.1568353
0.11718999 0.09894329 0.5317576 0.12510909 -0.54467607 -0.1714648 0.2532903 -0.3699419
-0.5400806 0.47685742 -0.40087837 -0.25480735 0.3506719 0.054783 0.22768465 -0.4904422
-0.024275303 -0.45201582 0.28153372 0.124860846 0.41931316 0.16384496 0.21691892 -0.061465792
-0.12707627 -0.26545367 -0.3557514 -0.15585363 -0.14859548 0.34950766 0.033266284 0.10158173

rnn.bias_ih_l1 f4 [50]
00000000: 945a 473e a9e2 b63e 50c0 0bbf da7a 3fbe
00000010: 5682 86be 5c20 cbbe 832c c13e 6897 8f3e
00000020: 9a4f 5fbe 24d3 0b3f 4e4e e43e 476c c53d
00000030: 2758 883e 9bbc 81be b9f3 903e 077e 463d
00000040: 3fa2 98be 4d0a 64bf cbdd a33e 436f 2cbf
00000050: 5859 a03d c291 c8be d046 40bd 359d 07bf
00000060: a75d 473e 6902 e23e 675e f63d b8c9 a1bd
00000070: af2f 1c3d c572 1f3e 1349 08be df6b 243e
00000080: 606e 2a3e aede 013c 8753 e7bd b1f9 533e
00000090: 14de fe3d 57ce c43e a3dc a83e 54c1 a73e
000000a0: 2e05 09bb 12fd c03c 4a06 21be 727d 173e
000000b0: 9cc8 3bbd 6a24 9c3d 6077 fdbe 5eef 213f
000000c0: 4de1 00be 84ba aa3d
0.19468147 0.35719803 -0.5459032 -0.18699208 -0.26271313 -0.39673126 0.37729272 0.280452
-0.2180771 0.5461905 0.44590992 0.09639793 0.26629755 -0.25339207 0.28310946 0.048460033
-0.29811284 -0.8907822 0.32005152 -0.6735727 0.07829541 -0.39173704 -0.046942532 -0.52974254
0.1946932 0.44142464 0.120297246 -0.07899803 0.038131412 0.15571125 -0.13309126 0.16056775
0.16643667 0.007926626 -0.112952285 0.20700718 0.12444702 0.38438675 0.32980832 0.32764685
-0.0020907628 0.023558173 -0.15725055 0.14793947 -0.045845613 0.07624133 -0.49505138 0.6325587
-0.12585945 0.08336356

rnn.bias_hh_l1 f4 [50]
00000000: 59d1 2d3e b128 f63e 0df5 03bf 187d 9ebe
00000010: 929a 47be d026 61be e330 a13e f8f5 fd3d
00000020: 996a 53be 18ba d53e 123a b13e c0b8 5c3c
00000030: 4ddb 993e c262 5fbe 35cb bb3e 2f93 f73a
00000040: 9d32 32be aedf 2ebf 4105 013f edf2 45bf
00000050: bd7f 22bc 5a3a e4be 761f 09be c826 b3be
00000060: 9272 473e de12 913e 3ccd 333e 070e b6bd
00000070: 95a6 74bd 97af 00bc a7a5 773c b3c5 6f3e
00000080: 5c62 6a3e 1b7e 0fbd a9bb 1fbe ca44 b23b
00000090: 8dc0 d73d 21ce d53e bdcc 223e d08e 123e
000000a0: 40a7 97bd d08b 1b3e 993e a3bc 804b 993e
000000b0: 4a3e ccbd e582 e4bd a67e febe d6a3 383f
000000c0: ca4c c9bc be5a c73d
0.16974391 0.4807792 -0.5154579 -0.30954814 -0.19492558 -0.21987462 0.3148261 0.124004304
-0.20646133 0.4174354 0.34614617 0.013471782 0.30050126 -0.21815017 0.36678472 0.0018888469
-0.1740212 -0.6831006 0.5039864 -0.773238 -0.0099181505 -0.4457577 -0.13390908 -0.34990525
0.19477299 0.28334707 0.1755876 -0.08889394 -0.059729178 -0.007854364 0.015115178 0.2341526
0.22889084 -0.035032373 -0.1559893 0.005440329 0.10534773 0.41758826 0.15898414 0.14312291
-0.07404947 0.15190053 -0.01992731 0.29940414 -0.09972818 -0.11157779 -0.49706 0.72124994
-0.024572749 0.097341046

fc.weight f4 [1, 50]
00000000: 949b 77ba adbf ffbc 33ef 703c 88df 093d
00000010: ced8 9d3d 8340 3fbc 95c9 bdbd ea07 1e3e
00000020: fca5 2fbd a309 1dbc a6dc d13b 9c7c b73d
00000030: 4f47 cebc 13ad 733d 4dbd 933d 8f03 0b3d
00000040: eb97 1a3e a24f f23c fba2 3b3f 8bf9 ea3d
00000050: e30d b43c 4c3a 943d b9c7 fa3c 0479 a2bc
00000060: c03c 8e3d 5d1e c63c bf73 51bd 2d1c 713d
00000070: a02b a2bd a008 203d 8f27 0d3d 9392 afbd
00000080: fd4d 59bd e820 ec3d 188a 9c3d 4611 e03c
00000090: 5346 a23d 53d5 e63d dc8b a4bd 8cae fabd
000000a0: a007 213d a249 53bc b2c3 b9bc 2098 753d
000000b0: 6d08 75bc ba03 7cbd a50b 0cbe 247e 813d
000000c0: 4b68 4b3d 9af7 84bd
-0.0009445485 -0.031219328 0.014705467 0.03366044 0.07707368 -0.011673096 -0.09266964 0.15432706
-0.042882904 -0.009584817 0.006404477 0.08959314 -0.025180487 0.05949123 0.07213841 0.03393894
0.15097015 0.029578988 0.73295563 0.11473378 0.021979278 0.07237682 0.030612813 -0.019833095
0.06945181 0.0241844 -0.051135775 0.05886476 -0.07918477 0.039070725 0.034461554 -0.08572879
-0.05305289 0.11529714 0.07643527 0.027351987 0.079235695 0.11271157 -0.080344886 -0.122403234
0.039313912 -0.012895973 -0.022676323 0.05995953 -0.014955622 -0.06152699 -0.13676317 0.063228875
0.04966001 -0.06492539
