Networks/ETHBTC/askSeed0.pt (torch, 33123 bytes, 9 tensors)

rnn.weight_ih_l0 f4 [50, 1]
000000 1e 25 86 3f 00 93 32 bf 39 47 45 3f 5a 00 2c 3f
       1.0480077 -0.69755554 0.770618 0.67188036
000010 41 c3 50 3e 5d e8 72 3f d1 01 04 3f 28 fc 43 3f
       0.20386983 0.9488581 0.5156527 0.76556635
000020 67 58 54 bf 1b 60 85 3f 63 7c 58 bf f2 92 be bf
       -0.8294739 1.0419954 -0.845648 -1.4888594
000030 9a 2f bb 3f fb bd 9e 3f a2 0d d5 3f f6 e6 e0 be
       1.4623902 1.2401727 1.6644785 -0.4392621
000040 98 e3 e1 bd 40 a1 87 be 0c ef 0b 3d 69 4b d2 bf
       -0.11029738 -0.2649021 0.03416352 -1.6429263
000050 43 b4 a6 bf da 62 3a 40 06 e5 4b 3f 88 2b ff 3f
       -1.3023762 2.9122834 0.7964634 1.993516
000060 6b 1b 55 3f 0d 8d 81 40 4f 3c 61 3f 63 1f 8b bf
       0.8324496 4.048468 0.8798265 -1.0868953
000070 63 9a a5 3e 2b 75 b2 3f e6 6e 5b 40 ae 9a 6a 3f
       0.3234435 1.3942007 3.4286437 0.9164227
000080 7f 72 8d bf a4 ab 17 c0 5a 8f 94 bf 84 b1 9b 3e
       -1.1050566 -2.369851 -1.1606247 0.3040887
000090 56 a4 3c c0 b6 ab 95 bf 2d 59 38 bf e7 cf cf 3f
       -2.9475303 -1.1693027 -0.7201107 1.6235322
0000a0 a2 f8 98 3d 4d ce 34 bf 0d 26 1f c0 5d bc dd 3e
       0.07469298 -0.7062729 -2.4866974 0.43307772
0000b0 bf ad e7 be 88 d4 c2 3d 97 87 23 3f 2a ba ac 3d
       -0.45249745 0.09513193 0.6387877 0.084339455
0000c0 8a 56 6c bf bc a9 9b 3f
       -0.9231955 1.2161174

rnn.weight_hh_l0 f4 [50, 50]
000000 7c 71 fa 3e 38 0a af bd d7 28 be 3e 13 6e 57 3e
       0.48914707 -0.08546871 0.37140533 0.21038084
000010 21 30 40 3d a9 bc 20 3f cc 76 45 3d fa 18 02 3f
       0.0469209 0.6278787 0.048208997 0.5081936
000020 42 d2 10 bf 01 e8 9e 3e 81 e1 ef be 4f 99 36 3e
       -0.5657083 0.3103638 -0.46851733 0.1783192
000030 2c 2f 76 3e 3d 96 de 3e 26 bb 87 3e be a3 62 3c
       0.24041432 0.43473998 0.2650997 0.0138329845
000040 80 f8 b6 3b 60 c7 ba be f8 44 13 be f2 65 a1 bd
       0.0055838227 -0.36480236 -0.14381778 -0.07880773
000050 79 c8 9e 3d a0 9b 0c 3e ba ea 68 3f ad 11 b4 3e
       0.07753081 0.13731241 0.90983164 0.35169736
000060 36 f8 c9 3e 29 c9 1e 3d 4f 51 d0 3d b1 8d 3a 3d
       0.39447182 0.03876606 0.101717584 0.045545284
000070 36 83 0b 3e 2c d9 1c 3e a9 63 e6 3c b8 ec 8a 3d
       0.13624272 0.1531722 0.028123694 0.06783432
000080 76 ca c0 be 29 dd 2c 3d 6e cf 11 be b9 01 2b 3f
       -0.37654465 0.042203102 -0.14239284 0.66799504
000090 f6 d5 a8 3d eb 79 8a be 9a 42 b3 3e 4a 70 34 bd
       0.08243935 -0.2704614 0.3501175 -0.0440524
0000a0 89 23 52 bd c8 15 7f be f2 65 be be e0 af 5a 3e
       -0.05130342 -0.24910653 -0.37187153 0.21356153
0000b0 4c 01 9a 3e b9 d2 da bd 6f e7 28 3e f9 aa b9 bd
       0.30079114 -0.106847234 0.16494535 -0.090658136
0000c0 76 8d 1e 3e af 6e cd 3c 99 60 0c bf 41 43 f1 3e
       0.1548365 0.025077192 -0.54834896 0.47121623
0000d0 0b 6e 81 3d 08 9e c0 be 27 c9 8a be 2c f3 cf be
       0.06319817 -0.37620568 -0.27106592 -0.40615213
0000e0 13 e2 a0 3d b0 50 05 bf 78 69 cc 3e 33 fd 02 3d
       0.0785562 -0.52076244 0.39924216 0.03197975
0000f0 69 d1 01 3f 2e 31 82 3d b0 7e 6e be e3 8a ec be
       0.5071016 0.063570365 -0.23290515 -0.46199712
000100 42 15 b2 bc d0 06 40 3f 74 c7 27 3d 72 f2 ec bd
       -0.021738652 0.75010395 0.040961698 -0.1156968
000110 cc 0f a2 3d 86 cb a2 3e 9f 9b 45 bc 3f 16 a0 3c
       0.07913169 0.317959 -0.012061029 0.019541858
000120 94 7f 44 bf 9b 89 64 be be 60 2f bf 98 f6 3e 3d
       -0.7675717 -0.22318117 -0.6850699 0.04662189
000130 85 34 92 be 91 73 8c 3e a7 ba 13 3e 65 07 50 3d
       -0.28555694 0.2743192 0.14426671 0.050788302
000140 6c c6 23 3e 20 1f 0b 3e 9f 12 a8 3e 70 e0 b1 bd
       0.1599366 0.13586092 0.32826707 -0.08685386
000150 a5 1e 5b be 09 3c ec be 12 40 95 bd b1 65 6d 3d
       -0.21398409 -0.46139553 -0.07287611 0.05795831
000160 2a bd 22 be 02 14 13 be 2a a4 60 3f 28 79 b1 3e
       -0.15892473 -0.14363101 0.87750494 0.34662747
000170 9d c8 8a 3e e1 3d c1 3d 83 ec 13 bf ca 07 88 3d
       0.2710618 0.094356306 -0.57782763 0.06642111
000180 7f ad 02 3b 13 d2 06 3f 2e f9 71 3d cc 63 49 3c
       0.0019939838 0.526643 0.059075527 0.01229186
000190 5d 53 3c 3d 89 0b 58 be 89 06 b5 bc 7e e6 c5 3e
       0.04597794 -0.2109815 -0.022097843 0.38652414
0001a0 ec 3a 02 3f 52 a1 a4 3e a1 8c 4f be b4 8b b6 3e
       0.5087116 0.32154328 -0.2026849 0.3565346
0001b0 4e 6b 27 3d 7e b7 92 3e 44 e2 cd be 6a 9d 66 be
       0.040873818 0.28655618 -0.4021169 -0.22520986
0001c0 e5 91 aa bd a5 e6 01 3f cd 52 77 3e 84 45 02 3e
       -0.083286084 0.5074256 0.2415268 0.1272183
0001d0 1a fa 23 bf 88 5a 92 3e c8 df 03 bf b1 51 40 be
       -0.640535 0.28584695 -0.5151334 -0.18781163
0001e0 67 9b a9 3e a5 3a cf 3e 6c 27 f1 3e d5 08 04 3e
       0.33126375 0.4047443 0.4710039 0.12893994
0001f0 59 e6 bf bc 65 6b a1 be 39 44 8d 3e 71 3e 62 be
       -0.023425268 -0.31527248 0.27591112 -0.22094132
000200 26 76 5e bd 04 90 62 be b9 60 b8 be 5d c1 f4 be
       -0.054311894 -0.2212525 -0.36011294 -0.47803774
000210 fb 38 cd be bb 44 bb 3d bf 2f 0e be 42 8a 0c 3f
       -0.40082535 0.09143969 -0.13885401 0.54898465
000220 dc bd 27 3f 3e 79 4b be 06 7e 31 3e a5 c7 06 3f
       0.6552408 -0.19870469 0.1733323 0.52648383
000230 3e a1 2f be 1a ac 58 bd 83 b5 b2 be fd a4 68 be
       -0.17151353 -0.052898504 -0.34904107 -0.22719188
000240 90 fb 0f 3d e8 f4 fc 3e 7e df 83 bc 42 29 c4 be
       0.035152018 0.494056 -0.01609778 -0.38312727
000250 e3 f4 6f 3e 67 31 db 3e 67 48 0f 3f fa e5 61 be
       0.2343326 0.42811128 0.5596985 -0.22060385
000260 8f 26 7b bc 06 de ce 3e 29 f0 9a 3e 3b 2d 04 3f
       -0.015329017 0.40403765 0.30261353 0.51631516
000270 c7 c3 aa 3e e1 a0 58 3e e7 97 02 bf 2f 7e 1d 3f
       0.3335249 0.2115512 -0.51013035 0.61520666
000280 2c 49 f2 bd b7 a2 0e be a2 14 92 3c cd 90 c3 3e
       -0.11830363 -0.13929258 0.017832104 0.38196412
000290 2e 7e 35 bd f5 d7 76 be ea d3 fe 3d e1 3b 83 be
       -0.044309787 -0.24105819 0.12442763 -0.2563162
0002a0 de 0b b2 be 63 7d 2a be 28 08 80 be 33 57 dd be
       -0.3477468 -0.16649394 -0.25006223 -0.4323059
0002b0 0a c5 aa 3e 71 85 8c 3e f6 c2 ab 3e eb 1a 9e 3d
       0.33353454 0.27445558 0.3354718 0.07719978
0002c0 81 b1 26 be d1 98 92 be e5 d6 ac 3d 25 2f 21 3e
       -0.1627865 -0.28632215 0.084394254 0.1574064
0002d0 dc 17 2a be 37 30 34 bb 2d 7b 54 bd f3 d6 2a be
       -0.16610664 -0.0027494559 -0.051875282 -0.16683559
0002e0 9b d0 a9 be 2a 74 a2 3e 0f 1d ee 3d 9e 62 07 bf
       -0.33166966 0.3172925 0.11626636 -0.5288485
0002f0 bc 37 31 3e 8d fe a6 3e e2 78 46 be 3a 6d ea be
       0.17306417 0.32616082 -0.1938205 -0.45786458
000300 f3 be d3 bd db 8e 23 3e 15 88 bc 3e 60 c1 8b be
       -0.10339155 0.15972464 0.36822572 -0.2729597
000310 78 2e 82 3e b9 b4 e4 be a2 ef d3 bd 55 05 da 3e
       0.25426078 -0.4466913 -0.10348441 0.42582193
000320 97 ce 3c 3e 78 6a 49 bd 05 dc dd 3e f6 ce 29 3e
       0.18438183 -0.049173802 0.43331924 0.16582856
000330 ce 27 b1 3b 2b a7 02 3f 69 6d 7d 3d e8 11 0c 3e
       0.0054063564 0.5103633 0.06187192 0.13678706
000340 c8 ea 06 bf 75 9a 0e 3e 77 91 5c be 8d 14 30 3e
       -0.52702 0.13926108 -0.21539865 0.1719534
000350 49 f6 16 bd 3d 4f 0a 3f de 00 96 bd ed 22 75 be
       -0.03685597 0.5402716 -0.07324384 -0.23939104
000360 05 ee 04 3d b2 a7 87 3d 52 ed bd bd 60 c0 2a 3d
       0.032453556 0.06623782 -0.09273781 0.04168737
000370 88 9d 1b 3f 7e 50 0f 3f 84 2f 80 3f a0 c9 db be
       0.6078725 0.55982196 1.0014501 -0.42927265
000380 79 bc 1c bd fa 31 7c be 5a 52 77 bd 5b 69 9d be
       -0.03826568 -0.2462844 -0.06038127 -0.30744442
000390 70 cc 35 3c b1 3d d7 3d 0a 65 8b 3e 86 96 ef be
       0.011096105 0.105098136 0.27225524 -0.46794528
0003a0 e6 aa 36 be ba 1a 15 be 34 82 c4 3d 42 d5 79 3f
       -0.1783863 -0.14560977 0.09595147 0.9759103
0003b0 2a 5b eb 3e 25 cd d6 bd 67 10 1c 3f d8 82 b9 be
       0.4596799 -0.10488347 0.6096253 -0.36232638
0003c0 1f 5a 8a be 60 10 16 3e 33 aa 50 be 16 62 b3 bd
       -0.27021882 0.14654684 -0.20377426 -0.08758943
0003d0 e3 71 7c 3e 47 85 ba 3d fa 37 ae bc 9e 27 78 3b
       0.2465282 0.09107452 -0.021266926 0.003786541
0003e0 28 6e bb 3e a9 c4 6f be ae bf 28 3f 13 5f 0a bf
       0.3660748 -0.23414864 0.6591748 -0.5405132
0003f0 9a 7d 73 3e 26 93 de 3e a5 57 2c 3e 10 f0 59 3f
       0.23778382 0.4347164 0.16830309 0.8513193

rnn.bias_ih_l0 f4 [50]
000000 28 8d 1e 3f 2f 17 df be 19 a0 b1 3d 3c d3 f4 3e
       0.6193414 -0.43572375 0.08673114 0.4781741
000010 2d 8b 3b 3f ee 58 fc 3e 74 03 25 be e6 a2 13 3f
       0.7325924 0.49286598 -0.16114599 0.5767044
000020 b2 c5 e8 be a5 b2 2a 3e 46 a3 15 bf cc 27 b3 bd
       -0.4546333 0.1666971 -0.5845226 -0.08747825
000030 44 89 05 bf 60 5d 43 3e 34 0b 24 3e 7a 4d 20 bf
       -0.52162576 0.19078588 0.16019899 -0.6261822
000040 3f 65 c3 3e 4f f7 46 3f ce b3 eb be 9d 3b 1a be
       0.38163182 0.7772111 -0.46035618 -0.15061803
000050 f4 e8 0e 3e 7b 69 ea bc ae 13 82 3f 59 51 0c bd
       0.13956052 -0.02861475 1.0162256 -0.034257267
000060 f8 1a e7 3e 70 aa 07 be 8b 13 94 3e 76 01 09 bf
       0.45137763 -0.1324861 0.2892116 -0.53517854
000070 0e 0c 30 3c 15 6d 2e bf e5 3a b5 be ab b7 b4 be
       0.010745062 -0.68135196 -0.35396495 -0.35296378
000080 41 3d 84 be 0d b4 a4 3e d7 42 49 3f 3e 2a 80 3f
       -0.25827983 0.32168618 0.78617615 1.0012891
000090 16 e3 da 3e 64 7b 27 bf f9 52 a8 3e f3 9c 6c 3e
       0.42751378 -0.65422654 0.32875803 0.23106746
0000a0 d1 97 22 bd ff 5a c4 be fa f5 15 be 31 58 22 3e
       -0.039695565 -0.38350675 -0.14644614 0.15853955
0000b0 67 79 2c 3f 29 46 14 bf 98 29 75 bf 07 59 47 bf
       0.67372745 -0.57919556 -0.9576659 -0.7787022
0000c0 ea 6f 9c 3e 3c d5 8a bd
       0.30554134 -0.067789525

rnn.bias_hh_l0 f4 [50]
000000 98 36 20 3f 78 51 16 bf da 82 25 3e db e1 15 3f
       0.62583303 -0.5871806 0.16163197 0.58547753
000010 82 2d 33 3f f0 1e f8 3e 50 cf a4 be d7 6a 06 3f
       0.69991314 0.48461103 -0.32189417 0.52506775
000020 31 4a c8 be cd 7c 2c 3e 13 bf e8 be 6f 9c 9a bc
       -0.39119104 0.16844483 -0.45458278 -0.018873421
000030 03 a5 25 bf cd ff 65 3e d5 38 80 3e a6 a5 e9 be
       -0.6470491 0.22460862 0.2504336 -0.45634192
000040 c7 7c 21 3e 71 5d 72 3f 76 ed fd be a7 b5 f7 bd
       0.15770255 0.9467383 -0.4959523 -0.12095194
000050 27 e1 ef 3d c6 2d 86 3d e1 9d 84 3f 60 ec 6e bd
       0.11712866 0.06551699 1.0360681 -0.058330894
000060 02 8f 10 3f f1 54 84 bd 70 06 2c 3e 82 f7 bf be
       0.5646821 -0.06461514 0.1679933 -0.3749352
000070 94 98 a6 bc 33 40 2c bf ea 33 e5 be 50 e5 a5 be
       -0.020336427 -0.6728546 -0.4476617 -0.32401514
000080 6f 1b ff bd 47 d4 df 3e 03 1a 36 3f e5 a5 77 3f
       -0.124564044 0.43716642 0.7113344 0.9673751
000090 78 84 cd 3e 45 b3 d0 be 3a f4 cc 3e 74 5d d9 3c
       0.40140128 -0.40761772 0.4003008 0.02653382
0000a0 2d 03 e9 bd 79 77 16 bf 72 a8 69 be 40 44 22 3e
       -0.11377559 -0.5877605 -0.22818163 0.15846348
0000b0 e1 67 2a 3f 8d db 18 bf 75 0e 61 bf 75 9b 4d bf
       0.66564757 -0.5971001 -0.87912685 -0.80315334
0000c0 d0 71 a9 3e a2 ad bd 3d
       0.33094645 0.092616335

rnn.weight_ih_l1 f4 [50, 50]
000000 f4 c6 05 3f 08 d8 c3 be 13 05 d4 3e 2a 7e 8c 3e
       0.52256703 -0.38250756 0.4141012 0.27440006
000010 dd b8 d4 3e 0e 24 f7 3e dd cc 52 3f 6a fd 4e 3e
       0.4154729 0.48269695 0.82343847 0.20213857
000020 71 d0 2b bf 92 ea 77 3f 4f 06 08 bf af 15 f9 bc
       -0.6711493 0.968423 -0.53134626 -0.030405847
000030 0e 28 03 be fc 0a 2a 3f 6a d2 02 3f b7 cf 5b 3e
       -0.12808248 0.6642301 0.51102316 0.21465956
000040 0e 95 01 be d9 3f ea be ca 36 77 be e5 be ca be
       -0.12654516 -0.45751837 -0.24141994 -0.39598766
000050 1a a1 df 3e 64 59 af be 49 b2 e1 3d 51 56 38 3f
       0.43677598 -0.34247887 0.11020333 0.7200671
000060 2d 31 52 3e 1f d0 a4 be 91 a4 ac 3d a6 83 13 bf
       0.20526572 -0.32190034 0.08429826 -0.57622755
000070 a1 c1 73 be 12 57 ab 3e 87 04 5b be 80 26 89 be
       -0.23804332 0.33464867 -0.21388446 -0.26787186
000080 86 54 71 be 3c 92 fe 3d 59 6f 46 bf ed 50 8b 3e
       -0.235674 0.12430236 -0.77513653 0.2721018
000090 56 b6 e0 3e 72 15 9c be 2e c2 6b 3f cd aa ca 3e
       0.4388911 -0.3048511 0.9209317 0.39583436
0000a0 3e c4 0a bf f8 d4 4e bf 29 4a 15 be 24 db b4 be
       -0.5420569 -0.80793715 -0.14579071 -0.3532344
0000b0 34 59 47 3e d2 56 be 3a 88 c7 4e 3f 78 f5 b3 bd
       0.19467622 0.0014521724 0.8077321 -0.08787054
0000c0 a7 a9 9f be c7 93 1a 3f e1 d8 5c 3f 9c 71 85 be
       -0.31184122 0.6038174 0.8626843 -0.2606324
0000d0 e2 78 f0 be be 02 63 3d f9 42 01 3e 92 b6 26 3f
       -0.46967226 0.055422537 0.12623204 0.6512233
0000e0 30 c6 50 be 13 b4 0f 3f a1 ff ed be ad 32 64 3e
       -0.20388103 0.56134146 -0.46484092 0.22284956
0000f0 89 fd d9 bd b6 f3 35 bd bb 03 07 3e 33 9e 1d 3f
       -0.10644061 -0.044421874 0.13185017 0.6156952
000100 4e c0 ab 3d 8d 4c 4e 3e 21 51 2f bd 7b 6b 85 3e
       0.083862886 0.2014639 -0.04280198 0.26058564
000110 eb b8 0f bc 33 dd 8d bc 66 d8 0d bf b8 0c 64 3f
       -0.008772115 -0.01731739 -0.5540832 0.8908191
000120 b8 f5 af 3e cb 29 8f 3f 71 87 ad 3e 45 04 8a 3f
       0.34367156 1.1184629 0.33892396 1.0782553
000130 2a 2b 91 3e f7 68 bc be c5 fd 54 3d 31 73 40 bd
       0.28353244 -0.36798832 0.051999826 -0.046984855
000140 67 40 53 be e4 78 5d 3d f1 df 9b be b4 1a bf bf
       -0.20630036 0.05407037 -0.3044429 -1.4930024
000150 7d bd 97 ba 3a d9 a2 3e 81 9b 1f be 0f d1 03 be
       -0.0011576858 0.31806356 -0.15586664 -0.12872718
000160 dc 4e 8b bb 4b 78 39 3e d1 16 5b be ec aa 0d bf
       -0.004251344 0.18112294 -0.21395423 -0.5533893
000170 b6 f3 29 bf d3 af 24 3e 74 f5 56 be e0 49 0e be
       -0.663875 0.16082697 -0.2099207 -0.13895369
000180 e3 17 38 3e 4f ca 2b 3d 60 02 85 3e fb 04 5b 3d
       0.17977862 0.041940983 0.25978374 0.053471547
000190 be b7 0c 3f 69 2b eb bd 8c d6 e2 3e 51 3e 42 3e
       0.5496787 -0.11482889 0.4430431 0.18969084
0001a0 2d 28 fd 3e 5d ec e7 3e 79 a5 bd 3d bd 31 8a 3d
       0.49444714 0.45297518 0.09260077 0.06747768
0001b0 d9 34 3a 3d 2c 53 db 3e d4 28 ce 3c 6f 71 1b be
       0.045460556 0.42836893 0.025165953 -0.1517999
0001c0 a7 df 0d 3f cd 30 b5 3d 3b bf 1a 3e 26 49 66 be
       0.5541939 0.08847199 0.15112011 -0.22488841
0001d0 db e1 6c be 3e 9f be be b4 21 1a 3c 91 d9 e1 be
       -0.23133032 -0.37230867 0.0094074495 -0.44111302
0001e0 a2 a6 36 3e b3 14 98 3e 6d 8c 80 3d 44 b6 50 be
       0.17837003 0.29703292 0.06276784 -0.20382029
0001f0 e8 55 9b bd 0c 2b 6b be 63 93 0f 3e 1e 4f c8 bd
       -0.07584745 -0.2296564 0.14021067 -0.097807154
000200 87 0a 08 be 48 cb 76 3d 10 e7 f3 bd 49 6c 2b bd
       -0.13285266 0.060252458 -0.11909306 -0.041851316
000210 14 dc c3 be 06 fd 83 be 80 a5 7a be ce 51 e0 3d
       -0.38253844 -0.2577898 -0.24477196 0.10953103
000220 6f f4 01 3d b7 55 a3 be b8 6d d2 bd 95 52 05 3e
       0.03172725 -0.31901333 -0.102748334 0.13019784
000230 c8 38 a5 be 46 e6 fb bc 88 0f 99 be 7a 71 b5 be
       -0.32269883 -0.030749451 -0.29894662 -0.35438138
000240 b8 38 80 3e 4b 63 28 be 74 d4 21 bd f1 32 26 3e
       0.25043273 -0.16444127 -0.03950925 0.1623037
000250 f0 31 b2 be 51 d4 0a 3f 82 41 bf 3d 8e 9f 05 3e
       -0.34803724 0.5423022 0.093386665 0.13049147
000260 30 2f a9 bd fd d7 6b be b2 4a a9 3e 60 70 95 3e
       -0.082609534 -0.23031612 0.330648 0.29187298
000270 fb 04 aa bd 75 15 94 bc e3 bc 55 3d ae de 10 3e
       -0.08301731 -0.018076638 0.05218209 0.14147446
000280 b2 9f 5d 3d 42 4d 40 3e 6f 0e a0 be c9 bd 35 3e
       0.054107375 0.18779472 -0.31261012 0.17748179
000290 24 3c e4 3d 87 50 56 3e d8 8a 18 ba ee 6f 18 3d
       0.111442834 0.20929156 -0.0005819029 0.03721612
0002a0 4e 18 4a 3e e8 30 cb bc 69 c9 df 3d 7e b4 71 be
       0.19735834 -0.024803594 0.10927088 -0.23604009
0002b0 fa 55 29 be c6 6c 79 bc 24 78 7b be bf 84 4d 3e
       -0.16536704 -0.0152236875 -0.24557549 0.2007017
0002c0 d7 ba 47 be 22 fd 6b bd 59 6a 33 bd 0c f3 85 be
       -0.19504867 -0.057614453 -0.043802593 -0.26161993
0002d0 32 a7 de 3e 95 04 15 3e 03 0f 43 3e 25 cd 6b 3e
       0.43486935 0.14552529 0.19048695 0.23027475
0002e0 df c0 09 be 57 82 61 3d 3d 70 a8 3e 22 a3 ea bd
       -0.1345248 0.055055942 0.3289813 -0.11456896
0002f0 a3 b7 9f 3e 5a 87 4e 3e f6 30 b2 3d c7 72 af bd
       0.3119479 0.2016882 0.08700745 -0.08566814
000300 a5 e6 3f be 6a 68 7a 3e f3 70 c3 bd ea 29 20 3e
       -0.18740328 0.24453893 -0.09543028 0.15640989
000310 51 12 ba be 92 65 a5 bd cb 1a 05 3e f4 15 a6 3d
       -0.363421 -0.080760136 0.12998502 0.08109656
000320 67 a5 a4 3e d2 24 4b be 89 bc b4 3e d2 59 b4 be
       0.32157442 -0.19838265 0.3530009 -0.35224777
000330 de 14 8f bd c1 e3 fe ba c1 f0 0d 3e b0 c3 64 3e
       -0.06986402 -0.0019446538 0.13861372 0.22340274
000340 3a c7 37 3e 1f f7 7b be 0a 72 e9 be 2b 3b 05 3f
       0.17947093 -0.24605988 -0.45594817 0.5204341
000350 af 82 1c 3f 1d 19 44 3e 64 de 28 3e 0c 51 39 be
       0.6113691 0.19150205 0.16491085 -0.18097323
000360 e8 02 81 bc 9e 8f 37 be 56 94 64 3d 7f d5 d9 3d
       -0.015748456 -0.1792588 0.055805527 0.10636424
000370 48 c4 e9 3e 08 bd 01 3e 20 78 c3 3d 42 a3 31 3d
       0.45657563 0.12669766 0.095443964 0.043368585
000380 aa 33 93 3e a1 57 e4 be fc 7d 50 bc 1b 2c 01 3f
       0.28750354 -0.44598106 -0.0127253495 0.50457925
000390 ce 2e 2d bd c3 ea f2 3c 14 43 27 3f 11 ac 48 3e
       -0.042280965 0.029652959 0.6533673 0.19596888
0003a0 5d ff 29 bf 18 68 34 3d 02 fd 2d be 6e 48 17 be
       -0.6640528 0.044044584 -0.16991046 -0.14773723
0003b0 ea c0 c7 bc 7a 26 ba 3e 03 1f f2 be 8b f5 e6 be
       -0.02438398 0.3635748 -0.47289285 -0.4510921
0003c0 a7 47 97 be b3 b8 0a 3f 05 67 11 3e d5 f4 1b be
       -0.29546854 0.5418808 0.14199455 -0.15230115
0003d0 77 c4 ea bd cc 16 3e bc ea 7b 06 bf a2 37 c7 3e
       -0.11463254 -0.011602115 -0.5253283 0.38909632
0003e0 9b 6d e2 3c 27 dd f8 be 5d bb 1d be 40 ac 03 3f
       0.027640155 -0.48606226 -0.15403505 0.5143471
0003f0 68 bb 97 be 3a 89 51 3d 6e 21 23 bf 8f b8 b4 be
       -0.29635167 0.05115626 -0.63722885 -0.35297057

rnn.weight_hh_l1 f4 [50, 50]
000000 58 00 66 3e c2 3b 6c 3f ba 29 ba 3e eb d7 49 3d
       0.22461069 0.92278683 0.3635996 0.04927818
000010 a1 c7 80 3e c9 32 2e be e3 99 08 3e 03 bb 4a 3d
       0.25152305 -0.1701156 0.13339953 0.049494755
000020 63 e2 06 be b8 fd cd be fa 7c b9 bd 18 3b 63 bd
       -0.13172297 -0.40232635 -0.090570405 -0.055476278
000030 76 ab 87 bc 5b c1 25 bc 71 24 81 3d c9 97 b3 bd
       -0.016561251 -0.0101169 0.06305779 -0.08769185
000040 32 64 d4 be b9 49 74 3e 6f b6 c9 3d 75 02 3b bf
       -0.41482693 0.23856248 0.098492496 -0.73050624
000050 c5 6b 09 3e 0d e7 d3 3e 99 db 13 3d ca 45 82 3d
       0.13420017 0.41387215 0.036098097 0.063609675
000060 54 54 a4 3d 8e b0 4c 3e c5 95 12 3e ec 7e bc 3e
       0.08023897 0.19989225 0.14314945 0.36815584
000070 20 f5 98 3e a8 18 e5 be a5 b8 1f 3f a3 2f 07 be
       0.29874516 -0.44745374 0.6239112 -0.13201766
000080 69 93 69 3e 8a 84 d5 be 50 4e 32 bf 5d ba 70 bc
       0.22810139 -0.41702682 -0.69650745 -0.01469287
000090 51 81 98 3e 59 c0 36 3f 2c 8b 08 3f 9e 64 c3 3d
       0.2978616 0.7138725 0.5333736 0.095406756
0000a0 ee b8 f4 bb 9b 9c 2f bb d3 df b8 bd 15 3e 13 3e
       -0.0074683344 -0.0026796225 -0.09027066 0.14379151
0000b0 9d 39 03 3f 89 9b 09 be 98 70 63 3d 0f ce 0a bd
       0.51259786 -0.13438238 0.0555273 -0.03388792
0000c0 75 7b 9d bd ab 44 46 be 2e a6 c1 be b0 3b 72 3f
       -0.07689563 -0.19362132 -0.37822098 0.94622326
0000d0 b9 ae b0 3d c3 25 73 3d e9 fc a4 3e db 59 9f be
       0.08627076 0.059362184 0.32224205 -0.31123242
0000e0 72 6f 35 3e 7e cb 9a 3d 8d a8 14 3e 29 3b 49 bd
       0.17718294 0.07558344 0.14517422 -0.049128685
0000f0 d8 49 c7 3c 64 3c bd bc 0d 51 97 bd e9 6f 40 bd
       0.024327204 -0.023100086 -0.07388506 -0.046981726
000100 c5 cc 6b be 3d 23 d1 bc ad 23 30 bd ce 64 57 3d
       -0.23027332 -0.025529498 -0.043002773 0.05258637
000110 d2 98 58 be 92 6e 17 be 44 e2 bb be f5 46 c0 3e
       -0.21152046 -0.14788273 -0.36696064 0.37554136
000120 82 16 7d be 21 11 b7 bc a6 10 fc bd e3 ed ba 3e
       -0.24715617 -0.022347035 -0.12307863 0.36509618
000130 b2 d3 1d 3f 7b 96 bc 3e 0f b9 82 be 6a b3 bf 3d
       0.61651146 0.36833557 -0.25531814 0.093603924
000140 fc 9e 64 3d 9a 8c e9 3d 19 28 94 be 3a 0d 4e bd
       0.05581568 0.11403771 -0.28936842 -0.050305583
000150 37 92 2d bf 5a cd ec bd d3 7e 0e 3e bb 0c c5 3e
       -0.6780123 -0.11562605 0.13915567 0.38486275
000160 72 67 98 3e 54 56 fc 3c 73 9f 20 3d 9a 5a 3d be
       0.29766423 0.030802883 0.039214563 -0.18491593
000170 17 2f 0c be 94 7b b0 bf 1c 9b 18 3e a5 84 2d 3e
       -0.13689838 -1.3787713 0.1490292 0.16945131
000180 c1 22 91 3e fc 30 8c be 21 6a 83 3e 3c 0a 6e be
       0.28346828 -0.27381122 0.25666907 -0.23246092
000190 4a c7 04 be f9 85 88 bd e5 8d ea be 32 13 9e be
       -0.12966648 -0.06666178 -0.45811382 -0.3087402
0001a0 fe f2 ca 3e 42 97 39 be 0a 71 b9 bd 51 fd 92 be
       0.39638513 -0.18124107 -0.090547636 -0.2870889
0001b0 3e 24 9b be 7e 66 89 be b5 d1 b5 be 54 a9 c7 3e
       -0.30301088 -0.26836008 -0.35511556 0.38996375
0001c0 8d 98 63 3e 2a 18 3a 3e 0c 46 ae 3e e7 7a 13 3f
       0.22226162 0.1817328 0.34037817 0.5760941
0001d0 6b ba 1f bf 47 40 56 3e b4 e6 9e 3e 16 5f 29 3e
       -0.62393826 0.20922957 0.31035388 0.16540179
0001e0 ae c4 df be 83 73 0d 3f aa 4f 74 3e 32 5e 37 be
       -0.43704742 0.5525438 0.23858514 -0.17907026
0001f0 8c aa a0 3e 9f 02 0b 3f 81 bc 2d 3d a1 f5 14 3f
       0.31380117 0.54300874 0.0424161 0.581873
000200 2e ae 38 be 6f ce f9 be 80 2d 80 3d 5b 5a 60 be
       -0.18035194 -0.4879031 0.062586784 -0.21909468
000210 9a 4a 83 be 9a b6 cc 3d d5 ab ac be 83 51 f3 3d
       -0.25642854 0.09995766 -0.33724847 0.118807815
000220 f7 ed 13 3e 8c 32 fa 3e 96 6d ea 3e 43 5a 8b be
       0.14446245 0.4886669 0.45786732 -0.27217302
000230 ca 33 a1 be f8 62 9c 3e 33 1e 3d 3e 33 27 c3 be
       -0.31484824 0.30544257 0.18468551 -0.38115844
000240 fc c3 c5 3e 91 96 76 3d 6b d6 98 be 26 05 2a 3e
       0.38626087 0.060202185 -0.29851088 0.16603526
000250 df 60 62 3d 8a 95 82 3d b8 60 bf be 73 f1 da bd
       0.055268165 0.063761786 -0.37378478 -0.10690584
000260 00 70 0e bf 8c 8b 24 be c2 19 d5 bd b9 92 67 3e
       -0.5563965 -0.16068858 -0.104053035 0.22614564
000270 6c ac 9f be de 35 28 bf 17 db 2e bf e7 b2 0d 3e
       -0.31186235 -0.65707195 -0.68303055 0.13837777
000280 df 56 0d bf 5f f7 e7 3e d1 46 15 3f 26 06 1f 3f
       -0.5521068 0.45305917 0.5831118 0.62118757
000290 32 99 92 3e dc 27 aa be 6b 81 a4 be e4 b7 06 be
       0.28632504 -0.33233535 -0.32129988 -0.13156086
0002a0 f3 db cd 3e 23 0b bd bd 7d 01 87 3e 7b 91 11 be
       0.4020687 -0.0923064 0.26368323 -0.14215653
0002b0 1f a9 c6 3e b8 08 3e be 57 10 cb 3e 58 f1 62 3d
       0.38800904 -0.18558013 0.39660904 0.055405945
0002c0 3a 50 a6 be c5 f2 7a 3e ad ab 21 bf b9 fd 05 bf
       -0.32483083 0.24506672 -0.6315258 -0.52340275
0002d0 95 33 a9 bd 38 3a 09 bf f1 34 e5 be cc 6c c7 3e
       -0.082617916 -0.5360446 -0.44766954 0.38950193
0002e0 e5 ca 1d bd d3 5d 19 3f 03 61 f4 3d 6b 2c ae 3d
       -0.038523573 0.5990879 0.11932566 0.08504566
0002f0 41 02 a4 3e f1 2b 5a be cf a6 fa be fa 06 ca 3e
       0.3203297 -0.21305825 -0.4895539 0.39458448
000300 c2 28 ed 3e db 7b e8 be ce 85 95 3e 2e 6a 14 be
       0.46320158 -0.45406994 0.29203647 -0.1449363
000310 2f b4 17 bf e0 df f2 3e 98 34 9f be 90 14 01 3e
       -0.59259313 0.47436428 -0.31094813 0.126055
000320 ff b6 ca be cc 5b d7 bd 49 10 b2 be 70 8e b1 be
       -0.3959274 -0.10515556 -0.3477805 -0.34678984
000330 27 fd b7 be a1 0f 1b 3f ce 16 73 bf cb 40 b2 be
       -0.35935327 0.6057072 -0.9495667 -0.34815058
000340 f5 ec bb be a3 9c 18 3f f1 80 d9 be d6 fa 75 3e
       -0.3670422 0.5961401 -0.42481187 0.24021468
000350 96 63 b9 3e 81 6c 05 3f c2 2f 10 3f 08 7c d5 3d
       0.3620879 0.5211869 0.5632287 0.10424048
000360 77 2c 31 3e 7d 96 7c 3d 72 05 36 3f e6 73 21 3e
       0.17302118 0.061666954 0.7110206 0.15766868
000370 c8 4b 09 3f de 1b f6 ba 04 87 16 3f 74 95 a7 be
       0.5363126 -0.0018776616 0.5879977 -0.3273121
000380 12 ba ea 3e be 15 c3 be 36 18 39 bf 92 7b de be
       0.45845085 -0.38102525 -0.7230257 -0.43453652
000390 1d a9 f6 be 26 b2 d8 be 9c b8 c5 3e 54 1a e9 be
       -0.48175898 -0.42323416 0.38617408 -0.455279
0003a0 46 f3 17 bf db 84 62 3e f1 02 8d be ef ec 9d 3d
       -0.5935558 0.22120993 -0.27541307 0.07711207
0003b0 aa 3c 39 bf da cc a2 bc de be 6b 3e ec 14 68 be
       -0.7235819 -0.019873071 0.23022029 -0.22664231
0003c0 76 6a 02 bf 8c a9 04 3f 21 91 c1 3e b6 af 97 be
       -0.50943696 0.5182121 0.37806037 -0.29626244
0003d0 30 c5 9c 3e cb 35 20 bf c2 b8 b5 be cf ed 42 3f
       0.30619192 -0.6258208 -0.35492522 0.7614412
0003e0 8c 76 37 bf b3 06 31 3f 89 ea aa bb 21 9e 7e be
       -0.71665263 0.6915085 -0.005215947 -0.24865009
0003f0 51 c8 84 3e 1d 36 87 3e 09 cc 5a be 82 7b 96 3e
       0.2593408 0.26408473 -0.21366896 0.29391104

rnn.bias_ih_l1 f4 [50]
000000 f0 f5 60 3f 5b 83 9b bc cb a5 d8 3e ee c8 24 3e
       0.8787527 -0.018983534 0.4231399 0.16092274
000010 d5 8b 92 bd 22 3a 90 be 73 85 4a 3e 8f 20 7f 3d
       -0.07155577 -0.28169352 0.1977747 0.06228691
000020 dd f6 80 3e 2f 15 18 3e 1d 1d 2f 3e 5c f2 3d 3e
       0.25188342 0.14851831 0.1710095 0.18549484
000030 d6 6b 8e 3d ef d0 cb be 40 ac 72 be 86 05 12 3e
       0.06954162 -0.3980784 -0.2369852 0.1425992
000040 a3 42 c3 be c8 28 64 3f 02 98 53 be b6 bb 7c 3e
       -0.38136777 0.8912473 -0.20663455 0.24680981
000050 ae ef c0 3e c0 59 0a 3e a5 0a d7 bd a8 17 2f bf
       0.3768286 0.135108 -0.10500077 -0.6839547
000060 51 ac 0d be 74 f6 1b 3e 99 e0 b0 3c 6c 28 27 bf
       -0.13835265 0.15230733 0.021591472 -0.65296054
000070 d7 54 bb 3e 3a a9 33 3f e7 92 03 3f c9 81 44 3e
       0.36588165 0.70180094 0.5139603 0.19190134
000080 e8 8f 19 3e 96 1a 8a be 54 c5 67 be 2a d7 6f 3e
       0.14996302 -0.26973408 -0.22633868 0.23421922
000090 2d 1c f3 be d9 ee e7 3e 39 be 0e be 45 a8 09 bf
       -0.47482434 0.45299414 -0.13939752 -0.53772384
0000a0 11 12 92 3b 33 dd 3a 3e 24 44 32 be 9b 56 88 be
       0.00445772 0.18248443 -0.17408806 -0.26628575
0000b0 8d 10 5f bb 3c f6 10 be 69 5c 8f 3e b6 0e 2d be
       -0.0034036965 -0.14156431 0.2800019 -0.16900143
0000c0 ad 3a d1 bc 42 d4 1b bd
       -0.025540674 -0.03804422

rnn.bias_hh_l1 f4 [50]
000000 9e 8c 6c 3f ca a0 b4 bd ed 71 e1 3e bf 8c 28 3d
       0.92402065 -0.088197306 0.4403223 0.04114985
000010 e8 d1 b6 bd 9a 25 2d be 89 dd 9d 3e 57 6f 67 3d
       -0.08926755 -0.16908875 0.3083308 0.056502666
000020 c8 f4 7c 3e db 80 7e 3e f9 19 13 3e 0e 37 a0 3d
       0.24702752 0.24853842 0.14365377 0.07823001
000030 88 7b 96 3c 19 21 ef be 34 f0 90 be 89 29 0d 3e
       0.018369451 -0.4670494 -0.2830826 0.13785376
000040 73 f2 23 bf 0a 1e 61 3f 80 f1 2b be df 83 38 3e
       -0.64041823 0.8793646 -0.16791344 0.18019055
000050 c2 a2 66 3e f7 91 2b 3e 93 62 c4 bd ba a2 2a bf
       0.22523025 0.167549 -0.09589114 -0.6665455
000060 25 bf 2b bd 59 2c 62 3e 23 bf ec 3c 26 5b 07 bf
       -0.041930337 0.2208723 0.028899735 -0.52873456
000070 e4 67 75 3e a1 a0 46 3f 17 ce b6 3e 36 ce 38 3e
       0.23965412 0.7758885 0.3570411 0.18047413
000080 cb 36 59 3e 0a c6 4f be c9 87 c5 be d8 40 89 3e
       0.21212308 -0.2029039 -0.38580158 0.26807284
000090 3d 7d dd be e1 30 04 3f 08 77 64 bb 15 4a 27 bf
       -0.43259612 0.51637083 -0.0034860987 -0.65347415
0000a0 da 02 da 3d c9 c7 81 3d 75 37 73 3c 79 da 25 bd
       0.10645075 0.06336934 0.014844765 -0.040491555
0000b0 9d 23 ed bc f0 17 61 be b7 2a 88 3e 7f 45 10 3d
       -0.028947646 -0.21981788 0.2659509 0.035222527
0000c0 be 70 c1 bd d7 a9 b2 bd
       -0.09445332 -0.08723801

fc.weight f4 [1, 50]
000000 03 f1 ff 3b f5 cd 46 3f 06 dd 4c bd f6 70 ac bd
       0.0078107133 0.77658015 -0.050015472 -0.08419983
000010 6b 17 c8 3c 7a f7 78 bd 62 46 17 bd e4 ba b2 bc
       0.024425229 -0.060782887 -0.036932357 -0.021817632
000020 a3 39 46 bd 56 cd 0d 3c 36 02 09 3c 99 95 10 3c
       -0.04839481 0.008654913 0.008362344 0.008824729
000030 bf d8 a1 bd cc 35 d4 bc 89 df 96 be d6 70 ab 3c
       -0.07902669 -0.025904559 -0.2946742 0.020927828
000040 af e1 27 3d 73 8e 02 3e b3 02 95 bc a4 81 3f bd
       0.040986713 0.12749653 -0.018189764 -0.046754494
000050 53 ff 5a 3d 63 18 14 bd d3 ad 46 bd 8e e6 11 ba
       0.053466152 -0.03615607 -0.048505615 -0.00055656664
000060 5a 89 8a bd c3 aa b3 bc 49 ce 38 3e 97 a5 ce bd
       -0.06764479 -0.021932011 0.18047442 -0.100901775
000070 23 9d 47 3a d2 8a 95 bd 8c fc b9 bd 08 35 49 3d
       0.0007614663 -0.073018685 -0.090813726 0.04912284
000080 1f 98 cf bd e5 d2 80 3c 1f 50 3c bd 2d b5 37 3d
       -0.10136437 0.015725562 -0.045974847 0.044850517
000090 57 cb 23 3e 84 e2 c9 3a fb d2 f4 3d 4b 8e 38 bd
       0.15995537 0.001540259 0.11954304 -0.045057576
0000a0 15 86 b2 bc 7c 48 a6 3d 8b 7d 0e bd 6a 59 aa be
       -0.02179245 0.08119294 -0.034787696 -0.33271343
0000b0 05 54 55 3d ca 66 2b 3e 18 c4 43 3e c0 d0 e6 bc
       0.05208208 0.1673843 0.19117773 -0.028175712
0000c0 b6 69 f7 bd a2 bf cc 3d
       -0.1208071 0.099974886
