Networks/SUSHI-EUR/Seed0.pt (torch, 24291 bytes, 14 tensors)

rnn.weight_ih_l0 f4 [32, 5]
2.867643 4.061381 4.493194 -0.061265536 0.00041111893 -0.29877377 0.9311866 0.7687956
0.4143132 0.34026083 3.0753646 1.9436004 2.3960605 0.4661458 0.4985481 -1.272785
-1.7274868 -1.5352948 0.13873547 0.13562356 3.8828444 2.2052844 3.3991156 0.08534209
0.06012311 -0.22539856 -0.5938648 -0.41261142 0.14514503 0.1217482 -0.020210288 0.06334446
0.26717556 -0.451689 -0.6272026 0.5010473 0.35261175 0.22042404 -0.6712928 -0.442696
-0.13041061 0.10519527 -0.004815917 0.15559596 0.20603667 0.31811723 0.13588879 0.31439024
0.33167517 0.34315148 -0.38903618 -0.32308835 -0.4401849 0.18343145 -0.022482142 -0.7779629
-0.56489354 -0.8432972 0.7191857 0.5858946 -0.40337744 -0.24492194 -0.23224106 -0.15638652
-0.14615478 -1.5693419 -1.3616419 -1.387139 0.5249432 0.40317467 -1.2948135 -0.92963487
-1.1535727 0.09377697 0.2845567 -1.0641245 -3.2778766 -4.51092 -0.27802724 -0.05730717
-3.0095146 1.0440477 -0.69208205 0.17910364 0.185482 2.3953369 0.27120262 0.8609073
0.23875912 0.2667111 -0.52817607 -0.58937895 -0.59412503 0.18645318 0.111703224 -0.19274661
-0.39010116 -0.43599004 0.6080062 0.54171973 -3.674432 -3.7188401 -3.3143842 0.4568346
0.29808268 0.1624621 0.2574745 0.20205587 -0.5720456 -0.68494266 0.0050400323 0.33485195
0.32141727 -0.519921 -0.5242947 -0.20893629 -0.35315835 -0.34168294 -0.062811136 -0.11973464
0.12533106 0.008464268 0.21115988 0.57981974 0.45549035 -2.616376 -0.50694484 -1.1786679
-0.26393503 -0.41771725 0.7398908 1.028906 0.9434871 -0.040201597 0.12529175 -0.29275087
-0.25226277 -0.27157634 -0.26699153 -0.36217648 0.16312926 0.6395417 0.42451274 -0.13737363
-0.21704282 -0.15219368 -1.9719198 -2.9956613 0.3358316 0.25762075 -0.49820584 -0.6559531
-0.58597976 0.6898041 0.7516135 0.49124196 0.62335515 0.069695055 -0.44648492 -0.5445944
00000000: 7787 3740 d5f6 8140 3fc8 8f40 92f1 7abd
00000010: 738b d739 e0f8 98be 3f62 6e3f cacf 443f
00000020: dc20 d43e ab36 ae3e c6d2 4440 e6c7 f83f
00000030: 0e59 1940 aaaa ee3e b241 ff3e 9eea a2bf
00000040: 4a1e ddbf 8a84 c4bf ac10 0e3e e7e0 0a3e
00000050: 8680 7840 6123 0d40 1c8b 5940 d5c7 ae3d
00000060: a643 763d e1ce 66be 8607 18bf ce41 d3be
00000070: e6a0 143e 1f57 f93d 0c90 a5bc beba 813d
00000080: 3ccb 883e c843 e7be 5990 20bf a344 003f
00000090: 8789 b43e d7b6 613e d8d9 2bbf 0da9 e2be
000000a0: 5c8a 05be 9e70 d73d d7ce 9dbb 8c54 1f3e
000000b0: 47fb 523e 43e0 a23e 6e26 0b3e c2f7 a03e
000000c0: 54d1 a93e 8db1 af3e c02f c7be d66b a5be
000000d0: ea5f e1be 74d5 3b3e 782c b8bc 9428 47bf
000000e0: dd9c 10bf 53e2 57bf 8e1c 383f 30fd 153f
000000f0: 7d87 cebe d1cc 7abe 9ad0 6dbe ca23 20be
00000100: 99a9 15be 32e0 c8bf 484a aebf c58d b1bf
00000110: ad62 063f e96c ce3e 73bc a5bf 8dfc 6dbf
00000120: 45a8 93bf 240e c03d 6ab1 913e 3b35 88bf
00000130: bbc8 51c0 7559 90c0 9659 8ebe ecba 6abd
00000140: e39b 40c0 5ba3 853f 4a2c 31bf f266 373e
00000150: feee 3d3e 334d 1940 12db 8a3e 6c64 5c3f
00000160: 457d 743e 5b8e 883e 8c36 07bf 8ae1 16bf
00000170: 9418 18bf 95ed 3e3e a9c4 e43d 5e5f 45be
00000180: 57bb c7be 163a dfbe 4ba6 1b3f 25ae 0a3f
00000190: e529 6bc0 7a01 6ec0 df1e 54c0 3ae6 e93e
000001a0: 4b9e 983e 775c 263e b3d3 833e bce7 4e3e
000001b0: 9571 12bf 6758 2fbf db26 a53b b771 ab3e
000001c0: ce90 a43e 8b19 05bf 2d38 06bf 65f3 55be
000001d0: 2cd1 b4be 11f1 aebe 20a3 80bd 6f37 f5bd
000001e0: c956 003e b7ad 0a3c 4c3a 583e 116f 143f
000001f0: 0836 e93e b472 27c0 23c7 01bf 97de 96bf
00000200: 7e22 87be 09df d5be 7c69 3d3f 31b3 833f
00000210: 5f88 713f 6eaa 24bd 7b4c 003e 71e3 95be
00000220: 9628 81be 0e0c 8bbe 1db3 88be 326f b9be
00000230: 5b0b 273e 01b9 233f bc59 d93e acab 0cbe
00000240: 7940 5ebe a9d8 1bbe de67 fcbf eab8 3fc0
00000250: 1ff2 ab3e dee6 833e d614 ffbe 8bec 27bf
00000260: c502 16bf 0097 303f be69 403f 1184 fb3e
00000270: 3494 1f3f 48bc 8e3d ac99 e4be 8a6a 0bbf

rnn.weight_hh_l0 f4 [32, 32]
-2.3687308 -0.048250265 -0.011088103 -0.9610118 0.13798524 -0.27399707 -0.4534648 -0.016312547
0.1921059 0.15110296 0.019327825 -0.011904237 0.75935084 -0.7208486 -0.28953913 -0.8637836
-1.4286243 -0.27211106 -0.022327645 -0.04019136 -0.9086153 0.001848975 0.007251927 -0.19804476
-0.1377039 -0.07201926 -0.090560794 -0.24002297 0.5162847 -0.013481182 -0.056203626 -0.32943046
0.47542232 2.7239387 0.39295223 0.3458945 0.55092096 0.6609375 -0.12938711 -0.5563867
0.205161 0.5314732 0.679305 0.687473 0.47236025 0.5392404 -0.6122454 0.02526988
0.034380298 0.4947368 0.45110765 0.5266074 -0.20045163 -0.46455616 -0.42856807 0.49018633
0.5144083 -0.37268186 -0.21753304 -0.33261898 -0.5639889 0.36905652 0.56508446 -0.46746328
0.51979893 0.38344452 1.9837798 0.18309161 0.24092479 0.34407172 0.050389603 -0.24223436
0.44358683 0.54540634 0.31008068 0.24544933 0.05608528 -0.252606 0.30186498 0.35047847
-0.053062614 0.13441084 0.37827298 0.15039726 -0.44012263 -0.22075462 -0.2920446 0.3357823
0.31971905 -0.48872194 -0.04795745 -0.23988499 -0.024887418 -0.030333253 -0.011142757 -0.17265281
-0.19397834 -0.011141984 0.03583104 -0.3140573 -0.06692401 0.7600658 -0.058657903 -0.08295051
-0.30962706 -0.13968949 0.2779951 0.3674047 -0.21158354 0.029789295 0.5435599 0.6526838
0.8931743 0.6398242 -0.025571682 0.32478955 0.10783682 -0.30287573 -0.7930046 0.5196724
0.408978 -0.35270265 -0.15647282 0.12779325 -0.89335114 0.43331623 1.3548815 -0.26588097
0.9056195 0.14741322 0.21536416 -0.35850555 2.4089525 -0.10837804 -0.009889941 -0.1676898
0.3095428 0.45925492 0.34672725 0.06891396 -0.041330107 -0.7493018 -0.40534264 -0.03292067
0.734469 0.07490543 0.5185183 0.2085775 -1.5040797 -0.14046139 0.22077493 0.045753323
0.36362505 -0.1337531 0.08031923 -0.44387442 0.1347228 -2.1449935 0.33362326 -0.098947294
0.20117308 0.53129995 0.64751494 0.15826114 -0.02695811 -0.36171508 -0.3375823 -0.33535042
0.62228405 0.52195185 0.5728563 0.22046314 -0.34568632 -0.58110523 -0.3025525 0.27729166
-0.013825852 0.22241703 0.33518764 0.34087756 -0.12241303 -0.22898135 -0.006317523 0.37923074
0.57441276 -0.5199459 0.09663004 -0.31606737 -0.0844559 1.9738897 0.22293323 -0.43389794
-0.13596678 -0.4424002 -0.4345762 -0.8073375 -0.60002905 -0.29368135 -1.3028792 0.34436738
-0.8062131 -0.6282099 -0.16288134 -0.43194687 -0.27049676 0.43275738 0.43795472 0.22365215
0.04961109 0.059592634 -0.08921695 -0.40451893 -0.16816507 0.12138631 -0.4558619 -0.20805001
-0.04471878 0.6874144 -0.28712046 0.89374834 -0.18124396 0.4564597 -0.022624144 0.48065776
0.12066661 0.23787473 -0.093455896 -0.30734023 0.045766115 -0.74563015 0.5375124 0.5183766
-0.069157645 0.09132848 -0.6843065 -0.12365059 0.0059109116 -0.015875967 0.100425705 -0.08395651
-0.23371872 -0.08052818 -0.5260874 -0.37992123 -0.031724192 0.6547946 0.34853056 -0.51120406
-0.58539665 -0.22049446 0.067830324 -0.21721101 0.34050077 -0.83613557 -0.11064409 0.35590687
00000000: 4999 17c0 12a2 45bd e0aa 35bc df04 76bf
00000010: 014c 0d3e 5849 8cbe 8a2c e8be e4a1 85bc
00000020: 69b7 443e bcba 1a3e 6355 9e3c fd09 43bc
00000030: d164 423f 8989 38bf 793e 94be ec20 5dbf
00000040: 29dd b6bf 2452 8bbe 77e8 b6bc b29f 24bd
00000050: 039b 68bf 4e59 f23a 93a1 ed3b 3fcc 4abe
00000060: 4002 0dbe d57e 93bd f077 b9bd 95c8 75be
00000070: 3c2b 043f 2de0 5cbc c635 66bd 1cab a8be
00000080: 8e6a f33e 0355 2e40 0931 c93e 1519 b13e
00000090: 2809 0d3f 3333 293f 0e7e 04be 5c6f 0ebf
000000a0: ba15 523e a10e 083f efe6 2d3f 3bfe 2f3f
000000b0: 34d9 f13e a90b 0a3f 1dbc 1cbf c802 cf3c
000000c0: 5bd2 0c3d 244e fd3e 95f7 e63e becf 063f
000000d0: 3143 4dbe 4eda edbe 466d dbbe b4f9 fa3e
000000e0: 43b0 033f 28d0 bebe fbc0 5ebe 094d aabe
000000f0: 9461 10bf faf4 bc3e 60a9 103f 5957 efbe
00000100: 8b11 053f d752 c43e 7fec fd3f 5e7c 3b3e
00000110: fdb4 763e 2b2a b03e 5465 4e3d 490c 78be
00000120: d01d e33e c09f 0b3f e5c2 9e3e 1257 7b3e
00000130: aeb9 653d 9355 81be 0c8e 9a3e ea71 b33e
00000140: 2f58 59bd ffa2 093e ffac c13e bd01 1a3e
00000150: c157 e1be 800d 62be df86 95be a8eb ab3e
00000160: 37b2 a33e c339 fabe 086f 44bd 69a4 75be
00000170: b3e0 cbbc 717d f8bc 1c90 36bc e6cb 30be
00000180: 42a2 46be de8c 36bc 92c3 123d 1ecc a0be
00000190: 750f 89bd ac93 423f 4543 70bd f5e1 a9bd
000001a0: 7087 9ebe c30a 0fbe 6055 8e3e 781c bc3e
000001b0: 5ba9 58be ae08 f43c be26 0b3f 4916 273f
000001c0: 12a7 643f 85cb 233f b47b d1bc d14a a63e
000001d0: 8dd9 dc3d 8712 9bbe 5902 4bbf 4009 053f
000001e0: 9065 d13e 7195 b4be 693a 20be 3cdc 023e
000001f0: a9b2 64bf a0db dd3e c26c ad3f 8d21 88be
00000200: aed6 673f 7ef3 163e 6c88 5c3e 0a8e b7be
00000210: 472c 1a40 4ef5 ddbd 6b09 22bc e0b6 2bbe
00000220: 657c 9e3e 7623 eb3e 3c86 b13e c322 8d3d
00000230: c249 29bd 3ed2 3fbf 1289 cfbe d3d7 06bd
00000240: 2906 3c3f 0568 993d 9ebd 043f 5795 553e
00000250: af85 c0bf 1cd5 0fbe d312 623e d667 3b3d
00000260: 102d ba3e 93f6 08be 697e a43d 8243 e3be
00000270: c6f4 093e 9347 09c0 abd0 aa3e e1a4 cabd
00000280: 5100 4e3e 4603 083f 8ac3 253f 350f 223e
00000290: 41d7 dcbc b832 b9be 96d7 acbe 0db3 abbe
000002a0: 024e 1f3f a39e 053f b6a6 123f 17c1 613e
000002b0: ccfd b0be 50c3 14bf 29e8 9abe 2cf9 8d3e
000002c0: d485 62bc 4ac1 633e b79d ab3e 8187 ae3e
000002d0: afb3 fabd 167a 6abe 3903 cfbb 882a c23e
000002e0: b70c 133f 2d1b 05bf f8e5 c53d 95d3 a1be
000002f0: 37f7 acbd 6ba8 fc3f 9c48 643e df27 debe
00000300: e03a 0bbe 4782 e2be c680 debe acad 4ebf
00000310: 819b 19bf 675d 96be bfc4 a6bf ec50 b03e
00000320: fb63 4ebf 5dd2 20bf 5eca 26be 2428 ddbe
00000330: 8d7e 8abe 6092 dd3e 9a3b e03e 1205 653e
00000340: 0035 4b3d 6817 743d 60b7 b6bd 1b1d cfbe
00000350: 7733 2cbe 6399 f83d bb66 e9be 100b 55be
00000360: 0a2b 37bd 64fa 2f3f 7401 93be b1cc 643f
00000370: 0498 39be 16b5 e93e 4556 b9bc c618 f63e
00000380: 0e20 f73d 6f95 733e ce65 bfbd b35b 9dbe
00000390: 4075 3b3d 9ee1 3ebf 6a9a 093f 54b4 043f
000003a0: 86a2 8dbd 6d0a bb3d b62e 2fbf 853c fdbd
000003b0: 52b0 c13b 510e 82bc feab cd3d 64f1 abbd
000003c0: f653 6fbe f5eb a4bd aaad 06bf 0985 c2be
000003d0: 3af1 01bd 9ea0 273f 9972 b23e 45de 02bf
000003e0: 8edc 15bf 4dc9 61be a0ea 8a3d 906c 5ebe
000003f0: 1e56 ae3e fb0c 56bf 5e99 e2bd 6d39 b63e

rnn.bias_ih_l0 f4 [32]
0.03397489 -0.49640703 -0.6338983 -0.20468605 -0.04686551 -0.1664812 0.48852992 0.4599626
-0.25272635 -0.45996726 -0.2725589 -0.8748574 0.4070057 -0.592718 -0.10412662 0.20641723
-0.032548875 -0.11693781 -0.39350158 -0.57546353 -0.5280566 0.4662812 0.63874847 0.07950143
-0.7627648 0.29423913 0.003001354 0.22183685 0.17531295 -0.22424039 -0.6756602 0.5736916
00000000: 4129 0b3d 1029 febe 2947 22bf 3899 51be
00000010: 0df6 3fbd 0c7a 2abe 9820 fa3e 3880 eb3e
00000020: 5965 81be d480 ebbe d78c 8bbe a8f6 5fbf
00000030: 0d63 d03e 5ebc 17bf 5640 d5bd 0a5f 533e
00000040: f851 05bd 177d efbd 0a79 c9be 9451 13bf
00000050: b82e 07bf 69bc ee3e 0585 233f a5d1 a23d
00000060: 8e44 43bf 83a6 963e 5db2 443b 3329 633e
00000070: 3d85 333e 469f 65be 11f8 2cbf 74dd 123f

rnn.bias_hh_l0 f4 [32]
0.20294774 -0.40013045 -0.32050255 -0.36226472 -0.1109953 -0.14701201 0.52689743 0.5747614
-0.11353508 -0.40096313 -0.066872984 -0.73893195 0.38615158 -0.34668732 -0.2879903 0.29757014
-0.13858666 -0.2631405 -0.22267982 -0.7220023 -0.38946834 0.6941454 0.8735548 0.062461846
-0.7544346 0.20147075 0.035687774 0.21723534 0.09248171 -0.45265275 -0.6422753 0.5854492
00000000: 88d1 4f3e e6dd ccbe e918 a4be c37a b9be
00000010: 8151 e3bd 518a 16be c0e2 063f 9023 133f
00000020: 1485 e8bd 0a4b cdbe b4f4 88bd a52a 3dbf
00000030: a9b5 c53e 0081 b1be 7773 93be 1d5b 983e
00000040: a9e9 0dbe 5aba 86be 2e06 64be 25d5 38bf
00000050: 6568 c7be 83b3 313f 4aa1 5f3f fed7 7f3d
00000060: a022 41bf 594e 4e3e 582d 123d f172 5e3e
00000070: 0d67 bd3d 1ac2 e7be 276c 24bf 00e0 153f

rnn.weight_ih_l1 f4 [32, 32]
0.118618436 0.31206247 0.3757586 -0.44636002 0.19923785 0.64771277 -0.020484708 -0.37594157
0.45449516 0.31907958 0.5480766 0.268849 0.1752043 -0.31870076 -0.63024336 -0.34200972
-0.07344351 0.17538711 0.3009818 0.15503985 -0.24194536 -0.2894726 -0.31180498 0.567167
0.32490337 0.089982115 -0.26533997 -0.14641501 0.07811929 -0.03075015 -0.42653975 -0.3798485
0.20790805 -0.04767923 0.49496123 -0.8474021 0.40643063 0.01567309 0.09723846 -0.14483273
0.09714356 0.08934949 -0.0073757083 -0.3089377 0.057811227 -0.47160608 -0.6247395 -0.31831038
0.07175027 -0.17663029 -0.23810168 0.0997926 -0.4866183 -0.38177007 0.20934576 -0.22267455
-0.0642379 -0.09021766 0.032763578 -0.17193587 0.45313838 0.05903312 -0.2895392 0.19002908
-0.04890752 0.33895805 0.5220874 0.5580449 0.36082193 0.33939305 -0.15078042 -0.4811816
0.5085286 0.41415787 0.20382918 -0.10870018 0.5262105 -0.56869906 0.4334348 0.09093507
0.12272428 0.20993151 0.46065044 0.3733368 0.10024388 -0.48398435 -0.1593393 0.24436693
0.12654169 0.08332263 -0.24553877 -0.26037627 -0.15124395 -0.33623534 -0.06096238 0.0034778116
-0.14407192 0.24329448 0.09779238 0.042406157 0.40699467 0.37699312 -0.21496083 -0.16715184
0.2556711 0.2889253 0.5455287 0.33291522 -0.153904 0.091971755 0.25607136 0.18613324
0.60666853 0.4880409 0.11308672 0.18008044 -0.635285 -0.28021407 -0.23135112 0.5068402
0.3191666 0.06929113 -0.012305315 -0.23489727 0.13154928 0.11327522 0.27096415 -0.38155246
-0.21783364 -0.31728286 -0.23470977 0.12996893 0.029538525 -0.21835893 0.17414525 0.20134532
-0.13653323 -0.16687162 -0.12803583 -0.025813868 0.062861204 0.45782676 0.4285618 0.24199712
0.03706998 -0.40547296 -0.6069854 -0.37832063 0.087369956 0.281897 0.27149096 -0.15146016
-0.3517231 -0.15746623 -0.110145174 0.21081768 -0.112258136 0.3216927 -0.18091546 -0.15852831
0.22439432 0.4931171 1.1195343 -0.3315897 0.16065018 -0.040281568 0.35621703 -0.12651445
0.5812109 0.10839413 0.1603947 -0.021520838 0.3173285 -0.73723567 -0.7803213 -0.18992335
-0.25194007 -0.015029902 0.102932096 0.112605155 -0.5808369 -0.24882933 0.17584112 0.10434373
0.16830614 -0.39349136 -0.09143643 -0.5416513 0.214698 0.07258377 -0.24902347 -0.109171
0.051618956 -0.4030091 -0.3208123 -0.1603262 -0.055224318 -0.3433389 -0.15075405 0.48354423
-0.4809556 -0.27064654 -0.44102886 -0.13687712 -0.45380673 0.25227505 0.023138301 0.066403486
-0.26765707 -0.11911536 -0.20259285 -0.12953144 -0.13131195 0.36697337 0.17835066 -0.28387216
-0.32687825 -0.3197289 0.27841172 0.31421435 0.08979944 0.41742888 -0.21171695 0.21304287
0.37670717 0.46268243 0.359484 0.72575915 0.9868113 -0.13441929 -0.17631051 0.1748288
0.34049016 0.32855913 -0.31159237 0.13400938 -0.02898298 -0.183146 -0.6458057 0.3256344
2.8334486 0.025820654 0.15144736 0.18096021 -0.61144036 -0.11837957 -0.0071038073 0.354764
0.48123714 -1.0594493 -0.09027649 -0.3795063 -0.55905646 -2.6365302 0.09709958 -0.010612366
00000000: 39ee f23d a7c6 9f3e 6e63 c03e 4d89 e4be
00000010: 0205 4c3e 81d0 253f 8ccf a7bc 6a7b c0be
00000020: 97b3 e83e 665e a33e c04e 0c3f 93a6 893e
00000030: c268 333e bf2c a3be a157 21bf e61b afbe
00000040: 8d69 96bd ae98 333e 491a 9a3e c4c2 1e3e
00000050: 86c0 77be c135 94be e7a4 9fbe db31 113f
00000060: bc59 a63e 8b48 b83d a4da 87be d1ed 15be
00000070: 02fd 9f3d bde7 fbbc 6b63 dabe 817b c2be
00000080: d9e5 543e 4c4b 43bd 8f6b fd3e 58ef 58bf
00000090: ad17 d03e da64 803c f524 c73d 084f 14be
000000a0: 34f3 c63d defc b63d edaf f1bb 152d 9ebe
000000b0: 77cb 6c3d 5a76 f1be eeee 1fbf 94f9 a2be
000000c0: cef1 923d 92de 34be edd0 73be 1060 cc3d
000000d0: 0926 f9be 5e77 c3be bc5e 563e cc04 64be
000000e0: 298f 83bd 09c4 b8bd 1a33 063d f50f 30be
000000f0: c101 e83e b6cc 713d 7b3e 94be fc96 423e
00000100: 4053 48bd e98b ad3e 85a7 053f 08dc 0e3f
00000110: a7bd b83e edc4 ad3e 2f66 1abe 6f5d f6be
00000120: ee2e 023f 800c d43e 99b8 503e 339e debd
00000130: bbb5 063f 4396 11bf 2beb dd3e 2a3c ba3d
00000140: de56 fb3d 49f8 563e 60da eb3e 0026 bf3e
00000150: aa4c cd3d cccc f7be d729 23be 533b 7a3e
00000160: 2594 013e 0ea5 aa3d 846e 7bbe 0a50 85be
00000170: b2df 1abe 0a27 acbe b0b3 79bd ffeb 633b
00000180: 9787 13be 3022 793e 5f47 c83d 14b2 2d3d
00000190: 9b61 d03e 3e05 c13e b11e 5cbe da29 2bbe
000001a0: 53e7 823e 04ee 933e c5a7 0b3f dd73 aa3e
000001b0: 0399 1dbe b05b bc3d c91b 833e b699 3e3e
000001c0: a14e 1b3f 7fe0 f93e 039a e73d 0267 383e
000001d0: 0aa2 22bf 3878 8fbe 4fe7 6cbe 48c0 013f
000001e0: ce69 a33e 82e8 8d3d 3b9c 49bc e988 70be
000001f0: dbb4 063e d7fc e73d d0bb 8a3e d85a c3be
00000200: c80f 5fbe e672 a2be c257 70be 9316 053e
00000210: c7fa f13c 7c99 5fbe 2253 323e 782d 4e3e
00000220: 5ecf 0bbe 65e0 2abe d31b 03be 9b77 d3bc
00000230: 60bd 803d 4568 ea3e 746c db3e 18ce 773e
00000240: b1d6 173d 279a cfbe 6563 1bbf 3eb3 c1be
00000250: 05ef b23d ce54 903e dd00 8b3e 5f18 1bbe
00000260: 0d15 b4be d43e 21be cb93 e1bd 97e0 573e
00000270: 98e7 e5bd e8b4 a43e e741 39be 3f55 22be
00000280: a0c7 653e d879 fc3e e64c 8f3f 20c6 a9be
00000290: 7b81 243e 49fe 24bd 1462 b63e 018d 01be
000002a0: 3dca 143f befd dd3d 823e 243e 784c b0bc
000002b0: e278 a23e 7abb 3cbf 23c3 47bf 447b 42be
000002c0: 4afe 80be fa3f 76bc 10ce d23d 889d e63d
000002d0: bab1 14bf 1ecd 7ebe b20f 343e 2ab2 d53d
000002e0: 7258 2c3e b377 c9be 0643 bbbd a9a9 0abf
000002f0: cbd9 5b3e cda6 943d 0200 7fbe 0c95 dfbd
00000300: 666e 533d 3557 cebe 8341 a4be 8d2c 24be
00000310: e532 62bd 1eca afbe 455f 1abe 1c93 f73e
00000320: d03f f6be 2f92 8abe 89ce e1be 8429 0cbe
00000330: 5b59 e8be 322a 813e 898c bd3c 8dfe 873d
00000340: 590a 89be c1f2 f3bd 8074 4fbe e4a3 04be
00000350: a476 06be efe3 bb3e 8ea1 363e b157 91be
00000360: 965c a7be 82b3 a3be fb8b 8e3e b4e0 a03e
00000370: c5e8 b73d 3db9 d53e 54cc 58be e927 5a3e
00000380: c3df c03e b6e4 ec3e 490e b83e 5acb 393f
00000390: aa9f 7c3f 36a5 09be be8a 34be 5206 333e
000003a0: ba54 ae3e e738 a83e 0989 9fbe c139 093e
000003b0: b76d edbc a08a 3bbe 8653 25bf 8db9 a63e
000003c0: 3957 3540 d685 d33c 0415 1b3e a24d 393e
000003d0: 5b87 1cbf fd70 f2bd 0ec7 e8bb a1a3 b53e
000003e0: b764 f63e 099c 87bf e1e2 b8bd a64e c2be
000003f0: 531e 0fbf e9bc 28c0 25dc c63d 7ddf 2dbc

rnn.weight_hh_l1 f4 [32, 32]
1.2320268 0.1292549 -0.05816777 0.40396973 -0.2837249 0.37324134 0.1337316 -0.30160588
-0.32582685 0.43040276 -0.005956104 -0.066811346 0.04050898 0.1432791 0.15463127 -0.019251157
0.05906707 0.40137488 -0.23430276 0.101310976 0.16714372 -0.17421058 -0.4057148 0.02090748
-0.1406363 0.035424467 0.07603181 0.51839006 -0.041865926 0.13040817 0.31797743 0.120880716
0.35204598 0.6901122 0.33841917 0.18554443 -0.15826163 0.21414243 -0.3131268 0.11523661
-0.47839177 0.26674953 0.36931798 0.22519062 0.49831262 -0.6294785 -0.20620815 0.94374716
-0.69412184 0.43263277 -0.42064995 0.26441783 -0.2049453 0.08083239 -0.15503035 0.419717
0.6267759 -0.12097947 0.45883536 -0.15097323 0.25370115 0.32233158 0.054517288 -0.02523012
0.09880266 0.24782535 0.59928715 0.32909825 0.036374364 0.27186036 -0.43634307 0.17325573
-0.2137441 -0.033803962 -0.07561693 0.21785656 0.09676906 -0.6047181 0.032608487 0.25320077
0.046714798 0.29584748 -0.0226052 0.32430768 -0.029659992 -0.06823097 0.2637805 0.79793084
0.07956569 -0.28148153 0.16963038 -0.13480015 0.22567806 0.11845543 0.38321027 0.22986549
0.08142464 0.31537375 -0.09218599 -0.08900463 0.15056035 0.096880935 -0.10237593 0.051373493
-0.27564824 0.7246913 -0.00968265 1.0905515 1.0608226 -0.37338904 -0.7822351 0.20110413
0.37929773 0.21486475 -0.02560603 0.28860265 0.16240224 -0.09059149 -0.2708315 0.1874879
0.068920866 -0.9160954 0.47321543 0.17130382 -0.052767597 -0.0039383057 0.08683239 -0.22650446
-0.26582146 0.11899621 -0.15493783 -0.52358794 -0.058027692 -0.14348504 0.017041454 0.181349
-0.019397482 0.18681946 -0.17185858 0.11280326 0.18388586 0.12482864 0.06428315 -0.103730366
0.45195672 -0.28395465 0.4761343 -0.1164489 -0.032694567 -0.024470761 0.19265017 -0.08440039
0.15192628 0.22937895 -0.25504154 -0.023048712 -0.5787464 -0.29562548 -0.2345992 0.1397206
-0.04776388 0.1671646 0.14758126 0.2702035 -0.15005314 0.29638153 -0.1862494 -0.031315308
-0.41685644 0.19141194 0.22950645 -0.1871 -0.0020117597 -0.403467 -0.07722992 0.21057332
-0.490242 0.8055448 -0.39257225 0.11281088 0.19796003 -0.066862494 -0.13250461 0.12901796
0.18191104 -0.17408578 0.1609862 -0.058249336 0.44866684 0.024655942 0.1769642 -0.25531068
-0.24010333 -0.5447259 -0.38052395 -0.08920967 -0.019930182 -0.24592412 0.2649974 -0.12623298
0.44701397 -0.33517805 0.030218212 0.053223435 -0.30213743 0.3541741 0.11948028 -0.3922988
0.14347869 -0.32282174 -0.017479382 -0.18257676 0.15800306 -0.009237925 -0.1529433 -0.6856418
-0.2738534 -0.17375188 -0.16475213 0.1876119 -0.07221238 -0.12885402 -0.31235746 -0.13490812
0.18145742 0.5143717 0.0020137606 -0.035789143 -0.53161734 0.6081635 0.024289804 1.2856665
-0.5891508 0.5089011 0.33429167 0.23449926 0.32999676 -0.12693731 -0.22778784 0.32738703
-0.11408831 0.42587852 -0.0464257 0.5316719 -0.14072597 -0.42841193 -0.24904983 0.064913385
0.19064395 -0.109524466 -0.08786207 -1.1757917 0.33145642 0.4499309 1.0597925 -0.1276696
00000000: 0eb3 9d3f 665b 043e 5441 6ebd 1fd5 ce3e
00000010: 6444 91be 7d19 bf3e f0f0 083e 166c 9abe
00000020: c7d2 a6be c05d dc3e 6c2b c3bb 63d4 88bd
00000030: bfec 253d c2b7 123e a957 1e3e 9ab4 9dbc
00000040: 50f0 713d 0281 cd3e 10ed 6fbe 217c cf3d
00000050: b927 2b3e 4264 32be dab9 cfbe 2a46 ab3c
00000060: f602 10be 3f19 113d 91b6 9b3d 36b5 043f
00000070: 9b7b 2bbd b889 053e f0cd a23e 4f90 f73d
00000080: 5f3f b43e 31ab 303f 4745 ad3e 5cff 3d3e
00000090: 560f 22be 2748 5b3e 2852 a0be 2c01 ec3d
000000a0: c4ef f4be 6593 883e 3f17 bd3e 5f98 663e
000000b0: d522 ff3e 8125 21bf 3b28 53be 6a99 713f
000000c0: f8b1 31bf 0b82 dd3e 6e5f d7be c661 873e
000000d0: 2edd 51be 748b a53d 47c0 1ebe 26e5 d63e
000000e0: 6374 203f 16c4 f7bd 78ec ea3e ba98 1abe
000000f0: 1ee5 813e a508 a53e 854d 5f3d 66af cebc
00000100: 0d59 ca3d eec5 7d3e e26a 193f 917f a83e
00000110: 49fd 143d 4831 8b3e 5c68 dfbe f369 313e
00000120: bcdf 5abe 0676 0abd 0ddd 9abd ca15 5f3e
00000130: db2e c63d cece 1abf 7a90 053d 88a3 813e
00000140: 0458 3f3d 5279 973e 8a2e b9bc a80b a63e
00000150: 83f9 f2bc aebc 8bbd 3d0e 873e 3245 4c3f
00000160: 56f3 a23d 591e 90be 96b3 2d3e 0d09 0abe
00000170: 2618 673e c398 f23d 2334 c43e dc61 6b3e
00000180: f6c1 a63d ab78 a13e 02cc bcbd 0f48 b6bd
00000190: 7e2c 1a3e 8369 c63d 79aa d1bd 036d 523d
000001a0: c421 8dbe 5e85 393f faa3 1ebc 3197 8b3f
000001b0: 09c9 873f d92c bfbe 8f40 48bf 3eee 4d3e
000001c0: 5033 c23e 8105 5c3e bdc3 d1bc bac3 933e
000001d0: c64c 263e 0888 b9bd 6daa 8abe d4fc 3f3e
000001e0: 6226 8d3d 3a85 6abf 4b49 f23e 456a 2f3e
000001f0: d622 58bd e70c 81bb 2ed5 b13d c9f0 67be
00000200: c019 88be 49b4 f33d 06a8 1ebe dc09 06bf
00000210: 72ae 6dbd beed 12be 859a 8b3c 8db3 393e
00000220: 78e7 9ebc 9a4d 3f3e b2fb 2fbe 6505 e73d
00000230: 934c 3c3e 28a6 ff3d e2a6 833d 9670 d4bd
00000240: df66 e73e 8162 91be e0c7 f33e c37c eebd
00000250: bdea 05bd e876 c8bc 1646 453e 1dda acbd
00000260: 9092 1b3e 51e2 6a3e ce94 82be a7d0 bcbc
00000270: b928 14bf 395c 97be c63a 70be eb12 0f3e
00000280: 0fa4 43bd 322d 2b3e 8b1f 173e 1d58 8a3e
00000290: 88a7 19be 52bf 973e 2ab8 3ebe 7b44 00bd
000002a0: 356e d5be 7e01 443e bd03 6b3e 2497 3fbe
000002b0: bad7 03bb 3a93 cebe b82a 9ebd 88a0 573e
000002c0: 0001 fbbe 2f38 4e3f 3bff c8be 6409 e73d
000002d0: 09b6 4a3e 34ef 88bd 4aaf 07be 491d 043e
000002e0: e346 3a3e 8b43 32be 91d9 243e db96 6ebd
000002f0: a9b7 e53e 42fb c93c 1a36 353e 15b8 82be
00000300: a6dd 75be 2873 0bbf 09d4 c2be 8fb3 b6bd
00000310: 9f44 a3bc 88d3 7bbe bdad 873e 3843 01be
00000320: 04df e43e 759c abbe 2f8c f73c d100 5a3d
00000330: c2b1 9abe 4f56 b53e 14b2 f43d 63db c8be
00000340: 14ec 123e e448 a5be ec30 8fbc 67f5 3abe
00000350: 8ecb 213e aa5a 17bc 2b9d 1cbe 3986 2fbf
00000360: 8336 8cbe 03ec 31be c8b4 28be 551d 403e
00000370: 16e4 93bd 4ff2 03be 51ed 9fbe 5b25 0abe
00000380: f9cf 393e ddad 033f 4cf9 033b a397 12bd
00000390: 1318 08bf 9ab0 1b3f 69fb c63c b890 a43f
000003a0: 96d2 16bf 5847 023f 4728 ab3e 9320 703e
000003b0: 56f5 a83e dbfb 01be 3741 69be 469f a73e
000003c0: 22a7 e9bd c00c da3e e028 3ebd a61b 083f
000003d0: 781a 10be cf58 dbbe eb06 7fbe 4ff1 843d
000003e0: 2b38 433e 5d4e e0bd 07f1 b3bd 5880 96bf
000003f0: a8b4 a93e 585d e63e 48a7 873f d2bb 02be

rnn.bias_ih_l1 f4 [32]
-0.16527288 0.101888604 -0.02320847 -0.23639993 0.26440912 -0.14688689 0.1140141 -0.32683322
0.19156775 -0.10790945 -0.043528914 -0.08047413 -0.111428335 0.18485127 0.13866346 0.1570052
0.21401052 -0.47205287 -0.15087007 -0.1775642 0.022308037 -0.020690244 -0.17873928 -0.09104078
-0.059974667 0.30096585 -0.057852678 0.3015696 -0.34662738 -0.68363476 -0.45537594 0.15560338
00000000: 4b3d 29be f9aa d03d b01f bebc d312 72be
00000010: a260 873e 8469 16be 3980 e93d af56 a7be
00000020: 562a 443e a1ff dcbd 604b 32bd 9fcf a4bd
00000030: 8a34 e4bd a749 3d3e cbfd 0d3e f9c5 203e
00000040: 9325 5b3e eab0 f1be af7d 1abe 64d3 35be
00000050: 58bf b63c 967e a9bc 6e07 37be 9773 babd
00000060: ffa7 75bd 3218 9a3e eef6 6cbd 5567 9a3e
00000070: 2579 b1be b002 2fbf 0927 e9be 7e56 1f3e

rnn.bias_hh_l1 f4 [32]
-0.16324462 0.17720397 -0.0013189912 -0.39380842 0.008982214 -0.17547002 0.03398604 -0.28382444
0.087393135 -0.078242056 -0.17386869 0.103871524 0.044978566 0.066841096 0.09908172 0.20040706
0.17523895 -0.53616184 -0.21782336 -0.13395233 -0.09620558 0.02751195 -0.11200916 -0.19371611
-0.21459042 0.29236516 -0.14203653 0.2965358 -0.30825815 -0.59225285 -0.4009249 -0.011069019
00000000: 9929 27be f574 353e 00e2 acba 42a1 c9be
00000010: 232a 133c 6aae 33be f234 0b3d 7051 91be
00000020: 2cfb b23d 5f3d a0bd a20a 32be 98ba d43d
00000030: 723b 383d fce3 883d 5beb ca3d 8237 4d3e
00000040: d771 333e e741 09bf 160d 5fbe cd2a 09be
00000050: 6e07 c5bd be60 e13c 0f65 e5bd 845d 46be
00000060: 97bd 5bbe e3b0 953e 0672 11be 8ad3 973e
00000070: 03d4 9dbe e29d 17bf 0746 cdbe d55a 35bc

rnn.weight_ih_l2 f4 [32, 32]
-0.03559889 -0.20293877 0.012710804 0.10016022 -0.14983372 0.14323922 0.2134564 -0.26313174
0.015153774 -0.2197895 0.17460652 -0.30374295 -0.44142354 0.22473411 -0.12338523 -0.13776097
-0.06299134 0.39651456 -0.056592543 0.09571122 -0.12827529 0.2518965 -0.1926485 -0.15095446
-0.3505517 -0.025594624 0.059746623 0.19310172 0.40819865 -0.030240402 0.33684784 0.086625904
0.1916133 0.32739848 0.3414747 0.12223136 -0.11933493 0.067216046 0.018673785 -0.47125208
0.075377844 -0.24963039 0.08080388 0.039415292 -0.099189185 0.07153968 -0.2977157 0.21798378
-0.10191459 0.50101495 -0.31605217 0.29690146 -0.023308149 0.00527865 0.18462686 -0.09704318
0.0013274617 -0.09520647 0.2276979 0.07520297 0.11498003 0.35692495 0.40703687 -0.016141912
-0.065550394 -0.07967703 -0.18338628 -0.20126681 0.15086119 -0.01406723 0.54046535 -0.07869848
0.23196769 -0.65609926 0.044175442 -0.47853017 -0.07900776 0.30354154 -0.1726574 -0.23564994
0.4289949 -0.10149182 0.44809443 -0.056153692 -0.044759866 0.036000837 0.48003715 -0.4308731
-0.37927192 0.73696697 -0.3497241 0.21437894 -0.17855196 -0.15953189 0.22726986 0.09927611
-0.540063 -0.434632 -0.40071926 -0.45999807 0.56194 -0.30884564 0.2842405 0.060037132
0.2746266 0.1258266 -0.5640427 -0.37101808 -0.3024823 0.32069114 0.38221782 -0.46799675
0.32609364 -0.61406016 0.5724439 -0.3096877 0.11195757 0.18421808 0.14380345 -0.40295368
-0.38232628 0.5985997 -0.26478317 -1.4642171 -0.74365497 -0.28288874 -0.3410911 0.018010003
-0.30014464 -0.0967849 -0.416195 -0.44136998 0.17193773 -0.2170803 0.34499583 0.23782589
0.177202 -0.4751639 -0.23596857 -1.2326639 -0.38487336 0.40934256 0.21432082 -0.22526972
-0.15306592 -0.21029766 0.43087667 0.012100908 0.024317954 -0.0050136903 0.5804059 -0.26959616
-0.2984635 0.12293374 -0.30318096 0.6507126 -0.3241544 -0.32913265 0.059989877 0.37239626
0.24209839 0.21944074 0.25309604 0.18134806 -0.18653196 0.2799454 0.10185416 0.06449506
-0.2572191 0.044649858 0.12464861 0.1040165 0.08481803 -0.07645838 -0.0867395 0.34868932
-0.7389416 0.3652576 -0.124010935 0.17447262 0.23284042 0.022252733 -0.31452113 0.21927594
-0.025098983 -0.18368728 0.21815321 0.06853258 -0.02509591 0.10802789 0.082856975 -0.24450713
-0.23552792 -0.26647878 -0.2826288 -0.3314699 0.25412613 -0.5348124 0.28977898 -0.04387998
0.14139557 0.049634926 -0.26383355 -0.14054069 -0.27718726 0.30225998 0.11945731 -0.21662514
-0.12302606 -0.30212304 0.23881608 -0.1472525 0.39221185 0.13664302 0.05091416 -0.38472065
-0.39840496 0.756271 -0.20362483 -0.35121688 -0.27868107 -0.38449055 -0.08281269 0.2553102
-0.12549585 0.047942664 -0.13846982 -0.06095569 0.2466958 -0.27242032 -0.038846523 0.14128965
-0.02329885 0.52554196 -0.20365337 0.01234606 -0.16274855 0.16793986 0.3095257 -0.0027905798
1.3512553 -0.34666532 0.1658551 -0.19035587 -0.15224221 -0.027289046 0.059729353 0.1549939
-0.0063045844 0.46235326 -0.0017880214 -0.89879566 -0.15420678 -0.11298382 0.0008532775 0.12911063
00000000: 24d0 11bd 2ecf 4fbe fa40 503c cd20 cd3d
00000010: 036e 19be 4dad 123e 5194 5a3e 34b9 86be
00000020: 8947 783c 8010 61be 0dcc 323e 3284 9bbe
00000030: 4402 e2be b320 663e 65b1 fcbd 3611 0dbe
00000040: 9b01 81bd f503 cb3e 95cd 67bd 3e04 c43d
00000050: 995a 03be 94f8 803e a645 45be ce93 1abe
00000060: 837b b3be d1ab d1bc e0b8 743d 75bc 453e
00000070: 6aff d03e b8ba f7bc 5277 ac3e ec68 b13d
00000080: 4736 443e c6a0 a73e c6d5 ae3e 6f54 fa3d
00000090: df65 f4bd 91a8 893d c4f9 983c f447 f1be
000000a0: b35f 9a3d 1c9f 7fbe 817c a53d ee71 213d
000000b0: b323 cbbd 6583 923d 316e 98be 2437 5f3e
000000c0: 99b8 d0bd 8442 003f 97d1 a1be 7803 983e
000000d0: bbf0 bebc 87f8 ac3b d30e 3d3e 93be c6bd
000000e0: 39fe ad3a 9cfb c2bd a329 693e 0404 9a3d
000000f0: a67a eb3d debe b63e 2367 d03e 0b3c 84bc
00000100: 493f 86bd b62d a3bd 9dc9 3bbe e318 4ebe
00000110: 5b7b 1a3e 3d7a 66bc f05b 0a3f ab2c a1bd
00000120: f088 6d3e 1ff6 27bf 4ff1 343d e801 f5be
00000130: d2ce a1bd cc69 9b3e 1acd 30be 384e 71be
00000140: 38a5 db3e f1da cfbd a26c e53e 6a01 66bd
00000150: 1f56 37bd 9d75 133d 6ec7 f53e 669b dcbe
00000160: ee2f c2be dea9 3c3f 0a0f b3be 2786 5b3e
00000170: 53d6 36be 545c 23be 6eb9 683e 4651 cb3d
00000180: 9241 0abf 1688 debe 132b cdbe de84 ebbe
00000190: 4ddb 0f3f 0421 9ebe f987 913e 7fe9 753d
000001a0: dc9b 8c3e b0d8 003e 1a65 10bf 15f6 bdbe
000001b0: f6de 9abe a131 a43e 0eb2 c33e 459d efbe
000001c0: bff5 a63e 0c33 1dbf af8b 123f 638f 9ebe
000001d0: 034a e53d aaa3 3c3e 3641 133e f24f cebe
000001e0: 45c0 c3be d43d 193f a991 87be 776b bbbf
000001f0: 2c60 3ebf cbd6 90be 7ea3 aebe b789 933c
00000200: 8fac 99be 2937 c6bd 8317 d5be 3ffb e1be
00000210: 7210 303e 4c4a 5ebe 4ba3 b03e a188 733e
00000220: 7174 353e af48 f3be bfa1 71be eec7 9dbf
00000230: 1f0e c5be 5995 d13e eb76 5b3e 1bad 66be
00000240: 50bd 1cbe 4558 57be de9b dc3e e342 463c
00000250: 7236 c73c e249 a4bb 7b95 143f 8208 8abe
00000260: 35d0 98be afc4 fb3d 893a 9bbe 1a95 263f
00000270: 91f7 a5be 1384 a8be f2b7 753d b9aa be3e
00000280: a4e8 773e 13b5 603e ce95 813e 4eb3 393e
00000290: 3c02 3fbe 0155 8f3e ea98 d03d fc15 843d
000002a0: 39b2 83be c5e2 363d c547 ff3d 9a06 d53d
000002b0: 13b5 ad3d 3696 9cbd 7ba4 b1bd 6887 b23e
000002c0: 472b 3dbf 0b03 bb3e 72f9 fdbd f3a8 323e
000002d0: b86d 6e3e 5d4b b63c ea08 a1be df89 603e
000002e0: 629c cdbc 8518 3cbe 8e63 5f3e cf5a 8c3d
000002f0: f095 cdbc ba3d dd3d ebb0 a93d 1460 7abe
00000300: 3b2e 71be e86f 88be b9b4 90be 6cb6 a9be
00000310: d21c 823e 77e9 08bf e95d 943e 7ebb 33bd
00000320: 00ca 103e fe4d 4b3d 3115 87be e6e9 0fbe
00000330: 7deb 8dbe d2c1 9a3e 09a6 f43d fbd2 5dbe
00000340: 16f5 fbbd dfaf 9abe 348c 743e 5cc9 16be
00000350: fecf c83e 26ec 0b3e 5e8b 503d 1bfa c4be
00000360: bcfb cbbe fa9a 413f 0783 50be b3d2 b3be
00000370: 49af 8ebe f2db c4be b399 a9bd 05b8 823e
00000380: fc81 00be 875f 443d 08cb 0dbe acac 79bd
00000390: d39d 7c3e ad7a 8bbe 881d 1fbd 3cae 103e
000003a0: 3bdd bebc eb89 063f 828a 50be 2147 4a3c
000003b0: 8ea7 26be 6df8 2b3e 277a 9e3e 29e2 36bb
000003c0: eff5 ac3f 1e7e b1be ebd5 293e a6ec 42be
000003d0: 62e5 1bbe 478d dfbc c4a6 743d b9b6 1e3e
000003e0: b096 cebb 91b9 ec3e 0b5c eaba 7917 66bf
000003f0: 62e8 1dbe 1064 e7bd 7cae 5f3a 9435 043e

rnn.weight_hh_l2 f4 [32, 32]
0.40116033 -0.05553721 -0.026048748 -0.5447225 -0.10200263 0.0550783 -0.42598465 -0.67988133
-0.45817235 -0.32347944 -0.06569864 0.12067922 0.2149161 0.46157703 0.019830083 0.21092483
0.2284833 0.22809814 0.13485968 -0.09894458 -0.07261821 -0.29457062 -0.23556694 -0.23564255
0.33360767 0.15988599 -0.1370924 0.22889388 0.20178857 0.39326072 -0.30256373 0.011713846
0.3545767 -0.11078378 0.3334645 -0.42125556 0.0034810568 0.280581 -0.20758647 -0.23941728
-0.2493668 -0.24814126 0.31213295 0.15514694 -0.27700233 0.33334723 0.11185292 -0.31127077
0.13978018 0.2635708 -0.10689615 0.035538364 0.026366191 0.08745226 -0.24032846 -0.1595108
0.33440796 0.034422144 0.31515235 0.07623629 0.23219308 0.056332015 0.078178845 0.2442195
-0.16542047 0.0012460712 -0.09721798 0.16906811 0.3987793 -0.16747837 0.3702364 -0.42928106
0.1473987 0.12610096 0.113441445 -1.2296754 -0.21639793 -0.12849581 -0.095201485 -0.37456146
-0.54098725 0.044343643 -0.01998275 -0.22613208 -0.067786716 0.2508293 -0.23723684 0.4776105
-0.26557463 0.14156681 0.3287414 -0.34408408 -0.37350208 -0.40691668 0.4447916 -0.56026757
-0.6192105 -0.6110541 0.26365757 1.0726641 0.087010965 -0.4601969 0.40048867 0.6288279
0.59939593 -0.004151852 -0.5878515 2.2173634 -0.10055995 -0.5166408 -0.6713645 -0.084149025
-0.56653273 -0.46446186 0.28743857 -0.06666703 -0.69364506 0.2898691 -0.44031787 0.1436432
-0.025690267 -0.43525976 0.23408493 -0.5252737 0.42897245 -0.08864314 0.043047857 -0.46551082
-0.08051271 -0.049950942 0.646932 0.5107621 -0.85171115 0.12096472 0.3545308 0.28630143
-0.120786026 0.22503355 -0.052002992 -1.4250817 -0.2814337 0.14640002 0.34443912 -0.3587917
-0.47331107 0.06816749 0.029339725 0.6345039 0.0980518 0.120232195 -0.16413446 0.61007875
-0.5832887 0.25327352 0.429494 -7.763534e-05 -0.3805474 -0.046178002 0.63607395 0.071010925
0.24283355 0.14901826 0.03886232 -0.26366726 -0.1811826 0.26628444 -0.3525075 -0.076934285
-0.4268877 -0.21597315 0.09214194 0.034514252 0.24119419 0.36407983 -0.10491258 -0.1625589
0.363437 0.17496954 -0.3259462 -0.5056751 0.016015368 -0.13470145 0.028821044 0.004109185
0.13782854 0.18977691 0.032031927 0.3280865 -0.009492196 0.13965651 -0.0069837086 0.30415115
-0.46648577 -0.36166665 0.10449487 0.27599448 -0.20247139 -0.3074737 -0.63654196 0.62636244
0.5294101 -0.033545643 -0.16164298 0.7318363 -0.31116718 -0.20034029 -0.046566404 0.067712806
-0.38917014 -0.3572399 0.4282129 -0.09283202 0.018565891 0.22775416 0.0036378102 0.0077609485
0.25370777 -0.39631006 -0.120839015 -0.076440684 0.60581595 0.23634559 -0.2926405 0.13855672
-0.20661297 -0.24239855 -0.31430817 0.24813841 0.21638122 -0.13728061 0.272577 -0.36427125
0.11085874 0.16720448 -0.03856416 -0.4429023 0.3503117 -0.23260488 -0.75612926 -0.063378625
-0.6100941 -0.2889917 0.19065829 0.55324703 -0.47746196 0.030835088 -0.13193105 0.13089691
-0.1771874 -0.13045482 -0.062829085 -0.07434995 -0.82296294 0.29894757 0.104246065 -0.67037946
00000000: e364 cd3e fc7a 63bd 2f64 d5bc ef72 0bbf
00000010: c1e6 d0bd c999 613d a91a dabe b40c 2ebf
00000020: 9195 eabe 199f a5be 028d 86bd ab26 f73d
00000030: f712 5c3e d353 ec3e b372 a23c aefc 573e
00000040: 87f7 693e 8f92 693e a818 0a3e 75a3 cabd
00000050: dbb8 94bd f6d1 96be 7638 71be 484c 71be
00000060: a0ce aa3e 27b9 233e f361 0cbe 2863 6a3e
00000070: aaa1 4e3e 7859 c93e a2e9 9abe 6eeb 3f3c
00000080: 148b b53e 9be2 e2bd dcbb aa3e cfae d7be
00000090: 7122 643b 50a8 8f3e 8c91 54be ce29 75be
000000a0: 035a 7fbe be18 7ebe e4cf 9f3e d7de 1e3e
000000b0: 40d3 8dbe 7dac aa3e 2513 e53d e25e 9fbe
000000c0: 8922 0f3e c0f2 863e 5eec dabd ad90 113d
000000d0: e9fd d73c 2c1a b33d aa18 76be cd56 23be
000000e0: 8537 ab3e 3cfe 0c3d a65b a13e c621 9c3d
000000f0: 06c4 6d3e 66bc 663d 3b1c a03d ad14 7a3e
00000100: fc63 29be 3653 a33a 381a c7bd 3120 2d3e
00000110: cd2c cc3e 737f 2bbe a08f bd3e baca dbbe
00000120: afef 163e 9c20 013e fd53 e83d 0166 9dbf
00000130: 6b97 5dbe 6894 03be fff8 c2bd 85c6 bfbe
00000140: 247e 0abf aea1 353d ddb2 a3bc 2b8f 67be
00000150: c3d3 8abd b36c 803e 37ee 72be 5d89 f43e
00000160: 66f9 87be e4f6 103e cb50 a83e ca2b b0be
00000170: aa3b bfbe 6257 d0be b9bb e33e b26d 0fbf
00000180: 9484 1ebf 0b6e 1cbf 20fe 863e 0f4d 893f
00000190: ce32 b23d ee9e ebbe da0c cd3e defa 203f
000001a0: 0372 193f 420c 88bb 707d 16bf 48e9 0d40
000001b0: 60f2 cdbd 9242 04bf 8bde 2bbf 5356 acbd
000001c0: 4a08 11bf f2cd edbe 262b 933e b988 88bd
000001d0: b992 31bf b969 943e 5871 e1be 3417 133e
000001e0: 6574 d2bc 5eda debe f6b3 6f3e 5678 06bf
000001f0: 47a2 db3e 898a b5bd f352 303d 6f57 eebe
00000200: d9e3 a4bd 5c99 4cbd 569d 253f 4ec1 023f
00000210: be09 5abf 5abc f73d 1085 b53e 1a96 923e
00000220: aa5e f7bd 326f 663e 1701 55bd 1469 b6bf
00000230: 1418 90be e3e9 153e 535a b03e 8cb3 b7be
00000240: d455 f2be 669b 8b3d dd59 f03c d96e 223f
00000250: 62cf c83d 4c3c f63d dd12 28be 1f2e 1c3f
00000260: 6952 15bf 11ad 813e a3e6 db3e 28d0 a2b8
00000270: 1cd7 c2be 2525 3dbd bed5 223f 2d6e 913d
00000280: 5ca9 783e 3e98 183e 192e 1f3d 65ff 86be
00000290: ee87 39be 6f56 883e dd7b b4be b98f 9dbd
000002a0: 0691 dabe 1128 5dbe eab4 bc3d d15e 0d3d
000002b0: 9cfb 763e ac68 ba3e 68dc d6bd d775 26be
000002c0: 6a14 ba3e 372b 333e 6ce2 a6be ec73 01bf
000002d0: a932 833c 2def 09be 1c1a ec3c 58a6 863b
000002e0: ed22 0d3e e154 423e e933 033d f4fa a73e
000002f0: 2885 1bbc 1e02 0f3e 98d7 e4bb b3b9 9b3e
00000300: 39d7 eebe 5f2c b9be 6801 d63d 264f 8d3e
00000310: a954 4fbe 316d 9dbe 6af4 22bf 4a59 203f
00000320: 6c87 073f 2867 09bd bd85 25be a059 3b3f
00000330: 4e51 9fbe 0126 4dbe 6abc 3ebd 03ad 8a3d
00000340: 4f41 c7be 26e8 b6be b93e db3e b71e bebd
00000350: 7f17 983c 6338 693e 5468 6e3b 8e4f fe3b
00000360: fce5 813e 27e9 cabe 727a f7bd ef8c 9cbd
00000370: c116 1b3f 9404 723e fad4 95be d0e1 0d3e
00000380: 5a92 53be 5337 78be 00ed a0be ff17 7e3e
00000390: 0a93 5d3e 4a93 0cbe 368f 8b3e c381 babe
000003a0: e809 e33d a737 2b3e 74f5 1dbd 17c4 e2be
000003b0: 0e5c b33e f92f 6ebe b091 41bf a7cc 81bd
000003c0: 202f 1cbf b8f6 93be ed3b 433e 99a1 0d3f
000003d0: e575 f4be de99 fc3c ef18 07be d709 063e
000003e0: 9d70 35be f395 05be 89ac 80bd c944 98bd
000003f0: b3ad 52bf a80f 993e f67e d53d fd9d 2bbf

rnn.bias_ih_l2 f4 [32]
-0.44236812 -0.446755 -0.14132842 0.26949936 0.09785503 -0.40641618 0.11406985 0.37558854
0.24785846 0.059737436 -0.16823506 0.22396934 -0.37985152 -0.6042163 0.2915319 0.14519754
-0.0037115125 -0.42443606 0.37756085 0.33867434 -0.26355729 0.0154424915 -0.09665484 0.117278896
-0.062822774 -0.604385 0.391938 -0.10014292 0.5237637 0.2450977 0.07367316 0.180614
00000000: 137e e2be 12bd e4be 66b8 10be d2fb 893e
00000010: 3868 c83d c815 d0be 749d e93d 244d c03e
00000020: 9cce 7d3e 3eaf 743d d045 2cbe 3858 653e
00000030: e67b c2be ebad 1abf ab43 953e aaae 143e
00000040: d93c 73bb af4f d9be a84f c13e b966 ad3e
00000050: fbf0 86be 8102 7d3c f9f2 c5bd eb2f f03d
00000060: 3aa9 80bd fab8 1abf 19ac c83e bb17 cdbd
00000070: 6115 063f e4fa 7a3e f4e1 963d e0f2 383e

rnn.bias_hh_l2 f4 [32]
-0.51814926 -0.4583938 0.03264205 0.1846983 -0.05828292 -0.32693386 0.09754996 0.18745242
0.40941972 -0.07258444 -0.08026416 0.3215363 -0.44154462 -0.44906273 0.31712893 0.14429748
0.036859974 -0.5316542 0.1653502 0.032936323 -0.24015717 0.15602465 -0.35775942 0.12003472
-0.007151302 -0.65924555 0.18879534 0.14642219 0.32396653 0.23439391 -0.10935262 0.06961228
00000000: 6ea5 04bf 98b2 eabe acb3 053d 8d21 3d3e
00000010: 12ba 6ebd e063 a7be 46c8 c73d 87f3 3f3e
00000020: 769f d13e 27a7 94bd 8961 a4bd 68a0 a43e
00000030: 2312 e2be 8deb e5be b95e a23e b8c2 133e
00000040: 7cfa 163d 7d1a 08bf 9051 293e 3de8 063d
00000050: c3eb 75be edc4 1f3e 3e2c b7be c3d4 f53d
00000060: 7855 eabb 51c4 28bf 9153 413e b3ef 153e
00000070: f1de a53e f504 703e 44f4 dfbd e290 8e3d

fc.weight f4 [2, 32]
0.12490516 0.008588542 -0.03889181 0.014784047 -0.05302424 0.057242796 -0.025131665 0.119779475
-0.17998908 0.006632372 -0.11579197 0.5217302 0.027211532 0.05189209 0.06729823 -0.1195869
0.08922467 -0.068310775 0.083950624 -0.15086211 -0.20523559 -0.11082219 -0.024303213 -0.017759288
0.034111694 0.070734456 0.15596394 -0.081198394 0.08722786 0.15528622 0.02583786 0.13894157
0.15567125 0.0069489717 -0.062703274 0.023798568 -0.055025745 -0.12405108 -0.046651423 0.120970346
0.06028257 0.0039232303 0.0037779422 0.5295418 -0.01080232 0.041748144 0.0660163 -0.07712298
0.07725844 0.09988474 0.032527905 -0.12522823 -0.21157692 -0.046702895 -0.041014712 -0.015036964
0.06956182 0.06618917 0.15171057 -0.07232492 0.08123091 0.1564288 0.024309456 0.14364007
00000000: 47ce ff3d f5b6 0c3c 054d 1fbd ca38 723c
00000010: f22f 59bd 6c77 6a3d ece0 cdbc f14e f53d
00000020: 0f4f 38be 5e54 d93b 5724 edbd 1c90 053f
00000030: b8ea de3c cd8c 543d a8d3 893d fae9 f4bd
00000040: 6cbb b63d 85e6 8bbd 4eee ab3d 997b 1abe
00000050: 4729 52be bff6 e2bd 8817 c7bc ed7b 91bc
00000060: b4b8 0b3d 3add 903d 03b5 1f3e 584b a6bd
00000070: 85a4 b23d 5a03 1f3e eba9 d33c b346 0e3e
00000080: 4968 1f3e 33b4 e33b 936a 80bd 37f5 c23c
00000090: ad62 61bd 7e0e febd 9015 3fbd 4dbf f73d
000000a0: dbea 763d 718e 803b 5a97 773b 0d90 073f
000000b0: 37fc 30bc 1a00 2b3d 8e33 873d a7f2 9dbd
000000c0: ac39 9e3d 5f90 cc3d fb3b 053d d43b 00be
000000d0: 9fa7 58be 894b 3fbd 0bff 27bd 995d 76bc
000000e0: 6d76 8e3d 308e 873d 045a 1b3e 161f 94bd
000000f0: 645c a63d df2e 203e a024 c73c 6216 133e

fc.bias f4 [2]
-0.10428916 -0.23252437
00000000: 8e95 d5bd de1a 6ebe
