Networks/IOTX-EUR/askSeed0.pt (torch, 33123 bytes, 9 tensors)

rnn.weight_ih_l0 f4 [50, 1]
000000 27 84 9c bc 02 3c cd bf 86 30 64 3f b4 a6 49 bf
       -0.019105984 -1.6033938 0.8913654 -0.78769994
000010 26 22 55 be 60 67 e9 3f a9 97 cf 3d 51 6e fb bd
       -0.20813808 1.8234673 0.10136349 -0.122769006
000020 1e 94 f7 bf d8 fd 30 3f 8a fd 33 3f 84 2c 5e be
       -1.9342077 0.69137335 0.70308745 -0.21696669
000030 ee b2 a2 c0 af 2d 04 3f 8a a3 d1 bf 07 1e d7 3e
       -5.084342 0.5163221 -1.6378033 0.42015097
000040 ca 05 54 3f b4 85 94 3f 0f 9e a7 c0 66 93 6c 3e
       0.82821333 1.1603303 -5.2380443 0.23103103
000050 f2 b3 25 3f 34 a4 21 bf 65 ba 82 3f 3f 11 ba bf
       0.647277 -0.6314118 1.0213133 -1.4536513
000060 a8 e3 e2 be 9d 21 72 3e ce 8f 70 40 16 16 e6 3e
       -0.44314313 0.23645635 3.7587771 0.44938725
000070 f5 89 00 bf 93 31 05 40 b6 c5 ca 3d b7 d5 91 3e
       -0.50210506 2.0811508 0.099009916 0.28483364
000080 77 63 60 be aa 6e e9 bd 40 ce 30 40 16 da 78 be
       -0.21912943 -0.113980606 2.7625885 -0.24301943
000090 79 31 d0 40 37 b1 44 bf 75 96 12 c0 93 92 61 c0
       6.506039 -0.7683291 -2.2904332 -3.5245712
0000a0 21 b5 bd 3c 79 7c 14 bf 49 de 8d c0 b7 c4 0b be
       0.023157658 -0.5800243 -4.4333844 -0.1364926
0000b0 85 97 6f bf 4e c6 a7 3d 51 00 d8 bb 01 30 0c bf
       -0.93590575 0.081921205 -0.0065918346 -0.5476075
0000c0 43 7b 88 3e 59 8b 3c c0
       0.2665654 -2.946005

rnn.weight_hh_l0 f4 [50, 50]
000000 05 25 3a 3e 96 3b fb be 5f 6b 06 3f 07 a6 8e 3e
       0.18178184 -0.49068898 0.52507585 0.27861044
000010 2c 5b bc 3d fb 6c 02 bf 7e f6 3e bd c4 91 f8 3e
       0.09197077 -0.5094754 -0.046621792 0.4854871
000020 1c fe e7 bb fa 31 9e be dd af dc bc c8 96 02 3e
       -0.0070798527 -0.30897504 -0.026939327 0.12752831
000030 ec 04 46 be 84 15 25 bd 96 97 fb be f3 dc 23 3d
       -0.19337815 -0.040303722 -0.49139088 0.040005635
000040 3a 2d 8c 3e eb cd 5d 3f 15 80 3b bf 69 a9 47 be
       0.27378255 0.8664233 -0.7324231 -0.19498219
000050 34 e2 e0 be 52 2a 55 3e b5 9c 7e 3c 7d 47 c8 be
       -0.4392258 0.20816925 0.015540292 -0.3911704
000060 f1 b4 a1 bd ee c2 bc be c1 e1 f5 bd c4 9f 36 3c
       -0.0789584 -0.3686747 -0.1200595 0.0111464895
000070 c4 e4 15 be f2 a5 33 bf b5 4a a5 3e 04 c3 c5 bc
       -0.14638048 -0.7017509 0.3228356 -0.024140842
000080 9f 1f 7f be b3 b1 5d 3a b4 08 41 3e 6e ff a0 bd
       -0.24914406 0.000845696 0.18850976 -0.07861219
000090 09 55 25 3f 47 ae 26 bf 62 60 6c 3e 2a 59 23 bf
       0.6458288 -0.65109676 0.23083642 -0.6380793
0000a0 9a e4 97 b9 c8 c0 bb 3d c9 42 0a bf b2 28 c2 bd
       -0.00028971286 0.091676295 -0.54008156 -0.09480418
0000b0 02 ac 18 bf a2 d4 81 3e 8e 5a eb be c0 71 1b bf
       -0.59637463 0.25357538 -0.45967525 -0.60720444
0000c0 9e c1 68 3d e6 84 a7 be 97 17 08 3e 90 7d fd 3e
       0.056825273 -0.3271858 0.13290249 0.4950986
0000d0 37 70 d2 3d cd 28 94 3f 3b a8 87 3f b1 c0 a6 be
       0.102753095 1.1574951 1.0598215 -0.32568887
0000e0 be d7 ec 3e 6e 6d 2c 3f 42 60 93 3e 99 de 85 bd
       0.46258348 0.67354476 0.28784376 -0.06536598
0000f0 0e 15 a2 be 38 1e 41 be 25 16 cb bd 29 78 9d be
       -0.31656688 -0.18859184 -0.09916333 -0.30755737
000100 94 9c ac 3b fe 85 82 be e3 e9 47 3e 3a 7e 8c be
       0.005267689 -0.25492853 0.19522814 -0.27440053
000110 9d 8a 8e 3e d4 e5 cf bd 78 4b ee 3e 67 73 6f 3d
       0.2784013 -0.10151258 0.46541953 0.058459666
000120 d8 a5 a6 bf ba 2c 74 bf 4c 5f 95 be 6a c0 42 bc
       -1.3019361 -0.9538075 -0.29174268 -0.011886695
000130 b1 65 bb 3e bd ee 7c 3f f1 9b 72 3e b7 01 35 3e
       0.36601022 0.98801786 0.236923 0.17676435
000140 03 50 10 be 23 49 5a be 1e 4c 31 3d 14 af 2a be
       -0.14093022 -0.21316962 0.04328548 -0.1666835
000150 00 a5 21 3f 38 76 bb be f5 db 8b be 85 19 91 bd
       0.63142395 -0.3661363 -0.2731625 -0.070849456
000160 1f 49 d1 bd 7c 30 57 bf 62 89 1a be cd 45 19 bf
       -0.10219025 -0.84058356 -0.1509147 -0.5987213
000170 5d 65 d2 be f4 64 55 be 1c fa 00 3f 86 a4 92 3d
       -0.4109296 -0.20839292 0.50381637 0.071602866
000180 f6 07 a6 bd af 39 de 3e 78 1d 90 3f 32 ac 9d bf
       -0.08106987 0.43403384 1.1258993 -1.2318175
000190 0b ec 47 bc 88 c8 a5 bd 04 24 71 be f2 e2 85 be
       -0.012202273 -0.08094889 -0.23548895 -0.26149708
0001a0 23 f5 b8 be 12 64 3d be b7 8a 02 bf 27 7b 29 3e
       -0.36124524 -0.18495205 -0.5099291 0.16550885
0001b0 56 75 8e be 8b 6f c9 bd e2 4e ec 3e 41 89 65 3f
       -0.27823895 -0.09835728 0.46153933 0.8966256
0001c0 39 70 80 3e 59 17 15 3f 76 c5 50 be a7 e7 0d 3f
       0.2508562 0.5823875 -0.20387825 0.554316
0001d0 94 aa db bd 7f 3a e1 3e 7b 86 ed be 44 5c a3 3e
       -0.107258946 0.4398994 -0.46391663 0.3190633
0001e0 c1 72 5d be 7d 41 84 be 40 f7 37 3f 43 c5 96 3e
       -0.21625806 -0.25831214 0.7186165 0.29447374
0001f0 8d 1b 0f 3f b4 14 77 3c f9 86 0f bf 6c cf fc be
       0.55901414 0.01508062 -0.56065327 -0.49377
000200 01 11 44 bd 0a 36 62 bd 35 5f d5 3a 12 6e da 3e
       -0.04786778 -0.055227317 0.0016278984 0.42662102
000210 ae 5b 39 3e 99 eb e4 3e 26 7e c9 be c9 26 34 3f
       0.1810138 0.44710997 -0.39354056 0.7037168
000220 f2 31 6d 3e d9 3d 84 be ec c0 ab be da 42 1f 3d
       0.23163584 -0.25828436 -0.33545625 0.038882114
000230 90 92 b6 3e ce d1 e4 3e d1 91 68 3e 00 a6 e9 3e
       0.35658693 0.44691318 0.22711875 0.4563446
000240 fe db aa be 20 7d bc be 26 e4 db 3d 31 a2 9b be
       -0.33370966 -0.36814213 0.10736875 -0.3039718
000250 22 d3 d2 be 3f e7 6d bd 52 04 3f bf b9 b0 0f 3f
       -0.41176707 -0.05808186 -0.7461597 0.5612903
000260 d8 92 bb 3d 7e a5 29 bf 44 b0 94 bd 63 f0 20 3e
       0.091588676 -0.66268146 -0.072601825 0.157167
000270 9d f1 dd bb 01 83 33 bf aa 43 90 bf 95 77 20 3f
       -0.0067731873 -0.7012177 -1.127065 0.6268247
000280 53 95 71 3e e0 a6 b9 3e c1 8d 30 bf 25 38 00 3f
       0.23592119 0.36260128 -0.689663 0.5008567
000290 af a6 6f 3f f6 59 e8 bd 62 6b c8 bc 45 14 0b bd
       0.93613714 -0.11345284 -0.024465267 -0.033954877
0002a0 d3 c6 2f 3e a0 8f 97 bd ac 54 93 3f a7 d5 26 be
       0.17165689 -0.07400441 1.1510215 -0.1629244
0002b0 a7 98 4f be ce 20 af be ac ad 16 3d 5c 30 2b 3f
       -0.20273076 -0.34204715 0.03678672 0.66870666
0002c0 5a 3b d7 3e 70 29 02 3d 09 d4 87 bf 17 9a 39 3f
       0.4203747 0.0317778 -1.0611583 0.7250075
0002d0 a0 f0 25 3e 2b 5a 24 3f 49 99 20 3f cc 9f 72 be
       0.16205072 0.64200085 0.62733895 -0.2369377
0002e0 bf 8a d6 bd d6 c8 59 bd 14 af c7 3d b6 9b 2c 3f
       -0.104756825 -0.053170048 0.097501904 0.67425096
0002f0 0d c8 8a 3e 55 aa 87 3e 54 a4 23 be a3 73 0d bd
       0.27105752 0.2649714 -0.15980655 -0.034534108
000300 60 b1 7a be 3a 29 ea bc a9 eb bf bd 04 a1 ed be
       -0.24481726 -0.028584111 -0.093711205 -0.46411908
000310 57 c4 66 3d 04 d2 6b bd 46 96 9a 3c 95 34 e0 bc
       0.056339588 -0.057573333 0.018870484 -0.027368823
000320 e5 78 ed be 0a 95 4b 3f c2 52 9f be d9 f6 13 bf
       -0.46381298 0.7952429 -0.31117827 -0.57798535
000330 67 d6 bd be e0 fd 09 3f 0f a6 d8 bd 9a 63 0d bf
       -0.37077639 0.5390301 -0.10578548 -0.55230105
000340 16 ad 33 bf 49 32 2b 3f 39 c6 3d 3e 7d e9 85 3e
       -0.70185983 0.66873604 0.18532647 0.261547
000350 d5 74 25 bd 83 83 eb 3d 8e b1 19 3f 6a bd 62 3e
       -0.040394623 0.11499693 0.6003655 0.22142568
000360 48 b4 93 3d c8 46 55 bd 8e 44 a7 bc 82 62 a0 3d
       0.0721212 -0.052069455 -0.020418432 0.07831289
000370 66 5e 7b 3f 68 11 b7 bd 52 33 be be de ee 81 be
       0.98190916 -0.08938867 -0.3714853 -0.25377554
000380 0c 23 e5 3e 51 94 4a 3f 2d 37 41 be 62 c5 16 bd
       0.447533 0.7913256 -0.18868704 -0.036809333
000390 e6 98 c9 be 2a a7 24 3f 25 32 e3 be 50 1f f9 3e
       -0.39374465 0.6431757 -0.44374195 0.48656702
0003a0 1b dc 5b 3f 99 6c 2b 3e 20 e3 6b be 41 9d 34 bd
       0.8588273 0.16740645 -0.2303586 -0.04409528
0003b0 5f df 36 bd a9 98 1e 3f 6f 1e 87 3d e5 53 28 3f
       -0.044646617 0.6195169 0.065976016 0.6575301
0003c0 5f 20 94 3e 42 ab 0f 3e f7 9c 8e 3d 50 f2 72 3e
       0.28930947 0.14030173 0.069635324 0.23725247
0003d0 88 18 91 3d a4 4b 51 be 03 13 20 3f 94 01 a6 3c
       0.07084757 -0.20439011 0.6252901 0.020264424
0003e0 7d bd ce bd a7 03 e3 3e 3b c4 82 3e 9d 70 b8 be
       -0.10094736 0.44338724 0.25540337 -0.36023417
0003f0 b4 2a 17 3e 53 5d ac 3e b5 49 04 3e e1 40 0c bf
       0.14762384 0.3366495 0.12918742 -0.547865

rnn.bias_ih_l0 f4 [50]
000000 0e 70 cf 3d af 99 a6 be 97 34 30 bf 67 7f 8c ba
       0.101287946 -0.32539126 -0.68830246 -0.0010719121
000010 9a 8d f1 be 70 9b 0c 3f a6 a2 83 bf df 48 92 3e
       -0.47178346 0.5492468 -1.0284011 0.2857122
000020 b6 80 2f 3d 78 e4 9d be 42 aa cc 3e 49 00 ed 3e
       0.042847358 -0.3083837 0.39973646 0.4628928
000030 d5 57 d6 3a da a8 74 be b9 f3 e8 be d9 26 8c 3f
       0.001635308 -0.23892537 -0.45498446 1.0949355
000040 17 4d ab 3c 21 33 ce 3f f4 ff e5 bd 0b e6 29 3e
       0.020910783 1.6109353 -0.1123046 0.1659166
000050 10 c3 51 bf 67 a4 75 3e 29 8f 97 3e cd fe ff 3e
       -0.81938267 0.23988496 0.2960141 0.49999085
000060 9d a1 5c 3e 10 cb bc be 86 6b 33 be 0a 65 f5 be
       0.21546026 -0.36873674 -0.17521486 -0.4792865
000070 9f f1 2e 3f e3 e7 f9 3d bd 72 be bd d3 39 f4 be
       0.68337435 0.12202432 -0.09299228 -0.47700366
000080 5c 3d 28 be e1 73 df 3e 6c 5e 44 bf 5d f8 75 3f
       -0.16429657 0.43643096 -0.76706576 0.960821
000090 fd 31 04 3f c1 58 a1 be 6e 76 2b be 88 c1 62 be
       0.51638776 -0.31513026 -0.16744396 -0.22144139
0000a0 36 47 3f 3f f3 7f 0f 3f ea 22 78 bf 6e 6d c0 3e
       0.74718034 0.5605461 -0.96928275 0.37583488
0000b0 86 5d f3 be 01 29 92 3e 05 21 05 be 12 39 91 3e
       -0.4753229 0.28546908 -0.13000877 0.28363854
0000c0 24 24 ce be 87 43 19 be
       -0.40261948 -0.14967166

rnn.bias_hh_l0 f4 [50]
000000 2f 8e 8f 3e 90 fb 76 be be a7 28 bf a7 0d 28 be
       0.28038165 -0.24119401 -0.65880954 -0.16411458
000010 1c 6c b1 be 54 e7 1f 3f 9f d9 78 bf d7 67 83 3e
       -0.34652793 0.62462354 -0.97207063 0.2566516
000020 60 f6 65 3e 20 27 85 be b4 e5 99 3e 5d fe b8 3e
       0.22457266 -0.26006413 0.30058062 0.36131564
000030 93 86 44 bd af 6a bb be c5 3b 0a bf 80 9a 74 3f
       -0.047979902 -0.3660483 -0.5399745 0.9554825
000040 59 46 03 3e 04 3b d1 3f 97 9a 39 be 26 57 0a 3e
       0.12819804 1.6346135 -0.18125378 0.13509807
000050 44 ac 68 bf 0f eb 0b 3e b1 06 c6 3e a8 4a a0 3e
       -0.90887856 0.13663886 0.3867698 0.31306958
000060 69 13 7d 3e e3 9f 00 bf 1f bb 56 3b 79 05 b2 be
       0.24714436 -0.5024397 0.0032765341 -0.347698
000070 04 27 1e 3f e5 32 8e 3e bb 40 79 be 08 e8 7f be
       0.61778283 0.27773204 -0.24341099 -0.24990857
000080 52 94 27 be fd b2 9c 3e be f5 40 bf 2d 9a 70 3f
       -0.16365173 0.30605307 -0.7537497 0.93985254
000090 7c 5d 23 3f 11 68 4c be f3 fd 96 be ff d5 9e be
       0.6381452 -0.19961573 -0.29490623 -0.3102264
0000a0 22 84 29 3f da 50 32 3f f4 4a 98 bf 7c f9 0e 3f
       0.66217244 0.6965462 -1.1897874 0.5584943
0000b0 ab f8 1e bf af 10 5e 3e 1a a7 22 be 87 cf c9 3d
       -0.6209819 0.21686052 -0.15884057 0.09854036
0000c0 00 c9 ad be 4f 5c 2b be
       -0.33942413 -0.16734432

rnn.weight_ih_l1 f4 [50, 50]
000000 2c 39 e2 bd 3d b1 42 3e 37 b6 6d bd 07 3d 23 3d
       -0.11046061 0.19012924 -0.0580351 0.039853122
000010 cb 75 06 be db 20 62 3b 93 b8 3c 3d 5d 5d 9e 3e
       -0.13130872 0.0034504447 0.04607446 0.30930606
000020 0e 52 88 3e 0b b9 25 3e 32 c0 a3 3c be 40 6c 3e
       0.26625103 0.1618387 0.019989107 0.23071572
000030 c3 64 f4 bd 88 fa 42 be 0f 27 53 be 70 3d 7f bd
       -0.11933281 -0.19040883 -0.20620368 -0.06231445
000040 76 b6 04 3f b4 de cc bd c2 56 e6 bd 22 1e e4 3d
       0.51840913 -0.10003415 -0.112470165 0.1113856
000050 48 4f 64 3e 80 a1 d3 bd 92 31 81 be 59 d4 a9 bd
       0.22295868 -0.10333538 -0.25233132 -0.08292455
000060 5d 67 b8 3d 38 aa 80 bd 34 cd f5 3c 5c 7b bc 3e
       0.0900409 -0.06282467 0.030005075 0.36812866
000070 16 32 cf bd 77 0a 93 3e 92 98 b5 3c 9b 2f a4 3d
       -0.10116975 0.28718922 0.022167478 0.080168925
000080 43 88 0a 3e 33 07 e9 bd ce 52 b0 3d 3d 5a cd 3d
       0.13528542 -0.11378326 0.08609544 0.10026977
000090 05 c4 2f 3f 60 b9 a0 be a8 4e 95 3e 7a 14 75 3d
       0.6865848 -0.3139143 0.29161572 0.05983398
0000a0 84 7d d1 3d 34 18 8e 3e 7e f5 fb bd 50 79 93 3d
       0.10229018 0.2775284 -0.12302683 0.07200873
0000b0 ee d2 8d 3b 4e ce 00 3d 0f dd 6f 3d 5b 80 f3 bd
       0.0043281233 0.031446747 0.058560427 -0.11889716
0000c0 d9 3b 4c be 79 5d ce be be d5 22 3f 9f 42 b7 be
       -0.19944705 -0.4030569 0.63607395 -0.35793015
0000d0 81 54 03 3f ab bc ed 3e 6b a7 ff 3e 0c 7d 7a 3e
       0.5130082 0.46433005 0.49932417 0.24461764
0000e0 ec bd c3 3e 48 46 94 3e db 39 11 3f 3d e8 d1 be
       0.38230836 0.2895987 0.56728905 -0.40997496
0000f0 e0 89 b2 be 25 5f 85 be 67 85 f8 3e 24 b1 70 be
       -0.34870815 -0.26049152 0.48539278 -0.23505074
000100 19 4f 20 be 0b a4 e4 be a8 48 8d bf 5b 89 af be
       -0.15655173 -0.44656405 -1.1037798 -0.3428448
000110 44 88 a6 3e 41 8a 6e be a4 5e c1 be 95 a4 93 bd
       0.32525837 -0.23294927 -0.37767518 -0.07209126
000120 c6 94 01 3f 7a c3 8c 3e 7b 37 9e be fb 91 ec be
       0.50617635 0.27492887 -0.30901703 -0.46205124
000130 32 ce 3f 3e 18 7f 2e 3e e9 05 84 be c7 72 6f bf
       0.18731001 0.1704067 -0.2578576 -0.9353451
000140 71 e6 95 3d 8b 6b e0 bd 9d 33 db be 7e f7 9f be
       0.07319344 -0.10958012 -0.42812815 -0.3124351
000150 fa 16 6a 3c ca d8 33 be 5f 48 02 bf 7a 65 d2 3e
       0.014287705 -0.17563167 -0.5089168 0.41093045
000160 bb 5b c2 bd 17 b3 94 be 4b 7f fe be 38 ac f4 be
       -0.094901524 -0.29042885 -0.49706492 -0.47787642
000170 fd 12 19 3f 65 29 13 bf fa 05 c7 3d 0d 72 c1 be
       0.597946 -0.5748504 0.09717937 -0.37782326
000180 ed 8d e3 be 2d 8a 09 3f 9a 31 c7 3f 1b 4c 63 3f
       -0.44444218 0.53726465 1.5562012 0.88788
000190 45 45 25 be 0f db 8b 3d 8d 3f 2f be fa fe 99 be
       -0.16139705 0.068288915 -0.17114086 -0.30077344
0001a0 b0 f2 c0 bd 49 e3 5e be d3 0f a2 bd d3 10 94 be
       -0.09421289 -0.2176639 -0.079131745 -0.28919086
0001b0 76 38 1b 3f 26 30 67 3d 74 e7 38 3e f6 49 73 3e
       0.6063303 0.056442402 0.18057042 0.23758683
0001c0 bc 2e 0a 3f d8 6b e7 3d 18 48 db 3e 96 31 a1 3d
       0.5397756 0.112998664 0.4282844 0.07870786
0001d0 50 b4 cb 3d f9 28 b4 3e 88 5f 96 be bd d7 0a 3e
       0.09946501 0.3518751 -0.2936976 0.1355886
0001e0 5b 9a e9 3d a7 fd 35 be 6e 39 73 bf 06 b3 86 3e
       0.11406394 -0.17772542 -0.95009506 0.2630846
0001f0 bd 3b 6c 3e fc 5c 62 3e f4 d6 a3 be a9 b5 71 be
       0.23069663 0.22105783 -0.31999934 -0.23604454
000200 a5 4f 97 be ad b7 f5 3d 27 51 ce be 6b 1a 95 3e
       -0.2955295 0.11997924 -0.4029629 0.29121718
000210 86 4d ab 3e 84 61 df 3d af f4 af be e2 96 5f 3e
       0.33457583 0.109072715 -0.34366366 0.21834901
000220 36 67 11 be 37 76 5e 3e 85 e4 fd bd 5f 50 c2 3e
       -0.14199528 0.21724783 -0.12397102 0.37951943
000230 31 de 55 3e 79 41 c3 3d 50 3f 05 3f cb 92 a8 3e
       0.2088554 0.09533972 0.5204973 0.32924494
000240 ec 25 27 be 96 e7 68 be bf 11 5f 3e f7 d0 82 bd
       -0.1632306 -0.22744593 0.21784113 -0.06387513
000250 49 9d 38 be 0d b9 df 3d c4 44 6a 3d ad 43 e1 bb
       -0.1802875 0.109239675 0.057194486 -0.0068745227
000260 5e 09 69 3d c5 0b c0 3e ef 1b 8d 3e 29 c2 b3 be
       0.0568937 0.3750898 0.27560374 -0.3510907
000270 00 1e 87 3e d0 04 cb 3e 7b f8 62 3e 7b 61 4e 3b
       0.26390076 0.3965211 0.221651 0.0031491208
000280 a2 56 46 3c 86 13 a8 bd eb 1d 83 3d be af 94 bc
       0.012105616 -0.08206849 0.06402191 -0.018150207
000290 ff 8b 51 be ba 33 6e 3a 36 7d 2c 3e bb 71 45 bd
       -0.2046356 0.00090866874 0.16844639 -0.048204165
0002a0 03 a8 cc 3d e5 d5 97 bd 2a 7c 63 bd 40 6c 55 3c
       0.09992983 -0.07413844 -0.055538334 0.013026297
0002b0 42 b9 93 3d 29 db e9 bd 29 1b 46 be 4e 82 a4 3e
       0.072130695 -0.114187546 -0.19346298 0.32130665
0002c0 ff 03 74 3e 82 dc 13 3d ed 0e 4c 3e fd 4d 76 be
       0.2382965 0.036098965 0.19927569 -0.24053188
0002d0 00 5e a9 bd c0 08 8b be 7c a5 e9 bd e9 f3 db bd
       -0.08269882 -0.27155113 -0.11408517 -0.107398815
0002e0 dd f8 74 3e b3 28 e9 bc ce 2e 4f 3d cc 07 d2 bd
       0.23923059 -0.02846179 0.050581746 -0.102553934
0002f0 e1 f6 b8 3d 72 ea 95 be 6b 8e b4 bd a4 2b 60 bd
       0.090314634 -0.2928043 -0.088162266 -0.05472912
000300 fd be 70 bd c7 be 8c bd 53 a4 d8 be 24 63 18 3e
       -0.05877589 -0.068723254 -0.4231287 0.14881569
000310 c9 68 05 be 1a cb 2f bc 9b 13 61 3e 5e 15 e0 3e
       -0.13028254 -0.0107295755 0.21980135 0.43766302
000320 ce 4d 08 be 07 b4 84 3e 4f e2 69 be 7f 5d 75 bc
       -0.1331093 0.259186 -0.22840236 -0.0149759045
000330 53 05 ca bd 8b 2b e8 bd ba ad c4 be 81 47 a6 be
       -0.09864297 -0.1133643 -0.38413793 -0.32476428
000340 b2 22 a5 3e 14 fe ae 3e 97 a0 60 3d de 72 95 3e
       0.32253033 0.3417822 0.05484065 0.291892
000350 fd 00 41 3c 75 f0 e5 3e b7 78 36 3f 93 1a e2 3d
       0.011780021 0.44910017 0.71277946 0.11040225
000360 d4 d5 9d bd 66 e1 9e 3e 88 27 e0 bd d8 f0 ca 3d
       -0.077068 0.3103134 -0.1094504 0.099092185
000370 9a 6f 91 3e f4 0d 1c bc af 94 b9 3e 91 d2 8b 3e
       0.28405458 -0.009524811 0.3624625 0.27309087
000380 51 65 2e 3e d5 1c d7 3d ca 40 c9 bd f4 de f3 be
       0.17030837 0.10503546 -0.09826811 -0.47631037
000390 91 80 f1 bd 9d 2e 95 be 33 37 7e 3e b7 bc df be
       -0.117921 -0.29137126 0.24825744 -0.43698665
0003a0 2e 2e 8e 3e 70 99 55 3e 00 4d e4 be eb a1 7c 3e
       0.27769607 0.20859313 -0.44589996 0.24671142
0003b0 06 a5 23 bf 4a d6 eb 3e 91 05 07 bd ba 25 a3 3e
       -0.6392368 0.46061927 -0.032964293 0.3186472
0003c0 fb 41 04 3e fa 5d 88 3e b0 3c 0b 3f e0 2d aa 3e
       0.12915795 0.26634198 0.54389477 0.33238125
0003d0 2e fc 8f be da 86 a7 3c bf da b7 3e 0f ee dd bd
       -0.28122085 0.020450044 0.35909078 -0.10836422
0003e0 ba eb 41 be cb 8a 35 3e 47 08 5c be aa 70 76 3e
       -0.18937579 0.17728727 -0.21487533 0.24066415
0003f0 e9 3a 57 bd cc 4a 36 be 53 5b 29 bd 70 e8 09 3d
       -0.052546415 -0.1780197 -0.04134686 0.033668935

rnn.weight_hh_l1 f4 [50, 50]
000000 e1 4e 75 3f 60 a5 69 be e9 1c 47 bf 1a 2d a0 3f
       0.95823485 -0.22816992 -0.7777849 1.2513764
000010 8e 3f 4d bf 51 b1 7a bf d3 b3 b1 3d ea 1c 4e 3d
       -0.801751 -0.97926813 0.08676877 0.050320543
000020 3a 76 91 bf 29 28 fb 3e 24 b2 0c bf 4d 70 24 3f
       -1.1364205 0.49054077 -0.5495932 0.6423386
000030 76 2e 26 be cd 87 19 be 8d 75 0d be 6e 33 cc 3c
       -0.16228661 -0.1499321 -0.13814373 0.024926867
000040 e7 fc 6d be 9a 18 4f bf 9d 81 39 3f e7 8c c8 be
       -0.23241006 -0.80896914 0.724634 -0.3917
000050 50 52 11 3f 63 77 6e be ff b4 a0 bd f7 c1 b8 bd
       0.56766224 -0.2328773 -0.07847022 -0.09021371
000060 e1 53 a3 bd 16 b3 b0 3e fd d9 90 bf 53 5e 9e 3f
       -0.07974983 0.34511632 -1.1316525 1.2372535
000070 12 f1 cf 3e dc 8b 01 3e 82 63 74 be 99 b7 cc 3e
       0.4061361 0.12651008 -0.23866084 0.39983824
000080 cb 89 23 bf f7 41 91 3d 91 f8 95 be 76 33 73 bf
       -0.6388213 0.0709266 -0.29291204 -0.950004
000090 ec 25 01 3e 8e 75 52 bf 22 9b 95 be 9c 99 3a 3e
       0.12612122 -0.82210624 -0.2921992 0.1822266
0000a0 d8 f8 e4 3d 06 d3 d0 3e 7f 3d cc bd 02 8e 93 3e
       0.11180276 0.40785998 -0.09972667 0.2881928
0000b0 a8 2c b9 be c0 08 a6 bf d5 3e 18 bf 24 0b 72 3e
       -0.36166883 -1.297142 -0.59470874 0.23637062
0000c0 72 ee 47 3e 00 0c 16 bf 5b cb 90 3d d7 41 f8 be
       0.19524553 -0.5861206 0.07070037 -0.48487732
0000d0 b0 8d f1 3d 05 e7 44 be 26 09 8f bd 0b f9 0f be
       0.11794603 -0.19228752 -0.06984167 -0.14059846
0000e0 a5 d6 80 3e f9 74 94 3e 85 7d 2b 3d 05 0c 43 3e
       0.2516376 0.28995493 0.04186775 0.19047554
0000f0 c8 66 24 3e 5b 96 39 bd f3 ee e4 be 1f f9 b6 be
       0.16054833 -0.045309406 -0.44713554 -0.3573694
000100 50 90 aa 3e 86 f3 32 be 6b 7d d8 3b 19 27 36 bd
       0.33313227 -0.1747571 0.006606748 -0.04447088
000110 db 68 11 3c 37 ef 9e bd 77 20 8d be c2 f2 16 3f
       0.008875097 -0.0776047 -0.2756383 0.5896417
000120 ef 3f a8 be ba 23 ad be cb 9e 46 3e 08 9c ad be
       -0.32861277 -0.3381632 0.19396512 -0.33908105
000130 d2 c3 38 3e 98 8f 5b 3d 40 f4 13 be 8d 82 ea 3d
       0.1804345 0.05360374 -0.14448643 0.11450682
000140 5b b0 a8 3d 6d be 2b 3e a2 44 10 3e 03 8f cf be
       0.08236762 0.1677186 0.14088681 -0.40538797
000150 9d ca 48 be a1 5c 63 be 35 69 b0 3e 74 65 3c bd
       -0.19608541 -0.22203304 0.34455267 -0.04599519
000160 9a 4b 6b 3b 30 e2 f5 be 9a ce 91 be 04 fd 07 bd
       0.0035903216 -0.4802413 -0.28477937 -0.03320028
000170 0f 8c 18 3e 55 8e e3 bd e0 78 6b be 5b ae 29 bc
       0.14897178 -0.11111132 -0.22995329 -0.010356511
000180 5b b1 9e 3d b4 a1 09 bd 43 16 73 3e e6 2b 5a be
       0.077486716 -0.033601478 0.23738961 -0.21305808
000190 dd 77 eb 3c 64 0a 12 3f 99 ce d3 3d 6a db c0 be
       0.028743679 0.57047105 0.1034214 -0.376674
0001a0 9b 1c a1 bd 2a c9 34 3e 05 71 aa be 4c 28 91 be
       -0.07866784 0.17654863 -0.33289352 -0.28351057
0001b0 cd 1f 1a bc 42 29 cf be 15 81 22 bd dc cd 63 be
       -0.009406996 -0.40461165 -0.039673883 -0.22246498
0001c0 ae 6e 10 bd db d3 f1 3d 8c a6 bf be 68 f0 ef 3e
       -0.035261802 0.11807986 -0.37431753 0.46863103
0001d0 09 36 a7 be ee 45 8d 3e 14 e7 1d be 17 11 29 3f
       -0.32658413 0.27592415 -0.1542018 0.660417
0001e0 ba 90 0b 3e ad bb a7 be 3a 84 69 3e d5 1d f7 3e
       0.13629428 -0.32760373 0.22804347 0.48264948
0001f0 9b 8e a9 3e 61 a4 a8 3d 16 2e 87 3e 4e 18 cc 3b
       0.33116612 0.08234478 0.26402348 0.0062284833
000200 ea be 57 be 39 d5 32 bd de 41 44 3e 87 92 55 be
       -0.21068922 -0.043660376 0.19165751 -0.20856677
000210 fd db 14 be 0b 3f ad 3e bf c2 2d 3e 56 81 b2 bb
       -0.14537044 0.3383716 0.16968821 -0.005447547
000220 7a 62 59 be be 55 70 bd a6 7d 87 bc b5 09 80 3e
       -0.21228972 -0.05867552 -0.016539406 0.25007406
000230 95 97 f3 3c 67 36 0a bf 44 b4 46 be 31 60 8d bd
       0.029735366 -0.5398926 -0.19404703 -0.06903113
000240 1f 90 b6 3e 9d 13 94 3d 85 5f cb 3e 40 50 95 be
       0.3565683 0.072303034 0.39721313 -0.29162788
000250 c9 df 1f be 7c d5 cc 3e 54 8c dd 3f e4 0d 21 be
       -0.15612711 0.40006626 1.730845 -0.15727955
000260 48 22 55 bf 56 72 bf 3f 9d fe 0f bf 72 4a e0 bf
       -0.83255434 1.4956768 -0.56247884 -1.7522719
000270 7d 63 0e 3e 77 cf 6a 3e 2a 99 d2 bf fd dc 00 3f
       0.1390514 0.22930704 -1.6452992 0.503372
000280 4c ef 28 bf 52 b4 ab 3f fa 70 c3 bd d6 ca 78 3d
       -0.6599014 1.3414404 -0.09543033 0.060740314
000290 5c 77 95 3b 50 37 b2 3d bf d5 88 bf 34 0e a5 bf
       0.004561348 0.08701956 -1.069023 -1.289496
0002a0 bd 7b ab 3f bf 39 a3 bf 85 13 b4 3d 91 b7 58 3d
       1.3397137 -1.2751998 0.087927856 0.052909438
0002b0 6e 3b 5b be 12 3b 2b be ac 84 7d be 2c a8 41 be
       -0.2140939 -0.16721752 -0.24757642 -0.18911809
0002c0 cc 32 d3 bf 78 2d 91 3f 30 b1 1e 3e e6 5b 53 bb
       -1.6499877 1.1342001 0.15497279 -0.003225082
0002d0 79 83 f0 be c9 f4 5f 3e 7e b5 9a bf a5 b1 2c be
       -0.46975306 0.21870722 -1.2086637 -0.16864641
0002e0 1d 4c 9a be e6 78 4a bf f6 ed 9a 3d ee ce 90 be
       -0.30136195 -0.79090726 0.07564919 -0.28282875
0002f0 56 98 6d 3d b6 dd 24 be 88 20 be bd 0d 2b 00 3e
       0.058006607 -0.16100201 -0.092835486 0.12516423
000300 b0 77 5b 3e bc 41 e7 3d b7 5e 47 bf 2c 0c c3 bf
       0.21432376 0.11291835 -0.778789 -1.523809
000310 94 c7 95 bf ab 68 16 3e a5 d8 35 3e 97 da 3a bf
       -1.1701531 0.14688365 0.17758425 -0.7298979
000320 30 f0 a5 bd 05 43 bd 3e 0b d2 a9 bd f6 8e 1f be
       -0.08102453 0.36965194 -0.08292016 -0.15581879
000330 fc 8f a2 be 5e f1 2b 3e c6 37 9b be 0a cd c5 be
       -0.31750476 0.16791293 -0.3031599 -0.38632995
000340 8c 3a 84 bd 8b 77 46 be 04 c7 f1 bc eb dd f3 bd
       -0.064564794 -0.1938154 -0.029513843 -0.11907562
000350 89 42 45 3e ed 20 cd 3d 43 0c 15 be 58 5f 25 3f
       0.19263662 0.10016046 -0.14555459 0.6459861
000360 6b 68 16 bd ed b3 a2 3e b1 29 14 be 5e 6a f5 3e
       -0.036720674 0.31777897 -0.14469029 0.47932714
000370 54 71 67 3e da 77 10 be 10 41 32 3e 9e 5f f1 3e
       0.22601825 -0.1410822 0.17407632 0.47143263
000380 de 9e 87 3e 16 e9 5c 3e 01 35 50 bd 05 a1 b2 bd
       0.26488394 0.2157329 -0.0508318 -0.08722118
000390 aa af 5b be df bf 73 be fb 57 8a 3e 3b 65 b7 be
       -0.2145373 -0.23803662 0.2702025 -0.3581942
0003a0 e6 12 11 be 0f 19 c1 3e b2 11 8a bc 0d f0 92 3e
       -0.14167365 0.3771443 -0.01685414 0.2869877
0003b0 f9 1e ea 3d e2 2b 72 3d 5d 51 15 bd 7c 53 0b 3d
       0.11431689 0.05912388 -0.036454547 0.034015164
0003c0 c7 d1 f4 ba 99 62 d0 be f3 69 f4 bd 65 44 ec bc
       -0.0018678241 -0.40700224 -0.11934271 -0.028841207
0003d0 4a 0f 59 3e f8 70 9c 3e da 5c 30 3e 55 e7 4f bd
       0.21197239 0.30554938 0.1722292 -0.050757725
0003e0 b2 12 c1 be 4c 26 9b 3e 53 b0 a5 bf 4e d8 fc 3e
       -0.37709576 0.30302656 -1.2944435 0.49383777
0003f0 07 7b 05 3f 99 9f a5 bf 76 d6 05 3f b5 ed c8 3f
       0.5214085 -1.293933 0.52280366 1.5697542

rnn.bias_ih_l1 f4 [50]
000000 85 5a 7e 3f 3b d3 81 bd e1 ad 6f be 37 06 74 3f
       0.9935687 -0.06339117 -0.23406173 0.95321983
000010 9e 66 84 bd 79 91 3e bf ad 5e 39 bd 7e 61 ca ba
       -0.06464885 -0.74440724 -0.045256305 -0.0015440432
000020 da 90 6d bf 77 37 f0 3d eb a4 a6 be c8 27 85 3f
       -0.9279915 0.11729329 -0.32547697 1.0402765
000030 d9 b8 10 3b 4f 70 a0 3d 2a a6 91 bc 35 8c 62 3e
       0.0022082834 0.07833921 -0.017779429 0.22123797
000040 73 76 48 bf d2 f9 78 bf 02 fa 3e 3f 76 35 7a be
       -0.7830574 -0.97256196 0.7460023 -0.24434456
000050 91 96 66 3e fd 50 98 3e 71 ff de 3d d3 fa 1b 3e
       0.22518374 0.2974929 0.10888565 0.152324
000060 72 e0 2f be 8d 1b 06 3f c8 5d 8f bf c6 c3 bb 3e
       -0.17175463 0.5238579 -1.1200495 0.366728
000070 2e 16 a9 3e 3c 92 8a be 79 6b e9 be 4f e6 99 bd
       0.33024734 -0.27064693 -0.45589808 -0.07514631
000080 7d 83 69 bf 52 77 83 3e c6 7e 9b 3e 83 f1 91 bf
       -0.9121626 0.25676972 0.30370158 -1.1401829
000090 9a 55 8b be fa ac 8d be 2e 71 24 3d c6 62 b9 bd
       -0.27213746 -0.27671033 0.040147 -0.09052043
0000a0 78 51 a7 bd 2f 85 b5 bd bc 34 e1 3d 6d dd 67 3e
       -0.08169836 -0.088632934 0.109963864 0.22643061
0000b0 59 aa d0 be d6 71 f9 be 96 e4 f8 be d1 e1 fe 3d
       -0.40754965 -0.48719662 -0.48611897 0.12445415
0000c0 c6 a8 cc 3e cb 5b 14 bf
       0.39972514 -0.57952565

rnn.bias_hh_l1 f4 [50]
000000 f7 81 3f 3f 6a e4 eb 3c e8 08 64 be 2a 8b 5f 3f
       0.74807686 0.02879544 -0.22269022 0.8732172
000010 e2 c8 8a be 15 39 41 bf 60 92 df bd 99 bc 37 be
       -0.27106386 -0.75477725 -0.10916591 -0.17943038
000020 38 d5 6e bf d5 94 c1 3e 7b a3 9d be a7 51 75 3f
       -0.93294096 0.37808862 -0.30788788 0.95827717
000030 ec 43 24 3d 1a ac 9f 3e f6 5f 8c bc 90 0e f4 3d
       0.040103838 0.3118599 -0.017135601 0.1191684
000040 b6 b2 76 bf 26 fd 69 bf 7b 1c 4c 3f 8f a0 8b 3c
       -0.9636644 -0.914019 0.7973096 0.017044334
000050 2e eb 28 3e f2 fd a8 3d 78 ad f3 3d 79 f6 3e 3d
       0.16495964 0.08251561 0.11898321 0.046621773
000060 a1 7f ed bd 8b 22 ff 3e 55 f0 83 bf f0 86 96 3e
       -0.11596609 0.49831042 -1.0307719 0.29399824
000070 12 6d b8 3e 79 4f 12 bd cf 6c ad be 4a 20 d6 3c
       0.36020714 -0.035720322 -0.33872077 0.026138443
000080 ba 14 79 bf 16 0f 72 3e 6b b7 20 3e bc 64 9d bf
       -0.9729725 0.23638567 0.15694968 -1.2296367
000090 96 07 05 be 51 55 82 be e7 9f 12 be ec 1d eb 3d
       -0.12991175 -0.25455716 -0.1431881 0.114803165
0000a0 cf a6 5a 3d c1 72 eb 3d e0 48 7a 3e 13 9a 15 3e
       0.053381737 0.11496497 0.24441862 0.14609556
0000b0 5b c5 95 be 82 df 25 bf f4 29 86 be c9 f3 6b bd
       -0.29252133 -0.6479417 -0.26203883 -0.05760554
0000c0 5b 0f 29 3e 68 b7 f2 be
       0.16509764 -0.47405553

fc.weight f4 [1, 50]
000000 ab fc e2 bd 61 63 60 bd 24 7f 65 bd 5c e2 7d bd
       -0.11083349 -0.054782275 -0.056029454 -0.06198345
000010 fa 15 f2 bd b2 bd 47 3d cf b6 23 bd 4f c3 1f be
       -0.11820598 0.048764892 -0.03996926 -0.15601848
000020 d8 8c 6d be 42 fe ea 3c 47 7b 95 bc 9e bd c5 bd
       -0.23198259 0.028685693 -0.01824726 -0.09655307
000030 f7 6a a9 3c 0a d2 b7 3c cc 60 bf bd 34 1a 4e be
       0.020680888 0.022439022 -0.093446344 -0.20127183
000040 60 78 a6 be 2d f5 10 bc 43 5d 98 bd aa 21 9f bd
       -0.32513714 -0.008847517 -0.07439663 -0.07770093
000050 ef 91 d8 bd 9a 3a e0 bd 51 88 a9 3e 6f 24 a8 bb
       -0.105747096 -0.10948677 0.33111814 -0.0051312963
000060 8a bd e3 bc 07 a7 bf bd 28 7b 24 bc 89 62 75 be
       -0.02780034 -0.0935803 -0.010039128 -0.2396337
000070 0f 71 b3 3d 02 d7 cc 3c 66 06 13 3e 0c 35 9a bc
       0.087617986 0.025004867 0.1435791 -0.018824123
000080 59 85 03 3e 9b be 11 bd ce 08 0a 3d 95 8f 97 3e
       0.12843837 -0.035582166 0.033699803 0.29601732
000090 67 c9 6f be 0d a3 0f bf 81 7b 16 3e db 67 92 3c
       -0.23416673 -0.5610817 0.1469555 0.017871788
0000a0 50 25 80 3c 35 e6 de bc 29 cc 14 3d 43 e0 06 3e
       0.015642792 -0.02720938 0.036327515 0.13171487
0000b0 be 0b 48 3d e4 60 b0 3d 98 3e cf 3d be 6e 61 3d
       0.048839323 0.086122304 0.10119361 0.055037253
0000c0 09 30 39 bd 67 c1 37 3e
       -0.045211826 0.17944871
