Networks/BCHBTC/bidSeed0.pt (torch, 33123 bytes, 9 tensors)

rnn.weight_ih_l0 f4 [50, 1]
00000000: 047b 7bbf 4067 96bf ad1e 11bf 5dfb 5ebd
00000010: 6671 c340 70fb 883f 785f 75c0 1823 883e
00000020: eba3 733f cf1f 58bf 82c6 dfbe 341e 86be
00000030: 2206 08c0 9bc3 633f c725 c23e c621 4dc0
00000040: 661f 5740 b66a 043f 975f 5f3f 1117 c5be
00000050: 80f9 3c3f f99d 59bf 3123 3fbf 2766 11be
00000060: cec0 adbe 8000 9bbf 0e1e 4bbf 205c 3abf
00000070: 96bf 48bf 87ec e53e cf2b 68be 1357 bdbe
00000080: 60ef 4ec0 2086 653d d5ee 9b3f 91b9 793c
00000090: 79ed 483f 653d 3ebf 6909 833f 1a71 f9be
000000a0: 32fc b13f f24e 94be 21c7 b93f c535 79c0
000000b0: 52f7 f8bc fede 84c0 80d5 913e 9f5a b9bf
000000c0: 31fb 9abf 114a 1abf
-0.9823458 -1.1750259 -0.5668743 -0.054438937 6.1075926 1.0701733 -3.833952 0.26589274
0.95171994 -0.84423536 -0.43706137 -0.26194918 -2.1253743 0.88970345 0.37919447 -3.2051864
3.3612914 0.5172533 0.87255234 -0.3849416 0.73818207 -0.8500667 -0.7466307 -0.14199124
-0.3393616 -1.2109528 -0.79342735 -0.7279682 -0.78417337 0.4490702 -0.22672962 -0.36980495
-3.2333603 0.056036115 1.2182261 0.015241996 0.78487355 -0.7431243 1.0237247 -0.48719102
1.3905089 -0.2896648 1.4513894 -3.8939068 -0.030391369 -4.1522207 0.284832 -1.448078
-1.2107908 -0.60269266

rnn.weight_hh_l0 f4 [50, 50]
00000000: 5c61 053f dff8 b0bd f6a4 59be 1cf7 0c3e
00000010: 2e3e fa3d ae89 d0bb 18f3 10bf ed60 85be
00000020: f263 513e 3d16 cd3e bf6e 82be 95a4 553e
00000030: 9407 e7bd 3a26 723e cab8 853e 1d32 2e3f
00000040: 3c80 fb3d 8876 15be 8abf d23d 0975 f6be
00000050: 2cd5 b3bd 0509 17be 2a1d 293e 91b8 c33d
00000060: a0be b4be 3128 03bf 24a3 493e 7345 313e
00000070: 5542 9ebe 86d3 f83d d71c 103b 5cf1 45be
00000080: bf9f 8e3c 64c8 e4bc e050 223e 3147 bc3e
00000090: 5f42 8bbe d5a3 4cbc 8733 d83c 3332 263e
000000a0: f93a 5a3e 496c 87be 4de9 eabe b22b bd3d
000000b0: 7f35 323e 3b54 cb3e d1f0 1fbe 3a90 42be
000000c0: 75d1 8abe 1506 0b3e 282b 18bf 494e 1fbd
000000d0: 2809 6d3e dd86 80be b14f 443f 8824 04bf
000000e0: 6847 17be 4e29 91bd 070e df3e d823 5d3c
000000f0: 1df9 56bd e40c 143f ea04 debe 587e 1d3e
00000100: edf7 00bf 2675 84be bc67 b43c d3ae e4be
00000110: eda1 e23d 6615 8fbe 4588 ef3e 0746 94be
00000120: d377 59bf e8a5 c1be e641 f2be 1175 293f
00000130: d8d1 37be 91f5 3abe 5411 93be 133b f43e
00000140: fc45 8fbe 8c81 3dbe e911 c13e 8ba0 373e
00000150: a13a 9b3e 9a26 be3e fb21 fb3d 238d 91be
00000160: 0e4a 993e bfcb 0b3f 82f2 a03e 475b 8b3d
00000170: d49d 493f b953 cd3b 2604 6a3e 0f3b a7be
00000180: 3e92 a23e 91fc 8fbe f8db 44be 8f60 b63e
00000190: f3de a8bd bb18 bc3e 29f7 b93e a148 d4be
000001a0: b930 823e 7b9c bdbe 283e 02be 489b 623e
000001b0: 0658 bb3e 1221 0fbd a17e bebc 064a b03e
000001c0: 2d22 f9be b544 af3e 110b 9ebe c6a5 bdbe
000001d0: 268e 01be 2c9b e1bd af52 9bbe 34ba 4b3c
000001e0: ece2 143f a4ef 543e a178 3abe 2e39 80be
000001f0: 72f4 14bf 13be 993e 544a b7be 6c21 61bf
00000200: 42dc 3dbe eb88 ad3e 7276 a53e 2e08 a23e
00000210: 73da 0d3e c7ff dd3e 78c5 17be 7072 d2bd
00000220: a377 3b3f 7995 7dbe a4e2 893e 92d3 b53e
00000230: 7efa 4b3f 98ef 183e aeab 273e b69b 953e
00000240: 625a f1bd dd53 8ebe 97a8 2d3f d188 46bf
00000250: 8182 96be 48cc 503e a5ef c13e 7a00 c2be
00000260: ef9d 68be 9c32 973e f8cf 883d 17bb c33e
00000270: 4be6 ba3d 75bd 563d b585 2abf b266 03bf
00000280: a82a 1a3d 591e 34bf 0d42 1d3f 4bea 8dbe
00000290: 9568 f43e 2f44 123f 8317 ad3d 9162 023d
000002a0: 0f1a a23e 07b1 96be 2880 7ebe 3442 d6bd
000002b0: 8d0e 2b3d 3e7f de3e 96c1 8d3e 455b d7be
000002c0: 4ec6 8c3e 7629 8b3e 7029 9fbb 6388 05bf
000002d0: 005f 9fbc fc7a f7bd 8e64 35bf 9817 9fbe
000002e0: ddae a23d 19d4 cebd 76ca a4be 1d69 bc3e
000002f0: 67f2 2fbe b2f4 3bbf ce35 83be 60fd 56be
00000300: 4ace ddbe a460 20bf 6108 86bd b3be 443f
00000310: 8695 04bf 2d92 f03e 104f fc3e 09f7 acbe
00000320: 3fa0 23bf 03c6 233e 7fbd 50bc bc48 0a3e
00000330: b8de 993f ead7 0d3e 775c b4be 45e4 4d3e
00000340: 4a61 b8bc a239 db3d 265d fabd 579e f4bd
00000350: 2cec 37bd c38e 46bd 0426 1dbd 1758 cfbd
00000360: dd2f 41bf a5ed 2e3e 6fdd 543e d8e1 563e
00000370: 338c 813d 41af 73be 9f12 c1bd f7da 073e
00000380: 929f fb3c 7ffe 453e 4d2a 513d fd2c 2c3d
00000390: f812 1f3e c94e 0abe f872 6f3e cb9b bcbd
000003a0: 2ebe 80be 0cf9 07be 17eb adbd d413 80be
000003b0: f9c5 f13d c82a 80bc 91c1 2dbd 5f52 4fbe
000003c0: acb4 243e f62c c93e a99b 1b3f 4ce5 e7be
000003d0: 6946 e7bd e6e2 ddbf 0b82 1dbe 2d7b 9dbd
000003e0: 8bb4 4dbd 6792 993c 00da f73d 631e e4be
000003f0: 5df1 f7be 5ac5 fa3e 59b0 d53c 0f5a ea3e
0.52101684 -0.086412184 -0.21254334 0.1376614 0.12218891 -0.006364069 -0.5662093 -0.2605051
0.20448282 0.4005603 -0.25475118 0.20863564 -0.11280742 0.23647395 0.26117545 0.68045217
0.12280318 -0.14595997 0.102904394 -0.48136166 -0.08780894 -0.14749534 0.16515031 0.095566876
-0.35301685 -0.512332 0.1969114 0.17311649 -0.30909982 0.1214972 0.0021989846 -0.19330353
0.017410157 -0.027927585 0.15851164 0.36773065 -0.27199075 -0.0124902325 0.026391758 0.16230087
0.21311559 -0.26449803 -0.4588112 0.0923685 0.1740322 0.397127 -0.15619208 -0.1900033
-0.27112928 0.13576539 -0.5944085 -0.038893018 0.23148024 -0.25102893 0.766841 -0.5161824
-0.14773333 -0.07087956 0.4356539 0.013497315 -0.052483667 0.5783217 -0.43363124 0.15380228
-0.50378305 -0.25870627 0.02202212 -0.4466463 0.11066041 -0.27946013 0.46783653 -0.28959677
-0.8494846 -0.3782189 -0.47315902 0.66194254 -0.17951143 -0.18257739 -0.28724158 0.4770132
-0.2798308 -0.1850645 0.37708977 0.17932336 0.30318168 0.37138826 0.12262341 -0.2842799
0.29939312 0.54607767 0.3143502 0.06804519 0.7875645 0.006266084 0.22853145 -0.32662246
0.317522 -0.2812238 -0.19224536 0.35620543 -0.08245649 0.36737618 0.3632138 -0.4146166
0.25427797 -0.37033448 -0.12719023 0.22129548 0.36590594 -0.034943648 -0.02325374 0.34431475
-0.48658887 0.34232107 -0.30867818 -0.37040538 -0.12651882 -0.11015925 -0.3033652 0.012434531
0.58158755 0.2079454 -0.18210079 -0.25043625 -0.58185494 0.30027828 -0.35798895 -0.8794162
-0.18541053 0.33893523 0.3231693 0.31646866 0.13852863 0.43359205 -0.14821422 -0.102757335
0.73229426 -0.2476405 0.26930726 0.35512978 0.79679096 0.14935148 0.16374084 0.2922036
-0.11784817 -0.27798358 0.6783537 -0.77552515 -0.29396442 0.20390427 0.37878147 -0.3789099
-0.22716497 0.295308 0.06680292 0.38228676 0.09125956 0.052426774 -0.6661027 -0.51328576
0.037638336 -0.70358807 0.6142891 -0.27717814 0.4773604 0.5713529 0.0845175 0.03183228
0.31660506 -0.29431936 -0.24853575 -0.10461846 0.041761924 0.43456453 0.27686757 -0.4206182
0.27495044 0.2718007 -0.0048572347 -0.52161235 -0.01945448 -0.12084004 -0.7085656 -0.31072688
0.07943509 -0.10099048 -0.32185715 0.36798945 -0.17182313 -0.7342025 -0.25626987 -0.20995092
-0.4332145 -0.6264746 -0.06544567 0.76853484 -0.51790655 0.46986523 0.4927907 -0.33782223
-0.6391639 0.15993504 -0.012740492 0.13504308 1.2021093 0.13851896 -0.35226795 0.20106609
-0.022507329 0.10704352 -0.12224798 -0.119442634 -0.044902965 -0.048475992 -0.038366333 -0.10124224
-0.7546366 0.17082842 0.20787595 0.2098459 0.06325569 -0.23797323 -0.0942738 0.13267122
0.030715737 0.19335364 0.05106573 0.04203509 0.1553458 -0.13506617 0.23383701 -0.09209403
-0.25145096 -0.13278598 -0.084921055 -0.25015128 0.118053384 -0.0156454 -0.042420927 -0.20246266
0.16084546 0.39292115 0.60784394 -0.45292127 -0.112927265 -1.7334869 -0.15381639 -0.076895095
-0.050221007 0.018746568 0.12102127 -0.44554433 -0.48426333 0.48978692 0.026085066 0.45771834

rnn.bias_ih_l0 f4 [50]
00000000: 936f 64bd 9105 753e 7d79 513f c35f a7be
00000010: 4ff5 78be e1be 11bf f706 b2bd 343e e5be
00000020: 7e50 423e 6a35 2d3f 1842 4a3e 7ba6 fb3d
00000030: 7f4c 553e bb1a 283e fda6 b6be ecc2 2cbd
00000040: afd5 043e 9564 c43d eec6 bdbd 1bb6 f43c
00000050: 23e1 083f ba9f 123e 0b36 6ebd 3c81 2ebf
00000060: d07d 69be 9c1a ee3e 487c 2dbf 2074 34bf
00000070: 22cf dcbd a537 663e 9e4e dcbd 1102 a33e
00000080: c629 90bc db12 7a3e 72f8 963e 402e dfbe
00000090: 1efc 0f3f a3bb c0be c976 283e 8736 c03e
000000a0: 7dd4 0c3f 7927 d8be 081f 26be 5722 7c3e
000000b0: 5e4c d43e 15af 24be 08f1 8e3e 3a72 d8be
000000c0: 3c35 91be 47aa 803e
-0.055770468 0.23927905 0.81826 -0.32690248 -0.24312328 -0.56931883 -0.08692735 -0.4477402
0.18976018 0.6765963 0.19751775 0.12287613 0.20829962 0.16416447 -0.35674277 -0.04217808
0.12972139 0.09589497 -0.092664585 0.02987199 0.5346853 0.14318743 -0.05815701 -0.68165946
-0.228019 0.46504676 -0.67767763 -0.7048969 -0.10781695 0.22482164 -0.107571825 0.31837514
-0.017598044 0.24421255 0.29486424 -0.43589973 0.56244075 -0.37643155 0.16451563 0.375416
0.5501173 -0.42217615 -0.16222775 0.24622475 0.41464514 -0.16082413 0.27918267 -0.42274648
-0.28360927 0.2512991

rnn.bias_hh_l0 f4 [50]
00000000: f65b edbd 9761 c13e c844 353f 1405 a3be
00000010: 2551 44be 5708 27bf 9966 9ebe f911 f5be
00000020: d1b7 343e 1b00 f83e 0791 133e 44a2 0fbe
00000030: 432c c83d 0a61 423e dac9 98be 912f c23a
00000040: 71ac 633e f972 443e fedc 78bc 1cba edbd
00000050: 4341 1e3f 6df1 813e eacd 16be dd00 04bf
00000060: 48f8 93be 3b2b 953e 3eb8 33bf da7d 13bf
00000070: f1b2 a53d e911 683e c005 653d fddf b33e
00000080: a93b 2fbd 2578 ad3e fe77 033e 3029 96be
00000090: 0571 063f 4661 c9be b85f ae3d 4d2f a43e
000000a0: 84a6 0e3f aa21 91be 78ce a8be d732 a13e
000000b0: faf7 3d3e 1c29 19be f3d0 f03e fce5 7fbe
000000c0: 26a3 6ebe 5187 5a3e
-0.11589806 0.37769768 0.70808077 -0.31839812 -0.19171579 -0.652471 -0.3093765 -0.47865275
0.17648245 0.4843758 0.14410792 -0.14026743 0.09774067 0.1898233 -0.298415 0.0014815201
0.2223375 0.19184484 -0.015189407 -0.11607763 0.6181833 0.25379506 -0.14726987 -0.5156382
-0.2890036 0.29134545 -0.70203006 -0.5761391 0.08090771 0.22663082 0.055913687 0.35131827
-0.042781506 0.33880726 0.12838742 -0.293283 0.52516204 -0.39332026 0.08514351 0.32067338
0.5572283 -0.28345996 -0.32970023 0.314841 0.18551627 -0.14957088 0.47034416 -0.24990076
-0.23304424 0.21340682

rnn.weight_ih_l1 f4 [50, 50]
00000000: 106c 833d 3605 0d3e 2ab0 113d 8afd b7bd
00000010: be45 21be 239c 1abc 94c0 52be eefd 133e
00000020: c1eb f43e 59f1 763e 9f28 c5be e528 ea3e
00000030: c3e0 afbd 4059 f43e c486 99bd 7643 22be
00000040: cfad ef3d cd25 563e 200e 0e3e 9fbb 8ebe
00000050: 8912 733d bec2 45be 12ca 6a3e a2f9 7abe
00000060: 2d8d 86be e509 fd3e 6bfb 90be b479 6abe
00000070: 93e4 f8be 43fb ac3e fb0b 7ebe 6230 c0bd
00000080: 9eda 483e 9b98 843e 5072 d93e 4ec4 2abe
00000090: e41d 493e 812f 33be 5ca1 bb3e 9e77 eb3e
000000a0: 22cd 033f ee0f aa3d c52d 02bd 90b9 023f
000000b0: c6d7 04bd 28e1 4c3e 1b68 773e 986f 27bf
000000c0: c36d 04bf 3837 ca3d 37c8 df3d 1f62 3c3f
000000d0: f0e3 91be 582b e23c e967 1fbe ebcc a7be
000000e0: fbc2 98bf 8e50 0abf b3bf 103d d1e7 ed3e
000000f0: f2c6 eebe d0c3 823c ec00 cdbd 57b8 2a3e
00000100: dece 12bf 4730 1e3f bd87 23be acbf acbe
00000110: 142a 163f 82d6 46bf 9735 ee3e 3944 84be
00000120: 9b12 88bd 02b8 aebd e5af 20be 2827 1b3f
00000130: 64d3 d6bd 531c f23c 4068 79bf 088f 553d
00000140: 0a82 623e f9e9 50bf 2221 273f d875 283f
00000150: dec5 4f3f 5978 ca3e 1aed 383e 59eb 6abd
00000160: 66d9 82bd 1f7d 2a3e d7b7 e83e 0a77 3f3e
00000170: afb8 633e f12e f43e 62af 483f eef3 4b3e
00000180: 7eb2 343d 088e 06bf 6514 e4be a82d 8f3f
00000190: 48cb a53e abca 58bd 820c 31be fa42 053f
000001a0: a9f4 fcbe 58e0 9ebe c6c9 38be a043 22bf
000001b0: 6990 fcbe 610a c6be a430 3fbd dcbd 0cbf
000001c0: 8567 d43d b3d7 00bf 4619 7c3d 69e0 8e3d
000001d0: eaf5 13bf 41f9 11bf 5135 22bd c272 e03d
000001e0: 9593 72bd ef84 1a3f ecb4 8d3e 7bd2 f03e
000001f0: 40b5 1c3e de6c 6ebe dd28 bf3e e244 c53d
00000200: 72f1 023f c66d 00bf 524f 1e3f dcac a83e
00000210: 759d 4f3e 7530 e63c 9a6a d4be b6cd ed3d
00000220: ca1c a2bd fdb5 303d 67d8 37bf 9b66 1dbf
00000230: bf3a eebd 2a1d bcbe 14e1 91be ac2e b5bd
00000240: cc63 d63e c73c 903d 49fe 71be 5fd9 163f
00000250: dcc1 d13e a425 a33e 67ec 08be b7dd 3abf
00000260: 13c7 adba 5aec a6bc 6fe8 0b3f 28f3 a73e
00000270: 9f09 e6bd 7158 253e f550 333e 993f 16bf
00000280: 51bd 073e c061 ee3d 1025 2bbf 77d7 013f
00000290: e3f7 a1be 02fa 86bf a322 8f3e db65 0f3f
000002a0: f63a bcbd 5076 cb3d 4cad 9f3e f311 1e3e
000002b0: 7ac8 cebe 6110 cbbe a2f6 c3be 5940 73bf
000002c0: fe6b acbe 8409 d4be 5fc2 02bf df2f 903e
000002d0: 797b 76be 7b9f 143e c9b7 86bf d26a 82be
000002e0: 07e7 bd3e 3ddd 49be 939e e43e 1f18 5dbe
000002f0: 8ce0 063f 2d03 0b3a 5412 1c3f 112e 5ebf
00000300: 7992 5e3c 685e d1be deab 47bf 7e64 c0bd
00000310: aaf4 a23e 5342 b0be b033 093e b90b 1ebf
00000320: ae9d 973d 89ef 203e f617 a73e add9 c2be
00000330: 8a48 2cbf 43b5 f1be 9dd6 88be 7813 20bd
00000340: 2356 e03e 20f7 563e 425e 03be c5f3 b73e
00000350: 7483 fdbe 4d51 c53e 540d ae3b 4e58 063f
00000360: 3abf 463e cbc7 223e bcac 3bbd ce0d 90be
00000370: 979e a23e e0ed 50bd adf9 2ebd fa98 aebe
00000380: 77f6 0dbf 4640 073f 6c26 17bf 3058 13bf
00000390: cc73 1fbf 7557 ad3e 2df7 a6be eeed 8dbe
000003a0: 9688 17bd fb74 b63a ebb8 f83e 3db2 c7be
000003b0: b560 003f e3e5 f7be b3fd 083f 4690 863e
000003c0: ef67 093f ab15 4c3e 93f6 06bf 903d a33f
000003d0: 2bed 36be 9bae 733e fa71 373f 667a d7be
000003e0: d4aa 45be d61a 263e e3fe 1ebe 0f2e 653e
000003f0: 887c 3ebd 0bd5 813e 7d1e 4dbe 3781 aabc
0.06417096 0.13771519 0.035568394 -0.089839056 -0.15749261 -0.00943664 -0.20581275 0.14452335
0.47836116 0.24115504 -0.38507554 0.45734325 -0.08587792 0.47724342 -0.07496408 -0.15846047
0.11703073 0.20912857 0.13872576 -0.2787752 0.05934385 -0.1931257 0.22928646 -0.2450929
-0.26279584 0.4942161 -0.28316817 -0.22897989 -0.48611888 0.33785447 -0.24809258 -0.09384228
0.19614646 0.2589768 0.42470026 -0.16676447 0.19640309 -0.1749859 0.36646545 0.45989698
0.5148488 0.083038196 -0.03178193 0.51064396 -0.03243234 0.20007765 0.24160807 -0.65404654
-0.51729983 0.098738134 0.1092686 0.7358722 -0.28494215 0.027608559 -0.15566982 -0.32773528
-1.1934503 -0.54029167 0.03533907 0.46465924 -0.46636158 0.015962511 -0.100099415 0.16671883
-0.57346904 0.61792415 -0.15969749 -0.33739984 0.58657956 -0.7767106 0.4652526 -0.258333
-0.06644174 -0.085311905 -0.15692098 0.6060662 -0.10489538 0.029554522 -0.974247 0.05213836
0.22119918 -0.81607014 0.6528493 0.65804815 0.81161296 0.39544943 0.18059197 -0.05735335
-0.06389122 0.16649292 0.4545276 0.18697754 0.2223842 0.47692063 0.7839261 0.1991727
0.044115536 -0.5256047 -0.4454681 1.1185808 0.32381654 -0.052927654 -0.17289928 0.52055323
-0.4940541 -0.31030536 -0.1804572 -0.6338444 -0.49328926 -0.38679793 -0.046677247 -0.549772
0.10371307 -0.5032913 0.06154754 0.069763966 -0.5779711 -0.57020956 -0.039601628 0.10959388
-0.059222776 0.6035909 0.27677095 0.47035584 0.15303516 -0.23283717 0.37335864 0.09632279
0.51149666 -0.501675 0.61839783 0.3294438 0.20274909 0.028099278 -0.4148758 0.11611502
-0.07915647 0.043142308 -0.7181458 -0.6148469 -0.11632299 -0.36741 -0.28492033 -0.088467926
0.41873014 0.07042842 -0.23632158 0.5892543 0.40968215 0.31864655 -0.1337143 -0.7299456
-0.0013258181 -0.020376373 0.5465154 0.328027 -0.11232304 0.16147019 0.17511351 -0.5869079
0.13255812 0.11639738 -0.6685343 0.507194 -0.31634435 -1.0545046 0.27956113 0.56014794
-0.091909334 0.09934676 0.31186903 0.15436535 -0.40387326 -0.39660934 -0.38274103 -0.9502006
-0.33676142 -0.4141351 -0.51077837 0.28161523 -0.24070539 0.14513962 -1.0524837 -0.25472122
0.37090322 -0.19713302 0.44652233 -0.21591233 0.5268638 0.00053029024 0.60965466 -0.8678904
0.0135847265 -0.4089234 -0.77996624 -0.09394167 0.3182729 -0.344256 0.13398623 -0.6173664
0.07403122 0.15716375 0.32635468 -0.38056698 -0.67298186 -0.47208604 -0.26726237 -0.039081067
0.43815717 0.20992708 -0.12828925 0.3592817 -0.49514353 0.3853859 0.0053116474 0.5247849
0.19408885 0.15896527 -0.04581903 -0.28135532 0.3176162 -0.051008105 -0.042718578 -0.34101087
-0.554542 0.5283245 -0.59043 -0.5755644 -0.62286067 0.33855787 -0.32610455 -0.27720588
-0.036995493 0.0013920361 0.4857858 -0.39003173 0.50147563 -0.48417577 0.53512114 0.26281947
0.53674215 0.1993014 -0.5271999 1.2753162 -0.1786391 0.23797075 0.7165829 -0.4208557
-0.19303447 0.16221175 -0.15526919 0.22380851 -0.04650548 0.2535785 -0.20031162 -0.020813568

rnn.weight_hh_l1 f4 [50, 50]
00000000: 66fb 2dbe fcdc 75be 369e 09be 75f3 503e
00000010: 2790 a43d 3767 d1bd aa73 c0bd 8d19 223e
00000020: 8495 27be 2e41 123d 9e1b 8abd 05d9 973e
00000030: b3e6 e33c 30c0 e93e 53eb 9a3e 94af 21bd
00000040: 322e 3fbe 78bf cf3d cda0 9b3e dea7 87bd
00000050: a607 20bf 69ba e0be 9697 91be 97bb 023e
00000060: dbff e63e 7204 87bc 38f6 3a3f 2c67 6e3e
00000070: bbf5 17be 63c1 483e 54d7 8dbd 7f51 91bc
00000080: d203 e03d f162 28be ef72 a6bc 1cb2 973d
00000090: 3598 ccbe a77d 82bd 701f 6c3d 15d8 133e
000000a0: 325a e7bd 5097 6abd 16e8 11be 0579 e93d
000000b0: 6348 f4bd a5b4 1cbe 4354 1abe c99c 96bd
000000c0: 6967 19bc d812 a03e bd3c be3c 3f73 0bbf
000000d0: 4b17 9fbe 7a53 903e 0ee6 dd3d 3760 4cbe
000000e0: adb3 2a3e cf75 a0be 74a5 b23e 9df4 a5be
000000f0: 05f7 2abe 5256 11bf eb41 afbe 64d3 153d
00000100: 54bc fbbe e246 1cbe 626c cebd 42e0 193e
00000110: ee5d a43e 1801 6fbd 8481 0fbe 3615 83be
00000120: 1a4c a0bd 76cb ad3d fea9 77be 7759 d4be
00000130: c661 b5bd 28df 10bf e532 143e e421 093e
00000140: 15fb b1be e87a 2dbe 0497 f63e 19bd c6bb
00000150: 1a81 ac3e 2f0b 54be a0ee 913e f9a4 b1be
00000160: fe30 db3e 85ce c33d 18b4 743e d6d8 7d3e
00000170: e861 13be e9d6 433f f511 603e 0ab8 3abe
00000180: da38 9cbe e658 e63d f45b 7dbe b443 b23e
00000190: 665c 80be 5b63 ee3e bebf bfbd 183b aebe
000001a0: fca5 81be 6ac5 e13d b824 85be bdd2 f43e
000001b0: f20a 2d3f 8686 213e bb7d a03e 4430 e9be
000001c0: 5387 f53d 9a24 86bd a8b0 19bf b66b 173e
000001d0: fed1 d13e b13b 193e 7014 ddbe 5eb9 83be
000001e0: 8987 3e3e c04a 0a3f 681f ee3e f095 02bf
000001f0: c962 053d 86b1 1bbb 5539 e1be 9d1b f0be
00000200: c24c 58be 4c36 6ebe 6c33 bb3e 439b 933e
00000210: 1e1c 5bbd 4173 f5bc b2fb 67be e1cf cd3e
00000220: a5bb 183f 5c88 253e eb1e b43e 7e4b 38bd
00000230: d860 c1bd 45a8 d03e ec66 3f3e 6608 8a3e
00000240: 79a7 cfbe 2974 c0bd 223d 19be 98d2 053e
00000250: 2e75 403e 46d9 04be b347 043e 8424 013e
00000260: e9b9 85bd 7316 9dbe 13d4 223d d1ca e5be
00000270: 8482 8bbe d44b 85be fbf5 87be 8dc1 23be
00000280: 26aa 34bf eccb 8a3f 1695 64be 2ec5 66bc
00000290: fc44 933e 892b 06be 080c f3be a3ee 753f
000002a0: 8713 a13c 4b54 913e a7b9 ccbd 3d4b 1fbf
000002b0: ced1 52be 956d 0ebe d74a f63e 973c 45be
000002c0: 442d 863e 58d4 bf3e 3a6c 8e3e 1aec ed3c
000002d0: e61c aebd f603 06be 1787 c73e 8aeb b4be
000002e0: 6a68 013e 38db 11be ca96 69bd 03d2 cebe
000002f0: 3c6e 01bf ddd4 573e 530e c73e 9d12 ce3d
00000300: e917 e83b 874b e0bc 1b8c 3b3f 70e8 84be
00000310: 0d77 d33e 3f97 abbd 10ed ebbd 4116 1ebe
00000320: 1856 953d 6fb2 033d 43a4 55be 4fed 983e
00000330: 1989 37bb a58c 2fbd f847 f53d 924a 59bd
00000340: a334 c1bd cbaf 123c 14dc 7ebe 0ead 973e
00000350: 0819 0e3f f9d5 893e 5c81 6b3e 04cc abbe
00000360: a9f0 c1be 0ad3 9a3e d41f cf3e 3772 b03b
00000370: 0a61 7ebe c311 a2be 9887 f5be c12a 0dbd
00000380: ea2b 313e 925d cabd c68c 083f 2310 053f
00000390: c314 123e 7555 8d3e 520f 21be c520 5bbe
000003a0: b7a5 2b3e e2d8 aabe f315 883d 7d79 b5bd
000003b0: d094 09be 300c 9abe eade b4be 3423 6e3e
000003c0: b8ef b63e b6f6 4a3e 317d 68be 68f4 293e
000003d0: 6d3f 163f a626 d0be 19d2 5e3e 7436 92be
000003e0: 917d 4ebf 06d1 3f3e 5a01 50be 8949 eabe
000003f0: 366a 643e 196e 14be 3034 8dbe a5b0 1f3f
-0.16990432 -0.2401008 -0.13439259 0.20405371 0.080353074 -0.10224765 -0.09397061 0.1583006
-0.1636563 0.03570669 -0.06743549 0.2965776 0.027819967 0.4565444 0.30257663 -0.039474085
-0.18669966 0.10143942 0.3039612 -0.06623815 -0.6251167 -0.4389222 -0.28435963 0.12766872
0.45117077 -0.016481612 0.7303195 0.23281544 -0.14839832 0.19605021 -0.06925836 -0.017739056
0.10938229 -0.16443993 -0.020318476 0.074070185 -0.39959875 -0.063716225 0.05764717 0.14437898
-0.112965 -0.05727321 -0.1424869 0.11400036 -0.11927869 -0.15303285 -0.15071206 -0.07354123
-0.009363034 0.31264377 0.023222322 -0.54472727 -0.3107246 0.28188688 0.10834895 -0.19958578
0.16670103 -0.3133988 0.34891856 -0.32413188 -0.16695793 -0.5677234 -0.3422998 0.03657855
-0.4916712 -0.15261415 -0.10079266 0.15026954 0.32102913 -0.058350652 -0.1401425 -0.2560212
-0.07827015 0.08486073 -0.2418594 -0.41474506 -0.088565394 -0.5659051 0.1447254 0.13391834
-0.34761873 -0.16941416 0.4816209 -0.0060650227 0.33692247 -0.20707391 0.2850237 -0.34696177
0.42810816 0.09560875 0.23896825 0.24789748 -0.14392817 0.764998 0.2188185 -0.18234268
-0.30512124 0.11247425 -0.24742109 0.34817278 -0.25070494 0.46560177 -0.09362744 -0.3402946
-0.2532195 0.11023982 -0.26004577 0.4781703 0.67594826 0.15773973 0.31345925 -0.45544636
0.11988702 -0.0654995 -0.6003518 0.14787182 0.40980524 0.14964177 -0.43179655 -0.2572736
0.1860639 0.5402031 0.46508336 -0.51010036 0.032564912 -0.0023756935 -0.43989053 -0.46896067
-0.21123031 -0.232629 0.3656267 0.28829393 -0.05349361 -0.029962184 -0.22654608 0.40197662
0.5966132 0.16165298 0.3517984 -0.04499387 -0.094422996 0.4075338 0.18691605 0.26959532
-0.4055746 -0.09397156 -0.14964727 0.13068616 0.187947 -0.12973508 0.12917976 0.12611586
-0.065296 -0.3068119 0.03975303 -0.448813 -0.27248013 -0.26034415 -0.26554856 -0.15991803
-0.70572126 1.0843482 -0.22322497 -0.014085097 0.28763568 -0.13102545 -0.47470117 0.96067256
0.019662632 0.28384623 -0.09996348 -0.6222418 -0.20587847 -0.1390899 0.48103973 -0.19261394
0.2620641 0.37466693 0.27816945 0.029043246 -0.08501606 -0.13087448 0.38970253 -0.35335952
0.12637487 -0.14243782 -0.05702857 -0.403946 -0.5055883 0.21077295 0.38878116 0.10062144
0.0070829284 -0.027379764 0.7326066 -0.25958586 0.41301766 -0.08378457 -0.115198255 -0.15438177
0.07291812 0.03215259 -0.20863442 0.29868552 -0.00280053 -0.04285874 0.119766176 -0.05304963
-0.09433868 0.008953045 -0.2488864 0.29624218 0.55506945 0.2692106 0.22998565 -0.3355409
-0.37878922 0.30239135 0.4045397 0.005384709 -0.24841705 -0.31654176 -0.47955012 -0.0344646
0.17301908 -0.09881128 0.53339803 0.5197775 0.14265732 0.2760426 -0.157285 -0.2139922
0.16762434 -0.33368593 0.066448115 -0.08861063 -0.13435674 -0.30087423 -0.3532632 0.23255616
0.35729766 0.19820675 -0.22704007 0.1659714 0.5869053 -0.40654486 0.21759833 -0.2855717
-0.8066035 0.1873208 -0.20313016 -0.45759228 0.22306141 -0.14495124 -0.27578878 0.62378913

rnn.bias_ih_l1 f4 [50]
00000000: 6a04 f43d eef3 d13e 9646 9bbc 869e 2e3c
00000010: d4c1 dd3d e454 593e 1f0c c5be ab8e b43e
00000020: eff6 bdbe 040b eb3d 5bb2 2cbc c9f2 5dbe
00000030: e364 2ebe d7e5 06bd f53b 873e 2c27 70bd
00000040: 66af 383d 15b1 ec3d 82d9 c43d aa1f 6fbd
00000050: 0bcc b53e c67e 38be 639a 2fbe 2d45 75be
00000060: c789 473e b607 df3e b787 7d3e 03d0 d2bd
00000070: c5ce 143e 211d 97be ff97 39be b81b 743e
00000080: b0d7 debd 1ff9 513d e7a1 013e 8551 4ebf
00000090: 8f7e fcbc 33a0 0abf 756b b7be be97 c7be
000000a0: fe68 81be 8809 8f3e 67ee 7fbb be67 62be
000000b0: b007 f6be 5a69 9ebd 4f6e 0a3e a1e1 2cbd
000000c0: aeaf 6c3e fc5b e33e
0.119149044 0.41006416 -0.018954556 0.010657912 0.108279854 0.2122379 -0.3848581 0.35265097
-0.37102458 0.114767104 -0.01054057 -0.21674646 -0.17030673 -0.032934036 0.2641293 -0.058631107
0.045089148 0.11557213 0.09611799 -0.058379807 0.35507235 -0.1801711 -0.17148738 -0.2395217
0.19486152 0.4356057 0.24758802 -0.10293581 0.14532001 -0.2951441 -0.18124388 0.23838699
-0.10880983 0.05126297 0.12659417 -0.8059314 -0.030822067 -0.54150695 -0.3582417 -0.38982958
-0.25275415 0.2793696 -0.003905201 -0.22109887 -0.4805274 -0.07734938 0.13518642 -0.042207364
0.23113891 0.44406116

rnn.bias_hh_l1 f4 [50]
00000000: 7a4d a23e f129 453e 8642 e3bd ab6c b33d
00000010: 93d6 113d 382d 47bd e1c9 97be 31d0 a73e
00000020: 41aa 16bf b44a 1a3e 1ee1 3fbe d55d 04be
00000030: 68d6 acbd b8ce 61bd 7856 453e 4987 90bb
00000040: 13fe bf3c f430 27bd b7b5 c93c c738 1c3c
00000050: 20f7 b13e e445 b23b 5b7a 5ebe ea2a 87be
00000060: dee4 983d 5639 fa3e a144 7d3d 39e1 fabd
00000070: 3a46 3fbd 3977 aabe e6ce 8abe e1f7 d73d
00000080: 84c8 99bd f217 34bd fbfb 823e 1d64 2cbf
00000090: dbec 39be 271b 00bf 76ad f9bd 86ff 17be
000000a0: a553 dcbd 7bc9 7f3e 8c15 9f3d 3ae6 05be
000000b0: 8634 95be b02f 75bd a5a5 123e 3b52 4d3d
000000c0: 248b 9a3d 5aa5 0e3f
0.31699735 0.1925428 -0.11096673 0.08760961 0.035605025 -0.04862711 -0.2964621 0.32776025
-0.58853537 0.1506756 -0.18738219 -0.12926419 -0.08439332 -0.055128783 0.19271266 -0.0044106585
0.023436582 -0.04081817 0.024622781 0.009535021 0.34758854 0.0054404605 -0.21726362 -0.26399928
0.07465528 0.4887187 0.061833028 -0.12249989 -0.046697833 -0.33294085 -0.27110976 0.10545326
-0.075089484 -0.04396815 0.2558287 -0.6734026 -0.1815676 -0.5004143 -0.12191288 -0.14843568
-0.107581414 0.24979202 0.077677816 -0.13076106 -0.29141635 -0.05985993 0.14321001 0.05012725
0.0754607 0.55721056

fc.weight f4 [1, 50]
00000000: 09d7 efbc b439 04bc c7ba f93b 587c 0a3d
00000010: 4e0f e1bc 5b42 efbc c00f a73d 8a9a 9fbd
00000020: 8022 1abe ff99 97bd ef9b 3cbd 2e55 ef3d
00000030: 4a22 f9be 92e6 073e 2620 ae3d 0b55 a53d
00000040: 71e6 a0bd 24ed 313d d1e1 f53c 0b07 f33d
00000050: 4cbd 013e b5d9 d6bc e2e9 b63d 8218 5ebc
00000060: bce0 e1bc 2ca7 d73d dd02 e0bd 85fd 2f3d
00000070: c7d3 33bd 1b79 c7bd 02d9 cdbc 5f69 46be
00000080: ad45 2ebd fc58 c63c be57 03bd 00dc a03d
00000090: 3a98 49be d5c6 953d 2211 083e 2b3f 6dbd
000000a0: 6cca e03d c4c4 11be 9369 a43d 23ac f4bd
000000b0: 3e76 2abe a6df 1bbc 19a2 d13e 2b52 df3d
000000c0: dcb2 c8bc ae66 0f3d
-0.029277341 -0.008070398 0.0076211425 0.03380999 -0.027473118 -0.029206445 0.08157301 -0.07793148
-0.15052223 -0.07402419 -0.046047147 0.116861686 -0.48658973 0.1327155 0.085022256 0.08072861
-0.07856453 0.043439046 0.030014904 0.11866578 0.12669867 -0.026226858 0.08931328 -0.013555648
-0.027572982 0.105299324 -0.10938046 0.042966384 -0.04390314 -0.09739896 -0.025127891 -0.19376133
-0.042546917 0.024212353 -0.0320661 0.07854462 -0.19686976 0.07313315 0.13287786 -0.05792157
0.10976109 -0.14235216 0.08027949 -0.11946895 -0.16646668 -0.009513771 0.40943983 0.10904344
-0.02449935 0.035010032
