Networks/EOSBTC/bidSeed2.pt (torch, 33123 bytes, 9 tensors)

rnn.weight_ih_l0 f4 [50, 1]
0	0x3f77f685	0.96860534
1	0x3d2a2d3c	0.041547045
2	0xbf5a3115	-0.85231143
3	0xc0a99864	-5.2998524
4	0x3f4f4b70	0.80974483
5	0xbf9f2202	-1.2432253
6	0x3f44aac8	0.7682309
7	0xbd8467e8	-0.06465131
8	0xc02484b4	-2.5705996
9	0xbee7ed2b	-0.45298132
10	0x3d655cad	0.055996586
11	0x40539ed4	3.306569
12	0x3d2a313f	0.04155087
13	0x404cb20c	3.198367
14	0x3fefc2e7	1.8731354
15	0x3f9d2b74	1.2278886
16	0xbea9e3da	-0.3318165
17	0x3f72745e	0.9470881
18	0xbe8898e4	-0.26679146
19	0x3e9183c3	0.2842084
20	0x40315713	2.7709396
21	0xbe66c9da	-0.22537938
22	0xbf78a8ee	-0.97132766
23	0xbf9fdf18	-1.2489958
24	0x4011e375	2.2795079
25	0xbfc3d61e	-1.5299718
26	0x3ee98059	0.45605734
27	0x3fcb725a	1.5894272
28	0x3f51ee9c	0.82004714
29	0x3f651b3d	0.8949469
30	0xbf34f975	-0.7069314
31	0xbfa5053c	-1.2892222
32	0xbffa32dc	-1.9546771
33	0x3ece02aa	0.40236408
34	0xbfd8166c	-1.6881843
35	0x3fffbe2a	1.9979908
36	0xbd9ff97d	-0.07811258
37	0xbdb61a95	-0.08891789
38	0x3f1f5de8	0.62252665
39	0xbf8df281	-1.1089631
40	0x3e5ea0b9	0.21740998
41	0x400d085a	2.2036347
42	0xbea1942f	-0.31558368
43	0xc04aea19	-3.1705382
44	0x403be245	2.9356854
45	0xbe36e8c5	-0.17862232
46	0xbed1dc10	-0.40988207
47	0x3eb15204	0.34632885
48	0x3f7dfd50	0.9921465
49	0xc00e7869	-2.2260993

rnn.weight_hh_l0 f4 [50, 50]
0	0xbe983e46	-0.2973501
1	0xbe5840b3	-0.21118431
2	0x3f0a9ffe	0.5415038
3	0xbe288fc0	-0.16461086
4	0xbeaf821b	-0.3427895
5	0xbe88551b	-0.2662743
6	0xbf09877c	-0.5372236
7	0x3c577386	0.0131501015
8	0x3e5d2720	0.21596956
9	0x3f29189d	0.6605318
10	0x3ed4c941	0.41559795
11	0x3f12132a	0.5706049
12	0x3f1c6c76	0.61103
13	0xbeabfbe4	-0.33590615
14	0xbed4be60	-0.41551495
15	0x3eeb664c	0.45976484
16	0x3e7943a5	0.2434221
17	0xbf5fc8a1	-0.8741551
18	0xbf0c60f3	-0.5483543
19	0x3f32d1e5	0.69851524
20	0x3e7d114b	0.24713628
21	0xbe9826ba	-0.29717046
22	0xbdff7a1b	-0.12474462
23	0x3e8ed545	0.27897087
24	0x3f9dbd31	1.2323362
25	0xbea28853	-0.31744632
26	0xbe8ab25a	-0.27089196
27	0xbeb1ff67	-0.3476517
28	0xbea70577	-0.32621357
29	0x3ec96b26	0.3933956
30	0x3f05c852	0.5225879
31	0xbeee0046	-0.46484584
32	0xbf04a757	-0.5181784
33	0x3ea65d00	0.32492828
34	0xbe481504	-0.19539267
35	0xbf62cbfe	-0.8859252
36	0xbdc6d917	-0.09709375
37	0xbe627f97	-0.22118984
38	0xbe9bb7b0	-0.3041358
39	0x3d8e49d1	0.06947673
40	0x3f95d822	1.1706583
41	0xbe4b6014	-0.1986087
42	0x3d081b15	0.033228952
43	0x3dc3bff7	0.09558099
44	0xbefbdb11	-0.49190572
45	0x3f9a8494	1.207171
46	0xbc119f93	-0.008888143
47	0xbee9eaeb	-0.4568704
48	0xbed33384	-0.4125024
49	0x3eaa457b	0.33256134
50	0xbe3d3828	-0.18478453
51	0x3f5bb10f	0.85817045
52	0xbd2881e5	-0.041139502
53	0x3ed1a0f5	0.40943113
54	0x3e209dc1	0.15685178
55	0xbec3907b	-0.38196167
56	0xbde7d107	-0.11319166
57	0x3f35e9e3	0.7106001
58	0xbf8a6c48	-1.0814295
59	0xbf5d8b8a	-0.86541045
60	0x3e465ae0	0.19370604
61	0x3e4f1ad9	0.20225085
62	0xbf63e8c8	-0.8902707
63	0xbea37aef	-0.31929728
64	0x3de960e7	0.11395436
65	0xbdddff61	-0.10839725
66	0x3cd0838a	0.025453348
67	0xbe0f1b81	-0.13975336
68	0x3eaa9b7f	0.3332176
69	0xbd25fe59	-0.040525768
70	0xbf181ac6	-0.59415853
71	0x3f132e98	0.5749297
72	0x3eae270c	0.34014165
73	0x3ecf804a	0.40527564
74	0x3e03cb26	0.12870464
75	0xbef3baef	-0.47603557
76	0xbed2f45c	-0.41202056
77	0x3bad32dd	0.0052856044
78	0xbdb99cf7	-0.09063142
79	0xbf6175a2	-0.8807012
80	0x3d3833d9	0.04497132
81	0x3df06133	0.11737289
82	0xbe0a4510	-0.13502908
83	0x3dc5279b	0.09626695
84	0xbf25288b	-0.6451499
85	0xbd380845	-0.04492976
86	0x3e654980	0.2239132
87	0xbe308dc9	-0.17241587
88	0xbca3f272	-0.020013068
89	0x3e097973	0.13425235
90	0x3e7c177e	0.24618337
91	0xbe957483	-0.29190454
92	0x3d23ef45	0.040023107
93	0xbdb72994	-0.08943477
94	0xbbf87b47	-0.007583055
95	0x3d53b3c1	0.0516851
96	0xbf56e2bb	-0.83939713
97	0xbea021c3	-0.31275758
98	0x3f3fdc1f	0.74945253
99	0x3de4b427	0.11167174
100	0xbf0821d8	-0.5317664
101	0x3eb8ca24	0.3609172
102	0xbf255208	-0.64578295
103	0xbed9885d	-0.4248685
104	0xbf323247	-0.6960797
105	0xbe3267a9	-0.17422356
106	0xbf50f06b	-0.8161685
107	0x3cac6862	0.021045867
108	0x3e926951	0.28595975
109	0xbeddc32e	-0.43312973
110	0xbecc3663	-0.39885244
111	0x3f064bc5	0.52459365
112	0x3dc331d0	0.09530985
113	0xbf162cb1	-0.58661944
114	0x3f5060b2	0.81397545
115	0x3f7fa3ac	0.9985912
116	0x3f41bd0b	0.7567908
117	0xbf43604a	-0.763188
118	0xbd849a8b	-0.06474789
119	0x3cece067	0.028915597
120	0x3ebb6caa	0.36606342
121	0x3d8486dd	0.06471036
122	0x3e95318b	0.2913936
123	0x3fa0a66f	1.2550792
124	0xbe027d84	-0.12743193
125	0xbea64348	-0.32473207
126	0x3e23a8cb	0.15982358
127	0xbf4c3c0e	-0.79779136
128	0xbf1338fb	-0.5750882
129	0xbeb2dc4b	-0.34933695
130	0x3f30c34e	0.6904801
131	0xbf3cd584	-0.737633
132	0x3e8e650b	0.27811465
133	0x3f27c79d	0.6553896
134	0xbe38f802	-0.18063357
135	0xbfd18381	-1.6368257
136	0xbecc677a	-0.39922696
137	0x3f90abfd	1.1302487
138	0x3ef9110f	0.48645827
139	0xbeec1805	-0.46112075
140	0x3efea969	0.49738625
141	0xbe8f98ed	-0.2804636
142	0x3f87dd15	1.0614344
143	0x3ec7503b	0.38928398
144	0xbf297621	-0.66195875
145	0xbeae9787	-0.3409998
146	0xbd3917a5	-0.045188565
147	0xbeca809a	-0.3955124
148	0x3e1fcf4a	0.15606418
149	0x3e81d2f2	0.2535625
150	0xbf9748a9	-1.1819049
151	0x3f32654f	0.69685835
152	0xbd3f9210	-0.046770155
153	0x3e3ec824	0.18631035
154	0xbdcc9afa	-0.09990497
155	0xbe91c176	-0.2846791
156	0xbeb7121b	-0.35756
157	0xbf563839	-0.8367954
158	0xbdb1c4bc	-0.08680102
159	0x3db3fc22	0.08788325
160	0xbda32dde	-0.07967733
161	0xbed07876	-0.40716904
162	0x3ed0c728	0.40776944
163	0xbfb2bdea	-1.3964207
164	0x3e2787d0	0.16360402
165	0xbed04276	-0.40675706
166	0xbe3ae4ee	-0.18251392
167	0xbef61b5f	-0.48067757
168	0x3e822a87	0.2542307
169	0xbda8aa64	-0.082356244
170	0xbf11d802	-0.56970227
171	0x3ea3e4a5	0.3201038
172	0x3d67b416	0.056568228
173	0x3ec863c6	0.3913862
174	0x3e412f2b	0.1886565
175	0x3e1c7089	0.15277304
176	0xbd064abe	-0.032786123
177	0xbf751ba2	-0.9574529
178	0xbda13d4b	-0.07873019
179	0xbf8a286a	-1.0793583
180	0x3f1cd27c	0.61258674
181	0xbf851ace	-1.0398805
182	0x3f2feb8a	0.6871878
183	0xbe852613	-0.2600561
184	0x3e91aacb	0.28450617
185	0xbf96d97a	-1.1785119
186	0x3e57ada4	0.21062332
187	0xbf02415e	-0.5088099
188	0x3e9291e7	0.2862694
189	0xbe11c00c	-0.14233416
190	0x3f0c9c3e	0.54925907
191	0xbe8d1da2	-0.2756167
192	0x3f5e97bd	0.86950284
193	0x3ec36a0f	0.38166854
194	0xbfce8e3b	-1.6137155
195	0xbf0f9084	-0.5607989
196	0xbe8071ff	-0.25086972
197	0x3e19cf0a	0.15020385
198	0x3f09ef3c	0.5388067
199	0xbe8b1bcd	-0.27169648
200	0xbe219da5	-0.15782793
201	0x3e3665d2	0.17812279
202	0x3e36fcb4	0.17869836
203	0x3f2fc698	0.68662405
204	0x3f46b4ef	0.7761983
205	0x3eac73d1	0.3368211
206	0x3f7e4399	0.99321896
207	0xbf238f90	-0.63890934
208	0xbf1ed815	-0.62048465
209	0x3ec3e0df	0.382575
210	0xbeab4ae0	-0.33455563
211	0xbf869901	-1.0515443
212	0x3d2660ff	0.040619846
213	0x3d6e386c	0.058159277
214	0xbeff31f1	-0.4984279
215	0xbf1647c8	-0.5870328
216	0xbf92fe2c	-1.1483817
217	0xbec9654e	-0.39335102
218	0x3d967bc9	0.07347829
219	0xbfbcafcc	-1.4741149
220	0xbe3ab8d0	-0.18234563
221	0x3e841503	0.2579728
222	0xbedaa638	-0.4270494
223	0xbf2347ad	-0.63781244
224	0x3f15eed6	0.5856756
225	0x3f2b6ef5	0.6696618
226	0x3de057ba	0.109542325
227	0xbe5d5ebf	-0.21618174
228	0x3f45b164	0.772238
229	0xbea5d5ee	-0.32389778
230	0x3e7083bc	0.23487753
231	0x3eaa1dfb	0.33225998
232	0x3eb7eb96	0.35921925
233	0xbe791035	-0.24322589
234	0x4026a366	2.603723
235	0xbf4b0c1b	-0.79315346
236	0x3f96c22a	1.1778004
237	0xbe24e493	-0.16102819
238	0xbe414a0f	-0.18875907
239	0x3d46492c	0.048409626
240	0x3daaae65	0.08334044
241	0xbee3be72	-0.44481236
242	0x3d05710d	0.032578517
243	0x3f08c54a	0.5342604
244	0xbdff8d45	-0.12478117
245	0x3d8c70fb	0.06857487
246	0xbd39ca92	-0.0453592
247	0x3f339a1f	0.70157045
248	0x3eb55544	0.35416615
249	0x3e418684	0.1889897
250	0xbf467339	-0.77519566
251	0xbd2ee1d3	-0.04269583
252	0x3fa21e50	1.2665501
253	0x3f0a1509	0.5393835
254	0xbee43942	-0.44574934
255	0xbe529201	-0.20563509

rnn.bias_ih_l0 f4 [50]
0	0xbdf20c1c	-0.11818716
1	0xbf0bf629	-0.54672486
2	0x3eb997d9	0.36248663
3	0xbedf8eb7	-0.4366357
4	0xbf22d518	-0.63606405
5	0xbe90568e	-0.28191036
6	0xbf0668f5	-0.525039
7	0xbf131e13	-0.57467765
8	0xbd6686ec	-0.056281015
9	0x3f4ff99d	0.81240255
10	0x3eea71bc	0.45789897
11	0x3de74b1b	0.11293622
12	0x3f0178f3	0.5057518
13	0x3e2509b3	0.16116981
14	0x3eb63345	0.3558599
15	0xbe354bf5	-0.17704757
16	0x3f247716	0.6424421
17	0x3e2cdc4c	0.16880912
18	0xbee6cc84	-0.45077908
19	0x3f1b41dd	0.60647374
20	0x3ec0135a	0.37514764
21	0xbf131378	-0.5745158
22	0xbf35308e	-0.70777214
23	0xbd26d375	-0.040729005
24	0xbd61d1f3	-0.055131864
25	0x3ed57264	0.41688836
26	0x3e6e86db	0.23293631
27	0x3e630269	0.22168888
28	0xbf0e086d	-0.55481607
29	0x3ef59d6e	0.47971672
30	0xbed7fbc7	-0.42184278
31	0x3aa55083	0.0012612495
32	0xbf13bb18	-0.5770736
33	0x3e263aa8	0.16233313
34	0x3e26cd63	0.16289286
35	0x3e90d99a	0.28291017
36	0xbf12be6e	-0.5732182
37	0xbeec8321	-0.46193793
38	0x3e9589b7	0.2920663
39	0x3e760aac	0.24027508
40	0x3e849a37	0.25898907
41	0xbd66e3be	-0.056369536
42	0x3ead0823	0.3379527
43	0xbe3ad5fa	-0.18245688
44	0xbe62e8bd	-0.22159095
45	0x3eff68f6	0.49884766
46	0x3f0dc711	0.55381876
47	0xbea3a69e	-0.31963056
48	0xbf3b4618	-0.7315383
49	0x3e9fb712	0.3119436

rnn.bias_hh_l0 f4 [50]
0	0xbbaa3b8b	-0.0051950864
1	0xbf0f234d	-0.5591324
2	0x3e2078c0	0.15671062
3	0xbf0c720b	-0.54861516
4	0xbf377e05	-0.71676666
5	0xbe00d716	-0.12582049
6	0xbf1578c8	-0.5838742
7	0xbefe3b00	-0.49654388
8	0x3cb71560	0.02234906
9	0x3f372f65	0.71556693
10	0x3ebc1912	0.36737877
11	0x3e08fa1e	0.13376662
12	0x3f042c79	0.5163036
13	0x3ece8e00	0.40342712
14	0x3e9f6720	0.31133366
15	0x3c6caef4	0.014446009
16	0x3f08b13e	0.5339545
17	0x3e661575	0.22469123
18	0xbebf5f10	-0.37377214
19	0x3f1b901f	0.60766786
20	0x3e253b3c	0.16135877
21	0xbf03c24b	-0.5146834
22	0xbf53af81	-0.8268967
23	0x3c64188b	0.013921867
24	0xbe43100f	-0.19049095
25	0x3e1c7f24	0.15282875
26	0x3ed63b15	0.4184195
27	0x3eb7ed1b	0.35923085
28	0xbf18fad7	-0.5975775
29	0x3eb87745	0.36028495
30	0xbeef0268	-0.46681523
31	0x3e3eafcf	0.18621753
32	0xbef22e3f	-0.47300908
33	0x3ed779d4	0.42085135
34	0x3e8ac0ed	0.27100316
35	0x3e1a2ce9	0.15056194
36	0xbf4ad5a0	-0.79232216
37	0xbe844b7b	-0.25838837
38	0x3e6525a5	0.22377641
39	0x3db1ec54	0.08687654
40	0x3eabb15a	0.33533746
41	0xbd4c7e29	-0.049925003
42	0x3e5519bf	0.20810603
43	0xbd4a6ed6	-0.049422108
44	0xbe4f2c1a	-0.20231667
45	0x3f00ce12	0.5031444
46	0x3f04bc52	0.51849854
47	0xbf13b5bb	-0.57699174
48	0xbf1b5701	-0.6067963
49	0x3eed340c	0.4632877

rnn.weight_ih_l1 f4 [50, 50]
0	0xbe8d1f21	-0.27562812
1	0x3f104c64	0.5636656
2	0x3e88ce01	0.26719669
3	0xbdfbe75d	-0.122999884
4	0xbe9d1663	-0.30681142
5	0xbe7bddb3	-0.2459629
6	0xbe211f1f	-0.15734528
7	0x3f065dc5	0.5248683
8	0x3defe651	0.11713851
9	0xbee9c7b3	-0.4566017
10	0x3e916488	0.28397012
11	0x3e2176b4	0.15767938
12	0xbf0065f5	-0.50155574
13	0xbd344b05	-0.044016857
14	0xbd888f0e	-0.066679105
15	0x3f4e110f	0.8049478
16	0xbe86c619	-0.26323012
17	0x3e99c60c	0.3003391
18	0x3ed52b10	0.41634417
19	0xbe3ad635	-0.18245776
20	0xbe67c9fd	-0.22635646
21	0x3f077457	0.52911896
22	0x3f019c08	0.5062871
23	0x3f2119d6	0.6293005
24	0x3f5720aa	0.84034216
25	0xbe6cc4ae	-0.23121902
26	0xbef4efd6	-0.4783923
27	0xbe6ced69	-0.2313744
28	0xbdf7879f	-0.120864145
29	0xbf0d7a2a	-0.5526453
30	0x3df6ba54	0.12047258
31	0x3dd63af4	0.10460463
32	0xbef8210a	-0.48462707
33	0x3e3de4d3	0.18544321
34	0xbeea9dc1	-0.45823482
35	0xbe5ba621	-0.21450092
36	0xbca12f96	-0.019676011
37	0x3d684da2	0.05671466
38	0x3eec590b	0.46161684
39	0xbd5ae791	-0.053443495
40	0x3d00bb8d	0.031428862
41	0x3e8b5a0a	0.27217132
42	0xbe70c300	-0.23511887
43	0xbecc7f88	-0.3994105
44	0xbe82e393	-0.2556425
45	0x3d896a49	0.067097254
46	0xbf0c7f27	-0.5488152
47	0xbe217889	-0.15768637
48	0x3ec70691	0.38872197
49	0xbe9e01b6	-0.3086068
50	0x3f114045	0.5673869
51	0xbe872a6c	-0.26399553
52	0x3e09c73b	0.13454907
53	0xbef014b3	-0.46890792
54	0x3f387515	0.72053653
55	0xbe56c4fb	-0.2097358
56	0x3e858a34	0.26082003
57	0xbe9a426f	-0.3012881
58	0xbd18abb7	-0.037273135
59	0x3cd2c920	0.02573067
60	0x3ed76aaa	0.42073566
61	0x3fa62db1	1.2982694
62	0x3efa94ba	0.48941594
63	0x3e9f72b8	0.3114221
64	0x3e2af5cd	0.16695328
65	0x3ecc63e2	0.39919955
66	0xbf34841c	-0.7051408
67	0xbdfdb38c	-0.123877615
68	0xbdf12305	-0.117742576
69	0xbd142ccd	-0.036175538
70	0x3f4bf5f0	0.79672146
71	0xbf03515f	-0.5129604
72	0xbefc20f0	-0.4924388
73	0x3e45c127	0.19311963
74	0x3f6d254c	0.92635036
75	0x3ed3e7c7	0.4138777
76	0x3eeacf94	0.45861495
77	0x3f14d3cb	0.5813567
78	0x3f0b8b44	0.5450938
79	0x3f28ac64	0.6588805
80	0xbecd04c5	-0.400427
81	0x3f368bc6	0.7130703
82	0xbebd9f81	-0.37035754
83	0xbf50fdf6	-0.81637514
84	0x3e9df6b6	0.30852288
85	0x3e966267	0.2937195
86	0x3f38de2c	0.7221401
87	0xbf6066ad	-0.8765667
88	0x3f5e790f	0.8690347
89	0xbdc3aca3	-0.09554412
90	0xbeca5b85	-0.3952295
91	0x3f2e2699	0.68027645
92	0xbd6c4d62	-0.057690986
93	0x3dbe9335	0.09305421
94	0x3e49bcae	0.19700882
95	0xbe67d851	-0.22641112
96	0x3eaf6da6	0.34263343
97	0x3e8b0050	0.27148676
98	0xbec94796	-0.39312428
99	0x3eff1df8	0.49827552
100	0xbc82d1a2	-0.015969101
101	0xbe319626	-0.17342433
102	0x3d8c241a	0.06842823
103	0x3d16f2e7	0.036852743
104	0x3f2e2cfb	0.68037385
105	0x3f01819a	0.5058838
106	0x3e9a0fa2	0.30090052
107	0xbf271795	-0.6527036
108	0xbe72e008	-0.23718274
109	0xbe80cf04	-0.2515794
110	0xbec308d9	-0.38092688
111	0x3fad620e	1.3545549
112	0x3ee9319e	0.45545667
113	0x3f0d9540	0.5530586
114	0x3fd745e7	1.6818208
115	0x3f35fa3c	0.7108495
116	0x3d835a87	0.06413751
117	0x3f0c0d4a	0.5470778
118	0xbea99ceb	-0.3312753
119	0xbc874327	-0.016511513
120	0x3fa34125	1.2754256
121	0xbed9cb47	-0.425379
122	0xbf2ec5f3	-0.68270797
123	0xbd4ba76f	-0.049720224
124	0xbe9b96a9	-0.30388382
125	0x3f22b6ca	0.63560164
126	0x3f64f413	0.8943493
127	0xbdf350ee	-0.118806705
128	0x3e0c3c71	0.13694932
129	0x3ea3cf7e	0.3199424
130	0xbf4493df	-0.76788133
131	0xbf6b79a8	-0.9198251
132	0x3e91de30	0.28489828
133	0x3f2fbf57	0.68651336
134	0xbe4a6234	-0.19764024
135	0x3f9dd6a6	1.233113
136	0x3eb73f10	0.357903
137	0x3f007382	0.5017625
138	0x3f8d9f82	1.1064303
139	0xbfb806b0	-1.4377041
140	0xbf3716f2	-0.71519387
141	0x3f44b879	0.7684398
142	0x3de2e1ce	0.11078225
143	0x3f336479	0.70075184
144	0x3f2d68e4	0.67738175
145	0xbf419544	-0.75618386
146	0x3d790728	0.06079784
147	0x3f015558	0.5052085
148	0xbe9e74d8	-0.3094852
149	0x3dd5b6bc	0.104352444
150	0x3e88a77f	0.2669029
151	0xbed230b4	-0.41052783
152	0xbd75efe4	-0.06004323
153	0x40aecc6f	5.4624553
154	0xbd04b9cb	-0.03240375
155	0x3d0d3508	0.034474403
156	0xbdef8f3d	-0.116972424
157	0xbdf75cda	-0.12078257
158	0x3e6d2f4d	0.23162575
159	0x3f11e358	0.56987524
160	0xbd49d5be	-0.049276106
161	0x4096431c	4.695692
162	0x3f0e6bce	0.55633247
163	0x3dcf615c	0.10125992
164	0x3de36d9b	0.1110489
165	0xbecb0374	-0.39651072
166	0xbdddf870	-0.10838401
167	0x3e9ccc4a	0.3062461
168	0xbf1e9f62	-0.6196195
169	0x3f0eb408	0.55743456
170	0xbe2478c3	-0.16061692
171	0xbf14a2d9	-0.58060986
172	0xbe723319	-0.23652305
173	0xbc41ad2f	-0.011821075
174	0x3e881a12	0.2658239
175	0x3c825869	0.015911298
176	0x3e8142d5	0.252463
177	0x3edec57f	0.43510053
178	0x3e733349	0.23750032
179	0x3f1fe866	0.62463987
180	0xbdccd4d1	-0.10001529
181	0x3e8690d2	0.26282364
182	0x3e21c5f1	0.15798165
183	0xbeae1f68	-0.34008336
184	0x3eb03f5e	0.34423345
185	0x3f147aef	0.5800008
186	0xbde43b9e	-0.111441836
187	0xbe7f3c00	-0.24925232
188	0xbee4f202	-0.44715887
189	0xbe9b5f35	-0.30346075
190	0xbce6982f	-0.028148739
191	0xbea1d142	-0.31604964
192	0x3f240d86	0.64083135
193	0x3f024412	0.5088512
194	0x3df98259	0.12183065
195	0x3e2990f9	0.16559209
196	0x3f1fab0c	0.6237037
197	0x3e4344c9	0.19069208
198	0xbe9ee054	-0.31030524
199	0x3ea206a5	0.31645694
200	0x3f1b6283	0.6069719
201	0xbf1a7f63	-0.60350627
202	0x3f996bec	1.198606
203	0x3d9ef8be	0.077622876
204	0xbec7d208	-0.3902743
205	0xbd4f31f8	-0.050584763
206	0x3e373b7b	0.17893784
207	0xbcc388ba	-0.023868907
208	0x3e082858	0.1329664
209	0x3e9ff8d3	0.31244525
210	0x3cf95e28	0.030440405
211	0x3eaf6eaf	0.34264132
212	0x3f11eafc	0.5699918
213	0x3e950e09	0.2911227
214	0xbddfda78	-0.109303415
215	0x3c84d559	0.016215013
216	0xbdabf6ac	-0.08396658
217	0x3f17b23b	0.59256333
218	0xbf1fbd91	-0.6239863
219	0x3f0b8cea	0.5451189
220	0x3e219410	0.15779138
221	0xbf13c4da	-0.57722247
222	0xbe2578de	-0.16159388
223	0xbeb17c03	-0.34664926
224	0x3cf8bc45	0.030363211
225	0x3d0c47a6	0.034248017
226	0x3e53f57d	0.20699115
227	0x3ec29cb0	0.38010168
228	0x3e9fbf59	0.31200674
229	0x3f1f8879	0.62317616
230	0x3fa964ee	1.3233926
231	0x3d1e86a2	0.038702615
232	0xbf263af9	-0.64933735
233	0xbe37e2f7	-0.17957674
234	0x3dac911a	0.084261134
235	0x3f061f35	0.5239137
236	0x3e846353	0.25857028
237	0xbe952a6e	-0.29133934
238	0xbd7fe38a	-0.062472858
239	0xbe10d937	-0.14145361
240	0xbe15eee9	-0.14641918
241	0xbdee019c	-0.11621401
242	0xbf36ef07	-0.71458477
243	0x3e42a919	0.19009818
244	0x3ec4c302	0.3843003
245	0x3ee46e88	0.4461558
246	0x3e8ac8a8	0.27106214
247	0x3e21e808	0.15811169
248	0xbf0dca18	-0.55386496
249	0x3ef1edea	0.47251827
250	0x3f2253ca	0.634091
251	0xbe93f1d2	-0.28895432
252	0xbef322ea	-0.47487575
253	0x3cdea326	0.027177405
254	0x3f142ef7	0.5788416
255	0x3f061a3c	0.5238378

rnn.weight_hh_l1 f4 [50, 50]
0	0x3f3077d7	0.6893286
1	0xbee85975	-0.4538075
2	0xbe75b498	-0.23994672
3	0xbefa9cdb	-0.48947796
4	0xbed17f37	-0.4091737
5	0xbdb67521	-0.08909059
6	0x3ef2e865	0.47442928
7	0xbeeded44	-0.46470082
8	0x3e96f7ed	0.29486027
9	0xbe38ab2c	-0.18034047
10	0xbebc63fb	-0.3679503
11	0x3f0b50bd	0.5442007
12	0xbf03e00b	-0.5151374
13	0xbf04d44f	-0.5188646
14	0xbd0866b5	-0.033301074
15	0x3e2f669e	0.17128989
16	0x3e7720ad	0.24133559
17	0x3f0cb470	0.54962826
18	0xbebdbf6e	-0.37060112
19	0x3e0aad1b	0.13542597
20	0x3d816623	0.06318309
21	0x3ef1b7ac	0.47210443
22	0xbc9beb69	-0.01903315
23	0xbd8dd1d8	-0.0692479
24	0xbf06b875	-0.5262521
25	0x3eb142fa	0.34621412
26	0xbd36bea2	-0.044615395
27	0x3ceecdc4	0.029150851
28	0x3eacb0e2	0.337287
29	0xbd53121f	-0.051530953
30	0xbe461d28	-0.1934706
31	0xbe26307e	-0.16229436
32	0x3da2586b	0.07927021
33	0x3ee4796b	0.44623885
34	0xbea338c5	-0.3187925
35	0xbd7936cb	-0.06084327
36	0xbecdca35	-0.40193334
37	0xbf178e7b	-0.5920178
38	0x3e9882df	0.29787347
39	0xbe73fd33	-0.23827057
40	0xbec8b03b	-0.39196953
41	0xbf17b0eb	-0.5925433
42	0xbef3a483	-0.4758645
43	0x3e9edb5d	0.31026736
44	0x3d991be4	0.07476023
45	0xbd824149	-0.063601084
46	0x3e13a134	0.14416963
47	0x3d52b98f	0.051446494
48	0xbf0edf15	-0.55809146
49	0x3e8bcd79	0.273052
50	0xbecac34e	-0.3960213
51	0x3f40227a	0.7505261
52	0x3e8d3f93	0.27587566
53	0x3f120e71	0.57053286
54	0x3f02c025	0.5107444
55	0x3e513381	0.20429803
56	0xbeef84c4	-0.4678098
57	0xbe8c825b	-0.27443203
58	0xbeeca082	-0.46216208
59	0x3eae3b4d	0.34029618
60	0x3ef2410d	0.47315255
61	0x3e428f9a	0.19000092
62	0x3ecd3f5b	0.400874
63	0x3eb3452d	0.35013714
64	0x3e59e6b1	0.21279408
65	0xbe29cf9e	-0.16583106
66	0x3e2fe1fa	0.17176047
67	0xbee32920	-0.44367313
68	0x3eb0a697	0.34502098
69	0xbe04fc50	-0.12986875
70	0xbe51b11c	-0.20477718
71	0xbf415eb1	-0.7553511
72	0xbe61219d	-0.21985479
73	0x3daadc0d	0.083427526
74	0x3f0c2e8e	0.54758537
75	0xbeafd206	-0.34339923
76	0xbdfd60f1	-0.12372006
77	0x3dfd6911	0.123735555
78	0xbeccb411	-0.3998113
79	0xbc8bab00	-0.017049313
80	0x3e5bc6b5	0.2146252
81	0x3ef487e3	0.47759923
82	0xbf690d63	-0.9103605
83	0xbedfbed5	-0.4370028
84	0xbde191ae	-0.11014114
85	0x3edf9b7f	0.43673322
86	0x3eb347a3	0.35015592
87	0x3ec532f6	0.38515443
88	0xbf1b339b	-0.6062562
89	0x3f06fbe0	0.5272808
90	0x3f2f6a11	0.6852122
91	0x3da6f708	0.08152586
92	0x3eee1b89	0.46505383
93	0xbf124ea4	-0.57151246
94	0xbe327cea	-0.17430463
95	0x3db42fa6	0.08798151
96	0xbe8bf14b	-0.2733253
97	0xbe4a8b01	-0.19779588
98	0x3efe65e2	0.49687105
99	0xbf0d26d1	-0.55137354
100	0xbea43166	-0.32068938
101	0x3fb8a347	1.4424828
102	0xbe991529	-0.29898956
103	0x3ea6ef95	0.32604662
104	0x3ec78366	0.38967437
105	0xbdd25049	-0.102692194
106	0xbe885698	-0.26628566
107	0x3ebde6ac	0.3709005
108	0xbf075751	-0.5286761
109	0x3d1f8caa	0.038952507
110	0xbe5297a2	-0.20565656
111	0xbe8eacd1	-0.27866223
112	0x3ed98323	0.42482862
113	0x3eb6fbac	0.35738885
114	0x3dd9f604	0.10642627
115	0xbea10f5d	-0.31457034
116	0xbe9de240	-0.30836678
117	0xbe20e3d6	-0.15711913
118	0x3f31bccb	0.694287
119	0x3f3b224d	0.73099214
120	0xbf653e1e	-0.8954791
121	0xbf0340be	-0.51270664
122	0xbec7ad76	-0.38999528
123	0xbb841c21	-0.0040316735
124	0x3e87714a	0.2645362
125	0xbe979d16	-0.29612035
126	0xbee9f5aa	-0.4569524
127	0xbe913313	-0.2835928
128	0xbf2b4294	-0.66898465
129	0x3e5af2c5	0.21381672
130	0xbeb3d54f	-0.3512368
131	0x3dd2be7f	0.102902405
132	0xbf4903f6	-0.7852167
133	0xbeccdf22	-0.40013987
134	0xbe0b2488	-0.13588154
135	0x3eb61681	0.35564044
136	0x3e54dc18	0.20787084
137	0x3e47631c	0.19471401
138	0xbeb97103	-0.36219034
139	0x3de85e46	0.11346106
140	0x3e246075	0.1605242
141	0x3e98bb7f	0.29830548
142	0x3ef41fe1	0.47680572
143	0xbeb8bb2c	-0.360803
144	0xbf21fffa	-0.63281214
145	0xbe373204	-0.17890173
146	0xbe8e4d27	-0.27793238
147	0x3e3d996a	0.18515554
148	0x3f0863f1	0.532775
149	0xbede5605	-0.43425003
150	0xbecc3620	-0.39885044
151	0x3dd2d08d	0.10293684
152	0x3e813509	0.25235775
153	0x3ee9ed8a	0.4568904
154	0x3e7002f4	0.23438627
155	0x3ecc06a5	0.3984882
156	0xbed78c49	-0.42099217
157	0xbc867d27	-0.0164171
158	0xbf0770e9	-0.5290666
159	0x3ed1934b	0.40932688
160	0x3ed7c60e	0.4214329
161	0xbe93fac6	-0.28902262
162	0x3f4d63e6	0.8023056
163	0x3efc6385	0.49294677
164	0x3edc2c88	0.43002725
165	0xbecdc432	-0.40188748
166	0xbf040ca5	-0.51581794
167	0xbf8ccdce	-1.1000307
168	0x3e945b76	0.2897603
169	0xbeb71945	-0.35761467
170	0xbe2957be	-0.16537377
171	0xbec657de	-0.38738912
172	0xbbc17d57	-0.0059048343
173	0xbeb7b39f	-0.35879228
174	0x3e932d0e	0.28745311
175	0xbe6bca2c	-0.23026341
176	0xbe9d3d97	-0.30711052
177	0x3e98cc2d	0.29843274
178	0xbeab543a	-0.33462697
179	0x3e7b285e	0.24527118
180	0x3e2a1b3f	0.16611956
181	0x3e901ceb	0.28147063
182	0xbd568464	-0.05237235
183	0xbec3f5bf	-0.38273427
184	0xbe8de2b1	-0.27712014
185	0x3e875f4d	0.26439896
186	0x3e86dd8a	0.26340896
187	0x3ea15397	0.31509086
188	0xbe5b5c80	-0.21422005
189	0x3ea929e5	0.33039775
190	0x3f02726e	0.50955856
191	0x3ed8e091	0.4235883
192	0x3f134bd4	0.5753758
193	0xbec92b10	-0.39290667
194	0xbe6e3ec8	-0.23266137
195	0xbe057b83	-0.13035397
196	0xbe7fb7c8	-0.2497245
197	0x3edbe49e	0.4294786
198	0x3ef48309	0.47756222
199	0xbe471a77	-0.1944369
200	0xbf2b5fc0	-0.6694298
201	0x3f36b427	0.7136864
202	0x3d9e7efb	0.07739063
203	0x3ede744c	0.43448102
204	0xbc90453f	-0.017611144
205	0xbd240ca1	-0.040051106
206	0xbeae5dd0	-0.34055948
207	0xbbb7e94e	-0.005612529
208	0xbeb54157	-0.35401413
209	0x3d9d4206	0.076786086
210	0x3edce6af	0.43144748
211	0x3e1f4d6f	0.15556882
212	0x3f2298ee	0.635146
213	0x3e9ab659	0.30217245
214	0x3e867ea0	0.26268482
215	0xbe52146a	-0.205156
216	0x3eac8a58	0.33699298
217	0xbebedc59	-0.37277487
218	0x3e32e4bb	0.17470066
219	0xbe91b7f1	-0.2846065
220	0xbdf88f1f	-0.12136673
221	0xbf018a96	-0.5060209
222	0xbe2570cf	-0.16156314
223	0xbf13a41c	-0.57672286
224	0x3eeb7025	0.45983997
225	0xbf15d838	-0.5853305
226	0xbde8cb46	-0.11366896
227	0xbdb92c7a	-0.09041686
228	0xbea7de3b	-0.32786736
229	0xbd18ddf9	-0.037321065
230	0x3e9a6260	0.3015318
231	0x3f010359	0.50395733
232	0xbd4f96e7	-0.05068102
233	0xbe8fd52a	-0.2809232
234	0xbedc71ab	-0.43055472
235	0x3e10e3d6	0.14149413
236	0x3eb783d4	0.35842764
237	0x3f0d4957	0.5519003
238	0xbe593ffd	-0.21215816
239	0x3efeefd8	0.4979236
240	0x3f0e2cd4	0.5553715
241	0x3ee17c1e	0.44040006
242	0x3ed040d3	0.40674457
243	0xbf111ea5	-0.56687385
244	0xbdb59116	-0.088655636
245	0x3da42231	0.08014334
246	0x3e951068	0.2911408
247	0x3f6f143d	0.93390256
248	0x3f04f9b5	0.5194352
249	0xbf19953b	-0.5999333
250	0xbeec7022	-0.461793
251	0x3f01214b	0.50441426
252	0x3ec380ec	0.38184297
253	0x3ea414a8	0.3204701
254	0x3ef8de0d	0.4860691
255	0x3c65d52e	0.014027877

rnn.bias_ih_l1 f4 [50]
0	0xbf3dfc4a	-0.7421309
1	0x3f57dd32	0.8432189
2	0x3efd62a7	0.49489328
3	0x3efbcce5	0.4917976
4	0x3eeac700	0.4585495
5	0x3e999a64	0.30000603
6	0xbdbdc13a	-0.09265371
7	0x3d965ef5	0.0734233
8	0xbed2ea6f	-0.41194484
9	0x3f0bf6d3	0.546735
10	0xbd3fd546	-0.046834253
11	0x3e92e800	0.28692627
12	0x3e6f4844	0.23367411
13	0x3e5c2424	0.21498162
14	0x3df3b15f	0.11899065
15	0xbeb21dac	-0.34788263
16	0x3ed55841	0.41668895
17	0xbe17dc01	-0.14830019
18	0x3e03213f	0.12805651
19	0x3e5174dc	0.20454735
20	0xbea96a2f	-0.33088824
21	0xbf0bc151	-0.5459185
22	0xbe8af789	-0.2714198
23	0xbdb356be	-0.08756779
24	0x3e57c08b	0.21069543
25	0xbe738ba7	-0.23783742
26	0xbf18ca94	-0.5968411
27	0x3eff25cd	0.49833527
28	0xbef03022	-0.46911722
29	0xbe599646	-0.21248731
30	0xbe2bf55a	-0.16792813
31	0x3e2e0f7f	0.16998099
32	0xbda7b51f	-0.08188843
33	0xbd1b2333	-0.037875365
34	0xbf43a1f7	-0.76419014
35	0x3f096d60	0.5368252
36	0x3e4bcd67	0.19902574
37	0x3ea20823	0.31646833
38	0xbf2b8aad	-0.6700848
39	0x3e01c5bd	0.12673087
40	0x3ef9873a	0.48735982
41	0xbcb4cace	-0.022069361
42	0x3e09d7c3	0.13461213
43	0xbf217029	-0.6306177
44	0xbec1edb7	-0.37876675
45	0x3e8e59c1	0.27802852
46	0xbd020594	-0.0317436
47	0xbead3eee	-0.33837074
48	0x3ce98994	0.028507985
49	0xbf0cf522	-0.55061543

rnn.bias_hh_l1 f4 [50]
0	0xbf63a78d	-0.8892754
1	0x3f32b62d	0.6980923
2	0x3ede083f	0.43365666
3	0x3ef8c599	0.48588255
4	0x3eda15ca	0.4259475
5	0x3ea59b05	0.32344833
6	0xbe220c7d	-0.15825076
7	0x3e439bcb	0.19102399
8	0xbeff86b7	-0.49907467
9	0x3eb736bc	0.35783947
10	0xbc07dd44	-0.0082925
11	0x3ea550c8	0.32288194
12	0x3e10465c	0.1408934
13	0x3e6f5950	0.23373914
14	0x3eb6ed6e	0.3572802
15	0xbe763aa9	-0.24045815
16	0x3ecfcbc9	0.40585163
17	0xbeaa1a61	-0.3322325
18	0x3e4618c9	0.19345392
19	0x3e00a5af	0.12563203
20	0xbe758d07	-0.23979579
21	0xbf0856f4	-0.5325768
22	0xbe7e7c28	-0.2485205
23	0xbe84db68	-0.25948644
24	0x3cf618cb	0.03004112
25	0xbef24277	-0.47316334
26	0xbf0a5be2	-0.5404645
27	0x3eac62f3	0.33669242
28	0xbef83fa0	-0.48486042
29	0xbee0b2ca	-0.43886405
30	0xbe80a090	-0.251225
31	0x3e6945b3	0.22780494
32	0xbe0811ff	-0.13288115
33	0xbdf65ac1	-0.12029029
34	0xbf4aa737	-0.791614
35	0x3eeb27cd	0.45928803
36	0x3e6b1e95	0.22960885
37	0x3e949cb5	0.29025808
38	0xbece3921	-0.4027796
39	0x3e810ad6	0.2520358
40	0x3f2856eb	0.65757626
41	0x3e744c2d	0.23857184
42	0xbd6795bc	-0.056539282
43	0xbedbfb8f	-0.4296536
44	0xbeea7d8d	-0.45798913
45	0x3e37b9a3	0.17941909
46	0xbd35b2c8	-0.044359952
47	0xbe5da3e5	-0.21644552
48	0x3e524eef	0.20537923
49	0xbf1fa8c3	-0.62366885

fc.weight f4 [1, 50]
0	0x3e0eeb21	0.13956882
1	0x3eaf321c	0.34217918
2	0x3dedd3f7	0.11612695
3	0x3e32ef4c	0.17474097
4	0x3d4db826	0.050224446
5	0x3d989d5d	0.0745189
6	0xbd1b6253	-0.037935566
7	0xbe881a4c	-0.26582563
8	0x3d86fba8	0.06590968
9	0x3c4f8768	0.012666561
10	0xbdac01ad	-0.08398757
11	0x3d816412	0.06317915
12	0x3d8f0807	0.06983953
13	0x3d4b6e5c	0.049665794
14	0x3d258907	0.040413883
15	0x3d372e3b	0.044721823
16	0x3dc3dc70	0.095635295
17	0xbd88d749	-0.066816874
18	0xbd123bcb	-0.035701554
19	0xbc4f88ae	-0.012666864
20	0xbdbf6e50	-0.09347212
21	0xbee6879d	-0.4502534
22	0x3d708e8a	0.058729686
23	0xbd046707	-0.032324817
24	0xbd2eb100	-0.04264927
25	0x3df72291	0.1206714
26	0xbdf3a360	-0.11896396
27	0x3e86afe1	0.2630606
28	0xbe921c7e	-0.28537363
29	0x3ef7c7e5	0.48394695
30	0xbd87542a	-0.0660785
31	0xbdd2e951	-0.10298408
32	0xbc53be42	-0.012923779
33	0x3f062317	0.5239729
34	0x3d0b0227	0.0339376
35	0x3dfd95cf	0.12382089
36	0xbddcf306	-0.107885405
37	0x3d1e0923	0.038582932
38	0xbe35c685	-0.1775151
39	0x3c814224	0.015778609
40	0x3ce5e6c2	0.028064135
41	0xbf0bb7c9	-0.5457731
42	0xbcc0dcfa	-0.02354287
43	0xbee5fb3c	-0.4491824
44	0x3d7bac6d	0.061443735
45	0x3cd0e5f2	0.025500271
46	0xbf13bbaf	-0.5770826
47	0xbd8b535e	-0.068030104
48	0xbe3d0a10	-0.1846087
49	0xbe0d67c8	-0.1380912
